irony/models/model_32.pt (torch_old, 38823 bytes, 8 tensors)

layers.0.weight f4 [70, 10]
000000 35 6a f6 be 6e a5 4b 3e d6 14 fb 3e 98 93 fd 3d
       -0.48127905 0.19887325 0.49039334 0.12381667
000010 cb 42 b2 be 82 c8 21 be c0 fe 9d 3d 70 e6 ce 3d
       -0.34816584 -0.15799144 0.07714605 0.10102546
000020 54 e7 b6 3d 80 1c 2f bd e9 3a a5 3e bd e7 42 3e
       0.08930841 -0.04275179 0.32271507 0.19033714
000030 e0 78 83 3e ff bc 89 be ff 31 6e be 7c 5c 06 3e
       0.25678158 -0.26902005 -0.2326126 0.13121217
000040 d7 48 a3 3d e5 5a 56 3e 57 37 1d be 01 95 c7 bd
       0.079728775 0.20933111 -0.15353142 -0.09745217
000050 57 a1 47 38 e4 92 84 b9 0d 91 30 b6 78 15 74 b2
       4.7595557e-05 -0.00025286444 -2.6310474e-06 -1.4207551e-08
000060 c3 ab c5 bb 3d 03 cd ab a2 23 17 bc d6 86 41 bc
       -0.0060324385 -1.4567025e-12 -0.009224804 -0.011811933
000070 7f 77 44 39 6c 3a c7 b5 d5 b9 eb 3e c9 2f aa 3c
       0.00018736532 -1.4843658e-06 0.46040216 0.020774739
000080 e0 fd 69 3d 55 d2 85 be d7 9d 04 bf 3f ce 4f 3e
       0.05712688 -0.26137033 -0.51803344 0.2029352
000090 58 cc 84 be 8c 4e 6d 3e 8a f4 8b bd bc 94 d7 bd
       -0.25937152 0.23174495 -0.068337515 -0.10526416
0000a0 fa 92 9a bd 23 5f 59 bd 9c 91 54 bc e9 62 f8 be
       -0.07547565 -0.053069245 -0.012974169 -0.48512962
0000b0 b2 ee 06 3f 16 3f 53 bd 07 e1 94 bd 4d 28 81 bd
       0.5270797 -0.051573835 -0.07269483 -0.06306515
0000c0 38 9a ff bd 1f c9 5c 3e 2e 5d c7 3e b7 44 88 bd
       -0.12480587 0.21561097 0.38938278 -0.06653731
0000d0 87 f8 97 be 9e 63 8e be d0 f9 8d 3e 90 a0 76 3e
       -0.296818 -0.27810377 0.27729654 0.24084687
0000e0 dc 9e e4 bd 04 72 f3 bd 7e 68 20 be 3e 4a 80 3e
       -0.111631125 -0.11886981 -0.1566486 0.25056642
0000f0 50 29 c6 3e 4a b0 9c 3e 66 66 85 be 46 c5 0a bf
       0.38703394 0.30603248 -0.26054686 -0.54207265
000100 c8 d1 23 3d 4e 08 69 bc 6f 13 96 3e 76 18 04 be
       0.039994985 -0.014223171 0.29311702 -0.12899956
000110 84 bb 85 bd df c1 55 3c 60 5d fa 3e ec 22 67 3e
       -0.065299064 0.013046711 0.48899364 0.22571915
000120 d9 09 87 be 55 0d 5b be fd 7a 89 be 65 c0 75 3e
       -0.263747 -0.21391805 -0.26851645 0.23999174
000130 37 b2 4d 3d bb e2 76 bd 9f d9 10 bd eb b5 7f be
       0.050218787 -0.06027482 -0.03536379 -0.2497174
000140 ed ec a6 be bb fc e5 be df 0d ed 3e 6f 08 98 3d
       -0.32602635 -0.4491938 0.46299645 0.074234836
000150 4b de 0c 3e 59 6f 0b be 48 c2 29 be a6 4d 98 3e
       0.13756673 -0.13616695 -0.16578019 0.2974674
000160 14 80 0b be ef e4 ca 3d c1 1e 24 be be 6d 21 be
       -0.13623077 0.09906947 -0.16027357 -0.1576452
000170 57 dd 43 bd 16 6a cd be c5 32 06 3f 10 60 24 b9
       -0.047818508 -0.4012 0.5242122 -0.00015676045
000180 46 22 03 be 3d 14 be bd e3 d8 ec bd 05 89 22 3e
       -0.12806043 -0.09281204 -0.11564805 0.15872581
000190 87 38 d0 3e 3e dc a6 3d ef cb 31 be 79 90 49 bf
       0.40668127 0.081474766 -0.1736295 -0.7873607
0001a0 b9 e5 b3 3e d8 26 03 3e 13 08 06 3d b4 96 41 be
       0.35136202 0.12807786 0.032722544 -0.18905145
0001b0 86 9e 1a bd ef 7e c8 3d 18 0a e4 be f4 a3 43 3e
       -0.037748836 0.09789836 -0.4453895 0.19105512
0001c0 26 a5 0e 3f cb be 4d 3e fb b0 be be 36 8d 25 bd
       0.55720747 0.20092313 -0.372444 -0.040417872
0001d0 37 59 f4 3c 60 ad 09 3e b7 b0 ae 3d 0f aa ff bd
       0.029827697 0.13445044 0.085297994 -0.12483608
0001e0 eb 27 b7 3e 84 04 44 3e 60 8c 00 3e 84 00 71 be
       0.35772642 0.19142348 0.12553549 -0.23535353
0001f0 dc b6 e1 be a3 ec ed 3d 74 d9 20 3e 95 8a 17 3e
       -0.44084823 0.116174005 0.15707952 0.14798959
000200 d3 41 4c bd 0a ee 19 be 24 9e 94 bc c6 34 d1 bc
       -0.049867462 -0.15032211 -0.018141814 -0.02553786
000210 c9 b5 49 bc 78 b7 52 bc d3 ad 4d bd d7 f8 f5 bb
       -0.012311407 -0.012861125 -0.0502146 -0.0075064707
000220 0f ab 27 bd 2f 54 54 bd 3c c9 1c bb d4 bd 36 bd
       -0.04093462 -0.051838096 -0.0023923656 -0.044614628
000230 96 8a 36 be 86 b0 92 be aa 48 e6 3d 8b 8e 18 3f
       -0.17826304 -0.28650302 0.11244328 0.59592503
000240 d6 07 6b be d1 4a 82 bc 24 b3 f4 bd 6b 65 2a 3e
       -0.22952208 -0.015904816 -0.11948231 0.1664025
000250 01 f8 03 3e ee 8f 0d be 9f 4e 11 be 4d af e0 bd
       0.12887575 -0.13824436 -0.14190148 -0.10970936
000260 6f 5f c2 bc 2b 8d cf be 13 f8 fb 3e 8b 71 5d bd
       -0.023727147 -0.4053739 0.49212703 -0.05406336
000270 c2 38 7b bd c9 18 26 be cc 18 17 be 7b 47 19 3e
       -0.061333425 -0.16220392 -0.14755553 0.14968674
000280 9e c1 2e 21 db 56 53 a9 59 ac 63 b9 93 84 63 bb
       5.9209743e-19 -4.6926747e-14 -0.00021712611 -0.0034716472
000290 be a6 ba b9 00 d6 18 af 11 b9 06 bb 60 be 70 ba
       -0.00035600917 -1.3900348e-10 -0.0020557086 -0.00091836415
0002a0 fc a7 f9 b7 eb 9a bb b9 87 fd 8f 3e 53 b5 67 bd
       -2.9761337e-05 -0.00035782842 0.28123114 -0.05656941
0002b0 42 d6 6b 3e 5b f5 ab bd b7 6a ab be ca a4 5a 3e
       0.23030952 -0.08396407 -0.33479854 0.21351925
0002c0 8a d9 ed bd 35 19 86 3e 3c e3 fa 3c 8f 97 20 be
       -0.11613758 0.26191106 0.030625932 -0.15682815
0002d0 8f 44 15 3f 2e 38 15 3e e3 8c e2 be 51 36 30 be
       0.5830774 0.14572212 -0.44248113 -0.1720822
0002e0 d2 c3 99 be 34 95 65 3e 71 95 11 be d3 58 b6 bd
       -0.30032212 0.22420198 -0.14217164 -0.089036606
0002f0 88 21 a4 3c cb f7 c1 bd 2f 14 c8 be 2c 07 be 3e
       0.02003552 -0.09471091 -0.390779 0.37114847
000300 d4 73 b5 3e bc fb 70 3d 08 0c d2 be 94 54 0c be
       0.35439932 0.058833823 -0.41024804 -0.13704139
000310 92 21 20 3e a5 67 99 3d b1 c8 88 bd c1 5b cb bd
       0.15637806 0.07490472 -0.06678904 -0.0992961
000320 ed 50 74 3e c6 cb 44 3e f8 7c 86 3e 9b 9d b0 be
       0.23858996 0.19218358 0.2626722 -0.34495243
000330 73 36 bf be 2c f8 f6 3d 86 be a5 3c af 88 30 3e
       -0.3734623 0.12059054 0.02023245 0.1723964
000340 ef 86 87 be 1c 22 f3 bd 7e a8 be bd a2 e8 3a bd
       -0.26470134 -0.1187174 -0.09309481 -0.045632012
000350 49 00 68 3c 5c a8 fb be 6a c0 0d 3f 9a 0e 13 bd
       0.014160224 -0.49151886 0.55371726 -0.035902597
000360 4e ea 88 bd 0c 2d 14 bd af d6 f7 bd 14 bf 3c 3e
       -0.06685315 -0.036175773 -0.121014945 0.18432266
000370 0f d8 33 be 77 66 ca 3e d8 68 1e 3d ae 02 29 bf
       -0.17562889 0.395313 0.038674206 -0.66019714
000380 d7 12 a3 3e 84 8a 57 be 0f d7 8a 3e 15 01 34 bd
       0.3185031 -0.21048933 0.27117202 -0.043946344
000390 ed be 5b bc d4 73 19 3d 15 e4 62 be 6f cc 30 be
       -0.0134122195 0.037463978 -0.22157319 -0.17265485
0003a0 ec 7f 8e bc f2 00 98 be be 93 f5 3e 70 6c e0 bd
       -0.017394982 -0.2968822 0.4796428 -0.10958183
0003b0 c8 d3 8c bd be 32 0f bd 90 b9 3b be 51 ba 50 3e
       -0.068763316 -0.0349605 -0.18332505 0.20383574
0003c0 c8 74 b5 be f1 7d 1d 3f 75 43 d6 bc 45 81 0f 3e
       -0.3544066 0.61520296 -0.026155213 0.14014156
0003d0 89 97 ef be 2c 73 c6 3a d6 00 32 3e f8 e2 57 be
       -0.467953 0.0015140525 0.17383131 -0.21082675
0003e0 09 fa 37 3e 9e f6 51 bd 93 79 cb bd 72 b9 a4 be
       0.17966475 -0.051260583 -0.09935298 -0.32172734
0003f0 34 8d 0b be 51 69 b2 3e 0a a3 a1 3e cd 3b 6c be
       -0.13628083 0.34845975 0.315697 -0.23069687

layers.0.bias f4 [70]
000000 f0 b3 db bc 9d 59 c5 3c 81 58 91 bd 18 4a bf bd
       -0.0268192 0.024090583 -0.07096959 -0.09340304
000010 59 17 3d be a6 20 0b be bb 90 f3 bd 08 5e a8 bd
       -0.18465938 -0.13586673 -0.118928395 -0.0822106
000020 b8 93 ae bd af cf 12 be bb 83 05 be b8 3c e4 bc
       -0.08524269 -0.14337038 -0.13038532 -0.027860984
000030 fd 35 97 bc 15 e1 4e be 8c 37 8e bd 81 75 e0 bd
       -0.01845836 -0.2020305 -0.069441885 -0.10959912
000040 ab 4f 41 bd 32 45 0b bd 81 56 0f be b8 b2 2b bd
       -0.047195118 -0.034001537 -0.13997842 -0.041918486
000050 ed 7f fc 3c 30 5a 25 be b9 97 98 bd 06 13 eb bd
       0.030822719 -0.16147685 -0.07450814 -0.11478238
000060 51 0d 20 bd ea ac 02 be 53 01 6a bc b8 b5 91 bd
       -0.0390752 -0.12761274 -0.014282542 -0.07114738
000070 6c 9d 4b bd c1 83 64 bd 46 d6 03 be bc f1 1d be
       -0.049710676 -0.055789713 -0.12874708 -0.15424246
000080 7b a4 31 be 19 1e 07 be c6 fc 11 be 5f 32 02 bd
       -0.173479 -0.13195075 -0.14256582 -0.03178632
000090 27 51 76 bd 02 64 5c 3b 65 2a 0c be 6b 78 c7 bd
       -0.060135987 0.0033628945 -0.13688047 -0.09739765
0000a0 ae 4e 75 bd 9b 72 0b be bd 4e 80 3d 85 45 b7 bd
       -0.059889488 -0.13617937 0.06265018 -0.08948807
0000b0 03 72 1b be 98 e4 5e bd c8 9b e4 b2 57 c0 40 be
       -0.15180211 -0.054417223 -2.6613534e-08 -0.18823372
0000c0 08 18 0b bc f5 ad 54 ad ea 04 0f bd 70 96 f0 ba
       -0.008489616 -1.2089431e-11 -0.034916796 -0.0018355381
0000d0 d3 43 04 be dd b4 08 be 18 5d a9 bd ba 5c f1 bd
       -0.12916498 -0.13350244 -0.08269709 -0.11785264
0000e0 62 70 a6 bb fe ec 1c bd aa fd 34 3d 0b 0b 69 bd
       -0.005079315 -0.03831195 0.044187225 -0.056895297
0000f0 f2 5b 11 bc 5e f2 a2 bd ea f9 e4 bd 44 0e 86 bd
       -0.008872019 -0.07956384 -0.1118048 -0.0654569
000100 cf d5 24 bd 6f 4a 5f ae 04 c8 3d 3c 4f 89 07 3d
       -0.040242966 -5.077044e-11 0.011583332 0.033089932
000110 2a 75 d3 bd 11 4d 08 bd
       -0.10325082 -0.03327662

layers.1.weight f4 [50, 70]
000000 26 20 fa bc 1e f4 ab be ae e8 65 b8 7e e5 e2 bd
       -0.030532908 -0.33584684 -5.4814554e-05 -0.110789284
000010 5d c7 60 bd 79 6a b8 bc d4 7f 49 3d af 89 bf bd
       -0.054877628 -0.022511708 0.049194172 -0.09352433
000020 60 69 7d 3c a9 df 79 bd 97 8f 01 be bf 4d 97 bd
       0.015467018 -0.061004315 -0.12652431 -0.07387876
000030 8c 29 e2 bd fc 26 b1 32 1e 4e d6 3b 46 7c ad bd
       -0.11043081 2.062324e-08 0.006540074 -0.08470969
000040 d7 11 dd 24 11 08 13 be 22 65 ca bb 20 ae d0 bd
       9.5873694e-17 -0.14358546 -0.0061766068 -0.10189462
000050 52 b7 bc bd d4 bb 7a bd ab 0e 60 3d de 16 11 3d
       -0.09214653 -0.061214283 0.05470149 0.0354222
000060 35 7c 56 bd 4d dc 87 3e 3e fe c9 bc ce d2 94 be
       -0.052364547 0.26535264 -0.024657365 -0.2906708
000070 e1 c0 38 3d ff 50 27 be 00 56 80 3e 81 a2 ae 3d
       0.04510582 -0.16339491 0.25065613 0.08527089
000080 25 b0 a2 3d dc 89 5c bd 98 1f 34 3e ab 28 38 be
       0.07943753 -0.05384241 0.17590177 -0.17984264
000090 9f af ad bd ef d0 71 bd ab de 31 bd 6c 76 1b 3d
       -0.08480763 -0.059037145 -0.043425243 0.037954733
0000a0 97 d3 fd bc 29 94 66 3e cc 1c 90 be e3 d8 28 be
       -0.030984683 0.22517456 -0.2814697 -0.16488986
0000b0 76 0b a1 3e c1 ef 7f bd 86 10 03 00 9f 42 ec bc
       0.31454057 -0.062484507 2.81434e-40 -0.028840361
0000c0 c5 b0 00 00 dc a8 02 00 b5 96 53 3e 96 5b 8f bc
       6.3413e-41 2.44246e-40 0.20662959 -0.017499726
0000d0 3f 8a 80 3e 1e fa c1 bd 38 80 2f bd 76 a4 89 3d
       0.25105473 -0.09471534 -0.04284689 0.067208216
0000e0 45 82 24 21 cf 63 a0 be 15 d9 99 3d 6b 6d e3 3c
       5.573777e-19 -0.31326148 0.07512108 0.027762135
0000f0 65 92 1f bd c8 1f f7 3c da 15 9f bd 80 ff a1 bd
       -0.038957972 0.030166522 -0.0776784 -0.07910061
000100 6f 2d ac bc 5b b8 02 80 fa 29 65 be 3c 31 8f bd
       -0.021017758 -2.49805e-40 -0.22379294 -0.069918126
000110 84 1b ac 3d 66 1d 0e be ff 65 22 bd 3a f9 92 be
       0.08403686 -0.13878402 -0.039648052 -0.2870577
000120 39 51 8b a3 b4 2a 68 be a3 61 dc 3d 7c ed c7 3b
       -1.510481e-17 -0.2267254 0.1076081 0.0061013084
000130 15 e2 fc 3d f4 ac 0b be 42 b1 5f 3d e1 6c aa 3c
       0.12347809 -0.13640195 0.054612406 0.02080387
000140 f9 c3 0f 3e 17 ea cd bd d8 fa 75 be 16 f7 29 37
       0.14039601 -0.10054415 -0.2402147 1.0130714e-05
000150 49 45 05 be 33 ac ff bc 49 d2 c0 33 45 94 81 be
       -0.13014711 -0.03121004 8.9789474e-08 -0.25308433
000160 f1 e0 d6 3d a6 e7 b6 3b b1 35 be be 28 71 a3 3d
       0.10492123 0.005581814 -0.37150338 0.07980567
000170 10 e5 21 3e 6e 86 1d 3e 46 19 e2 bd 01 90 0f 3d
       0.15810037 0.15383312 -0.11039977 0.035049442
000180 2c ec 3a bd e3 6e 0f be 1c 0e 11 3e 86 d1 75 bd
       -0.045635387 -0.14007144 0.14165539 -0.06001427
000190 1d 77 20 bd a4 5e ea bc 0e 1a b5 3d 71 0a b9 bc
       -0.039176095 -0.028609581 0.0884286 -0.022587987
0001a0 2c ed c7 3a bc c9 cd bd 68 a3 00 be 09 c9 43 be
       0.0015253178 -0.100482434 -0.12562335 -0.19119658
0001b0 fd 53 90 bd 9c 84 4b 3c 30 4c ba bd 60 7b bb bc
       -0.070472695 0.012421753 -0.09096563 -0.022885978
0001c0 0e 46 25 be 45 4c 61 be 5c 05 d3 3d fb a3 0a 3e
       -0.16140005 -0.22001751 0.103037566 0.13539116
0001d0 07 c2 00 00 55 a3 ef 3d b6 bd 54 ab de 73 03 00
       6.9604e-41 0.11701075 -7.5580807e-13 3.17072e-40
0001e0 4e f7 69 be 51 05 4f be 47 ed 43 3c 71 0b 14 3d
       -0.22848246 -0.20216872 0.011958427 0.036143724
0001f0 48 4a 36 39 aa b8 cd bd d0 f8 1e 02 29 7b 67 bd
       0.00017384544 -0.100449875 1.1679412e-37 -0.05651394
000200 bb 88 65 bd 2c 0d 6d bc 3d dc 49 be 34 32 4c be
       -0.0560386 -0.014468472 -0.1971292 -0.19941026
000210 46 18 2d be 2d 46 86 be e2 8c c1 bd 7c 69 04 80
       -0.16903791 -0.26225415 -0.094506994 -4.05183e-40
000220 e4 b3 55 be 71 51 32 be 7d 96 9b bd b7 75 63 be
       -0.20869404 -0.1741388 -0.07597063 -0.22212873
000230 ca 1b 5c 3c 42 9f f6 bd 76 4c c9 34 0a 2c d0 bb
       0.01343436 -0.12042095 3.74948e-07 -0.006352906
000240 96 10 ae bd 91 93 21 3e f1 c1 6e 3d 15 7e 9f 3c
       -0.08499257 0.15778948 0.058290426 0.0194693
000250 e2 bc 24 bd 7e de b0 3c 54 49 82 3e 6c 44 32 be
       -0.040219195 0.021590468 0.2544657 -0.17408913
000260 8e c2 e3 3d 6a 76 16 b9 ae a5 04 be fe 09 13 3e
       0.11121093 -0.00014349227 -0.12953827 0.1435928
000270 79 f3 ce b6 c3 0a 5b be 01 b9 dd bd 0c c7 16 bd
       -6.1676224e-06 -0.21390824 -0.10826302 -0.03681092
000280 22 b5 2e 3b a0 96 4b 3e e3 d7 27 3e eb 79 8c 3d
       0.0026658257 0.19881678 0.16390948 0.068591915
000290 c0 d2 73 bd 97 29 84 3d 6e f4 7d bd 0e 47 15 bd
       -0.05952716 0.06453245 -0.062000684 -0.036444716
0002a0 63 b9 7a 3e 42 41 3e bd f8 b1 27 3c 1b 99 13 3e
       0.24484782 -0.046448953 0.010235302 0.14413874
0002b0 c7 53 08 be cf a9 41 bd 2c 1b 72 bc ab ff a4 3d
       -0.13313209 -0.047281083 -0.014776986 0.08056577
0002c0 f0 cc 82 bd a5 d8 6c bc 3f 0a 28 3e 6a 7a 84 3d
       -0.06386745 -0.014455949 0.16410159 0.06468661
0002d0 22 0e 10 3d 30 17 a6 3d a7 59 a4 bc c6 89 83 be
       0.035169728 0.081098914 -0.02006228 -0.2569105
0002e0 de 42 13 3d 71 9c 9a 3e 5c 7c 06 80 1c 2a 00 3e
       0.03595244 0.3019748 -5.95625e-40 0.12516063
0002f0 23 8b 8e 00 0e 12 02 00 7a de 79 ba 79 b5 65 be
       1.3090553e-38 1.90148e-40 -0.0009531748 -0.22432508
000300 17 ad 55 3d 88 b2 81 3e 03 63 31 be 66 0a 8b bd
       0.052167024 0.2533152 -0.17322926 -0.06789093
000310 56 be 3e 9e 1b f5 73 3c b5 4c 93 bd 91 55 eb bd
       -1.0097877e-20 0.014889981 -0.07192365 -0.1149093
000320 42 a6 2b bc de f0 69 bd de 86 07 be bc 04 14 bd
       -0.010476651 -0.057114474 -0.13235041 -0.036137328
000330 2f fc bb 3d 99 61 04 00 32 59 84 bc a7 fe 3d bd
       0.091789596 4.02353e-40 -0.016155813 -0.046385434
000340 62 eb 89 be ae bc 44 bd 12 ee 84 3e 26 6b 87 bc
       -0.26937395 -0.0480315 0.25962883 -0.016530585
000350 86 52 2f b2 17 3a 27 bd 47 7a 9e bc 22 d4 9c be
       -1.0205104e-08 -0.040826883 -0.019345416 -0.30630594
000360 42 7a 1c 3d fa 9c 6c 3d a9 67 01 3c 05 cc b4 3c
       0.03820253 0.057766892 0.00789825 0.02206994
000370 0c 64 0f be c8 3d 90 3e 80 1c 84 3d 9f 86 25 34
       -0.14003009 0.28172135 0.064507484 1.5415797e-07
000380 f6 b7 e5 3d 04 e2 e1 bd 22 7c 58 ac 5f cd 2e bc
       0.112167284 -0.11029437 -3.0764354e-12 -0.0106690815
000390 da c0 81 bd 8c e7 92 3e df 39 d9 bd 2f 41 2c bd
       -0.06335612 0.2869228 -0.10606741 -0.04205435
0003a0 f9 45 5e bd b7 6e b3 bd 35 2b bf 3e 90 8c b8 3c
       -0.05426595 -0.087613516 0.37337652 0.022527963
0003b0 21 e9 9b 3e 87 95 31 3e 91 c5 f8 bd cc 2d 91 3d
       0.304513 0.17342196 -0.12147058 0.07088813
0003c0 c8 ec c9 bd 55 01 7a be 3e d6 86 ba 1d 75 a9 3e
       -0.098596156 -0.2441457 -0.0010287238 0.33097163
0003d0 98 83 b8 bb 4b 74 d7 3d 41 ac b6 3d cb b8 b1 3d
       -0.0056309216 0.10520228 0.089195736 0.086778246
0003e0 74 a3 b7 bd f3 0f 82 be 15 d8 6e 3d db 37 e7 3d
       -0.08966723 -0.25402793 0.05831154 0.112899505
0003f0 67 6a 01 3d 08 52 4e 3d 36 cf 30 bd 8b 60 83 bc
       0.031595614 0.0503712 -0.04316636 -0.016037246

layers.1.bias f4 [50]
000000 e8 55 d3 3d d0 19 b2 3d 18 54 ad 3a be 6c b5 bc
       0.1031912 0.086963296 0.0013223914 -0.022146579
000010 fe cd 67 3d 14 00 44 bd 7d ed 94 bd d6 06 88 bd
       0.056592934 -0.047851637 -0.0727186 -0.06641929
000020 48 b6 b4 3d 73 a2 3d 3b f5 47 07 3e c1 38 95 3d
       0.0882383 0.0028935939 0.13211043 0.072862156
000030 92 58 86 3c 96 51 00 3d e7 fd 9f 3d 79 5b 56 3d
       0.016399655 0.031327806 0.078121 0.05233333
000040 9b de 7c bd a7 03 aa 3c 25 9b a2 3d 70 11 ad 3d
       -0.06173573 0.020753695 0.07939748 0.084505916
000050 29 ab 94 bd 58 f3 d1 bb e7 34 25 3d 34 66 39 bd
       -0.07259209 -0.0064071827 0.040333655 -0.045263484
000060 35 64 bc bd 0c e3 b7 bd f0 ce df 3d b1 f1 50 bc
       -0.091988005 -0.08978853 0.10928142 -0.012752936
000070 e4 f3 58 bd 6c 02 f2 3d a2 55 99 bd 9d cd 1e 3d
       -0.052966967 0.11816868 -0.07487036 0.038770307
000080 e3 2e 33 3d 6f 41 cf bd 87 56 f4 3d 79 87 4b 3c
       0.043745887 -0.10119902 0.11930566 0.012422436
000090 c0 0c 58 3d f1 e8 59 3d ba 40 3d ba 21 2c 8b bd
       0.052746534 0.053200666 -0.0007219423 -0.06795526
0000a0 33 22 ce 3c c9 31 5f 3d c3 d5 ae bc bb 11 80 bd
       0.025162792 0.05449084 -0.021342164 -0.06253382
0000b0 2f 4f 2b bd ef d6 5c 3d 78 4b d6 3c 18 b5 ad bd
       -0.041823562 0.053915914 0.026159033 -0.084818065
0000c0 c2 2d 28 3d af 51 99 bc
       0.041059263 -0.018715708

layers.2.weight f4 [90, 50]
000000 1a ea a4 bd ce db b9 3d 25 f0 91 3e 60 bf bc be
       -0.08052464 0.090751275 0.28503528 -0.36864758
000010 b0 da f5 bb 5d a8 4e 3e b0 34 64 be 5c eb dc be
       -0.007502876 0.20181413 -0.22285724 -0.43148315
000020 dd df 4a bd 98 c9 92 3e 99 22 c8 3e ca 93 ae bd
       -0.0495299 0.2866943 0.39088896 -0.08524282
000030 c1 a7 a6 be db 9d 89 be dc 55 84 bd 88 ea e8 3d
       -0.3254986 -0.26878247 -0.06461689 0.11372858
000040 13 6b 5b 3e 6b 88 ae be d4 8a d2 3d 1b d9 aa bd
       0.21427564 -0.34088454 0.102803856 -0.08342191
000050 c8 41 b4 3d 23 1f ac be 98 49 db 3e 10 b9 ee be
       0.08801609 -0.33617505 0.42829585 -0.46625566
000060 3c 7f d4 be b7 d6 50 3b 8b cf e1 ba dd 2a be 3e
       -0.41503322 0.0031866261 -0.001722799 0.37142077
000070 ee 31 69 3e c8 42 5b bd c0 0e ed 3c 4b 62 e0 3d
       0.22772953 -0.053530484 0.028937697 0.10956248
000080 f2 13 6d be 60 cf ff 3d 2e 48 f1 3e 38 00 18 be
       -0.2315214 0.124907255 0.4712538 -0.14843833
000090 83 21 d0 3e e1 1f 34 be 97 1b 94 3e e6 4a 2d 3d
       0.40650567 -0.17590286 0.289273 0.042307757
0000a0 32 b3 74 3e d5 e7 e0 3e 72 b3 ad 3e 8c 55 23 be
       0.23896483 0.43926874 0.33925968 -0.15950602
0000b0 10 5d a4 3d 72 89 d8 3e cf 34 19 3e e3 d1 61 3d
       0.08025563 0.42292362 0.14961551 0.055131804
0000c0 9b df b6 3e 50 a0 6e 3e c9 cb 39 3d ce fb ff 3b
       0.35717472 0.23303342 0.04536036 0.007812
0000d0 c1 4a 02 3d 54 07 7d 3d 16 f9 1a 3d dc b5 1c 3c
       0.031809572 0.061774567 0.037835203 0.009564843
0000e0 70 da 76 bc 6c ed 3b bc e6 8d 92 bc 13 63 87 bc
       -0.015066728 -0.01147018 -0.017889928 -0.016526734
0000f0 28 f3 a5 bc 24 61 a1 bb b7 32 bc 3c f3 2c 9e bb
       -0.020257547 -0.00492491 0.022973401 -0.0048271357
000100 08 80 eb 3c 1e 71 7d bb aa 59 88 3c 25 38 59 bc
       0.028747573 -0.003867216 0.016644318 -0.013258015
000110 41 57 50 bd 7e 9e 0a 3d b7 1d 06 bd 76 09 03 3d
       -0.05086446 0.033842556 -0.032743182 0.031991445
000120 19 f6 ca 3c 69 da 69 bc de 9a 78 3d bb 96 0e 3d
       0.024775552 -0.014273264 0.060694568 0.034811717
000130 b0 14 2d 3b 09 ab 22 3d 6e 87 07 3d b0 8a 00 bd
       0.0026410036 0.039713893 0.03308814 -0.031382263
000140 f5 17 91 bc 5e 5d 7c 3d 72 d9 ed bc 3a 49 f6 bc
       -0.017711619 0.06161248 -0.02903435 -0.030064214
000150 d5 0e 31 3c 45 35 a4 bd 04 8d 81 bd a2 f1 b7 bc
       0.010806759 -0.08017973 -0.06325725 -0.022454087
000160 45 f3 58 bd d8 96 00 bd 64 d4 b9 3b a0 d9 27 bc
       -0.052966375 -0.031393856 0.005671071 -0.010244757
000170 9a 11 7f 3a e1 8a b8 3b 3a 0e 62 bc 77 8f 01 3e
       0.0009730101 0.00563179 -0.013797337 0.12652384
000180 48 03 3b 3c 28 7f cc 3c 68 7a 1d bc e1 61 b6 3c
       0.0114143565 0.024962977 -0.009611703 0.02226347
000190 3d c1 bb 3d 27 bb 82 bc fc 73 0e b9 9f cf 4b bd
       0.09167717 -0.015958382 -0.00013585383 -0.04975855
0001a0 0f dd 24 3b 6b 4e 4e 3c 7c 12 bf 3d c5 21 59 3d
       0.0025156175 0.0125919385 0.093296975 0.05301072
0001b0 04 e0 17 3d 6c 32 c5 3c 01 4f 1d 3c 66 a8 18 bd
       0.037078872 0.024071895 0.0096013555 -0.037269972
0001c0 50 e2 2a bd c2 ed 5c 3d 2d f4 28 3c ba f1 8c bb
       -0.041719735 0.05393768 0.010312122 -0.004301277
0001d0 00 69 cc 36 7d 42 9c 3c 42 61 e0 bc 22 98 88 bc
       6.0918974e-06 0.019074673 -0.027390126 -0.016674105
0001e0 5c 19 e6 bc a6 23 08 bd a8 79 0c bd e2 7a 84 3c
       -0.028088264 -0.033237122 -0.034295708 0.016171876
0001f0 a1 b9 19 bc ac 55 e7 bc fe d4 52 bd 2e d9 fc 3b
       -0.009382636 -0.028239094 -0.051472656 0.0077163195
000200 44 b6 26 3d d3 2f bd bb 78 45 e3 3b 13 7f b6 3c
       0.040701166 -0.0057735234 0.0069357716 0.02227739
000210 bc 2e d8 3c 10 b3 a4 3a 48 e6 32 bc 9c 59 66 3d
       0.026389472 0.0012565572 -0.010919161 0.056237802
000220 c1 87 d9 bc 59 a6 51 bd 97 be b6 bc 46 8c 36 bd
       -0.02655399 -0.051184032 -0.022307677 -0.04456737
000230 23 b3 76 bd 83 ef b6 bc 2e 2d 1d bd fa 68 df bc
       -0.06022943 -0.022331005 -0.038373165 -0.027271736
000240 ed 42 3b 3d 46 4c 27 bd fc 3a 50 bd 2f dd 17 3d
       0.045718122 -0.040844224 -0.050837502 0.03707617
000250 9c 94 57 bd e2 4a 2a 3c 1d 19 0e 3c 28 c3 b1 bc
       -0.05263196 0.01039383 0.00867298 -0.021699503
000260 ad aa ef bc 83 c6 8a bc 76 2d 77 3c f7 a8 bf 3b
       -0.02925619 -0.01694036 0.015086522 0.0058489996
000270 29 3c a4 bc 5b de b2 bc af ca 94 3d 28 d6 0f 3d
       -0.020048218 -0.021834543 0.07265221 0.035116345
000280 4e 45 7f 3d b1 1a f2 bc 3c dd e9 bc 6f d7 d5 3d
       0.062321953 -0.029553743 -0.028547876 0.10441481
000290 e1 e3 d6 3c da 9b be 3c d3 2b 87 bc 17 95 4d 3d
       0.026231708 0.023267675 -0.01650039 0.05019101
0002a0 7d e9 89 3d 33 88 9a bd 34 45 83 3c e6 a9 9e 3c
       0.067339875 -0.07545509 0.01602421 0.019368123
0002b0 b7 3c f5 bc 4c 6b 33 bd d6 4d e8 bc 98 33 11 3d
       -0.029936178 -0.0438035 -0.028357428 0.035449594
0002c0 34 5e ef bb b0 36 ff bc 83 8f 3a 3c 39 b2 3a bb
       -0.007304931 -0.031154007 0.011386755 -0.0028487577
0002d0 1f 7b 42 3d 6d a8 f0 3c 5e 66 e5 bc 60 b1 40 3d
       0.0474807 0.029377187 -0.028002914 0.047044158
0002e0 ee 3e 8b 3d dd 2b 4e 3c da 56 ee bb 66 1e 5e bc
       0.06799112 0.0125837 -0.007273537 -0.013557052
0002f0 f6 70 d8 bc 44 fb c2 3b d2 43 ce bc 31 f0 5e bd
       -0.026421051 0.0059503634 -0.025178824 -0.054428283
000300 6c df 01 ba 03 eb 0e 3d 4e 4a 43 3c ed ae 82 3d
       -0.0004954252 0.034892093 0.011919571 0.06381021
000310 ac f2 44 3d 00 86 d3 bb dd ed 64 3d 34 d8 dc bb
       0.048082992 -0.006455183 0.055890907 -0.0067396406
000320 ab 8c 51 bd c1 72 c0 3b 3a 2f 90 3b 62 05 40 3d
       -0.051159542 0.0058730547 0.004400161 0.046880133
000330 99 46 97 bc 57 9d f2 3b 50 19 bb bc 24 1a f6 3c
       -0.01846628 0.0074040103 -0.022839218 0.030041762
000340 61 20 84 bd 08 4b 98 3d 67 29 37 3d c8 58 5e 3d
       -0.06451488 0.07436186 0.04471722 0.054283887
000350 f0 91 95 bc e3 6f 53 3d 44 9d 6c bd ec 97 10 3d
       -0.018258065 0.051620375 -0.057767168 0.035301134
000360 77 d3 0e 3c ca c4 6c 3d 4c 2e d8 b9 50 1c 5d 3d
       0.008717409 0.05780486 -0.00041233224 0.05398208
000370 8a 61 3a 3c 3a 7e c8 3c 77 dc 47 3d d2 6c 42 3c
       0.011375794 0.024474252 0.048794236 0.011866765
000380 71 ea d9 bc 26 09 f3 bb 30 84 9f 3c 29 d3 5c bd
       -0.026601048 -0.007416862 0.019472212 -0.053912316
000390 8d 52 dc bd 9a b9 8a bc cc f4 09 bd 0f b5 42 3d
       -0.10757933 -0.016934205 -0.033680722 0.047535952
0003a0 f5 3d db bc 4d 5c 07 3c ed f1 21 3d 1a f8 ad bd
       -0.026762942 0.008261752 0.03953736 -0.08494587
0003b0 25 18 24 3d c4 91 82 bc 3e 06 c4 3c 6e fd 0b 3c
       0.04006209 -0.015938647 0.023928758 0.008544309
0003c0 cd 3d 3e 3d 9a cd 6b bd 0e f5 ae bb 42 96 41 bd
       0.046445657 -0.057569124 -0.0053392714 -0.047262438
0003d0 0c e7 2e bd 18 f9 46 3d 04 2f 1e 3d f1 4b 08 bd
       -0.042700812 0.048577398 0.038619056 -0.03327555
0003e0 64 32 44 3d 88 6d 5c bd 8d 53 48 3d 0b 59 56 3c
       0.04789962 -0.053815395 0.048907805 0.013082753
0003f0 53 16 76 bd ac ea a0 bc f2 f4 ed 3c ed 57 0c 3d
       -0.060079884 -0.01964315 0.029047463 0.03426354

layers.2.bias f4 [90]
000000 dd 6a 20 bc e5 16 46 3d e6 77 cb 3c b1 97 fe 3c
       -0.009791103 0.048361678 0.024837445 0.031078191
000010 a6 1d 21 bd 22 46 44 3d c0 97 c7 3c fc 6d d0 bb
       -0.039334916 0.047918446 0.024364352 -0.0063607674
000020 14 a5 bd bc 2d 8e ae bd b1 3f 82 3d 9d 4a 16 3d
       -0.023150004 -0.08523212 0.063598044 0.03669225
000030 52 b2 fe bc b3 90 3b bc 87 08 3b 3c c3 15 27 3b
       -0.03109089 -0.011448073 0.011415607 0.0025495149
000040 1a 3b 90 bc 0b 67 1d bd aa e1 8b 3c 67 2a da 3c
       -0.017606307 -0.038428348 0.017075378 0.026631547
000050 c1 f5 3f 3c 88 d5 00 3d 06 00 04 bc 24 1a 52 3c
       0.011716307 0.03145364 -0.008056646 0.012823615
000060 d2 46 be 3c bc 84 48 be f9 c8 bc 3b 73 09 f4 3c
       0.02322713 -0.19581884 0.0057612625 0.029789662
000070 2e 5d 12 3c a3 ee 49 3c 2f cc 18 3d 62 c9 0d bc
       0.008933349 0.012324962 0.0373041 -0.00865397
000080 dd a9 2b bd 2b 02 92 3c ac 4e 21 3c 24 fe 33 bc
       -0.04191004 0.0178233 0.009845417 -0.010985885
000090 99 32 49 3c 52 d6 74 3c e9 51 7e 3b 55 84 cf bc
       0.01228013 0.014943676 0.0038806146 -0.025331656
0000a0 ff db 5f bd 0f 58 56 3c c5 da 05 3b 88 cb 8a bc
       -0.054653164 0.013082518 0.0020424586 -0.016942754
0000b0 7d 44 13 3d c2 5e 52 3d 41 e6 10 3b b5 70 fb 3c
       0.035953987 0.0513599 0.0022109898 0.030693391
0000c0 b8 2c aa bb 19 df e7 bc df 14 56 3c 53 4a 4b bc
       -0.005193319 -0.028304623 0.0130664995 -0.012407857
0000d0 3f 8e 8f bd dc 14 d5 bc 35 29 53 3c b4 94 8e 3c
       -0.07009553 -0.026010923 0.0128882425 0.017404892
0000e0 7a b0 91 3d 88 5d c3 bb e5 de 1e 3d 22 f3 a9 bc
       0.07113738 -0.0059620775 0.038786788 -0.020745818
0000f0 c6 ea 1c bc 69 0f 27 3c 0b a7 0a 3d 21 f6 d8 3d
       -0.009577459 0.010196545 0.03385071 0.1059382
000100 0c a2 00 bf de f1 df 3c b8 4e 27 bc 44 4b b2 bc
       -0.50247264 0.027337011 -0.010211639 -0.021764405
000110 81 54 de 3c 5f 7b 2e bb 33 79 d9 bc aa ab 19 bd
       0.027139904 -0.0026623828 -0.02654705 -0.037517227
000120 e2 04 9e bc 88 b1 4f bb 63 43 01 bc 72 f5 01 bd
       -0.019289438 -0.003169151 -0.007889601 -0.031728216
000130 ae 39 34 3d ff 38 e7 3b 36 57 50 bd 79 f9 af bc
       0.04400032 0.007056355 -0.05086442 -0.021481263
000140 62 22 c9 3c 4e 07 45 3c 9a 1b b1 3c 1a 2c 1b 3c
       0.024552528 0.012025667 0.021619607 0.009470964
000150 da bd da ba c9 52 15 bd 08 1b 9b bd 27 0f 3a 3d
       -0.001668866 -0.036455903 -0.07573515 0.045424607
000160 a2 38 c4 3c 8a 73 02 3c
       0.023952786 0.007962117

layers.3.weight f4 [5, 90]
000000 c2 4b bb 3e 21 63 9e 3b 40 27 62 bc 18 46 99 bc
       0.36581236 0.0048335944 -0.013803303 -0.018710181
000010 09 ff 90 bb c7 7d 0f bc 32 00 b5 3b 87 94 86 3b
       -0.004424934 -0.008758015 0.005523705 0.0041070613
000020 16 67 2c bc 90 6c 88 3c 6c 2d 07 ba 64 3d 85 bb
       -0.0105226245 0.01665333 -0.00051566097 -0.004066156
000030 54 b7 0f 3c fc e4 9f 3b 2d a9 c4 3c 2f f2 a5 3b
       0.008771736 0.004879592 0.02400645 0.005064271
000040 c1 7f 1d 3d 16 87 95 bc b1 bc 6f 3c bb 7a 89 bc
       0.038451914 -0.01825289 0.01463239 -0.016782155
000050 09 5a 89 3a cc 24 8a 3b c4 52 40 bc 30 f5 0e bd
       0.0010479103 0.0042158123 -0.011738483 -0.034901798
000060 6d fd c0 bc 3e c4 11 3e da 40 81 bc 61 5c 92 3c
       -0.023558343 0.14235017 -0.015777994 0.017866315
000070 d5 3e fd 3b 68 23 b7 bc 2a 62 a5 3c 08 71 4b bb
       0.0077284374 -0.02235575 0.02018841 -0.0031042714
000080 ce 5b 85 3c da a8 5d bb 36 80 f8 ba df 6b 0a 3c
       0.016279127 -0.0033822567 -0.0018959108 0.00844857
000090 a9 e7 ac bc 7e ed 9a 3b fe 34 b9 bb c6 80 5b 39
       -0.021106558 0.0047280183 -0.005652069 0.0002093344
0000a0 ee 16 bf 3c ee 60 43 bb 7f d2 d4 ba 80 77 c5 bb
       0.023326363 -0.0029812413 -0.0016237049 -0.0060262084
0000b0 18 78 25 bb 51 7b 04 bc 3d 2a 6f bc ff cf 66 3c
       -0.0025248583 -0.008086042 -0.014597473 0.014087676
0000c0 a8 c2 9e bb f6 82 ad 3c a5 c0 c3 3b bc 24 03 3c
       -0.004844982 0.021180611 0.0059738928 0.008004364
0000d0 72 8b 4e 3c f2 5e 8f 3a 4d 3f 93 ba a2 e2 76 bc
       0.012606489 0.001093833 -0.0011234075 -0.015068682
0000e0 37 5e c8 3b 96 9c 4c ba 56 86 bb 3b 7c c1 e2 ba
       0.006114747 -0.00078053155 0.005722801 -0.0017300094
0000f0 7c 9e d8 bb c4 b8 93 bb 64 c6 d8 bc 6f 85 c3 3c
       -0.0066106897 -0.0045081098 -0.026461788 0.023867337
000100 6c d0 74 3e 5d 0f 18 bc c7 1e 2d bc 36 1b 76 bc
       0.23907632 -0.009281007 -0.01056642 -0.015021136
000110 f6 d1 85 3c 35 54 9b b9 4c 8b 8a bb a2 51 44 3a
       0.016335469 -0.00029626643 -0.0042280313 0.0007488971
000120 7e ad e3 bb 77 4f 88 3c ea 92 b5 bc 9d c7 9b 3c
       -0.006948172 0.016639454 -0.02216478 0.019016081
000130 88 af 20 bb 55 07 11 bc 41 9e 11 3d d4 ee 20 bc
       -0.0024518687 -0.008851846 0.035551313 -0.009822566
000140 5e 6c ea bb fa 1d 83 3b ad e7 81 3c 23 8c 69 bc
       -0.0071540317 0.004001376 0.015857542 -0.014254603
000150 f3 cc 8f 3b 60 ac 7f 3a 03 d8 a6 3c fc 88 61 bc
       0.0043884455 0.0009753164 0.020366674 -0.01376557
000160 c9 3d cc 3b 0e 5a 9d bc cf 37 2e 3d e2 1c 27 3c
       0.0062329513 -0.01920798 0.042533692 0.010199757
000170 58 31 65 bc 38 b2 e5 3b a6 e3 bc bb a1 1c 1d bb
       -0.013988815 0.0070097707 -0.0057644425 -0.0023973363
000180 d4 16 17 bb 73 b5 1a 3c 6c ac b4 bc 13 a4 0a bd
       -0.0023054378 0.009442675 -0.022054873 -0.03384788
000190 c9 77 e6 3c 1d 2f b3 3c bb 32 b8 3b 10 e9 81 3c
       0.02813329 0.021873051 0.005621282 0.015858203
0001a0 3a 82 3b bc b2 6e 76 3b de 70 6e 3c 23 fa 54 bc
       -0.011444623 0.00376026 0.014553277 -0.01299909
0001b0 e3 5e 35 bc 8f 15 c4 3c cb 8a 58 3c ca 1e c3 3b
       -0.011069986 0.023936061 0.013216685 0.005954598
0001c0 d4 ba d0 3c 29 de 58 3b dc 54 5c 3c 5d 37 18 be
       0.025479712 0.0033091402 0.013447966 -0.1486487
0001d0 dc 41 75 3c 61 56 e4 bb 84 b3 2f ba 58 62 70 3a
       0.014969315 -0.006968305 -0.000670247 0.0009169928
0001e0 2c ae 10 3c 9a 33 71 bb b8 88 70 bc 18 b5 39 3b
       0.008830588 -0.0036804439 -0.014681034 0.00283367
0001f0 55 ee 55 3c a8 d7 fe 3b 8a 50 82 bb 55 db 8c 3c
       0.013057311 0.007777173 -0.003976886 0.01719443
000200 fc 0d 8a 3c eb 53 d7 3c 58 b2 e3 3c 73 e1 06 3c
       0.016852371 0.026285132 0.027795002 0.008232462
000210 ca 0c 93 3c 82 be 2f 3b 5c de 92 ba d0 5b 28 3c
       0.017950434 0.0026816432 -0.0011205184 0.010275796
000220 2a 6b e9 3c 56 fc d7 bc a0 38 f1 3b 57 91 34 bc
       0.028493483 -0.02636544 0.0073614866 -0.01102098
000230 12 13 5c bc 6d 35 21 3c de 49 bc 3a 80 89 72 b8
       -0.013432281 0.009839398 0.0014365276 -5.7825353e-05
000240 14 2f f3 3a bc 09 d2 3c 36 1e 58 3c c4 40 8b 3c
       0.0018553459 0.025639407 0.013190797 0.016998656
000250 10 3a 07 3c 7f 9d 80 3c 67 e0 8b 3c ce 42 c3 bc
       0.008253589 0.0157001 0.017074777 -0.023835566
000260 4a 22 9d 3c 93 7d b5 bd ce d3 a5 3e b2 33 d9 bb
       0.01918139 -0.08861842 0.32388157 -0.006628477
000270 a0 06 f2 3b 38 4e a7 3c 9e 7c d1 bb e1 44 b8 bc
       0.0073860437 0.02042304 -0.0063930294 -0.022493782
000280 ae 37 ca bc d0 05 16 bc 62 a4 0d bc 81 26 81 bc
       -0.024684753 -0.009156659 -0.008645149 -0.01576543
000290 d7 40 1a 3d dc 99 d1 bb c1 fa 0e 3c f4 11 c5 bb
       0.037659492 -0.0063965153 0.008726777 -0.006014103
0002a0 5a da 72 3b 1b bf 5f bc e9 c8 a6 3b 86 03 09 3c
       0.0037056417 -0.013656403 0.0050898683 0.008362656
0002b0 25 2d 8d bb a1 d0 f2 bb 68 28 18 ba 66 c8 2e bc
       -0.00430836 -0.0074101244 -0.0005804361 -0.010667896
0002c0 a4 5a 32 bc 8d 00 57 3b aa 2b 3f 3c c2 d0 85 bb
       -0.010885868 0.0032806725 0.011668125 -0.0040837238
0002d0 51 62 84 be d1 94 0f bc 61 6d 83 3c 80 d1 fa 3c
       -0.2585626 -0.008763508 0.016043367 0.030617476
0002e0 f2 1e 90 3b 2a d5 aa bb 10 10 38 bc 70 c9 11 3b
       0.00439822 -0.0052133994 -0.011234298 0.002224531
0002f0 94 36 b6 3c ae e6 62 bc 62 4a 03 3b 84 1a d0 bb
       0.022242822 -0.013848944 0.002003335 -0.006350817
000300 d4 00 93 3b 7e db ea bc f6 99 a7 3a f9 39 f2 3a
       0.0044861827 -0.028669115 0.0012786973 0.0018480412
000310 71 32 f3 bc a6 ce e4 3b c6 8e b0 3a e8 d0 bc b9
       -0.029687138 0.006982642 0.0013470284 -0.00036013802
000320 b8 58 38 bb 02 86 b7 ba 0c 30 9b bb 40 38 ec ba
       -0.0028129052 -0.001400173 -0.0047359522 -0.0018022135
000330 b6 87 8f 3a 1b b3 f7 3d 20 9d 68 bc b0 8a 47 39
       0.0010950479 0.120947085 -0.014197618 0.00019029784
000340 3a f4 1a 3c d0 85 d0 3b 2a 72 d3 3b c8 db 87 3a
       0.009457642 0.006363608 0.0064528184 0.0010365183
000350 62 4e b5 bb 1c d6 dd 3b 42 4d 33 bc d6 40 36 bb
       -0.0055330256 0.0067699086 -0.010943713 -0.0027809641
000360 fc ca 1b ba e2 37 f2 3a 8e d1 a9 bb 68 50 08 bd
       -0.0005943028 0.0018479789 -0.0051824516 -0.033279806
000370 87 c8 ee bc 14 f9 38 3a 82 2e bf bc cd b4 de bb
       -0.029148353 0.00070561585 -0.023337606 -0.0067964555
000380 70 05 6b ba d1 09 5a 3b 1d e9 55 bc fe 36 6c 3c
       -0.0008965349 0.0033270011 -0.013056067 0.014417408
000390 a5 ec ac 3b 26 94 8f bb 01 36 d1 3b 6f d0 ee bb
       0.0052772337 -0.0043816743 0.0063846116 -0.007288031
0003a0 05 a1 95 bb 76 28 3c 3c e2 b4 48 3c 78 4b aa 39
       -0.004566314 0.011484256 0.012250157 0.00032481155
0003b0 8a c1 33 bb 9f 12 18 bc 08 12 33 bc 4d d5 92 bc
       -0.002742859 -0.009281783 -0.010929592 -0.017923975
0003c0 ac f7 5a bc 53 17 aa 3c 24 9f 3a ba 04 15 5a 3e
       -0.013364714 0.020763075 -0.0007119051 0.2129708
0003d0 7f 30 ea 3d aa 91 11 3c 92 75 0e 3c 60 9a 0d bc
       0.11435031 0.008884827 0.008695023 -0.008642763
0003e0 09 20 3f bb 77 fe 31 3c 5f 0b a6 ba 40 98 1c 38
       -0.0029163382 0.010863892 -0.0012668184 3.7335092e-05
0003f0 8d 08 53 3c c3 cf 01 3c e8 6d d4 bc 0e 47 16 3c
       0.012880457 0.007923069 -0.025931314 0.009172214

layers.3.bias f4 [5]
000000 16 c7 b7 be 53 51 12 be 58 03 97 bd ca 43 7a 3e
       -0.35894078 -0.14288835 -0.07373685 0.24439922
000010 88 48 29 3e
       0.16531575
