irony/models/model_21.pt (torch_old, 38823 bytes, 8 tensors)

layers.0.weight f4 [70, 10]
000000 5f 39 b8 be a0 fe 71 bb d8 2c a8 3e ac 6f 89 3e
       -0.3598127 -0.003692545 0.32846713 0.2684301
000010 fe f4 49 be 80 6c 47 be e2 33 dc 3d e0 bf 8a bc
       -0.19722363 -0.19474983 0.10752083 -0.016937196
000020 77 80 0b bd ad e6 c7 bd e3 e9 d1 bd 64 fc fc 3e
       -0.03405806 -0.09760795 -0.102496885 0.4941131
000030 5a ac 34 3e c3 35 03 be ab 6c 5a be 47 43 9a 3e
       0.17643872 -0.12813477 -0.21330516 0.30129454
000040 9c 73 65 3e 96 e7 bc 3e c9 88 72 bd 65 a2 03 3d
       0.22407383 0.36895436 -0.05921248 0.032137293
000050 31 07 8f 3e f0 09 c2 3e 4a e2 db bb 73 24 17 3d
       0.27935174 0.37898207 -0.0067103254 0.036899995
000060 f2 c1 14 be c1 ea 26 3e 3c 0f 0d 3b 74 27 aa 3d
       -0.1452711 0.16300489 0.0021523973 0.08308306
000070 a1 4f ed 3d ed f6 74 bd 88 cf 86 be 4a b1 67 be
       0.11587454 -0.0598058 -0.2633021 -0.22626224
000080 9c 01 3d bd bc cb 15 3e cf 04 9a 3e de 2d b7 3d
       -0.046144113 0.146285 0.30081794 0.08944295
000090 77 dc 70 bd 11 22 f5 bd e7 bc 4d be 01 25 60 3e
       -0.058804 -0.11969388 -0.20091592 0.21889116
0000a0 a6 f7 4f bd 60 3e 3a 3e ac 76 8a be 45 85 bd bd
       -0.050773285 0.18187857 -0.27043664 -0.09253935
0000b0 41 f8 94 3e 4a 3d 61 be e7 c1 1b 3e 50 8e 4c be
       0.29095653 -0.21996036 0.15210687 -0.19976163
0000c0 09 10 0e 3d d9 af 8b bc 0a d1 b0 be 21 96 b1 3d
       0.03468326 -0.017051624 -0.34534484 0.08671213
0000d0 b4 dd 7e 3e c6 06 3c 3e 4a fb 8e be cc 99 8d be
       0.2488926 0.18361959 -0.27926093 -0.276564
0000e0 1c a5 2b be a9 fa 4f bd 27 6a 28 3c 5e 24 85 be
       -0.16762203 -0.050776158 0.010279215 -0.26004308
0000f0 b3 2c 38 be f7 6b 2c 3c 1e 18 06 be 13 a7 d2 be
       -0.17985801 0.010523788 -0.13095137 -0.41143093
000100 ec 02 22 3d 07 ed 96 3c 47 5d 8a be f7 04 0f 3e
       0.039553568 0.01842357 -0.2702429 0.13966738
000110 bb a0 89 bd 55 08 f3 bd 57 3e 50 be 70 53 04 be
       -0.0672011 -0.118668236 -0.20336281 -0.12922454
000120 3a b7 83 be 90 79 8e 3d 43 dc b3 3e f4 34 0f 3c
       -0.25725728 0.0695678 0.35128984 0.008740652
000130 bb 60 0e bd db 03 41 be b3 2f ad bd 29 7a bb 3d
       -0.034760218 -0.18849127 -0.084563635 0.091541596
000140 81 5b 89 be ee 2a 89 be ff 0b fe bd b6 97 72 3e
       -0.26827624 -0.26790565 -0.12404632 0.23690686
000150 db 4a 74 3e d7 62 e0 bd ad 4c 1e be 19 09 1a 3c
       0.2385668 -0.10956352 -0.15458937 0.009401583
000160 5f 7a ac 3d 96 94 84 3d a9 41 ba be 8a a3 ae be
       0.08421778 0.06473653 -0.3637822 -0.34109145
000170 55 86 3b be 14 0e af 3e 8a ad 4d 3e 8c 68 8f bc
       -0.18312962 0.34190428 0.20085731 -0.017505907
000180 1a 08 5d ba 27 bf 4e be a6 22 39 3e 51 fb 97 3d
       -0.0008431688 -0.20190106 0.18079624 0.07420982
000190 d4 a0 71 be 55 56 65 be 2e 06 04 3e 3a 6c 91 3d
       -0.23596507 -0.22396214 0.12892982 0.07100721
0001a0 6b e6 89 3e 96 4d 96 bd b1 88 70 3d c9 00 14 3e
       0.26933607 -0.07339017 0.05872411 0.14453425
0001b0 b5 49 71 3e 0c 40 81 3e bd 6c 8f 3e 1a be 84 be
       0.23563273 0.25244176 0.28012648 -0.25926286
0001c0 6b b3 b7 be 84 89 40 3e 20 df 0d 3e 28 9f e5 bc
       -0.35879073 0.18802458 0.13854647 -0.028029993
0001d0 7a ba d5 bd df 8a 3f be 75 c9 6e 3d dc fd 29 3d
       -0.10435958 -0.18705319 0.058297593 0.041501865
0001e0 89 a5 83 bd f7 9f db be 5c 12 37 3e 68 93 af 3e
       -0.06428058 -0.4289548 0.17878097 0.3429215
0001f0 ad d1 9d 3d e7 9d 7c 3d 06 e3 a1 be 1c 97 08 be
       0.07706008 0.061674025 -0.31618518 -0.13338894
000200 08 73 b5 bd cb 33 48 3d 18 49 03 be 58 4c 9f 3d
       -0.08859831 0.04887752 -0.12820852 0.07778233
000210 3b 8c 1e 3d 5d 93 6a bb 19 3a cf bc a1 41 27 3c
       0.038707953 -0.0035793402 -0.025296258 0.010208518
000220 c1 e8 91 3e 3d ce f4 bd 25 f6 01 3e ed 94 29 3d
       0.2849789 -0.11953399 0.12691553 0.041401792
000230 0b b5 69 bc d4 56 64 be a9 7c c9 3e 0b e0 9c 3e
       -0.014264355 -0.22298747 0.3935292 0.3063968
000240 d2 f4 42 be 1d 44 00 be c5 2b 46 be b1 07 25 3c
       -0.19038704 -0.12525983 -0.19352634 0.010072635
000250 9f ca 40 3d 90 97 55 be 82 4d 32 3e 16 be c6 3e
       0.047068235 -0.20858598 0.1741238 0.388169
000260 29 d0 35 3d c1 ee 91 be 4b f1 f0 bd 9c 09 6a 3d
       0.04438797 -0.28502467 -0.11764773 0.05713807
000270 bd 03 95 bd f7 43 91 bc 3b 27 0d be d3 ec d5 3d
       -0.07276104 -0.017732603 -0.13784496 0.10445561
000280 be e9 88 be 48 66 97 be f2 ea 35 be 3e ff 06 3e
       -0.2674083 -0.29570222 -0.17765406 0.13183305
000290 46 87 95 bc cb e4 e8 bd 2d 8c 86 be 0a 35 b5 3d
       -0.01825298 -0.11371764 -0.2627882 0.08848007
0002a0 b5 4b 6c be d9 4f ea bd 76 06 95 3e aa 1a 52 3e
       -0.23075755 -0.11441011 0.29106492 0.20517984
0002b0 ec 06 ac 3e 3f db 6c ba 69 e5 c0 bc ac f7 d2 3b
       0.3359903 -0.0009035356 -0.023546891 0.006438216
0002c0 b1 5f f0 bd de f6 25 3d 78 76 42 be e1 f1 28 be
       -0.11737002 0.040518634 -0.18990505 -0.1649852
0002d0 2b 73 d6 be 57 ff c0 be 89 e0 a8 3d 9d 28 c2 bd
       -0.4188474 -0.3769481 0.08245952 -0.094804026
0002e0 04 f3 47 3d 6d f4 c8 3c 74 e9 7f be f6 30 ed bb
       0.048815742 0.024530614 -0.24991399 -0.0072385026
0002f0 f8 22 10 bd 57 7b 99 3d f5 d4 54 3d ed 57 65 3e
       -0.0351896 0.07494228 0.051960904 0.22396822
000300 40 3a d0 3e 23 f5 d2 3e 1f b0 76 be 8f bb 34 be
       0.4066944 0.4120265 -0.24090622 -0.17649673
000310 ab cf bf 3d 99 81 6f be a5 ed 53 3e 16 88 0f be
       0.093657814 -0.23389281 0.20696123 -0.14016756
000320 81 91 92 3e af 9c 1f be 8e 8a 1e 3e ea 06 98 3c
       0.28626636 -0.15587114 0.15482542 0.018557984
000330 f4 57 4b be e9 02 7b bd 78 b9 79 3e c0 c1 46 be
       -0.1985777 -0.061282072 0.24387157 -0.19409847
000340 d6 2d 89 be 88 83 4c be 13 a9 47 3e 53 12 f0 bd
       -0.26792783 -0.1997205 0.1949809 -0.11722245
000350 28 0d 0a bf a0 aa ec 3d d7 c8 8e 3e 01 43 e0 bc
       -0.53926325 0.11555982 0.27887604 -0.0273757
000360 bb 4a 5f be 81 24 34 be 67 07 e5 3b da a8 1c 3c
       -0.21805851 -0.1759205 0.006989408 0.009561742
000370 43 17 66 3e cf de b7 3e 2a 7f 68 3d cb d2 dc be
       0.22469811 0.35912177 0.056761898 -0.43129572
000380 47 b5 14 3e 87 6b d8 3d ca f4 c2 bd e0 5b d0 bd
       0.14522277 0.10567384 -0.09519346 -0.10173774
000390 c4 e2 51 be 95 91 32 be fa 02 79 3e 66 4c 2e bd
       -0.2049666 -0.17438348 0.24317542 -0.042553328
0003a0 94 09 b4 bd 8b 95 96 3e 1a ce bf be 81 54 5a 3e
       -0.087908894 0.29410967 -0.3746193 0.21321298
0003b0 c1 af 76 bb c5 b2 42 bd 67 47 20 3e 1b 5e 49 bc
       -0.0037641379 -0.04753377 0.15652238 -0.012290503
0003c0 8b 66 d2 be ff 34 1b be c9 8b 94 3e 11 12 a6 3e
       -0.4109386 -0.15156935 0.29012898 0.3243566
0003d0 51 cd 95 bd 8c 93 7f be 96 e6 64 be e8 2b 0b be
       -0.073145516 -0.24958628 -0.22353587 -0.13590968
0003e0 db ef 3b 3d 2a 85 36 be e8 b3 9a 3e ee 76 17 be
       0.04588304 -0.17824236 0.30215383 -0.14791462
0003f0 e4 3d d7 be ad 1b e6 bd 6b da b2 3e 1f f9 65 3e
       -0.42039406 -0.112357475 0.34932265 0.22458313

layers.0.bias f4 [70]
000000 7a d6 fa 3d a6 2a 2d be d3 80 71 bd 23 b9 61 3c
       0.122479394 -0.169108 -0.058960747 0.01377705
000010 91 ba 35 3d 27 53 55 3e 6e d5 42 3e f4 9c 6f bd
       0.044367377 0.20832501 0.1902673 -0.05849929
000020 61 45 ee 3d 5f e7 f5 bc d7 1e 27 be 79 2d 84 3d
       0.11634327 -0.030017553 -0.16320358 0.06453986
000030 db 23 8e 3d 73 40 8b bd 44 d7 4d 3c d4 5f 9e bc
       0.06940433 -0.06799402 0.01256353 -0.019332804
000040 bd ba 5a 3e 2a e2 1a be 1c 93 5d 3e 64 a8 d4 bd
       0.21360298 -0.15125337 0.21638149 -0.103836805
000050 d5 3e c4 3d 9e 72 de 3d 27 fe 82 3c d0 b7 5c 3d
       0.09582297 0.10861705 0.01599033 0.053886235
000060 c4 f8 05 3e 7b 14 5b bd 1e 06 89 3d ac 16 64 bd
       0.13083178 -0.05348633 0.0669062 -0.055685684
000070 2f 18 39 be 5e 36 02 be 62 1c 0f 3e 12 0f f0 bd
       -0.18075632 -0.12716052 0.13975671 -0.117216244
000080 2b 45 20 3d 59 c0 45 3d 22 97 d8 bd ce 9f 65 3d
       0.039128464 0.04827914 -0.10575701 0.056060605
000090 1e b1 15 3d cb 02 f9 bc 32 7c 1c 3e 1b 51 9a 3d
       0.036545865 -0.03039684 0.15281752 0.07535001
0000a0 05 24 ce bc 8c 4e 00 3e ef 2c 03 bd 90 64 e3 3d
       -0.02516366 0.12529963 -0.032025274 0.11103165
0000b0 97 0e 25 be 63 f1 ca 3d 73 0f cd 3c 2f 5a 47 3e
       -0.16118847 0.09909322 0.02503178 0.19467996
0000c0 38 0e 4a 3d 98 c1 b6 3d 33 61 fa bd 22 b3 1a 3e
       0.049329966 0.08923644 -0.122255705 0.15107396
0000d0 2a e6 1b 3e 4d 7b f0 bd 2c 80 50 3e c5 bc da bd
       0.1522452 -0.11742268 0.20361394 -0.10680536
0000e0 e8 64 14 3e 26 e9 b7 bc 30 92 37 be 18 70 b9 b9
       0.14491618 -0.022450041 -0.1792686 -0.00035369466
0000f0 55 26 63 3d 02 69 d2 bc 5a 88 ec bd 11 c1 fa 3d
       0.05545648 -0.025684837 -0.115494445 0.12243856
000100 1c ab e7 bd e3 b5 92 3d f8 69 c1 bd aa 00 14 be
       -0.113119334 0.071635984 -0.0944404 -0.14453378
000110 5b 0e 0a be fc c1 87 3d
       -0.13482039 0.066287965

layers.1.weight f4 [50, 70]
000000 ba f4 2a bd 13 e6 9d bc 47 3b 79 bd 27 a9 82 3d
       -0.041737296 -0.019274747 -0.060847547 0.063799195
000010 eb 20 18 3d 62 f7 92 bc 3c bc 18 3d 5a d7 9e 3d
       0.037140768 -0.017940227 0.03728889 0.07755919
000020 e0 41 50 bd ee 28 0b 3e 76 b3 a7 3d 50 e8 52 bb
       -0.050844073 0.13589832 0.08188526 -0.0032181926
000030 0a 23 c9 3a da 4c b5 3d a6 3c 33 3d 46 71 a0 bc
       0.0015345525 0.08852549 0.04375901 -0.019585263
000040 8c db 7c 3c ae a9 77 bd 82 15 3e bd 54 dc f5 3d
       0.015433203 -0.060464554 -0.04640723 0.12004915
000050 2a cd a4 bd db 50 a6 bc dc 74 09 bb 43 31 75 bd
       -0.080469444 -0.020302227 -0.0020974195 -0.059861433
000060 a1 cc 0f 3d 24 6a 91 bd b1 ff 53 bd 4b cb 0f be
       0.03510726 -0.07100323 -0.05175752 -0.14042394
000070 aa 2d 3e 3d 43 0a b7 bd 6f ea 0b 3c 7b 2d 2b 3e
       0.046430267 -0.08937504 0.00853978 0.16716568
000080 f0 1f 3e 3d 87 41 cc 3b a1 e5 76 bd 6e 25 92 3d
       0.046417177 0.0062333974 -0.060277585 0.071360454
000090 61 72 82 3d 3b 0d 2c be 36 f9 59 bd 26 43 5f 3d
       0.06369472 -0.16801922 -0.05321618 0.054507397
0000a0 8c 04 50 bd 7b ea 14 be 1e 59 5a bb 8b e6 1f 3e
       -0.050785586 -0.14542572 -0.0033317278 0.15615289
0000b0 7b 0a 79 3c 4f 12 0b 3e 84 60 03 bd 61 da c7 bd
       0.015200253 0.13581203 -0.032074466 -0.09758449
0000c0 5b 10 57 bb e5 81 f2 bd b6 ca 61 3d 3e 50 31 3d
       -0.0032816145 -0.11841182 0.05512496 0.043289416
0000d0 d7 30 3b 3d 44 f3 cb 3c 6e 11 95 bd f6 20 7a 3d
       0.045700874 0.024896272 -0.07278715 0.06106659
0000e0 db bc 54 3d 72 c4 23 be ce 16 18 3e 94 ae c4 3d
       0.05193792 -0.15992907 0.1485245 0.09603611
0000f0 57 93 2b 3d b8 ff 83 3d 87 bc e0 3c c9 3f 03 bd
       0.04188856 0.06445259 0.027433647 -0.032043252
000100 e2 89 10 3d 80 7d 57 3b 9d 48 11 3e 14 02 35 bd
       0.035287745 0.00328812 0.14187856 -0.044191435
000110 ab e5 80 3d ce 71 d0 3d 87 5d 9c 3d cc 64 1f bd
       0.06293806 0.101779565 0.076350264 -0.038914487
000120 60 bf d0 3c 13 e0 78 3d 07 3b 15 3d 42 76 e5 3d
       0.02548188 0.06076057 0.036433246 0.112041965
000130 86 11 74 bd b2 9a 97 3b 29 53 69 bd 67 76 c4 3b
       -0.059587024 0.0046265954 -0.056964073 0.00599556
000140 d1 5c 82 3d aa 5d d1 3b 95 42 a7 3c f2 45 1b bc
       0.063653596 0.0063893395 0.020417491 -0.0094771255
000150 b8 82 fa 3d a0 96 b0 bd 8f f2 bc 3c 9c d2 2f 3d
       0.12231964 -0.086224794 0.02306488 0.042925462
000160 1d 3d 7e 3d c7 8b 05 bd 7a 4b 8e bd d2 29 0c be
       0.06207 -0.032604005 -0.0694799 -0.13687828
000170 50 a6 0d be 5e 2d 97 bd 1e 53 b5 3d 28 b1 bf bd
       -0.13832974 -0.073817 0.08853744 -0.09359962
000180 77 5a 0d bd 2e 5b 30 3d 3c 70 aa 3d 78 4e e5 bc
       -0.034510102 0.043055706 0.08322188 -0.027991518
000190 4e ef e2 3d eb da 9c 3d 7d 8c 91 bc 8b 1d d2 3c
       0.110808 0.07658943 -0.017767185 0.025648853
0001a0 a5 44 ab bd 02 cd 63 bd 31 c0 d6 bd 91 c8 a2 3c
       -0.08362702 -0.055615433 -0.10485876 0.019871028
0001b0 7e 5f 20 3c a4 05 ae 3d 12 57 c8 3d 68 e6 b7 3d
       0.009788392 0.084971696 0.09782232 0.089794934
0001c0 e3 e8 8d bd 38 60 42 bd 19 2b 65 3d 7e 7d 19 bd
       -0.06929185 -0.047455043 0.055949304 -0.037473194
0001d0 03 5e 1a be 5b 89 e9 3d ae 22 a9 bd 67 cd 93 3d
       -0.15074925 0.114031516 -0.08258568 0.07216912
0001e0 77 b1 48 be 13 c1 84 3c 44 15 64 3c d4 01 90 bd
       -0.19598947 0.016205346 0.013921086 -0.07031599
0001f0 b2 8a d2 3a 7e 9e 23 3c b9 3e 10 3e 6b 02 95 3c
       0.0016063063 0.009986518 0.14086427 0.01818963
000200 13 b3 c6 3c 5e b5 08 bd fb 91 86 3d 4e 50 a0 bd
       0.024255311 -0.03337609 0.06570812 -0.07827817
000210 37 24 04 3e df 7e ec bc 41 5b 1b 3d 0c 3e 0a 3e
       0.1290444 -0.02886909 0.037928823 0.13500232
000220 89 5c 34 3d 89 40 05 3d b3 83 26 3d ac fc 48 3d
       0.04403356 0.03253225 0.040652942 0.04906909
000230 1c 89 48 3d 1a b7 0b be d1 72 a9 3c 7b 7f 97 3c
       0.048958883 -0.13644066 0.020684632 0.018493405
000240 17 56 1b 3d 65 bd 12 bc 97 98 73 bd 2a 82 9e 3b
       0.0379239 -0.008956288 -0.059471693 0.004837294
000250 c4 ca 5c 3d 0e 82 21 3e 61 f5 fe 3b 3a 7a 1c 3e
       0.05390431 0.15772268 0.0077807163 0.15281
000260 c6 89 11 3e 0c 47 0b bc 78 a6 de 3d e2 c4 8e bb
       0.14212713 -0.008500826 0.10871595 -0.0043569664
000270 6b 8b 0c bd 34 13 88 bd 4a e7 01 3e 12 7e 5d bd
       -0.034312647 -0.06644288 0.12685886 -0.05407531
000280 8c 5f 70 bc 4f df 3b 3d 58 0f 7f bc 51 00 0c 3e
       -0.014671218 0.04586726 -0.015567623 0.13671996
000290 74 1b 8b 3d 0d 10 23 3d 18 a0 eb bd b8 4c 4c bd
       0.06792346 0.03981023 -0.11505145 -0.049877852
0002a0 82 b4 aa bc 5e e4 ad bd 6b 71 e4 3c 59 32 99 3d
       -0.020838026 -0.08490823 0.027886113 0.07480306
0002b0 32 17 eb 3d 5b fe 52 bd 73 77 8e bd 56 ca 98 3d
       0.114790335 -0.051512104 -0.06956377 0.074604675
0002c0 ee a5 2f 3c e2 fb d9 bd e0 5f 7a 3c 85 d1 ad 3d
       0.010720713 -0.10643746 0.015281647 0.08487228
0002d0 c1 19 25 3e 95 0f ec bd 80 4c 33 bd b4 2e ac 3d
       0.16123106 -0.115264095 -0.043774128 0.084073454
0002e0 30 ff 58 3d d8 41 bd 3c da f6 54 3d 13 f9 b2 bd
       0.05297774 0.023102686 0.05199323 -0.087389134
0002f0 92 7f 15 3d f9 2e 47 bc c5 e7 bd bd e6 34 06 3d
       0.036498614 -0.012157195 -0.09272722 0.03276529
000300 ff 81 89 3d 0a a2 8c bd de bc 4f be 33 08 70 bc
       0.06714248 -0.06866844 -0.20286891 -0.014650392
000310 56 86 7c bc 05 fa 07 bd 38 a9 79 3d 5c 5d bf 3d
       -0.015412888 -0.03319742 0.060952395 0.09343979
000320 cb 8b e7 3b ce 22 ee 3c 1a 35 f5 3d 4c 43 87 3d
       0.007066225 0.02906933 0.11973019 0.06604633
000330 7a 93 ec ba 8c 2e fd 3d a9 77 2a 3e 5c 02 ca bd
       -0.0018049323 0.12362394 0.16647209 -0.09863731
000340 0e 48 15 3e f6 0c 4a bd ba a0 53 ba 7b 97 8b bd
       0.14578268 -0.049328767 -0.00080729614 -0.06816002
000350 ae 53 d7 bd db 92 69 3c 19 b3 67 3d 90 24 52 3d
       -0.105140075 0.0142562045 0.056567285 0.0513044
000360 fa d4 de bc dc fd ca bb cb e0 06 3e 4a f0 1e 3d
       -0.027201165 -0.006194813 0.13171689 0.038803376
000370 f0 93 41 3e 1a 22 94 bd c1 4a 41 bd e8 1d c8 bc
       0.1890409 -0.07233067 -0.04719043 -0.024428323
000380 bd 4b 02 bc 0c dc 29 bd 2e db 37 3c c2 8c bc bd
       -0.007952628 -0.04146962 0.01122169 -0.09206535
000390 f4 de 58 bb 44 22 28 bd 10 17 8f 3d 5c 3c 06 3e
       -0.0033091875 -0.041048303 0.06986821 0.13108963
0003a0 ec df 94 bd 67 09 52 3d b1 22 08 bd 54 52 60 bd
       -0.07269272 0.051278498 -0.03323621 -0.054766014
0003b0 2d 2e fe bd 88 34 08 bd bb ba a9 3d d3 6f 02 bd
       -0.12411151 -0.033253223 0.08287569 -0.031844925
0003c0 bd fb e4 3c 7b 00 af 3d c6 f7 b7 3d f9 e8 39 3d
       0.02795207 0.085450135 0.08982806 0.045388196
0003d0 bc 89 10 be d8 e1 87 3d bd 06 8e 3c ec 1f 90 bd
       -0.14115041 0.06634873 0.017337197 -0.070373386
0003e0 10 db be 3d 00 5a f5 3d db c8 6a bd d0 c5 1f bc
       0.093191266 0.11980057 -0.057320457 -0.009751752
0003f0 01 4e e7 3c db ec b3 3d 14 3c c6 bd 70 c5 06 3e
       0.028235437 0.08785411 -0.09679428 0.13161254

layers.1.bias f4 [50]
000000 6e 79 e3 3d ba d4 9c 3d 69 69 12 3d ec cb 4f 3d
       0.11107145 0.07657762 0.03574506 0.050731584
000010 3c 1b 8c 3c 4a d9 17 3d 1e ff 6c ba a2 b7 d0 3c
       0.01710283 0.037072457 -0.0009040701 0.025478188
000020 cb c7 60 bc 35 68 3f bc 7f 9b 2b 3d 11 22 53 bd
       -0.013719509 -0.01168256 0.04189634 -0.05154616
000030 72 67 87 bb eb 9c 09 3d 2c d6 f2 3d 95 f2 42 bd
       -0.0041322047 0.033596914 0.11857256 -0.047594626
000040 29 cb 5d 3d 14 75 8f bd c6 ae 12 bd 72 36 84 3d
       0.054148827 -0.07004753 -0.03581121 0.06455697
000050 3b d0 89 bd bc b7 bb 3d 93 15 ea 3d 04 11 56 3d
       -0.0672917 0.09165904 0.11429896 0.05226232
000060 82 36 02 3e e9 1a 42 3c 99 72 83 bc b6 c1 8e 3c
       0.12716106 0.011847236 -0.016045855 0.017426353
000070 21 7f 6a bd e6 75 28 bd 55 e3 2b 3d 87 ac 6b bd
       -0.057250146 -0.04112806 0.041964848 -0.05753758
000080 d8 c4 b0 3d d4 4e 54 3d 10 d2 c1 3c 82 b3 89 bc
       0.08631295 0.05183299 0.023659736 -0.016809229
000090 0e ee 0c bd 1b bc 7d 3d 50 a9 fc b8 64 b4 7b bd
       -0.034406714 0.06194697 -0.00012047833 -0.06145133
0000a0 52 23 85 bd b8 f6 f4 bc 6f d6 54 bd 32 29 03 bd
       -0.065008774 -0.0299028 -0.051962312 -0.03202171
0000b0 36 50 81 bd d3 f2 48 3d 81 27 19 bd 99 76 7a 3d
       -0.06314127 0.0490597 -0.03739119 0.06114826
0000c0 05 dc 9e 3c ec 40 38 bc
       0.019392023 -0.011245947

layers.2.weight f4 [90, 50]
000000 f2 86 06 be 23 ca 8e 3d 8d bd 85 3d 07 82 9a bc
       -0.13137415 0.06972148 0.065302946 -0.01886083
000010 96 28 6d 3d ce 76 d3 bd 28 f9 dd bd 98 27 d4 bd
       0.057900034 -0.103253946 -0.108385384 -0.103591144
000020 7c 6d b6 3d 66 c7 12 be 89 76 e4 3c 55 da fd 3d
       0.08907601 -0.14333877 0.027888553 0.12395159
000030 70 de b2 3d 72 8e a6 bd 58 e1 d7 3d 78 48 67 bd
       0.08733833 -0.08132638 0.10541028 -0.056465596
000040 6a a5 00 bc a6 6e ac bc 23 56 cc bc b6 83 85 3c
       -0.007851938 -0.021048855 -0.024943417 0.016298156
000050 01 1a e0 3d ee f6 79 3d 21 70 61 ba 50 da a3 bd
       0.1094246 0.061026506 -0.00085997774 -0.08000624
000060 3d c4 0b 3e 78 be 9e bc 21 c7 be 3d d6 80 6f bc
       0.13649078 -0.019377932 0.093153246 -0.014618119
000070 fc 51 18 3d f6 bb 1b bc 41 54 c1 3d df 69 e8 bd
       0.03718756 -0.009505263 0.09439898 -0.11348318
000080 3e 74 ec 3c e4 f8 39 3d ca ca 35 3d 5f 17 89 bd
       0.028864022 0.045403376 0.044382848 -0.06693911
000090 ca a7 01 3e 1d 84 c3 bd 05 d1 0b 3e 8d e5 eb bd
       0.12661663 -0.09546683 0.13653953 -0.11518393
0000a0 f9 59 67 3d c9 5e 20 3e 4d 0e d6 3c 7f 84 7a bd
       0.05648229 0.15661158 0.026129866 -0.061161514
0000b0 43 0a 7a 3d 8f 78 f5 3d 81 a4 c7 3d 03 09 27 bd
       0.061044943 0.11985885 0.097481735 -0.04078008
0000c0 af 11 28 3e f3 c8 b0 bd 05 6e 6e 3c 9a 97 cd bd
       0.16412996 -0.08632078 0.014552598 -0.10038681
0000d0 4b 27 73 bb 10 fa f0 3d 42 4f f7 3d 4e 8d 9e bc
       -0.0037102278 0.11766446 0.12075664 -0.019354489
0000e0 1d 4f 40 bd 2b b4 b1 3c c7 a6 9b bc a5 a6 f4 3d
       -0.04695045 0.021692356 -0.019000424 0.119458474
0000f0 c5 4a 44 bd 06 74 29 be 67 f3 b0 3c 21 60 05 be
       -0.04792287 -0.16548166 0.021600438 -0.13024952
000100 cd f5 40 bd ed 67 79 bd 02 f0 e6 bd d9 99 39 3c
       -0.047109414 -0.060890127 -0.112762466 0.011328184
000110 eb b3 8f bc 07 d4 06 be 42 a5 d6 3d fe 20 2c bd
       -0.017541846 -0.1316682 0.10480739 -0.04202365
000120 5b c3 2a 3e ed 4c 18 3e ab f4 79 3d aa e1 fc 3d
       0.16676085 0.14873095 0.06102435 0.123477295
000130 98 45 1f bd 65 f9 b1 bc e4 1e 0d 3e fd 2a 9a 3d
       -0.03888473 -0.021725366 0.13781315 0.075277306
000140 ca f0 17 3d 5f 9c d1 bc 66 52 3a bd 32 6d 49 3e
       0.03709487 -0.025587259 -0.045488738 0.19670561
000150 94 07 80 3d ae cd 20 bd 26 24 39 be ec 44 1f 3e
       0.062514454 -0.03925865 -0.18080196 0.15553635
000160 44 10 b9 bb bc c0 69 bd a8 1d f9 bd d4 01 0e 3d
       -0.005647691 -0.05706857 -0.121638596 0.034669712
000170 28 15 96 bc 3b ec bd bd 01 2f 43 3d d2 6f d1 bd
       -0.018320635 -0.09273573 0.04765225 -0.10226406
000180 0b b2 ad bd aa eb c5 3d bc 2d 85 3c 5f 3d 0c bd
       -0.084812246 0.0966409 0.01625716 -0.034238216
000190 57 77 c4 3d 35 c1 5c bd ba 4f 4b bd 2a cd c8 3d
       0.09593075 -0.053895194 -0.04963658 0.09804757
0001a0 d2 12 4b 3d ec 23 96 bd fb 74 99 3d fe b4 87 3b
       0.049578495 -0.0733107 0.074930154 0.004141449
0001b0 fa ae f8 bc 3a e4 f1 3c 56 17 fa bd fe 9c 60 bc
       -0.030356873 0.029527772 -0.12211482 -0.013709305
0001c0 f7 2d 52 bd 47 56 31 be b4 42 fc 3d f1 43 45 be
       -0.051313367 -0.17318068 0.1231741 -0.19264199
0001d0 09 2f 10 bd 17 79 2d be af 50 7b 3d 35 8f 79 3d
       -0.035201106 -0.16940723 0.061356243 0.06092759
0001e0 93 a0 07 bd 13 ab df bd 4f c3 f5 3c f9 81 c6 ba
       -0.03311212 -0.10921302 0.030000357 -0.0015144936
0001f0 4b 56 8c 3d ea c7 b0 bc eb 39 3b 3e b3 03 26 3e
       0.068523966 -0.021579701 0.18283813 0.16212349
000200 c9 44 f7 bc 41 33 f8 3d d0 ec 72 3d 15 74 e9 bd
       -0.030184167 0.12119151 0.059307873 -0.11399094
000210 35 d5 bc 3d e1 bd 94 bd d8 11 85 bd 46 17 26 3e
       0.092203535 -0.07262779 -0.06497544 0.16219816
000220 90 93 94 bd fd 20 a6 3d 1a 39 25 bd ca 98 60 3d
       -0.07254708 0.08111761 -0.04033766 0.05483321
000230 6d 44 9f bd 4c 61 2e 3c 2d 1c d9 3d 31 42 d2 bb
       -0.07776723 0.010643315 0.10601077 -0.006416582
000240 e4 e6 c3 bb c9 f0 a1 bd 84 4a 15 bd 70 41 6f bb
       -0.005978452 -0.07907254 -0.036448017 -0.003650751
000250 82 bd 71 3c 2a 1a 53 3e 74 2e d4 bc 75 47 37 bd
       0.014754655 0.2061545 -0.025901057 -0.04474588
000260 5d 77 ef bc 25 e7 80 bc 16 c0 05 be 6d 6e 43 bd
       -0.029231722 -0.015735218 -0.13061556 -0.047712732
000270 75 fc 03 3e 55 00 b3 3d 86 5f ec 3d c5 a0 5a bd
       0.12889273 0.08740298 0.11541657 -0.053375978
000280 54 e6 cc 3d 45 f3 57 3d a0 88 2f be a1 26 54 bc
       0.10004869 0.052722234 -0.17141962 -0.012948663
000290 de 04 10 be 67 e8 04 be ba 61 cf 3d e6 5b bf bc
       -0.14064357 -0.1297928 0.10126062 -0.02335925
0002a0 55 c7 bc bc a1 b7 e4 bc 9c 06 70 3d 4c ec 5e bd
       -0.023044268 -0.027919592 0.058600053 -0.05442457
0002b0 d0 b2 5d bc 90 0a 14 be 53 a2 08 be c5 4c dc bd
       -0.013531402 -0.14457154 -0.13343172 -0.1075683
0002c0 69 26 0d 3c 4f b2 24 3e 4f bb 74 3d 96 f9 23 bc
       0.008615115 0.16083644 0.059748944 -0.010008236
0002d0 59 07 a9 3d 6d f6 db 3c b8 76 9a 3c 84 ec 68 be
       0.082533546 0.026850903 0.018855438 -0.22746474
0002e0 f7 2a 9c bd d8 c0 7b 3d 99 b0 ea bc e3 09 0b be
       -0.076253824 0.061463207 -0.028648661 -0.1357799
0002f0 42 a2 32 bd 22 63 07 be ab 5a 2d bd 2c bf f7 3c
       -0.043611772 -0.1322141 -0.042322796 0.030242525
000300 0c cc 1a 3e ab ee f3 bd 17 b4 f5 3c 81 b4 f8 3d
       0.151169 -0.11910757 0.0299931 0.121438034
000310 38 00 c6 3d 48 9e 3d 3e e3 59 49 3d bc e8 1a bd
       0.096680105 0.18517411 0.04915799 -0.03781961
000320 15 e2 c4 3d d5 bb fe 3d 4d e1 61 3c 78 ba 10 3c
       0.09613434 0.1243817 0.013786626 0.00883352
000330 f3 f3 45 bc 0f 8d a4 bd aa b7 fb 3d da b3 01 3d
       -0.012082088 -0.08034717 0.122908905 0.03166566
000340 eb e6 79 3d 4a 75 b7 3d 27 f8 4e 3d ad 08 57 bc
       0.061011236 0.08957918 0.050529625 -0.013124627
000350 7f f6 1b 3e 4b 97 1c be 59 68 22 3e 03 bd 08 be
       0.1523075 -0.15292089 0.15860118 -0.13353352
000360 52 dc f7 3d dd 23 12 3c eb ca 86 bd 05 c5 d7 bd
       0.1210257 0.008919683 -0.06581672 -0.10535625
000370 2d 6d 94 3c a8 9e a8 3d 6c bf 47 3d 12 3d f4 bc
       0.018118465 0.08233386 0.04876654 -0.029814277
000380 6e d6 bd 3c c4 86 cd 3d 05 cd 07 3e 87 a8 49 bd
       0.023173537 0.1003547 0.13261802 -0.049232986
000390 19 85 cf 3a 74 db af 3d de 22 37 bd 49 c5 ee bd
       0.0015832513 0.08586779 -0.044710986 -0.11658723
0003a0 ac f3 45 bc d9 c5 8c 3c b6 63 e3 3c 5b cd 3b 3e
       -0.012082022 0.017184185 0.027757507 0.18340056
0003b0 2b d3 31 be e4 23 e8 3d f9 12 13 3e 7a 6f 13 3c
       -0.1736571 0.113349706 0.14362706 0.008998746
0003c0 00 d2 17 be 8e 58 43 be 1a 65 21 3e ab c0 c9 bd
       -0.14826202 -0.1907675 0.15761223 -0.098512016
0003d0 63 a2 06 be 24 c2 0b be 04 f2 ef 3d d5 33 6d 3d
       -0.13147883 -0.13648278 0.11716083 0.05791076
0003e0 9d e2 37 3d 81 95 51 bd 0e 34 dd bc ed 22 af bd
       0.04489385 -0.05116797 -0.02700236 -0.085515834
0003f0 e9 46 c1 3d d1 3b b7 3b 16 57 01 3e 5b a9 9d 3c
       0.09437353 0.0055918475 0.12630877 0.019245794

layers.2.bias f4 [90]
000000 49 9b f0 bd ec 20 a9 3d c2 4f ab 3d 90 1c 1e 3d
       -0.11748368 0.082582325 0.08364822 0.038601458
000010 57 31 7f bd 72 f6 9f 3d 17 06 d6 bd c1 8d 49 bd
       -0.062302914 0.078106776 -0.1045038 -0.049207453
000020 3d 7d 97 bd 16 ba a1 3d 9c 3e ac bc b7 ae ef 3d
       -0.07396934 0.07896821 -0.021025948 0.11703246
000030 dd cd 76 3d 85 0f 2d 3d 57 5b 46 3d 02 3d 29 3d
       0.06025492 0.04225113 0.048426952 0.041317947
000040 35 5e fe bd c5 13 2a bd 8b bb c7 bb 0a 59 c2 3d
       -0.12420312 -0.04152276 -0.006095355 0.09489639
000050 c1 b8 b4 3c 76 f8 2a bd 2d 1a 80 3d ce f6 24 3d
       0.022060754 -0.041740857 0.06254993 0.040274434
000060 15 65 bc bd 1d c8 9c bd 09 18 87 3d d7 8a 0e bd
       -0.09198967 -0.07655356 0.06596381 -0.034800377
000070 a9 81 50 bd 83 00 30 bd 97 d1 b7 bc 7b a6 8c bd
       -0.050904904 -0.042969238 -0.022438807 -0.06867691
000080 a2 22 14 bd b1 ef 99 3d ae c3 d5 3c ca 6b 7d bd
       -0.03616584 0.07516421 0.026094284 -0.061870374
000090 91 0f b6 3c 79 e4 d5 bd 39 74 c9 3c 3e 37 c2 bd
       0.02222422 -0.10443968 0.024591552 -0.09483193
0000a0 1b 25 35 3d e2 9d e8 bd fd e3 8f 3d 80 f4 62 3c
       0.04422484 -0.11358239 0.07025907 0.013852239
0000b0 b4 30 c7 bd d0 ec ed 3d 72 de 35 bd 6e 35 92 bd
       -0.09726086 0.11617434 -0.044401594 -0.07139097
0000c0 fe 18 a5 3d 59 70 e9 bd 40 ef 2d 3c d4 6e b7 bd
       0.080614075 -0.11398382 0.010616124 -0.08956686
0000d0 cc 66 7c bd 3e 06 9c 3d df 54 19 3e 00 55 9b 3d
       -0.061621472 0.07618378 0.14973782 0.07584572
0000e0 1b 30 02 bc 86 f0 93 3c 9c 38 ba 3d a4 5f 0b be
       -0.00794604 0.018059026 0.09092829 -0.13610703
0000f0 1d 91 db 3c 8b d1 69 bd 36 86 35 3d a0 1d 41 3d
       0.026802594 -0.0570846 0.044317447 0.047147393
000100 77 f5 34 3d 13 03 f6 3d 83 d0 a7 3d ae 92 86 3d
       0.044179406 0.12012305 0.08194067 0.06570946
000110 d0 2c e5 3c b9 e4 aa 3d 4b 5a af bd 7e ba 08 3d
       0.02797547 0.08344407 -0.08562144 0.033380978
000120 b9 83 e8 bd b8 7a 31 bc 22 78 88 3d cd 0d b5 bd
       -0.11353249 -0.010832481 0.066635385 -0.08840523
000130 b8 70 b2 3d 7c 7f dd 3a 09 dd dc bd 79 0d 29 bc
       0.08712906 0.0016898955 -0.107843466 -0.010318154
000140 cb 7e b3 bd ac d8 06 bd c8 29 70 bd 63 cc ec 3d
       -0.08764418 -0.03292148 -0.058633596 0.11562421
000150 5d 1a c8 bd 2a 10 8c 3b 53 b6 23 bd 49 22 ad 3d
       -0.097706534 0.004274388 -0.0399688 0.08453805
000160 8d 6d a5 bd e0 6e 95 3d
       -0.08077536 0.07296538

layers.3.weight f4 [5, 90]
000000 5a 04 fd 3c ce 20 5b bd 2b a7 2c 3c d2 06 11 bc
       0.030885864 -0.053498082 0.010537903 -0.008851724
000010 22 56 17 be 2b 7e ea bd 5a dd 39 be ba 0b cf 3d
       -0.14778951 -0.11449846 -0.18150845 0.101096585
000020 04 41 9f bc 87 30 d3 bd b2 35 a7 bd 73 45 9a 3d
       -0.019440182 -0.1031199 -0.081645384 0.07532778
000030 cd d7 f8 bd 65 95 73 3c f2 b9 b8 3d 44 38 bd bd
       -0.12150536 0.014867161 0.09019841 -0.092392474
000040 82 23 08 be 84 97 3a bd 38 4f 17 3e dd c1 9c bd
       -0.13294795 -0.045554653 0.14776313 -0.07654164
000050 32 47 0c be a0 40 b0 3d 0c 5a 63 3d 93 8d ca 3d
       -0.13699034 0.08606076 0.055505797 0.098902844
000060 91 f1 33 3d 91 81 22 bd 03 80 d6 bd 91 ad e4 bd
       0.043931548 -0.039674345 -0.10473635 -0.11165918
000070 77 35 85 bd a7 39 d1 3d 6d 2c ae 3d b7 13 25 bd
       -0.06504338 0.102160744 0.08504567 -0.040302005
000080 7f 6b 75 3d 25 b1 50 3d 4f 47 e8 bd 27 b5 87 3d
       0.05991697 0.05095019 -0.11341726 0.06626349
000090 37 31 c8 bd 09 07 43 bd 19 b5 f2 3c 12 2e a1 3d
       -0.09775012 -0.04761413 0.02962737 0.07870115
0000a0 17 c3 0d be fb 57 a8 3d bc cb 3c 3d c1 9d 3e 3d
       -0.13843952 0.08219906 0.046092734 0.046537165
0000b0 be f5 87 3c 97 41 c5 3d ac 9b 22 be d5 7e 55 bd
       0.016596671 0.09631651 -0.15879697 -0.05212291
0000c0 89 ea 16 bc 2b f8 30 be b8 54 c2 bd f3 f2 cd bd
       -0.009211191 -0.17282169 -0.09488815 -0.100561045
0000d0 f4 fc 8a bd b0 fd 85 bd 66 23 87 3c e0 63 95 bd
       -0.06786528 -0.06542528 0.016496371 -0.0729444
0000e0 76 34 67 bb 97 89 64 3a dc 45 11 3e 00 ca 2c bd
       -0.0035279072 0.0008718012 0.14186805 -0.04218483
0000f0 4c 45 17 be 83 ee 34 3d 4e ce 86 3c e3 12 e6 3d
       -0.14772528 0.044172775 0.016455796 0.11234071
000100 cf a4 e9 3b f8 4f c2 3a f9 38 d0 3d 91 e5 36 be
       0.0071302424 0.0014824858 0.10167117 -0.1786101
000110 54 62 62 3b a5 5f bd bb 92 f0 35 3d f3 f2 40 3d
       0.0034543471 -0.005779224 0.04441888 0.047106694
000120 e2 0c 2d bc 4f 14 0d 3e 49 3c b8 bd 59 30 25 be
       -0.0105621535 0.13777278 -0.089958735 -0.16131724
000130 e7 6d 95 3d bc b2 05 3e d0 ec 3b 3d 81 bd 1c be
       0.07296353 0.13056463 0.04588014 -0.15306665
000140 34 8c 08 3d 07 1c 5b 3d ca ad 47 bd 48 bd 0d bd
       0.033336833 0.053493526 -0.048749723 -0.03460434
000150 81 43 93 3c 87 dc 98 bc 3a e1 01 3e 4a 1c 93 bd
       0.017976524 -0.018659843 0.12683573 -0.0718313
000160 6c 33 34 bd fe e8 c6 3d 47 ca 1e 3c 66 8b f7 bd
       -0.043994352 0.097124085 0.009691781 -0.12087135
000170 ba fd 30 bd 90 37 2d 3e ec d1 ce 3c 1f 9e d9 bd
       -0.043210723 0.16915727 0.025246583 -0.10625862
000180 0d df 9b bd 5e c2 9f 3d e6 7c f6 bc d6 83 82 bd
       -0.07610903 0.078007445 -0.030088853 -0.06372802
000190 49 8f 2c 3d 5c 36 b9 3d 1a 4f 53 3c 28 91 e8 bd
       0.042128835 0.09043571 0.012897277 -0.11355811
0001a0 0d 34 bc 3d 2b c2 b2 bd 35 91 bc 3d 21 25 89 3d
       0.091896154 -0.08728441 0.092073835 0.06696535
0001b0 90 b2 3d bb d2 a7 97 3c 6e 98 1b bd a6 70 0e be
       -0.0028945543 0.01851264 -0.037987165 -0.1391016
0001c0 59 ae 41 be b3 be ff bd 1e 9a 27 3d 55 b6 c7 3d
       -0.18914165 -0.12487545 0.040918462 0.09751574
0001d0 7a b7 2b 3c c5 4e d1 3c 2f a8 20 bb f5 46 6e 3b
       0.010480756 0.025550256 -0.0024514308 0.0036358212
0001e0 7d ea b2 bd fe b6 8a 3a df c8 98 bd 09 e1 ce bd
       -0.08736131 0.00105831 -0.07460188 -0.10101516
0001f0 1b 8d ba 3c 4f 29 04 be 9f 4c f4 bd 76 2c a7 bd
       0.022772362 -0.12906383 -0.11928677 -0.08162777
000200 8b 50 b5 3d cd 22 40 bd 84 35 54 3d 9b 10 04 3e
       0.08853253 -0.04690819 0.05180885 0.1289696
000210 62 27 93 bc 74 9e 06 be c1 70 28 be 09 87 95 3d
       -0.017963115 -0.13146383 -0.16449262 0.073011465
000220 a0 92 ce bd 79 bd 13 be c1 ca bc bd 2e 75 44 3c
       -0.1008656 -0.14427747 -0.0921836 0.011990828
000230 3e cc a7 bc e4 02 dd 3d 32 9b 86 3d 51 10 22 3e
       -0.020483132 0.10791567 0.0657257 0.15826537
000240 2e 47 39 3d 85 08 ea 3b fb e1 87 bc 83 d5 21 3c
       0.045233898 0.007142129 -0.016587248 0.009877565
000250 5a e0 d5 3d 2f 62 10 be af ce d4 bd be c8 2b bd
       0.10443182 -0.14099954 -0.10390984 -0.04193949
000260 19 80 50 3c 4a b5 18 3e b9 e3 b1 3c a9 72 c4 3c
       0.012725853 0.14912906 0.021715032 0.023980455
000270 dd 34 cf bd f1 6d 08 3d c3 35 2b bb e2 5d 1f 3d
       -0.10117505 0.033307973 -0.0026124574 0.038907893
000280 01 a2 b6 3d 3a fb 03 3e 5b fa 85 3d cc 4c 04 3e
       0.089176185 0.12888804 0.06541892 0.1291992
000290 40 15 16 be 85 08 49 bd cf a8 d4 bd 27 fb cd 3d
       -0.14656544 -0.04908039 -0.1038376 0.10057669
0002a0 04 1b 57 bd d9 64 d3 bd ca 67 e6 3d bc ce dc 3c
       -0.052516 -0.103219695 0.11250265 0.026954047
0002b0 6f d6 c1 bd 5c 4e 88 bb 88 e3 72 bd 9f f2 d4 bd
       -0.09464728 -0.004159732 -0.059299022 -0.10397839
0002c0 21 99 c4 bc 4c 6b fd 3d c0 37 e4 bd 92 44 1c 3e
       -0.023998799 0.12373981 -0.11143446 0.15260532
0002d0 b6 06 1b 3e c3 e1 5c 3c 68 d2 26 be 19 43 b6 bd
       0.15139279 0.01348156 -0.16291201 -0.088995166
0002e0 da 89 c9 bd 22 34 d9 3d f3 8f 82 bc ba 75 d6 3c
       -0.09840746 0.10605647 -0.015937781 0.026179183
0002f0 0d a8 ac b9 e1 a5 09 bd 45 f7 8f 3d 40 79 76 bd
       -0.00032931604 -0.03360546 0.07029585 -0.060174227
000300 15 29 47 bd 16 6c 72 bb 4a 0c b8 3d a9 25 b4 3c
       -0.048623163 -0.0036990694 0.08986719 0.021990614
000310 a7 42 20 3d 07 ee d4 3d b7 0d 11 3d e0 eb b5 bd
       0.039126065 0.103969626 0.03541347 -0.0888288
000320 8f f7 1c be 30 bf 47 bd b5 e7 92 bd e1 71 0e 3e
       -0.15328811 -0.048766315 -0.07173101 0.13910629
000330 55 30 20 bd 65 77 c7 bc 23 12 da bd f2 a7 03 3e
       -0.039108593 -0.024348924 -0.106479906 0.12857035
000340 1a 0f e8 3d 08 b7 a4 bd 85 72 f7 bd 1a db 83 3d
       0.113310054 -0.08042723 -0.1208239 0.06438275
000350 80 29 5b bc 93 63 1c bd 11 93 21 bd 3b 83 96 bc
       -0.013376594 -0.0381809 -0.039446894 -0.018373122
000360 d8 d2 47 bd 85 02 86 3d 4d 0b 16 be 98 8e 54 bd
       -0.04878506 0.06543449 -0.14652748 -0.0518938
000370 55 59 ff 3c 40 68 30 3d 75 bb ca 3d 96 9d 85 bd
       0.031170527 0.04306817 0.09899036 -0.06524198
000380 cf 37 c4 3d 3f 22 de bc e8 62 09 3e 7e 9b 79 bd
       0.09580957 -0.02711594 0.13416636 -0.060939305
000390 c7 7f 0d be 08 0e 07 3e 2e 9d 97 3c 6e b8 84 3d
       -0.13818274 0.13188946 0.018507566 0.0648049
0003a0 48 d4 97 3d c9 95 81 3c 7d 35 f1 bd 85 e4 62 3d
       0.07413536 0.015818493 -0.1177778 0.055393714
0003b0 9d 4e 90 3d 1a 88 e8 bd 9f 3e 3a 3d ac 1e 0a 3d
       0.07046244 -0.11354084 0.045469876 0.033720657
0003c0 72 ab ee 3c 94 18 01 bc 43 ae 21 bd 3d 36 98 3d
       0.029134486 -0.007879395 -0.03947283 0.0743222
0003d0 e8 08 1b 3c 86 be f1 bd 7b a6 1d bd 44 36 9a 3c
       0.009462573 -0.118039176 -0.038488846 0.018824704
0003e0 19 a7 10 3d 16 7e ed 3d 19 70 04 bc 0f a2 00 bd
       0.035315607 0.115963146 -0.008083367 -0.03140455
0003f0 b7 c0 18 3d ba 9d 69 3d fc c6 4c bd 09 6b 07 3e
       0.037293162 0.057035185 -0.049994454 0.13224424

layers.3.bias f4 [5]
000000 e3 b0 12 3c 88 7f 31 bd f1 f6 c9 bd d2 be aa bb
       0.008953306 -0.043334514 -0.098615535 -0.005210736
000010 23 ac 91 3d
       0.071129106
