irony/models/model_16.pt (torch_old, 58143 bytes, 8 tensors)

layers.0.weight f4 [70, 10]
00000000: 4c46 1cbd 4d0c 87bd 4366 9a3e 0ff0 7a3e
00000010: f4ce 80be a016 c7bd bc9e 663d 8b95 963e
00000020: 2a87 1a3e 9d14 dfbc a619 d1bb 6af4 abbe
00000030: ef0b e9bd 02b9 adbe 2f11 0b3e 0352 913e
00000040: dd98 6cbd c1e9 69be a82e 86be 9255 dd3d
00000050: 21bf 7b3c c3ed 33be fd8f 03be 2e49 56be
00000060: f098 56be 2433 70bd 78ac c4bd aead 77be
00000070: 7382 623e 842e bbbd 432c 62be ba62 983e
00000080: 5e13 fe3d 1ee6 72be ae59 223e 5c08 5abe
00000090: 908c 1dbe 0694 c33a 346f 24bd dfe6 6c3e
000000a0: fada 7abe cc4f 98be 7808 85be c369 c23d
000000b0: f221 543e 71db 2e3d d6c0 9fbd 32a0 18be
000000c0: 2330 9c3e 5bbc 5bbd f347 8b3e f053 94be
000000d0: 774e d4bc 719f bdbd 4f3a a73e f0a1 afbd
000000e0: 1a44 a2be 8712 583d 66b3 f93c a76b f5bd
000000f0: 459f bebc 4a3f 1b3d 99e1 af3d a191 b6be
00000100: 4804 43be c110 f73d 7451 8a3e bba4 5d3e
00000110: 3e71 a2bb 9419 0ebe c76a 82bc 694a a9be
00000120: 3995 1c3e 8d8e 893e 154c d43d 519d d33d
00000130: 90f2 953d 1cfb 44be bb28 6d3e c6e1 133e
00000140: 5c85 a9be 0a98 4ebe 7124 83be 5ba0 4a3d
00000150: 3963 893e ec15 63be aa45 323e e69e dcbd
00000160: 23d3 cd3c 274f 41be 1288 e23d 4918 88be
00000170: bf67 5fbd 6d5b e6bd 9d7e 243d 161d 0e3c
00000180: 5058 f73d 84ce d4bd 5e0c 163e 02aa 7d3e
00000190: 7dce bf3d 18c5 9d3d 4c94 9a3e 289b 023e
000001a0: 83fd bbbe 77f4 163e f610 0b3e 252a 033e
000001b0: 6ede a13e aab6 14be 578b eb3d 6b82 503e
000001c0: aca4 82be ab37 663e efaa 823e a82d f9bc
000001d0: 41e2 4c3e c0eb 5fbe fe6f 833e c3f5 263e
000001e0: 0498 9a3e 594a 883e efa6 58be 8ebf 513e
000001f0: 1b6a 1ebe 4411 983e 3a17 a13e 0545 273e
00000200: 1808 14bd b817 2cbe be07 b03d c915 b23d
00000210: 42e3 eebd b817 fc3d 6aab 9fbe 37b5 3b3d
00000220: 52bc 0a3d ed1f 60be 0f0c 96be 6109 82be
00000230: b62e 3cbc c103 d4bc 0713 b2bd ff8f 2dbe
00000240: 1291 3a3e 3e08 46bd 44dc 373e 822b 4b3e
00000250: 0b98 203e 3d13 74be 318a 4dbe b497 c53d
00000260: fea1 8e3e 2e87 903e 8612 89bd 4ab0 e4bd
00000270: d214 2b3e 3807 f43d d7fb f5bd 07d8 21be
00000280: 906b 003e 962a 543e de45 e1bd 10f5 783c
00000290: 2094 7f3e b397 b1bd 898f d0bc a745 3a3e
000002a0: 1eb9 6bbe ed12 833e b87a 76be ceca 91be
000002b0: 4bdd e5bd 8a0f 313e c09b c8bd fc89 173e
000002c0: ac83 ecbd e62f dabd 4a5d 293e d8b2 1dbe
000002d0: e4e7 5ebe d172 3fbd fdb6 553d 24bc 43be
000002e0: ed66 903e 3bc8 883e 0faa b8bb bcdf 1b3e
000002f0: e0d7 e73d 52b4 903e 08a5 2fbe 8009 98be
00000300: 611c cb3c c48b b73d 904a 3c3e 979c a13b
00000310: 38c7 5ebd 04d2 273d 90ee 773e e641 02bd
00000320: e425 10be ab64 893e e54e 873e 6f00 b43e
00000330: 808e 323c c72a 32bd 2046 0fbe d24a 28be
00000340: 0865 59be 3f86 963e 31e5 b93e b204 8e3d
00000350: ef8f 39be 176b a2be df91 26be ce4e 61be
00000360: a1ba 833d 2ea9 a3be 909d 863d 22a4 fe3c
00000370: b114 dbbd 00fd e73d 24e7 773e 9ea4 29bb
00000380: 864d be3b 6696 c83c dba4 863e 8c85 623e
00000390: 203a a13e a514 6ebd 4e05 3fbe 3156 9fbc
000003a0: 7843 c43d 013d aa3e 97fa 50be 21ac 5b3e
000003b0: bf43 a9bd 6b87 973e cbc6 863d ff2f d53d
000003c0: a8ea b4bd 4022 3e3c 0cda 783d 9e3c 553e
000003d0: bd67 9cbe 5cec 2dbe 2e2e 33be 2776 503d
000003e0: b667 88be c55b 4c3e e60f 8cbd c6d3 77be
000003f0: 0811 f6bd 21d9 aebd daf5 943e a037 90be
-0.038152978 -0.06594143 0.30156144 0.24505638 -0.25157893 -0.09721112 0.056303725 0.29410967
0.15090623 -0.027231509 -0.0063812314 -0.3358491 -0.11379229 -0.33930212 0.13580774 0.28382882
-0.05776297 -0.22843076 -0.2620747 0.10807337 0.015365393 -0.17571168 -0.12847896 -0.20926353
-0.20956779 -0.05864252 -0.09603208 -0.24187347 0.22120075 -0.091397315 -0.22087197 0.29762822
0.12406038 -0.23720595 0.15854523 -0.21292251 -0.15385652 0.0014921434 -0.040145114 0.23134945
-0.24497595 -0.2974838 -0.25983024 0.09492829 0.20716074 0.042689744 -0.078004524 -0.1490486
0.30505475 -0.053646427 0.2720333 -0.2897029 -0.025916321 -0.09258927 0.32661673 -0.08575809
-0.31692582 0.052752044 0.030481052 -0.11983424 -0.023269305 0.037902154 0.08587951 -0.3565798
-0.19044602 0.120637424 0.2701527 0.21644871 -0.004957347 -0.13876945 -0.015920056 -0.33064583
0.15291299 0.2686657 0.10366074 0.1033274 0.07321656 -0.19236416 0.23160069 0.14441594
-0.33109558 -0.20175186 -0.2561374 0.049469333 0.26833513 -0.22176331 0.17409387 -0.10772495
0.025125092 -0.1887785 0.110611096 -0.26581028 -0.0545423 -0.11247907 0.04015981 0.008673927
0.12077391 -0.10390952 0.14653155 0.24771884 0.093655564 0.07703608 0.30191267 0.127545
-0.36716852 0.14741693 0.13580689 0.12809046 0.31615013 -0.14522806 0.11501186 0.2036225
-0.2551626 0.22482173 0.25521037 -0.030417278 0.20008184 -0.21867275 0.2567138 0.16304688
0.30194104 0.26619223 -0.2115743 0.20483229 -0.15470164 0.29700673 0.31463033 0.16334923
-0.03614053 -0.16805923 0.08595227 0.086955614 -0.1166444 0.123092115 -0.31185466 0.045827117
0.033871002 -0.21887179 -0.29306075 -0.2539778 -0.011485746 -0.025880696 -0.086950354 -0.16949461
0.18219402 -0.048347704 0.17955118 0.19840816 0.15683 -0.23835464 -0.20072247 0.09648076
0.27857965 0.28228134 -0.06692986 -0.11166437 0.16707161 0.11915439 -0.12010925 -0.15805064
0.12541032 0.2071937 -0.10999654 0.015195146 0.24958849 -0.086715125 -0.025459068 0.18190633
-0.23019835 0.25600377 -0.24070251 -0.2847504 -0.11223849 0.17291084 -0.09795332 0.1479873
-0.11548552 -0.10653667 0.16539493 -0.15400255 -0.21768147 -0.046740357 0.052176464 -0.19114739
0.28203526 0.26715264 -0.005635507 0.15222067 0.11320472 0.28262573 -0.17152798 -0.29694748
0.024793806 0.08962205 0.18387818 0.004931997 -0.05438921 0.04097177 0.24212098 -0.031801127
-0.14076954 0.26834616 0.2642738 0.3515658 0.010898232 -0.043497827 -0.13991594 -0.16434792
-0.21229947 0.29399297 0.36307672 0.06934489 -0.18121313 -0.31722328 -0.16266583 -0.22002718
0.06432081 -0.3196501 0.065730214 0.031084124 -0.10697306 0.11327553 0.24209267 -0.0025885473
0.0058075814 0.024485778 0.2629765 0.22121257 0.31489658 -0.058125157 -0.18654367 -0.019450279
0.09583181 0.33249667 -0.20408092 0.2145238 -0.08264875 0.29595503 0.065808855 0.10409545
-0.0883382 0.0116048455 0.06075482 0.20823905 -0.30547896 -0.16984695 -0.17498085 0.05089393
-0.26641625 0.19956882 -0.0683897 -0.24201879 -0.12014967 -0.08537508 0.2909382 -0.28167439

layers.0.bias f4 [70]
00000000: 769f 8fbe 1cae 5c3e f28c 0c3e a15a a13e
00000010: 4635 473e be79 303e 40d2 c53d 5b79 9bbe
00000020: 5202 953e 2507 603e 67d6 6d3d 68fc 83bd
00000030: f6d7 aabd d78d 2ebe 7186 683e 1458 de3d
00000040: db18 903d c148 4dbd cb0d 2d3e a21d 5d3e
00000050: d4c8 50be 1850 b1bc 1878 c43d dec6 44be
00000060: f1fa 503e c8a2 84be 8d6f 613e ef6e 0dbe
00000070: de95 3cbe 8fe9 063d b50b 8dbe 8ba0 d9bd
00000080: 2e73 e1b9 748c 45be b7d2 11be 0351 e3bd
00000090: acbd 5bbe 8bbc 82be f025 65be 206c 54be
000000a0: 2b19 44be ce77 413e e9de 2dbe 8863 3b3e
000000b0: 609f 9a3e be18 be3d c26b aabd e375 2bbe
000000c0: 0500 42be 440e 8fbe 9979 5fbe 7d69 dbbd
000000d0: 3e0e 773e 8371 0d3e b34f 66be f733 ab3d
000000e0: 9e85 26be 8a6e 41be 3f45 a33d 8aeb 36bd
000000f0: 1851 21be 3f6a af3d 6903 8dbe fd2d 51bd
00000100: bbd5 d53d 6135 e6bb 81e8 e73c 9a41 20bd
00000110: 6064 95be ab6a fabd
-0.28051347 0.21550792 0.13725641 0.31514457 0.19453916 0.17233941 0.09659243 -0.30366024
0.29103333 0.21877725 0.058065798 -0.06444627 -0.083419725 -0.17046295 0.22707535 0.10856643
0.07035991 -0.05011821 0.16899793 0.21593335 -0.2038911 -0.021644637 0.095932186 -0.19216487
0.20408227 -0.25905442 0.2201521 -0.13811849 -0.18416545 0.032937583 -0.27547994 -0.10626324
-0.0004300116 -0.1929186 -0.14240538 -0.11099436 -0.21459073 -0.25534472 -0.22377753 -0.20744371
-0.19150226 0.18893358 -0.16979565 0.18299687 0.30199718 0.09282063 -0.083213344 -0.16744189
-0.1894532 -0.2794057 -0.2182373 -0.1071348 0.24126527 0.13812833 -0.2249134 0.08359521
-0.16261908 -0.18889824 0.07972192 -0.04465822 -0.15753591 0.08565187 -0.27541664 -0.05106925
0.104411565 -0.007025406 0.028309109 -0.039125063 -0.29178143 -0.122273766

layers.1.weight f4 [80, 70]
00000000: d636 93bc 9396 7dbd 21fb 3dbd c571 813d
00000010: f4ea 373d ae14 a13c dbd1 8dbd fcfb b13d
00000020: e03d 14bd 5f3d 4cbd 0669 d83d 8e80 d23b
00000030: 65a5 41bc 4fe3 eebd 0bff f93c 7523 45bb
00000040: 01dc 3b3d b053 853c 9757 ccbb 2598 9ebd
00000050: 85e6 9c3c 996c d9bc 1ba2 5e3c e4cc e5bd
00000060: dd39 173d 156a 09be b421 843c 031d ec3d
00000070: 1ddc 16bd 7126 873d c662 26bd 6b92 593d
00000080: fd48 133d ae25 a73d 4b59 85bd e650 d5bc
00000090: f890 6fbc ad21 373c dbe8 363d 1791 9abd
000000a0: 7a76 033d 39a9 96bd 5aa2 a83d f047 063d
000000b0: 855a 863d 9965 6d3d af73 073d 37c9 5bbd
000000c0: 8acb 033e 30cf f33d b443 b33d b17a de3d
000000d0: dac9 9ebd 136b 84bd 8695 ffbc 95d4 05be
000000e0: 87ed 963c 85a1 edbd 2c1d 163e 3087 d93d
000000f0: 12e8 d1bd 2f18 143e dd2e d8bd 70b2 16bb
00000100: 8f0e 82bd 3808 133e 2f14 95bc e78f 0b3e
00000110: be06 1fbe 1394 c93d 2825 a2bc ee6d 4cbd
00000120: fed7 e03b c6e5 babc 79ac ec3d 167c a83d
00000130: ddf2 20be bba8 95bd d404 b43b 5cd8 0c3e
00000140: c4dd 91bd 7c2b f13c e859 02be 80fd bcbd
00000150: bd88 dd3d 1405 8f3c 6b33 8c3d 083d 833d
00000160: c279 db3d 8b21 073d 0364 8ebd 01e1 4abd
00000170: 87a1 b6bc 29a9 fdbd 02f8 06bc ca96 293d
00000180: dece b0bd a8f8 423d 814f 44bd d1c2 023d
00000190: 3b34 e4bd e6a0 c43d 2ba5 92bd a501 c7bd
000001a0: aa95 dcbc 088e b23d 0e2d b8bd 01ee 8ebd
000001b0: 4217 cb3c 3911 c93c b006 ff3d 07b0 97bd
000001c0: 4feb 9bbb 1eab a93d a400 603b b52a 1cbe
000001d0: b112 933d f230 d33d 5900 ac3d be71 a8bd
000001e0: 0911 4bbc d39d 9fbd c994 db3c 137f 943c
000001f0: 0161 10be e884 323d 4af1 b73d 825d 00be
00000200: e640 b63c 1ddb 153e 2b55 93bd c6a2 7d3d
00000210: b2d6 79ba 9f4b 2a3d cfea ad3c 656a d13b
00000220: ac94 9ebd 172e 42bd a314 af3d bcba 013e
00000230: 7c27 cfbd 0a61 d73b 9701 8ebc 8dd6 593c
00000240: 8992 b43d 2c15 af3d 3336 bcbd 307f f13d
00000250: 0ab7 be3d 01a4 98bd adf8 333c ecf2 773d
00000260: cd7e fbbd 73e8 ffbd 8d37 7638 3577 753d
00000270: d706 4c3d c9ee a53d 5154 503d 5514 e43c
00000280: 9450 6b3d 1fd5 4c3d ef0f c8bd 8232 e83c
00000290: cd94 963d 5e0a e53d 5ba8 b5bc 57ba 8e3d
000002a0: 4893 f3bd d537 78bd b51f 243d 6253 163d
000002b0: 9177 093e 7da7 51bd d3ea 153e 93d4 49bd
000002c0: 08fa 523d 9d86 943d 7535 01be 57ee 323d
000002d0: 6a9b ae3d bc02 4a3d d9ed d9bd cdf7 5dbd
000002e0: b057 60b9 6b86 8a3d 5c9c 103e fc28 423d
000002f0: ac41 8ebd b13f 88ba c2b0 e3bd c6ae 6fbd
00000300: 1df9 5b3c 16e2 13bd a00b c0bc e608 8cbd
00000310: 5276 ddbd 8d01 0bbe a599 e0bb 9bc9 1f3d
00000320: 95ec a93d f27d 9c3d a97a 043d a069 77bc
00000330: 139a 1abd 8249 0cbe 1f16 9f3d cabb 9ebd
00000340: d67a 703d cf9a 0a3d 0f5c b93d 2093 9b3d
00000350: df2c 4c3d 48a8 1abd f3f2 25bc 7dea b73d
00000360: 633d af3d c10c a33c 7ba2 823d 035e d3bd
00000370: c78b 9b3d 6338 b73d 95fc 103e a70f 623d
00000380: f1bb cebd 8c75 dd3d 354c 8dbd dae5 88bd
00000390: 7738 ce3c e2e4 89bd ca2f bfbd 5112 073e
000003a0: 67f5 eb3d 85b4 a1bd 7b48 cb3c 80fb bc3d
000003b0: efe8 853c c7e5 f6bb dcfb fc3d 49f4 85bd
000003c0: df98 c6bd 83d9 873d da10 903d a329 48bd
000003d0: e3d0 8ebd 489e 77bd 2885 b33d a760 4c3c
000003e0: 19d5 bf3d 92af 23bc dd49 e83b 327c aebd
000003f0: 219c 1e3d 870a 7f3d 0a7e d83d 15ad 073e
-0.017970484 -0.061911177 -0.046382073 0.06320528 0.044901803 0.019663181 -0.069247924 0.0869064
-0.03619182 -0.049863216 0.10566907 0.0064240163 -0.011819218 -0.116644494 0.030517122 -0.0030080948
0.04586411 0.016275257 -0.0062360275 -0.07743863 0.019152889 -0.026541041 0.013588454 -0.112207204
0.036920417 -0.13419373 0.016129352 0.11528971 -0.03683101 0.06599129 -0.04062154 0.05311815
0.03595828 0.08161484 -0.06511172 -0.026039552 -0.014621966 0.0111774625 0.044655662 -0.07547205
0.03209541 -0.073564954 0.08234091 0.03278345 0.06560234 0.05795822 0.03306931 -0.05365869
0.12870613 0.11904752 0.08753148 0.10863245 -0.07753344 -0.06465735 -0.031199228 -0.13069375
0.018423809 -0.11603073 0.14659566 0.10621488 -0.10249342 0.1446235 -0.105558135 -0.002299454
-0.06350433 0.14358604 -0.0181981 0.13629113 -0.15529916 0.09842696 -0.019793108 -0.049909525
0.006861686 -0.022814643 0.11556334 0.082267925 -0.15717645 -0.073075734 0.0054937396 0.1375441
-0.071223766 0.02943968 -0.12729609 -0.09228039 0.108170964 0.017458476 0.06845745 0.06408125
0.10716583 0.032990973 -0.069526695 -0.049530987 -0.02229382 -0.1238578 -0.008237841 0.04140357
-0.08633207 0.04760042 -0.047927383 0.031924073 -0.11142775 0.096010014 -0.071604095 -0.097171105
-0.026926834 0.087184966 -0.089929685 -0.069789894 0.024791364 0.024544345 0.124524474 -0.074066214
-0.0047582756 0.08284591 0.003418007 -0.15250666 0.071812995 0.1031207 0.08398504 -0.082248196
-0.012394198 -0.077937745 0.026804345 0.018127 -0.14099504 0.04358378 0.08981569 -0.1253567
0.022247743 0.14634366 -0.07193979 0.06192281 -0.0009530588 0.041576024 0.02123013 0.006390857
-0.07743201 -0.047407236 0.08548858 0.1266889 -0.10114953 0.0065728473 -0.017334742 0.013295782
0.08817012 0.0854896 -0.09190025 0.11791837 0.09312256 -0.07453156 0.010984582 0.060534403
-0.12280045 -0.12495508 5.8702706e-05 0.059928138 0.04981121 0.08102185 0.05086166 0.027841726
0.057449892 0.050007936 -0.09768664 0.028344397 0.073526 0.11183618 -0.022175005 0.06969135
-0.11893326 -0.06060012 0.0400693 0.036700614 0.13424517 -0.05118512 0.1464036 -0.049274992
0.05150798 0.07252238 -0.12618048 0.04368433 0.08525737 0.049319014 -0.10641069 -0.0541914
-0.00021394971 0.067639194 0.14122146 0.047402367 -0.0694612 -0.0010394958 -0.11117698 -0.058516286
0.013426092 -0.036104284 -0.023443043 -0.06837635 -0.108135834 -0.1357481 -0.0068542534 0.039010625
0.082970776 0.0764121 0.03234354 -0.015100867 -0.037744593 -0.13699916 0.07767891 -0.07750662
0.058710895 0.033839043 0.09050762 0.07596421 0.04984748 -0.03775814 -0.010128724 0.08980272
0.085566305 0.019903542 0.06378647 -0.10320666 0.0759502 0.08946302 0.14158852 0.05519071
-0.10094441 0.10813436 -0.06899301 -0.06684466 0.025173409 -0.06733109 -0.09335287 0.13190581
0.11521416 -0.078957595 0.024814835 0.09227657 0.016346423 -0.007534716 0.12352726 -0.06540734
-0.096971266 0.06633284 0.07034464 -0.048867833 -0.06973436 -0.060453683 0.08765632 0.012474216
0.09366817 -0.00999059 0.0070888833 -0.08519782 0.038723115 0.0622659 0.10570915 0.1324962

layers.1.bias f4 [80]
00000000: aa1e 9dbd 6e38 1e3d 9d9c 963d 4046 9a3d
00000010: dbef b03d 9853 23bd ca38 863c dfa5 223d
00000020: ce4a c63d 14af 173d ff14 8fbb 6379 92bd
00000030: 6770 963c 28d0 f2bd 63c6 21bd e4c5 0abc
00000040: b678 c3bd 0fb9 163e 89ec 713a d475 ed3d
00000050: ddce 8f3d 55a1 a63d aa29 7e3d 94cc 76bd
00000060: 2e0b 94bc 2cf7 95bd 9ce1 233d 9391 9e3c
00000070: 7111 29bd 41cb 553c b498 b33d 9a15 a23d
00000080: 45b2 f73b ffe3 b43d aba1 8bbd e0b9 b53c
00000090: bb14 713b 5809 44bd fe15 cf3d 74bb c73d
000000a0: 19de f63c 8884 a43a 51bf 42bd 2919 2f3d
000000b0: ca23 163e f04a 263c 9fdb f2bc 2a3c 38bd
000000c0: 75bc b93d 725b 8b3d 25bb 84bd b542 6ebd
000000d0: 55e8 adbd 2181 683d a9c7 5cbd 17d8 983d
000000e0: 32e0 f6bd d6b8 ec3d c4e8 96bd e01e c13d
000000f0: d2b0 5b3d a0d6 153d 7534 053d adaf c03d
00000100: 13df 543d 82eb ae3d 2371 8ebd 61a1 2abd
00000110: 1285 7e3d 92b8 a33c 270c c3bd 4a3d b9bd
00000120: f9ff 3f3d 099f 44bd 32d3 263d 51de a3bd
00000130: d3a6 a4bc 2196 873d 5964 c33d 16bb ed3b
-0.07671864 0.038628034 0.0735409 0.075329304 0.08639499 -0.039874643 0.016384501 0.03970897
0.096822366 0.037032202 -0.0043665166 -0.07152059 0.018364144 -0.11856109 -0.039495837 -0.008470032
-0.09544508 0.14719032 0.0009228667 0.115947396 0.07021878 0.081362404 0.062051453 -0.060253695
-0.018071737 -0.07322535 0.04001008 0.019356525 -0.0412764 0.013048948 0.0876936 0.079142764
0.007559093 0.08832549 -0.06817945 0.022183359 0.0036786038 -0.047860473 0.101116166 0.09752551
0.030135201 0.0012551704 -0.047545735 0.042748604 0.1466209 0.010149702 -0.02964574 -0.044979252
0.090691485 0.06804551 -0.064810075 -0.058169086 -0.084915794 0.056763772 -0.05390135 0.07463091
-0.120544806 0.11558692 -0.07368615 0.09429717 0.053635426 0.036581635 0.03252073 0.094085075
0.051970553 0.08541013 -0.06955173 -0.04165781 0.062138624 0.01998547 -0.09523802 -0.09044893
0.046874974 -0.04800323 0.040728755 -0.08001388 -0.02009908 0.06620432 0.09540624 0.0072549684

layers.2.weight f4 [90, 80]
00000000: 1d53 b9bd 8698 1b3d 3f7a 2e3d 4f01 fabd
00000010: a41e 1b3c a15e 25bd fea8 f83d fa4c 5cbc
00000020: 69ec b73b 1570 bebb 0879 c8bd c1d9 8fbc
00000030: f6f0 013d 253f b1bd e924 7f3d ed79 adbd
00000040: 3325 fabd 5726 8e3d ca00 8d3d 59df 2fbd
00000050: 605e 85bd 8485 873d 8bad 693d 4153 833d
00000060: ce69 bcbd 6cd3 95bd 6065 40bc 7d6c 033c
00000070: de01 073e d996 923c acec 843c 9f6e 193d
00000080: 87c6 30bd d254 b33c 742b cabd 0bef a93d
00000090: 3614 9fbd d4a4 e43c 5def eebb f357 b1bd
000000a0: b45c bebd 6f0e 193d 82e3 5bbd ae78 dc3d
000000b0: a1f6 b83d e07d 933b 6671 54bd c428 87bd
000000c0: c223 83bd 24fc 34bd 09df 663d 5339 19be
000000d0: ba51 b63d d614 ba3d f00b 683b 75e5 c5bd
000000e0: 4470 77bd 159e 803c bc70 2bbb f2cf aebd
000000f0: 70e1 333d 6dbe a43d 223e ff3d c7b2 6cbc
00000100: 5a4a 3dbd 8bb6 cc3d 483d 0c3d 8a6c 28bb
00000110: 13f0 8d3d ce63 c13d eec9 4a3d 9ceb c0bd
00000120: f9bb c9bd fccc 673d 7ea8 64bd 06b0 073e
00000130: fb6e 38bd 475f febc 86e9 e33d 7908 e73d
00000140: 903c d4bd 41a8 5d3d 220f b7bd 7329 4b3d
00000150: c160 72b9 35e4 823c 1055 bcbd d381 103d
00000160: ef6a 9fbc 346c a5bd 46dc 663d 8262 5dbd
00000170: d3af 7ebd 9e1d 21bd bd42 8f3d 31e6 71bd
00000180: f117 6dbd df33 e33d 1ba7 e3bd a8d1 0a3c
00000190: 849c 71bd 0fd0 2dbd a6e8 dbbd a209 a63d
000001a0: ebe3 ea3d c0dc babc ebcf 0a3e 99bc 85bd
000001b0: 9d7f 56bd 5362 3c3d ed4c 20bd 4fa1 8e3d
000001c0: 4f8b 903d befa 183c 984d 30bd d50d c53d
000001d0: 5e77 cc3c 961d 453d 1ef5 63bd c3f8 43bd
000001e0: 4e3d 473d 1043 14bc da19 ddbd 5562 733d
000001f0: e3ca bebd 454c 303d f066 853d ebd5 b73d
00000200: a69a e0bd 2855 06bd 7030 a73c 6dac 6c3d
00000210: 70b0 b33d 6659 74bd 85e4 efbd 6248 ebbd
00000220: b5ca b63d db2c 8b3d f512 a0bd c94c c6bd
00000230: 2425 573d 579b f03c 5cc6 453d 9a09 0bbd
00000240: 8648 c5bd d2b2 3a3d 871e 25bd 1a55 59bd
00000250: 08f6 acbc faa7 8ebd 7073 62bd fa6e fb3d
00000260: 8719 94bc 5b70 8bbd ff25 e2bd 4772 50bd
00000270: 816f 3b3c f23f 61bc 8244 2fbd 3068 f2bd
00000280: d2b4 893c 95d8 3dbc b96a b6bd 40e1 4d3d
00000290: fbff aa3d f4c9 0abe dc68 a8bd 84ce 04be
000002a0: 879e 17bd b95b 92bc 02a5 bc3b d3dc db3c
000002b0: 2d36 ddbc 3eec 1dbd f233 183d c92c 8e3c
000002c0: 00dc a33d 1384 19be 3a6e 87bd 8762 3c3d
000002d0: ce8d 423d 4beb c23b 9f26 7e3d e93f ec3b
000002e0: bfbb 9abd 737b b4bb a721 dbbc f5f2 993c
000002f0: 4428 70bd 6ee7 193d 0472 00bd 250a 02be
00000300: 601c cb3c 4786 ac3b 3c4c 833a 5916 13be
00000310: 4f1f 11bd ef2d 86bc a007 2f3d d134 043e
00000320: 48e2 61bc 795b 6bbd eda2 33bd 0bf4 923c
00000330: c57d 963d 23c9 b9bd e842 703d 9d06 72bd
00000340: 94a3 b6bc 4be1 16be 80af d33c 7330 8e3d
00000350: 152b d3bc 37a7 bdbd 0310 013b fd24 63bb
00000360: 7401 7cbd 6b6f d8bd 352d 0c3e e4e9 af3c
00000370: a7cf cf3d 01f6 2cbd fa41 c03d a8f4 b83d
00000380: e717 4fbd df28 b5bc d7af 223d db29 b6bc
00000390: 77b7 143d b119 003e 7d3b 5cbd 4ec8 fd3c
000003a0: 5607 1bba 74da 653a 5360 afbd e24f e5bd
000003b0: 7dd2 a8bd 8c7e da3c 18dc e7bd b858 473d
000003c0: c129 f23c 7cca 563c 0127 023d 76b3 dfbc
000003d0: 72d3 adbd dcac 68bd 7a00 be3d 6167 1e3d
000003e0: 9556 c83d 695b 3f3d 8a1c 90bb cb04 00be
000003f0: 4a37 b3bc da99 48bd 8b54 8c3d 100d f63d
-0.09049056 0.037987255 0.04259705 -0.12207281 0.0094677545 -0.04037345 0.12141608 -0.013446087
0.005612899 -0.005811701 -0.0978871 -0.017559888 0.03172394 -0.08654622 0.06229106 -0.08470521
-0.122141264 0.069409065 0.06884916 -0.04293761 -0.06512141 0.06617263 0.05705027 0.06412364
-0.09199868 -0.07315716 -0.01174292 0.008021471 0.13184306 0.017894195 0.016226135 0.037459012
-0.04315808 0.021891031 -0.09871569 0.08297547 -0.07767527 0.027910627 -0.007291718 -0.08659353
-0.092950255 0.03736728 -0.053683765 0.10765205 0.09031416 0.0045010895 -0.051865958 -0.06599572
-0.06403305 -0.044185773 0.056365047 -0.14963274 0.08902307 0.090860054 0.0035407506 -0.09662906
-0.0604098 0.01570038 -0.0026159724 -0.08535756 0.043916166 0.08044133 0.12463023 -0.014446921
-0.046213485 0.09995755 0.03423813 -0.002569946 0.06930556 0.09442864 0.04950898 -0.09419939
-0.09850306 0.056591973 -0.05582475 0.13250741 -0.045027714 -0.031051291 0.111285254 0.11280913
-0.10363114 0.054115538 -0.08938433 0.049600076 -0.00023114962 0.015977958 -0.09195912 0.03528006
-0.01946017 -0.08077279 0.056362413 -0.054049022 -0.062179398 -0.039334886 0.06995151 -0.05905742
-0.05788416 0.11093878 -0.11115857 0.0084728375 -0.058987156 -0.04243475 -0.107377335 0.08107306
0.11469253 -0.02281034 0.13555877 -0.06530113 -0.052367795 0.045992207 -0.039135862 0.06964361
0.07057821 0.009337125 -0.04304275 0.09621779 0.024959262 0.04812392 -0.055653684 -0.04784466
0.04864245 -0.009049192 -0.107959464 0.05941995 -0.09316041 0.043041486 0.065137744 0.089763485
-0.10966997 -0.032796055 0.020408839 0.057781626 0.08773887 -0.05965557 -0.117135085 -0.11488415
0.08925382 0.06795665 -0.07816116 -0.09682614 0.052525654 0.029370947 0.048284873 -0.033944704
-0.096329734 0.045580693 -0.040312316 -0.053059675 -0.02111341 -0.06965633 -0.05528587 0.122770265
-0.018078579 -0.068085395 -0.110424034 -0.050890233 0.011440159 -0.013748156 -0.042789944 -0.118362784
0.016809855 -0.011587282 -0.089070745 0.050263643 0.08349606 -0.13553602 -0.08223125 -0.12969404
-0.037016418 -0.017866002 0.005756975 0.026838696 -0.027003372 -0.038555376 0.037158914 0.01735534
0.08000946 -0.14991789 -0.06612821 0.0459924 0.047498517 0.0059484593 0.06204855 0.007209767
-0.07555341 -0.0055078804 -0.026749445 0.018792609 -0.05863215 0.037574224 -0.031358734 -0.12699182
0.024793804 0.0052650305 0.0010017226 -0.14363994 -0.03543025 -0.016379325 0.04273188 0.12910773
-0.01378686 -0.057460282 -0.04385655 0.017938634 0.073482074 -0.09071567 0.058657557 -0.05908834
-0.022294797 -0.1473438 0.02584052 0.06942835 -0.025777379 -0.09260409 0.0019693382 -0.0034659498
-0.061524823 -0.10568126 0.1368912 0.021473832 0.101470284 -0.042226795 0.09387584 0.090310395
-0.050559904 -0.022114215 0.039718475 -0.022236755 0.03630778 0.125098 -0.05376767 0.030979302
-0.0005913874 0.0008768209 -0.08563294 -0.11196877 -0.082432725 0.02667167 -0.113212764 0.048668593
0.029560925 0.0131097995 0.03177548 -0.027307253 -0.084875956 -0.056805477 0.09277435 0.03867281
0.09782139 0.046718035 -0.0043979334 -0.12501828 -0.02187695 -0.04897485 0.06852063 0.1201421

layers.2.bias f4 [90]
00000000: 0f1f 893d 29aa 763d 8f18 143d 9f1e ab3d
00000010: 28c2 d9bc c281 833d 6806 c83d c28d bf3d
00000020: 85f4 6c3d 700a 82bd 77a8 00be 9006 433d
00000030: 4ad4 693c cabb 84bd 2283 ac3d 82f2 02bc
00000040: 78eb b93d 1d11 5cbd 3feb d43d 1fcc a7bd
00000050: 2b18 c43d cc11 43bd 4c99 8f3d f55f c8bd
00000060: 1b20 53bd 31ec 3dbd fa5f 84bd 2616 cabd
00000070: c5fe d23d 5dc7 92bd 62ac b73c 9f0a e93d
00000080: c23d 1d3d 80ce 9abd 9681 fa3d 6d3f d53d
00000090: df4c d43c 42d3 8fbd 821e fdbd 4f5c b43d
000000a0: a7da 863d 706d ae3d 8020 84bd 5f2f f83d
000000b0: e91d b1bd fdc6 693c ab53 aabd a033 773d
000000c0: 9fca a6bd 826b aabd 4ba8 6dbd 03b3 7b3c
000000d0: d02f 62bd 95aa ccbc cb7f 2b3d 76f9 a0bd
000000e0: 5839 903d 92c9 5bbd 64ce 9c3d 6d12 6c3d
000000f0: 7fcc b0bd 18d0 d93d 29a9 50bc ce23 b7bd
00000100: 802f f23d a826 0b3d 9068 dbbd 51b6 90bd
00000110: fadb 9a3d 6355 7f3d 7fd2 33bc 7c15 e6bc
00000120: cb7f d13d 8e98 c53d c23b 3e3d fce8 633d
00000130: 4b6f 4e3c 8af0 20bd c2e0 5fbd 9389 49bd
00000140: bccf afbd 2293 683d c678 49bd 3641 c43b
00000150: ed5d 1bbd 2f67 9dbd 835e 733d 3f5b 96bd
00000160: 3cc2 b0bd 8e2e 723d
0.06695377 0.06022087 0.036156233 0.0835545 -0.026581839 0.06421234 0.09766847 0.0935321
0.05785038 -0.06349647 -0.12564264 0.04761368 0.014271805 -0.064811304 0.08423449 -0.007992389
0.09078115 -0.053727258 0.10396432 -0.0819323 0.09574922 -0.047624394 0.07011661 -0.09783927
-0.05154429 -0.046367828 -0.064636186 -0.09867506 0.103025 -0.07166932 0.022421066 0.11378979
0.038388975 -0.07558918 0.12231748 0.10412488 0.025915561 -0.07022716 -0.123593345 0.08806669
0.065846734 0.08516967 -0.064515114 0.1211841 -0.08648283 0.014268634 -0.0831674 0.060351968
-0.08144116 -0.08321287 -0.058021825 0.015362504 -0.05522138 -0.024983684 0.04186992 -0.07860081
0.070421875 -0.05365903 0.076565534 0.05763476 -0.086327545 0.10635394 -0.012735643 -0.08942376
0.11825466 0.033972412 -0.10713303 -0.07066024 0.075614884 0.06233729 -0.010975479 -0.028086416
0.10229453 0.09648238 0.04644371 0.055642113 0.0125997765 -0.039291896 -0.054657705 -0.049203467
-0.08584544 0.05678094 -0.049187444 0.005989219 -0.03793137 -0.07685696 0.059416305 -0.073416226
-0.08630797 0.05912643

layers.3.weight f4 [5, 90]
00000000: ffa3 f5bd 5915 9a3c 7f6e ca3d 30a6 f93d
00000010: d367 cd3c 6b86 58bd 12ed 8ebd b8e5 36bd
00000020: e5e2 793d 20e1 ac3d 326b ee3d 022e 013d
00000030: 2bdf a13d c286 7abd 0e92 cdbd d46b b9bc
00000040: 0b25 27bd 29ec de3d ed52 df3d e977 0b3e
00000050: 6620 623d 9ac0 383d 2a8e a7bc c979 b53d
00000060: d8e5 203d 79ad 8e3d ec39 893d 9748 8a3d
00000070: ceb9 163d 0e27 9ebd 1f0b 19bc 2e94 a23d
00000080: c6b0 e6bd 64c6 dabd 876f 20bd 0801 113e
00000090: 9975 d4bc 12ec 2d3c d5a2 803d d5ee acbd
000000a0: 0e4f 633d a375 a9bd 3266 173c e943 fc3d
000000b0: 4872 afbd c629 b7bd 6b8c 633d d19d 1cbd
000000c0: 6d99 e73d 30a0 b53a 9e74 f0bd b81a 0dbe
000000d0: 0b9d d63d 4491 a73c 86e4 f03c b6b3 e93c
000000e0: 226e a9bd f348 c93d 447b ff3d 4e2d 8e3d
000000f0: 119f 523c 5812 dc3d e5eb b73d ea36 f5bd
00000100: 08d1 04bd 0e51 a53c 1642 413d 2aa6 e63d
00000110: 2a40 e0bc fa35 4c3d 971b d43d b965 763d
00000120: 9733 b53d 5d31 1d3b 59c8 12bd 78f1 a0bc
00000130: a996 9e3d 19e7 2c3d c536 e7bd b354 c73d
00000140: e358 e4bd bb59 aa3d 12ce 53bd 011c f73d
00000150: cf7f 88bd df04 1bbd e625 83bc 7633 1dbc
00000160: 4694 1d3d a1a5 75bd a186 de39 99e0 37bd
00000170: 9f7a d03d 3ea0 f63b a271 c33d 5301 8bbd
00000180: b8b5 84bc 51e7 c3bc c7c3 993a 722e f83d
00000190: b6ea 63bc 6d00 2a3d 0f09 c3bc 6826 993d
000001a0: 85f7 a3bd d022 563d 0fb9 4fbd 0af1 253d
000001b0: 7055 ef3d 653e f63d 18b7 e23c dc78 fcbd
000001c0: 33c9 f5bd 0298 0a3e 0ef3 35bd b452 e03d
000001d0: 2f91 bf3c ccfc 6a3d d50e 92bd ca44 a0bd
000001e0: 9dec b3bb 2704 1fbd 51bc 993d 39e3 99bc
000001f0: faef 743d f890 25bd e31a 003e a73b b5bc
00000200: bc09 c2bd 7648 0f3d 26a3 413a 66eb 163d
00000210: bae6 e53d 8061 f33d 4fa4 7e3d 63f7 bbbc
00000220: a389 2c3d e015 c9bc 61e7 eebc 5280 343d
00000230: cb03 963d be69 c0bc 709f cd3c 75f6 a73b
00000240: 5c19 9cbd 6749 c13d 29c3 5b3d 332e 973c
00000250: 1ee1 3abd a129 893d 0183 a8bd c45d 253d
00000260: d417 9ebd 5644 00bd 0870 153e 764d f6ba
00000270: ecc8 e8bd ee5b c53c 851d 173d 422f ab3d
00000280: d380 9bbd b8fa d03d 5c32 7f3d 472c 7f3d
00000290: 55b6 62bd 5710 c4bd 8210 64bd 191e 963d
000002a0: 8e72 abbd cc14 2d3d 1312 04bd ef4a 5cbd
000002b0: 2dd7 423b ca7a d33d 7db1 503d 32af 983d
000002c0: 4bde d83d 112b 17be 0819 b83d cc95 efbd
000002d0: 10bc 0abe e81f 023e 3acc a7bd 3b76 47bd
000002e0: 2990 b5bd 9d31 c53b aa9e acbd 6ef3 03be
000002f0: 945b 2e3d 1867 d2bd 1ac4 06be 52c1 933d
00000300: 87fe 193d b808 34bc 320d 083e 2820 8fbb
00000310: fba2 5bbd 455f a9bd 23b3 09be b5ae 803d
00000320: 032b 41bb 1fce c13d 5b5a 5d3d 6417 8cbd
00000330: 65fd 8e3c 4593 2dbd aebd 2ebd 3f3e bc3d
00000340: 3e77 023d 9303 a3bd 9743 6fbd 3f5d fabb
00000350: 0be9 d03d 9289 2b3d 6eaf 86bb 8b67 e33d
00000360: 1d9b abbd 0080 6a3d afc4 b4bb d821 4abb
00000370: 1eba fcbd 2bad 32bd b9e0 ef3d 4e96 f1bb
00000380: 8f9b c03d c1f1 8abc 1b11 6dbb 4c9d de3d
00000390: c6fe 863d b1d2 e23d 55f6 96bd 3f69 35bd
000003a0: ec2a bbbd f826 a33d 06db bb3d 8fff 20bd
000003b0: 9ae3 1d3d f170 743d 6828 cbbc bdc2 ed3d
000003c0: 8b84 583c ff75 9ebc df9b 96bd 9b6a 763d
000003d0: d9c5 5a3d ef0e 86bd fa5d c8bd 3b0d 273d
000003e0: fb6c 8dbd 2c2b d3bd 2468 4f3c fce2 bf3d
000003f0: d15e d4bc 8e06 7f3d 0b27 1ebd 913b 2ebd
-0.119941704 0.018809007 0.09884357 0.12189901 0.025073921 -0.052862566 -0.06978811 -0.04465267
0.0610074 0.08441377 0.1164154 0.031538017 0.07903894 -0.06116367 -0.10037623 -0.022634424
-0.04080681 0.10884888 0.10904489 0.13619961 0.05520668 0.045105554 -0.020453531 0.08861119
0.039281696 0.06966681 0.06700501 0.06752127 0.03679829 -0.07722293 -0.00934103 0.07938419
-0.112641856 -0.10682371 -0.03916886 0.1416055 -0.025934981 0.010615366 0.06281058 -0.08443991
0.055495314 -0.082743905 0.009240674 0.1231764 -0.08566719 -0.089435145 0.055553835 -0.038236443
0.113085605 0.0013856944 -0.11740993 -0.13779724 0.10479172 0.02045501 0.029405843 0.028528076
-0.08272959 0.09828367 0.12474683 0.06942235 0.012855307 0.10745686 0.0898054 -0.11973365
-0.03242591 0.020180251 0.047182165 0.11262162 -0.027374346 0.049856164 0.10356825 0.060155604
0.088477306 0.0023985722 -0.035835598 -0.019646391 0.0774358 0.04221258 -0.11289743 0.09732952
-0.11149766 0.08317896 -0.051710196 0.12065888 -0.066650026 -0.037846442 -0.016009282 -0.009594789
0.038471483 -0.05997241 0.00042443446 -0.044891927 0.10179638 0.0075264266 0.09543158 -0.06787362
-0.016199932 -0.023914011 0.001173132 0.12118234 -0.01391094 0.041504312 -0.02380803 0.074780285
-0.08006195 0.052279294 -0.050713595 0.040513076 0.11686218 0.120236196 0.027675197 -0.123277396
-0.12001266 0.13534549 -0.04442125 0.10953274 0.023384659 0.057369992 -0.07131735 -0.078256205
-0.005490853 -0.03882232 0.07506622 -0.018785106 0.059799172 -0.040421456 0.12510256 -0.022123171
-0.09474513 0.034981214 0.0007386677 0.036845587 0.11225648 0.11883831 0.062168416 -0.022945112
0.042123448 -0.024546564 -0.029163064 0.04406769 0.07324942 -0.023487922 0.02510044 0.0051258155
-0.076220244 0.094378285 0.053652916 0.018454647 -0.045624845 0.06697393 -0.08228112 0.040372625
-0.077193886 -0.03131517 0.14593518 -0.0018791396 -0.11366448 0.024091687 0.036893386 0.08358623
-0.07592931 0.10204071 0.062303886 0.062298086 -0.055349667 -0.09573429 -0.055679806 0.073299594
-0.08371459 0.04225616 -0.0322438 -0.0537824 0.0029730306 0.103261545 0.050950516 0.07455291
0.10589274 -0.14762522 0.08989149 -0.11698493 -0.13548303 0.12707484 -0.0819325 -0.048696738
-0.08865387 0.0060178773 -0.084287 -0.1288583 0.042567804 -0.1027357 -0.13160744 0.07214607
0.03759625 -0.010988407 0.13286284 -0.004367847 -0.053622227 -0.08270124 -0.13447241 0.06283323
-0.00294751 0.094631426 0.054041248 -0.06840399 0.017454812 -0.042376775 -0.04266136 0.0919156
0.031852 -0.07959666 -0.058414068 -0.0076405103 0.102006994 0.041879244 -0.0041102683 0.11103734
-0.08379195 0.057250977 -0.0055166106 -0.0030842926 -0.123401865 -0.043622177 0.11712784 -0.007372654
0.094046704 -0.01696098 -0.0036173526 0.10869846 0.06591563 0.110753424 -0.07371203 -0.044289824
-0.09139046 0.07966417 0.09172635 -0.03930622 0.038547136 0.05967802 -0.02479954 0.11609409
0.013215194 -0.019343374 -0.07353949 0.06016026 0.05341134 -0.06545817 -0.097835496 0.040784102
-0.06905552 -0.10310969 0.012659106 0.09369466 -0.025924118 0.06226211 -0.038611453 -0.042537276

layers.3.bias f4 [5]
00000000: 95c6 8ebc 5a6a b8bd 384e acbd 5687 cf3d
00000010: 10d5 fdbb
-0.017428676 -0.0900466 -0.084133565 0.10133235 -0.0077463463
