irony/models/model_4.pt (torch_old, 13324 bytes, 6 tensors)

layers.0.weight f4 [70, 10]
00000000: 9d4e 363e 9ccf 35be 9096 a73e 1d58 0dbd
00000010: e888 12be 432b a6bc 08f4 263e 3ab4 963e
00000020: 4a69 8f3c 438e f4bc 6b58 a43e ef70 6c3d
00000030: 968b 9e3e 92ce a03c e4bf a5be 4dbb 87be
00000040: 9bad 6c3d 5fde 163d b831 5abe bacb da3d
00000050: 6dac 513e 6dbc 34be 3c4f a1bd e565 06be
00000060: 0704 ad3d 2c57 3e3d d041 7c3d 12ba 10be
00000070: 9332 6b3e 4561 19be fb07 ca3d 7bf8 4dbe
00000080: 8fc3 5cbc 85d8 b7be e399 90be 8a54 db3d
00000090: 3952 8e3d dd5c 36be 4fe4 55be 25ee 0c3e
000000a0: 193c b43e 9be4 5cbe 72b6 813e e65b e1bd
000000b0: a581 1abe bb80 dcbd cb9e 5bbc 8c69 44be
000000c0: af95 e0bd 0e39 ee3a 4ff7 03be 33ca 42be
000000d0: aadd 943e 187e 8fbd 5508 05be 49d5 813e
000000e0: a7ff 3dbe c476 86be b98b fa3d d3c0 8d3e
000000f0: b316 dc3d f965 693d 8b98 7a3e 3b67 dc3d
00000100: 8b6f 8dbe 6644 80be d908 cebd aa41 433c
00000110: 8613 213d e61d 1b3e 9cfe 08be 8a10 793e
00000120: 8e52 223e 5703 1b3e 862c c6bc db41 85be
00000130: b450 48be 1919 603d 40b3 6abe e83a 0ebe
00000140: a8ef 73be 2262 253e ce8d bf3d 228f 1b3d
00000150: dbb6 98be 2c16 873e 5a57 c9bc 3624 62be
00000160: 9cd4 92be eb86 7fbe 8d9c 28bd a079 07be
00000170: ccdc 753d d992 643e eaeb 8ebb de68 f1bd
00000180: 2484 9abe 7b5f 10be 54a0 273e 97ca eabc
00000190: 3ba6 99bd 43f1 383e c6ff 09be 35cc 893e
000001a0: 0e53 9fbd e77c 74be 4ac1 e2bb 8307 d43d
000001b0: 2c89 95bc f076 b03d d16a 3cbe 0aa5 663e
000001c0: 7d60 8fbe d885 f5bd 6774 ba3e bef9 1fbe
000001d0: 09f8 943e 8675 f9bc 90c6 12be 9920 653e
000001e0: 976c 19bd 3b43 763c 428d 60be 8be0 973a
000001f0: fea6 c13d c471 24be b6f9 773d 6caf 2bbe
00000200: 1e05 6abc 3895 a7be e10d a2be e191 1dbc
00000210: 3c81 90be de5a 90bd 9fb0 bebd 246e fb3d
00000220: bb73 4a3e 906c 92be 60e6 febd 5dd2 a23e
00000230: 3e7f 6fbe 252a b8be 6757 283e e742 3d3e
00000240: 6961 5c3e a0c7 9bbd e1d1 2bbe ca89 9d3e
00000250: b4f7 e8bc 0d3e 92be 2cb5 df3d 0ffa 7ebe
00000260: f750 85be c230 8e3e df7c c23d 7a99 2b3e
00000270: ed35 323e 5fa4 dabd 1e14 a13e 59dc 883e
00000280: ded1 073e e839 833e c698 883d c045 a0be
00000290: 42e8 49be 6a5a a63e 7dbb 23be 1de7 433e
000002a0: 84cc 6ebe 27b1 57be 2c06 a43e b5f7 99bd
000002b0: 6725 23be 37b0 1bbe 0bbb 3f3e a586 943e
000002c0: 0f1d de3d f711 f3bd a7aa 8e3d 4d33 5f3e
000002d0: 1b31 8b3e 3779 8d3e 1245 afbe 4a5f eb3c
000002e0: 9357 1d3d b5f0 373d b586 36be 4076 0a3e
000002f0: ca8a 083e d349 913e 21c4 7fbe d507 813e
00000300: a327 483e d433 a83e f366 763e 9836 393e
00000310: 8046 983d 2133 73be 7119 f1bd d191 5f3e
00000320: 4ea6 8cbc 181b 18be 932f f23c 2dd0 a93e
00000330: 9b7b 143d 5ef2 b5bd e260 86be 2756 59be
00000340: 6760 e83d 0900 d13d 9346 9ebd 25e7 9c3d
00000350: 2aaf 8b3d bb3a 7b3e 7961 86bd 943e 953e
00000360: eeca 71be 66da fb3d ac54 12be c83a e5bd
00000370: e4a2 a33d a150 42be d27b 7c3d 153c 79be
00000380: ba9e 473e 0093 ab3d 4c1e e3bd e9fc 103e
00000390: 886f 423e 360e 483e 314a 6f3e 45f1 633e
000003a0: e459 483c ca58 23be 9a0c 26be fc55 9fbe
000003b0: a354 423c dfd6 05be 983c 7e3d 5854 8abe
000003c0: 4721 5cbd 8edd 9bbe 2451 adbe e09a 913d
000003d0: 7b2c 283d a4d1 b13d 04bb 6f3e 3fe0 513d
000003e0: 9734 8abd dcf7 3b3e 881f a2be c958 b2be
000003f0: 4eb1 4d3e c5cd cabc 12a8 973d c729 84bd
0.17803426 -0.17754978 0.32732058 -0.03450786 -0.14310038 -0.0202843 0.16304028 0.29434377
0.01750626 -0.029852992 0.32098708 0.05772489 0.3096587 0.01962975 -0.32372963 -0.26510087
0.05778275 0.036833163 -0.21308029 0.10683389 0.20475931 -0.17650004 -0.07876441 -0.13124807
0.08448034 0.046469852 0.0615862 -0.1413348 0.22968511 -0.14978512 0.098648034 -0.20114319
-0.013474359 -0.3590738 -0.28242406 0.10709484 0.069492765 -0.17808862 -0.20887874 0.1376272
0.352021 -0.21571581 0.25334507 -0.11003856 -0.15088518 -0.10766741 -0.013404558 -0.19180888
-0.1096605 0.0018174963 -0.1288731 -0.19022445 0.29075366 -0.07006472 -0.1299146 0.25358036
-0.18554555 -0.26262486 0.12233681 0.27686176 0.10746517 0.056982014 0.24472253 0.10761877
-0.27624163 -0.25052184 -0.10060281 0.011917511 0.03932526 0.15148124 -0.13378376 0.24322715
0.15851805 0.15137993 -0.024191152 -0.26026806 -0.19562036 0.054711435 -0.22919941 -0.13889658
-0.2382189 0.16150716 0.09353219 0.0379783 -0.29827008 0.26384103 -0.024577785 -0.22084126
-0.28677833 -0.24953811 -0.041164923 -0.1322999 0.06002502 0.22321643 -0.0043616192 -0.1178758
-0.3017894 -0.14098923 0.16369754 -0.028661055 -0.07502409 0.18060784 -0.13476476 0.2691361
-0.07779513 -0.23875771 -0.0069200145 0.10352995 -0.018253885 0.086164355 -0.18400122 0.22523895
-0.28003302 -0.11988419 0.36416933 -0.15622613 0.29095486 -0.030451547 -0.14333558 0.22375716
-0.037457075 0.015030677 -0.21928886 0.0011587305 0.09455679 -0.16059023 0.060540877 -0.16766137
-0.014283447 -0.32731032 -0.31651214 -0.0096173 -0.28223598 -0.070485815 -0.093110316 0.12276867
0.1977071 -0.28598452 -0.12446284 0.3180112 -0.23388383 -0.35969654 0.16439591 0.18482552
0.21521534 -0.07606435 -0.16779281 0.30769187 -0.028438427 -0.28562966 0.10923228 -0.24900077
-0.26038334 0.27771574 0.094964735 0.16757765 0.17403384 -0.106758825 0.3146066 0.26730612
0.13263652 0.25630116 0.06669764 -0.31303215 -0.19717506 0.32490855 -0.1598949 0.19131131
-0.23320204 -0.21063672 0.3203596 -0.075179495 -0.15932237 -0.1520394 0.18723695 0.29008976
0.10845386 -0.11868661 0.06966143 0.21796913 0.27185902 0.27631542 -0.34232384 0.02873196
0.038413595 0.04490729 -0.17824824 0.13521671 0.13334194 0.28376636 -0.24977161 0.25201288
0.1954637 0.32852042 0.2406271 0.18087232 0.07435322 -0.23749973 -0.11772431 0.21832968
-0.017169144 -0.14854085 0.0295637 0.33166638 0.03625069 -0.088841185 -0.2624579 -0.21224271
0.11346512 0.10205085 -0.07728305 0.07661275 0.06820519 0.24534123 -0.0656156 0.29149306
-0.23612568 0.122975156 -0.14290112 -0.11192852 0.07990053 -0.1897607 0.06164152 -0.24339326
0.19494143 0.083776474 -0.11089763 0.14158978 0.18987858 0.19536671 0.23368146 0.22260006
0.012228463 -0.15951839 -0.16215745 -0.31120288 0.011860999 -0.13070248 0.062069505 -0.27017474
-0.053742673 -0.3044247 -0.33850968 0.07109618 0.041058045 0.08682564 0.23411185 0.05123925
-0.06748312 0.1835627 -0.3166468 -0.34833363 0.20087168 -0.024756322 0.07405104 -0.06453281

layers.0.bias f4 [70]
00000000: da52 4fbe 8163 08be 3568 a33e c2e5 2ebc
00000010: ce69 753d dd88 f63d e551 fe3d fc55 2bbe
00000020: efd8 063e 0bbc 4b3d a731 25be 2fa1 f33d
00000030: 2749 c3bd d4ed 383e 7973 91bd 7924 333e
00000040: 7fed 34be 8598 8dbe 8f39 91bd fd88 39be
00000050: ce68 9b3e 0eb8 45be f3e7 f83c 6806 303d
00000060: c575 523e e658 bebd 73cf 09be c2e0 c8bc
00000070: c625 403e c8dd 733e 9c4f 8a3e c81a 9b3e
00000080: c18b 11bd e413 46bd 542d 93be 4e3f 423d
00000090: 53d3 02bd 2cdc 6fbe f960 8f3e 7b09 95bd
000000a0: 8e0a 9fbd 32b9 25be 56db 29be 366a b7bd
000000b0: 282d 89bd 9b92 0dbe a001 d23d 7ba3 2d3c
000000c0: a6cf 363e 8042 203e 3218 ff3d b681 0fbe
000000d0: cc1f 56bc d223 2bbe 024b 003e 9f35 83bc
000000e0: 236b 643e 4d8a 8c3e 3520 313c 1b5e 8f3e
000000f0: f5fa 19be 2056 c83d 5c05 edbd 3ca2 b1bd
00000100: 1960 41bc a42a ac3c 1cac 03be 1e0e 9f3e
00000110: 2064 4d3e 0fd2 1bbe
-0.20246449 -0.13319208 0.3191544 -0.010674896 0.059915356 0.12037823 0.12417964 -0.16732019
0.13168691 0.04973988 -0.16132222 0.11895978 -0.09535437 0.18059474 -0.07102103 0.17494382
-0.17668723 -0.27655426 -0.070910566 -0.18118663 0.30353397 -0.19308493 0.03038404 0.04297486
0.20552738 -0.092943 -0.13458042 -0.024521235 0.1876441 0.23815072 0.27013862 0.3029387
-0.03553367 -0.048358813 -0.2874552 0.047423653 -0.031939816 -0.23423833 0.28003672 -0.07277199
-0.07765685 -0.16183928 -0.16587576 -0.08955805 -0.06698066 -0.13825457 0.10254216 0.010598059
0.17852649 0.15650368 0.12455787 -0.14014325 -0.013069104 -0.16712883 0.12528613 -0.01601678
0.22306494 0.27449265 0.010810901 0.28001484 -0.15037139 0.09782052 -0.11573288 -0.08673522
-0.011802697 0.021016426 -0.12858623 0.31065458 0.20057726 -0.1521685

layers.1.weight f4 [30, 70]
00000000: f17a d4b9 6ab5 00be dd56 a63c 1527 dbbc
00000010: 659b adbd 2723 063d 6639 07be 45b7 f5bd
00000020: 00be 143d 9614 17bd 5313 f83c 926a 243e
00000030: 92ea fc3d f57c 7fbc 0847 e03d 1c47 d53d
00000040: 76d5 8b3d 4ec4 b13d ea90 1c3d d01b ac3d
00000050: dd2c 95bc 19ad 8fbd 5d13 403d 7ed6 803d
00000060: 8095 4f3d 212a 193d dab2 903d 4456 f9bc
00000070: 5cdb 943c 643b 053e 5180 4dbd aabb 21bc
00000080: 1eeb c13d 9529 a2bc 1a8f 39bd 7821 223d
00000090: 052a 833c 772e e6bd 9be4 dbbc 84c0 983d
000000a0: 4457 c73c f779 d5bd e64e 8f3d 01bb 653d
000000b0: 39da 0cbe c25d ecbb 1368 b93d a03d babd
000000c0: 7f6c 3e3d 1488 d9bc ead5 0dbd 48b9 b9bd
000000d0: 49a6 12be d8a1 333d 24cc 673d b271 da3c
000000e0: 2a9f cd3d 12d2 9b3d 4796 91bc 56d1 d63d
000000f0: 4337 b5bd de1d 823d 189c 173d 1b7d ddbd
00000100: a89a 48bd 54cb b83d 0774 51bd b9d4 7f3d
00000110: 7c6e d23d 61ad c2bc be0a fcbd 3fa9 973d
00000120: 225e 28bd 5feb 193d 7bcd 80bd 3767 09bb
00000130: 7d44 153d f1f1 dbbd 49a1 b33d 2895 4dbd
00000140: 312b bcbd 97e5 643d a4d7 a33d 4588 d6bc
00000150: 154b 533c 8859 12bc bb56 893d 6250 e63d
00000160: 3443 4f3d 2592 ab3d 08aa 3fbd 97d9 e4bd
00000170: 1a9d 0dbd cea4 0ebe 858d a13d 843f fcbd
00000180: 7b36 223d da86 483d cc35 6639 89ef cdbc
00000190: 5170 903d 9b69 413d 1822 f33c 8dfd c93d
000001a0: ddb4 84bd 4ca1 81bd e432 5dbd 888f 6d3c
000001b0: 7996 dfbc e894 ccbd 45ea bcbd 36d5 2e3d
000001c0: db01 39bc 6b24 c5bd 4835 31bd 02ce bb3d
000001d0: 8c41 02bd da81 03bd d249 c0bd 129a a4bd
000001e0: 943e bb3d bf58 e6bd 36cc d63c 8366 113e
000001f0: 181e 843c 4509 173e 61bf 80bc 86d7 97bd
00000200: ef09 7c3b eab5 bc3d 4860 9fbd 76dd bb3d
00000210: 08a6 a8bd 9b79 11be f7d6 c93d 8dee 35bc
00000220: c06e abbd 26f0 273d 2cca 5c3d 0f6e 01bb
00000230: 0cad a63d 065e 02be b6a6 e73d 368c f3bd
00000240: 7fda 3dbc 1257 fd3d 9a43 823d bd1c 713d
00000250: 502b bb3b d8a9 133e ac16 fd3c 45db 87bd
00000260: 2d71 c5bc d031 513d 2cb8 c43d 41db 8a3c
00000270: c6ca 19be 7a92 473d a4c6 ad3c 27a3 113e
00000280: 4f52 0ebd d6c3 78bb 498d 1a3e a661 25be
00000290: a54e 58bd 2f73 ec3d 6065 f3bd feed d73c
000002a0: 0422 ec3c ac91 b63d b3d1 a9bd a9cb 9fbd
000002b0: b1b7 30bb a589 ecba cd55 103d 5616 c7bd
000002c0: 2f8c 963d c754 643d 1aff a3bd 1bd9 59bb
000002d0: 8345 f13d 7a9a aabd 1270 503d c21a 0abd
000002e0: bc77 613b d08c 8b3d 4f4c 993d 2ad9 5d3d
000002f0: c936 9c3d b83f 9fbd ae39 c33d 769c dbbd
00000300: 92fe 363b c5f8 12be a561 083e 0106 b43b
00000310: 41f3 20bd 556f 063d f598 7f3b 72b1 973d
00000320: 82c6 a4bd d625 96bd c787 d7bd f1f9 8cbd
00000330: 7805 043d 2b38 01bd 27f3 9e3d c742 1abd
00000340: e99c 403d 02ad f6bd 53ae a73c 67cf 28bd
00000350: 68e4 9f3c 2dc0 b0bd 9de4 8bbd d4df 8c3c
00000360: 5d93 923d b058 b93d c8d5 febd 15f7 ac3d
00000370: a176 33bd 2043 b63d 9b30 8fbc ac2f 913d
00000380: 39c6 28bd 5846 bf3d 38de f6bd f00a 03be
00000390: cfb7 edbd fb07 e23d 7323 fa3d ecb3 da3c
000003a0: c791 c13c 3fe9 16be ff7b 51bb 4809 b03c
000003b0: 8f8e 4bbd e3f9 3bbc bfaa 363d 80ad 893d
000003c0: 69b6 aa3d 5cb3 063e 3d75 e5b8 4104 f33d
000003d0: 09fc f3bc 6c2e ac3d 9331 c03d 547b 5f3d
000003e0: d979 e0bd d7e6 443c 09b0 f23d 662c a4bb
000003f0: 1ce2 eb3c 01dd 163d 18d3 e6bb 4f28 9e3d
-0.0004052739 -0.12569204 0.020305092 -0.026752034 -0.08476905 0.032748368 -0.1320549 -0.119978465
0.03631401 -0.036884867 0.030282652 0.16056278 0.12349428 -0.015593757 0.10951048 0.10413954
0.06827824 0.0868002 0.03822414 0.08403742 -0.018209869 -0.07015438 0.046893466 0.06290911
0.050679684 0.037393693 0.07065363 -0.030436642 0.018171005 0.13010937 -0.0501712 -0.009871403
0.09468673 -0.019795218 -0.045302488 0.0395827 0.016011247 -0.11239331 -0.026842406 0.074585944
0.024333604 -0.104236536 0.069974706 0.056086544 -0.1375512 -0.0072133252 0.09053054 -0.09093785
0.04649019 -0.026554145 -0.034627832 -0.09068543 -0.14321245 0.043855518 0.056591168 0.026665542
0.10040124 0.07608427 -0.017771853 0.104891464 -0.08848431 0.06353353 0.037014097 -0.108148776
-0.048975617 0.09023157 -0.051136043 0.062458728 0.102749795 -0.023764314 -0.123067364 0.07405328
-0.041105397 0.037577983 -0.06289192 -0.0020966062 0.03644227 -0.10739506 0.08770997 -0.050191075
-0.091879256 0.055883016 0.080001146 -0.026188025 0.012896319 -0.008932479 0.06705996 0.112458006
0.0506012 0.08377484 -0.046793014 -0.111743145 -0.03457365 -0.13930055 0.07888321 -0.12316802
0.039602738 0.04895673 0.0002195455 -0.025138633 0.07052673 0.047219854 0.029679343 0.09862814
-0.064798094 -0.06329593 -0.05400361 0.014499553 -0.02729343 -0.09989339 -0.09224371 0.042683803
-0.011291946 -0.09626087 -0.043263704 0.09170152 -0.03180079 -0.032106258 -0.0938908 -0.08037199
0.09142795 -0.11247396 0.026220422 0.14199261 0.016127631 0.1474963 -0.015716257 -0.07414155
0.003845807 0.09214385 -0.07782036 0.091731 -0.08234793 -0.14206545 0.098554544 -0.011104238
-0.08370733 0.041000508 0.053903744 -0.0019749438 0.08138475 -0.1273118 0.113110945 -0.118919775
-0.011587738 0.12370123 0.0636055 0.058865298 0.0057119504 0.14420259 0.0308946 -0.06633619
-0.024101818 0.051072896 0.096054405 0.016950252 -0.15018758 0.048723675 0.021212883 0.14222394
-0.034746464 -0.0037958524 0.15092959 -0.16150531 -0.052809376 0.11545407 -0.1188457 0.0263586
0.028824814 0.089145035 -0.0829195 -0.07802517 -0.0026964957 -0.0018046392 0.035238076 -0.09721057
0.07350957 0.055744912 -0.08007641 -0.0033240977 0.117808364 -0.08330245 0.05088813 -0.033716924
0.0034403643 0.06813967 0.07485258 0.054162182 0.07627637 -0.07775825 0.09532486 -0.10723202
0.0027922732 -0.1435271 0.13318498 0.00549388 -0.039294485 0.03282102 0.0039001082 0.07406892
-0.08045675 -0.073314354 -0.10523944 -0.0688361 0.032231778 -0.031547707 0.077612214 -0.03766134
0.04702464 -0.12044717 0.020468866 -0.04121342 0.019518092 -0.086304046 -0.06830714 0.017196573
0.071570136 0.09050119 -0.12443119 0.08445565 -0.043814305 0.08899522 -0.017479232 0.07089171
-0.041204665 0.09339589 -0.120541036 -0.12797141 -0.11607324 0.110366784 0.12213793 0.026697122
0.023629082 -0.14737414 -0.0031964777 0.0214888 -0.0496965 -0.011473152 0.04459643 0.067225456
0.08335573 0.13154358 -0.00010941408 0.11866046 -0.029783266 0.08407292 0.093844555 0.054560974
-0.109607406 0.012017927 0.11849982 -0.0050101755 0.02879434 0.03683186 -0.0070442073 0.07722532

layers.1.bias f4 [30]
00000000: 05e6 bcbd ce32 dd3d 411a 753d aa72 ff3d
00000010: f06c 863d 1843 3c3d ea30 2cbd 53bb 69bd
00000020: b47d e3bd 5710 a93c 681f 013e 25c5 0e3d
00000030: cc8e 003e a755 c43d 72d0 213d ff89 cd3d
00000040: 23ab 9dbc 2b4c 6dbd 2d4f 243c 781d 6cbc
00000050: 4dce 703d 5cc0 a83d e269 42bd 98da 463d
00000060: 8b3f 91bd 4b19 ee3c ea7f cc3c 99f6 823d
00000070: b8a9 813d 175f 9f3d
-0.0922356 0.10800706 0.05983949 0.12473042 0.06563747 0.045962423 -0.042038836 -0.057063412
-0.1110796 0.020637674 0.12609637 0.03485598 0.12554473 0.095866494 0.03950543 0.10036086
-0.019246643 -0.057933968 0.010028643 -0.014411323 0.058790494 0.08239815 -0.04746426 0.04854831
-0.07092198 0.029064795 0.024963338 0.06394691 0.063311994 0.07781809

layers.2.weight f4 [5, 30]
00000000: a092 b2bd 86a3 bf3d e3eb ccbd 9cc2 50be
00000010: 0cae 053e db5c 0dbe 3d95 2fbc 2b9e 113e
00000020: c498 3e3e 52d9 ca3d 8d0a 96bc 8d0c 7d3d
00000030: 7670 9cbd 8906 72bc 3284 6e3b 79ce 27be
00000040: d3d0 3ebe 16d6 8a3d 45e5 623d 5210 ba39
00000050: 5554 953b b237 523c fe30 e8bc d44f 143e
00000060: 0db1 e3bd da9b 66be f10e 40bd 9946 9f3c
00000070: 61f4 413e 3fef 3a3e 371f c73d b74b cfbd
00000080: cca3 54be d040 cebd 1c2f 03bd 6d9f 03be
00000090: 2332 09be bf13 093e f6dc f5bb 23fe 473d
000000a0: b2f4 8fbd a394 043e 377d 053e 12dc 9b3d
000000b0: 2ab9 0a3d 622c 7ebc 5c25 4dbe 7e9d 99bd
000000c0: 13ce 0bbc 3e77 8e3d faad 13be 3065 d5bd
000000d0: f678 d03c d7c8 14be 8a36 003b 8d7a 3ebe
000000e0: db80 183e b94a 3ebe 261a 383e 5b15 963d
000000f0: 9dce 1fbc 37f8 10be c631 993b 5fff 2bbc
00000100: edc4 06bd c79b 31bb 1700 f3bd 7e68 15bd
00000110: ff26 c93d 268f 243c b97a acbd 417a 153e
00000120: 6047 ea3c 26d4 983d ee41 3abe e1e1 08be
00000130: 6fdf 21bd ac85 2ebe 7af9 873d f7b1 1cbe
00000140: f570 173e c373 abbd e539 19be 509f 50bd
00000150: 4456 3ebd 8e7a 3abe a939 ef3d 6e01 8abd
00000160: 1ffc 6dbd c264 20be 6689 00be 7b6e 39bc
00000170: f66c fb3d bba5 433d a9ca a33d abf0 203e
00000180: b267 e13d 6d53 5f3d 6a78 2c3e 0acc ecbd
00000190: 8f1a 303e 9e68 e7bd 101e 2a3e 7656 413e
000001a0: d832 293d f869 a13d f9bc bebd 61a7 2c3d
000001b0: 913e 563e 4db2 153e 9bc5 0fbd 4742 2d3e
000001c0: f645 e33d 95ee 04bd d109 9abd 8d67 3cbc
000001d0: 2d96 5ebd b061 86bc e25c 12bd c8b2 a8bd
000001e0: ce7b 103e 01ab 263c bbf6 813d d098 023d
000001f0: b59f bbbc 1d8f d43d 5a42 663e be8f 6d3a
00000200: 5e2c 9bbc 32d0 293e a0cf 4c3d ff55 c9bd
00000210: 460d f43d 7c6f 8ebc 9712 f2bd cb8e d3bc
00000220: 2054 1c3e 58d2 b13d af0b 8c3c 2a6d 2f3e
00000230: 1ba5 1a3d e258 1ebe fbd2 9cbd 6240 a53b
00000240: 2e78 323e 0138 3c3d 96ac 0a3d 8584 c33d
00000250: b76e 89bd fced bf3c
-0.08719373 0.093573615 -0.10005929 -0.20386738 0.13054675 -0.13804953 -0.0107167335 0.14220493
0.18612963 0.09904732 -0.018315578 0.061779547 -0.07638638 -0.014772066 0.0036394713 -0.16387357
-0.18634348 0.06779115 0.05539443 0.00035488844 0.0045571723 0.012830662 -0.028343674 0.14483577
-0.11117754 -0.2252039 -0.04688925 0.019442843 0.1894088 0.18255328 0.09722751 -0.10121863
-0.20765609 -0.10070956 -0.03202735 -0.12853785 -0.13398032 0.13386439 -0.0075031472 0.048826348
-0.07029094 0.12947325 0.13036047 0.076103345 0.033867992 -0.015513511 -0.20033783 -0.075007424
-0.008533019 0.069563374 -0.14421836 -0.104196906 0.025448304 -0.1452974 0.0019563758 -0.18601437
0.14892904 -0.18583192 0.17978725 0.07328292 -0.00975385 -0.14157186 0.004675123 -0.010497897
-0.032902647 -0.0027100907 -0.118652515 -0.036476605 0.09821891 0.010043895 -0.08421845 0.14597417
0.028598487 0.07462339 -0.18189213 -0.13367416 -0.039519724 -0.1704318 0.06639381 -0.15302263
0.14789183 -0.08371689 -0.14963491 -0.050933182 -0.046468988 -0.18210813 0.1168092 -0.06738554
-0.05810177 -0.15663436 -0.12552413 -0.0113178445 0.12276642 0.047765475 0.07997639 0.15716808
0.110061064 0.05452292 0.1684281 -0.11562355 0.17197631 -0.11299251 0.1661303 0.18880638
0.041308254 0.0788154 -0.093133874 0.042151812 0.20922305 0.14618798 -0.03510056 0.16919814
0.11097328 -0.032454092 -0.075214036 -0.011499298 -0.054342438 -0.016404003 -0.03573311 -0.08237225
0.14109728 0.010172606 0.06345888 0.031884015 -0.022903303 0.10378859 0.22486249 0.0009062252
-0.018942054 0.16583326 0.050002694 -0.098308556 0.11916594 -0.017387144 -0.11819952 -0.025824925
0.15266466 0.08682698 0.017095415 0.17131487 0.037755113 -0.15463594 -0.07657429 0.0050430754
0.17428657 0.045951847 0.033855997 0.095467605 -0.0671057 0.02342891

layers.2.bias f4 [5]
00000000: 92df 7a3d fd3c c43d 8218 113e ee4d 1dbe
00000010: 8652 9cbc
0.06124837 0.09581945 0.14169505 -0.15361759 -0.019082319
