irony/models/model_47.pt (torch_old, 58143 bytes, 8 tensors)

layers.0.weight f4 [70, 10]
00000000: cf2f 4c3e e643 99be 41d9 84be 1ba6 0b3e
00000010: 5b8f bb3c 193f ef3d e0ce 5bbc ea59 b8bc
00000020: 2377 023e f93b 873e 9294 0dbe b198 4bbe
00000030: e05c 473f d299 0dbe d3c2 efbd 50a1 e63d
00000040: 74e5 ac3d d2d4 0a3e 9c22 913d a685 e23c
00000050: 0a98 90be f869 b83e 64bb 09be aeab 6c3e
00000060: 1663 da3d f661 e6bd 1762 c43c 4d18 dbbd
00000070: c181 883d 2012 e03d 223e 1b3e 4a9b 53be
00000080: 3c4d 88be df9b 8e3e c5d5 a83d 6cfe b5bc
00000090: 1bd0 13be 3804 21be fe8e c53c 71ba b93d
000000a0: de24 473f e8b5 94be 0a42 45be 7b03 23be
000000b0: 5e4a 8abe 141e 0a3c 6eee 0bbd 7158 01bd
000000c0: 4de3 0fbd 1f10 89bd 4daf c1be d60e 773e
000000d0: c2eb 8c3d 524c 88be 7a13 043e 0b4f 38be
000000e0: dbae 93ba a327 91bd 71a6 27be 1f3c 83bc
000000f0: 872a 2d3e 8931 abbe 9635 91be bcf5 f93d
00000100: 149e 09bc 48f5 4abc 2d79 05be 4fc7 f7bd
00000110: 6bf8 113d d2b6 533e e7d9 5f3e 1734 7e3d
00000120: 71e2 d63d 2af8 62be 6386 83be d1f9 1b3e
00000130: bef4 1d3e 8afe 143e b87d 9bbd c360 a3bd
00000140: b2e8 87be 309f 24be 2235 2b3e a65d c8be
00000150: 8f6a de3e acfc 19bd 4c32 01bd 57ac 4b3d
00000160: 6eae 39bd 6f12 b43d 2d2d f6bd cba4 0d3f
00000170: 5acd 8d3c db3e 5ebe 1423 84bd abfc ebbb
00000180: 81c9 623d 8874 403d 646f 81bd e05f cbbd
00000190: d034 4f3e be68 8f3e 59e0 0abe 6d15 5ebe
000001a0: 7c55 893e 6255 203e af1c 913d 9f66 ddbd
000001b0: 8064 8dbd 5fbf e43d 6324 92be 0713 803e
000001c0: 335e b7be f070 fa3d 09d2 093d 636a 17bd
000001d0: 3fa8 c83d ab26 25bd b221 273e 402e 1e3e
000001e0: 405d 4fbf ea96 413e 6a5d e63d c553 a43d
000001f0: 0c0a 363e 5de2 86bd 7b3a 16bd 8779 59bd
00000200: 5bf9 2bbd d77b 4bbc d2e4 78be fa89 363f
00000210: 358b 38be 07dc 5ebe 9080 84be f5a7 45bd
00000220: 5712 3f3c 8c52 c7bc b7c0 b8bd 5dc8 ccbd
00000230: 1e86 a03e 6f11 b2bd babe 94be 950f 823e
00000240: 28e5 c9be b720 1c3d 2a0b 9dbd 355a e9bd
00000250: 8613 a33c d9ad fdbd afcb 073e 35e0 aebe
00000260: 0b76 be3e 94d2 0abe ccf0 94bd 8afd 633d
00000270: ba05 a5bd 8939 9b3d df9b c7bd 49b8 d9bd
00000280: fd7e 673e 1488 943e ed0c 2fbf 756b 6a3e
00000290: 1c42 843e d87f 3cbd da14 9fbd 6cb9 0abe
000002a0: afc0 9fbd 75f8 fb3c 00ed 5cbe def0 62be
000002b0: f6eb 933e 4c40 043e 1bbc 713e 3963 0ebe
000002c0: 7138 0fbe 5ce3 f83a 52dd f23d 630e 563d
000002d0: bc3c 21be 0f6d 3bbe a5cc a4bd 193f 2b3f
000002e0: e81a 9fbe 4d6f 633b 3695 aa3c 86e2 9b3d
000002f0: 3108 c03d 06fe df3c 1b39 3dbe 0bc7 a53e
00000300: be71 833e d85f 15be e1ff 78bd fa5f f03c
00000310: 6343 2c3e 55aa 303e f13e 9bbc 0e19 afbd
00000320: bab6 83be a802 40be 7841 863e 80a2 babe
00000330: 3e66 983e 122c d9bd 46b6 cfbd 139b 0f3d
00000340: 6404 abbd 5c9b 853d 0267 103e 2cf2 323e
00000350: 6f2c debe d765 06be 776e 3dbe 76b7 f23d
00000360: 7e24 213e 334f 58bc 42b2 4bbd 3572 1dbd
00000370: adc3 8dbe e4e1 a33e 6c33 0fbc 1f38 233e
00000380: 8853 88be d098 8abd 1ae4 433d 0f82 843d
00000390: 6617 3a3d 5f35 24be 4b74 783e acf7 833e
000003a0: 0b8f 05bf b3af 193e ca81 51bd 3092 123e
000003b0: d262 073e a9a5 df3c 7f92 da3d d644 38bb
000003c0: 1220 8f3e a238 f7bd a72d 1bbe 9fa9 59be
000003d0: 90f2 353e b661 f43d d482 99bc 395e c8bd
000003e0: 4248 b4bd ce84 f43d ca7a 583e 0be5 a0be
000003f0: c7b4 5ebe b56f 4b3e 2c76 293d fed2 483d
0.19940113 -0.29934615 -0.25947002 0.13637583 0.022895506 0.11681957 -0.013416022 -0.022503812
0.1274076 0.26412943 -0.13826206 -0.19882466 0.7787609 -0.13828209 -0.11707082 0.11261237
0.08442202 0.13557747 0.07086679 0.02765162 -0.28240997 0.36018348 -0.1345039 0.23112366
0.106634304 -0.11249153 0.023972554 -0.106979944 0.066653736 0.10940957 0.1516042 -0.20664707
-0.26621425 0.27853295 0.08243898 -0.022216044 -0.14434855 -0.15724266 0.024116036 0.09068764
0.7779063 -0.29045033 -0.19263473 -0.15919296 -0.27009863 0.008430023 -0.03416293 -0.031578485
-0.03512888 -0.06692528 -0.37829056 0.24126753 0.06880905 -0.26620728 0.12898055 -0.17998902
-0.0011267321 -0.07087638 -0.16372086 -0.016019879 0.16910754 -0.3343623 -0.28361195 0.12205073
-0.008399505 -0.012387581 -0.13034506 -0.12098562 0.0356373 0.20675209 0.21860467 0.062061395
0.10492409 -0.2216498 -0.25688466 0.15232016 0.15425393 0.14550224 -0.07592338 -0.0797744
-0.2654472 -0.1607635 0.16719487 -0.39133948 0.43440673 -0.037594482 -0.031542107 0.049724903
-0.045332365 0.087925784 -0.12020335 0.5532958 0.017309833 -0.21703665 -0.06452003 -0.007201751
0.05536795 0.046986133 -0.06320074 -0.09930396 0.2023499 0.280096 -0.13562144 -0.21687861
0.26823032 0.15657571 0.07085549 -0.10810589 -0.069039345 0.11169314 -0.28543386 0.25014517
-0.35814056 0.12228572 0.03364757 -0.036966693 0.097977154 -0.04032008 0.16321447 0.1544733
-0.81001663 0.18905225 0.11248286 0.0802379 0.1777727 -0.06586144 -0.036676865 -0.053094413
-0.04198585 -0.012419662 -0.24306038 0.71304286 -0.18021853 -0.21763621 -0.25879335 -0.04825588
0.011662087 -0.024331354 -0.090211324 -0.09999154 0.31352323 -0.086947314 -0.29051763 0.25402513
-0.39432645 0.038117137 -0.07668145 -0.11394159 0.01990677 -0.123866744 0.13261293 -0.3415543
0.37199435 -0.13556892 -0.07272491 0.055661716 -0.08057733 0.07579333 -0.09746527 -0.10630853
0.22607036 0.2901007 -0.683791 0.22892554 0.25831687 -0.04602036 -0.07767649 -0.13547295
-0.07800423 0.030758122 -0.21574783 -0.22162196 0.2889096 0.12915152 0.23606913 -0.13905038
-0.13986374 0.0018988657 0.1185862 0.052259814 -0.15745825 -0.18303321 -0.08046845 0.66893154
-0.31075215 0.0034703792 0.020823102 0.07611565 0.093765624 0.027342808 -0.18478815 0.3237842
0.25672716 -0.14587343 -0.0607909 0.02934264 0.16822581 0.17252477 -0.018950911 -0.08549701
-0.25725347 -0.18751013 0.26221824 -0.36452103 0.29765505 -0.10604109 -0.10142188 0.03506
-0.08350447 0.06523773 0.14101794 0.17475194 -0.43393275 -0.13124786 -0.1849917 0.11851399
0.15736577 -0.013202476 -0.049730547 -0.038438994 -0.2768835 0.32008278 -0.008740287 0.15939377
-0.2662623 -0.06767428 0.047824956 0.06470119 0.04543247 -0.16035984 0.24263112 0.25774896
-0.5217139 0.1500843 -0.051149167 0.14313579 0.1322129 0.027300673 0.10672473 -0.0028117201
0.27954155 -0.12071349 -0.15154134 -0.21256112 0.17768312 0.119326994 -0.018739142 -0.097835965
-0.088028446 0.11939393 0.2114059 -0.31424746 -0.21748649 0.19866832 0.041372463 0.049029343

layers.0.bias f4 [70]
00000000: fdf6 ab3a f0a0 bebd d098 a6bc 5c48 833d
00000010: 961a fc3d 99e1 fc3d 2db8 163e 6d92 9ebd
00000020: f984 0b3d 6379 e0bb 3b55 05bd 7685 a93c
00000030: e97c 133d 56b1 0b3e da19 c43d 6ece a33b
00000040: 8671 f3bc 3db9 8a3c eb8b 3c3c 3276 1ebe
00000050: 1a1f 843d 3ae8 913c 59bb bc3b 594b 06be
00000060: 86d0 41bd 3966 a53d 9abd 803d fdbb 153e
00000070: e5f5 f6bd 2ea5 06bd e211 e23d 4da6 25bd
00000080: 5694 07ba 7917 2bbe b933 aebd f6d7 03bd
00000090: a8cd 8d3d 2dd2 8bbd 313e 8abd 404f 82bd
000000a0: c3fb a9bd e8b2 35bc f49a ea3c 991d 1bbd
000000b0: 2124 78bd c793 10bc 7cee f83d be8b 9dbc
000000c0: c650 a73d b3ea ce3c a2eb 2cbd cc42 a1bb
000000d0: 9ccb e5bc f140 313e dbd5 a7bd 4d4e 683d
000000e0: b031 0f3d 981c c4bd fd77 533b f9f2 dcbd
000000f0: bd61 a5bd 2dae 863d f191 773d f9e4 473d
00000100: 61e3 c9bd 0276 84bc b5f1 c43d 6488 ac3d
00000110: cd2f ce3d c511 48bd
0.0013119873 -0.0930804 -0.020336539 0.06410286 0.12309758 0.12347717 0.14718695 -0.07742772
0.03406236 -0.006850408 -0.032551985 0.020693522 0.036007795 0.13641867 0.09575243 0.0049989736
-0.029717218 0.016934032 0.011507968 -0.15474775 0.06451245 0.01781093 0.0057596383 -0.1311468
-0.047318004 0.08076138 0.06286164 0.14622493 -0.120586194 -0.03287237 0.11038567 -0.0404418
-0.0005171945 -0.16708173 -0.08505959 -0.03218838 0.069239914 -0.06827197 -0.06750143 -0.06362772
-0.08299973 -0.011090018 0.02863834 -0.037870023 -0.06058133 -0.008824295 0.12154862 -0.019231673
0.08169703 0.025258398 -0.042216904 -0.004921293 -0.02805119 0.1730993 -0.081950866 0.0567153
0.034959495 -0.09575766 0.0032267564 -0.10788531 -0.08075283 0.0657619 0.060441915 0.04880235
-0.09857822 -0.016169552 0.096164145 0.08424452 0.10067711 -0.04884507

layers.1.weight f4 [80, 70]
00000000: 3e0c 5a3d 6287 823d bcef 813c eef0 f33c
00000010: 004e edbc 3ab5 bc3d 0390 503c a035 d9bc
00000020: cc26 5c3e 923c aebc 6c24 8fbd f31a 8cbd
00000030: e6b5 7d3d 82b3 7e3d 9ec0 4abe e9f8 163d
00000040: 3979 f13b 81eb 8d3d 1930 8dbc 6510 5abb
00000050: 8fe9 643e d562 cbbd 3f16 70bd 6bb2 10be
00000060: 46c2 8e3c be28 413c 7aaa 143c 488e 2f3d
00000070: abd9 e4bb 7f89 413e fa9c 833c be8e 56bc
00000080: 0db2 95bc 1238 0b3c 2b47 5c3d defa 1f3d
00000090: 63a2 383c 571e 463c ebe1 ac3b a197 f23c
000000a0: 4445 81bd 2162 3f3d 2556 45be 2878 67bc
000000b0: 30ca 073d 7dca a3be 09af 883c 9bb9 31bd
000000c0: e6be 1abe e0fe 703d bfbf 8bbb 1132 753e
000000d0: cc39 3c3a 84b2 4fbc 27b6 413d 129a f83c
000000e0: aa62 20bd e8dc 3fbc 2470 d3bb 5cbe 43bd
000000f0: fc89 a03d 6eb6 ab3c ca20 663d 444a a33d
00000100: 220a 1f3d 982f 003d 12e8 9d3c d4f0 bb3d
00000110: cab6 c53d 1ffa 9ebc 689b 9f3d 2d44 9b3c
00000120: ed20 09bc 3f28 e43d 13da 043d b20d 20be
00000130: e929 6c3d d720 933c 5fc0 cdbd 27bc b8bd
00000140: c785 21be 4582 1e3d 5b61 54bd 0c7f 04bd
00000150: afcb 4a3e 6c2c 99bd a3cb 1dbd 32e3 2f3d
00000160: f5b6 263d 2d49 77bd 9fbf 20be a229 2e3d
00000170: 1af0 d93d 204d 763d 89d1 66bd 64f3 c03d
00000180: 55bd e4bc 00df 73bc a0f4 fb38 ccc5 913d
00000190: 47db dcbd 0fd0 ba3c 68a0 233d c162 363e
000001a0: feb7 413e f015 bfbd e882 d9bc b132 fc3c
000001b0: 384f cf3b 9786 7b3d 7011 bfbc 1436 fc3d
000001c0: a6b5 fe3d 74d3 10bc 42db 4c3d 562b 053e
000001d0: 860d 64bb be0f d63d a2cb df3d 76d5 f8bc
000001e0: 56bd 2c3e 64e1 10bc 55f3 e1bd 9f13 c13c
000001f0: 98cb d8bc 1ee8 3fbc 1113 bbbd 1847 493e
00000200: 65a6 7d3d f88b c63d 4040 123e e928 c43c
00000210: 786f 343d f772 983c 13d0 883b 6d4a 76bd
00000220: b80a 423d 95a8 953b ae3a 15be 4eac 71bd
00000230: a342 c23c 6d12 a8be ba83 813d b0bc 073e
00000240: 49f3 c93c 6d7e 803d 5591 5f3d d392 183c
00000250: 6c81 28bb 02a6 863c 91c9 113d 5e7c be3c
00000260: 32f0 a73c 46e7 3e3a 5c32 63bd 82a2 9dbd
00000270: 4718 d73e 2796 0dbd 309c 653c 4e0f 0fbd
00000280: 8689 6d3c 0410 f93c 6e78 7f3b 78b4 a0bc
00000290: a8f8 db3c a151 6c3d 081d b9bc 5282 8a3c
000002a0: e059 793d 8c3c 233c e5d6 f53c efe0 65bc
000002b0: e87a cc39 61e3 843c 90e4 0b3c 52b0 adbe
000002c0: c29d ebbc a220 b53c 564d b93e 5e6e 26bc
000002d0: edf0 7fbd f6de 833b 0f77 bfbc 7951 d53c
000002e0: 3398 98bc 4fb7 a9bd a8d3 2c3d 4400 6b3e
000002f0: e4fd 61bd 135c 853c 8fae a83c 7145 b73c
00000300: d6dd c13d a92c 803c 8e1d 18bd 694a 413b
00000310: 5458 fbba b89e 593d 52db 1abd 64dc dc3c
00000320: 0253 8c3c da95 883d 80f6 77b9 f903 013d
00000330: bd68 0bbd 4a02 7bbe b8de 0ebd 5640 c4bc
00000340: e6e2 9a3d 1b41 fcbc 3535 64be 3ffb 213d
00000350: 68f0 323c 3967 07be 9c50 6cbd 0c55 1e3e
00000360: 81d9 a2be f07f cd3d bace 8bbb 675c e33d
00000370: 75c0 40bd ac2a b03a 7c1c 4f3d 7bcd 693d
00000380: 23e0 f0bd 3da6 8ebd fcf6 3a3c 22b0 bbbd
00000390: 99ae 113d 733e 6f3e eb8b 56bc 8ec4 353d
000003a0: 22b4 0d3e b9b9 d3bb 920f 1fbd 392c 95be
000003b0: 2aac c4bb 0a68 d2bd 71c6 36bc ece7 38bd
000003c0: acab 98bc 8b3d 3cbc 8ad6 3cbc c384 c9bc
000003d0: 7e60 1a3d eac5 723c 26bd 693c c31e 94bd
000003e0: 631c 17bc 6bd7 38bd d476 eb3c b30b 753b
000003f0: eab1 4ebc 92ca 14bd b1f5 5ebd 7b95 65bd
0.05323433 0.063734785 0.015861385 0.02977797 -0.028967857 0.09214254 0.012729648 -0.026514828
0.21499175 -0.021269117 -0.06989369 -0.06841078 0.06194105 0.06218291 -0.1980004 0.036858473
0.007369187 0.069296844 -0.017234849 -0.0033273932 0.2235472 -0.0993096 -0.058614966 -0.14130561
0.017426621 0.011789499 0.009073848 0.0428603 -0.006983956 0.18900107 0.016066063 -0.013095556
-0.018273378 0.008497255 0.05377881 0.039057605 0.011269185 0.0120921945 0.005275955 0.029613318
-0.063120395 0.046724442 -0.19271143 -0.014127769 0.033151805 -0.31990424 0.016685026 -0.043389898
-0.15111884 0.058836818 -0.0042648013 0.2394488 0.0007180243 -0.012676839 0.047292855 0.030346904
-0.039156593 -0.011710383 -0.006452577 -0.047788963 0.078388184 0.020961013 0.056183614 0.079731494
0.038828023 0.03129539 0.019275699 0.09176794 0.09654005 -0.019406376 0.07793313 0.018953407
-0.0083696665 0.11140489 0.032434534 -0.15630224 0.057657156 0.017959995 -0.100464575 -0.09020262
-0.15773688 0.038698453 -0.051850658 -0.032347724 0.19804262 -0.07479176 -0.03852428 0.04294128
0.040701825 -0.06037252 -0.15698098 0.042520173 0.10641499 0.060132146 -0.056352172 0.09421423
-0.027922312 -0.01488471 0.000120141776 0.07117805 -0.10784011 0.022804288 0.039947897 0.17811109
0.18917844 -0.09330356 -0.026551679 0.03078589 0.0063265823 0.06140765 -0.023323745 0.12315002
0.124369904 -0.008839477 0.050013788 0.13004813 -0.00347981 0.10452221 0.10927512 -0.030375224
0.16869101 -0.0088428 -0.1103274 0.023568926 -0.026464269 -0.011713056 -0.09134496 0.19656026
0.061926264 0.09694666 0.14282322 0.023945289 0.044051617 0.018609507 0.004175195 -0.06012957
0.047373503 0.0045672157 -0.14573166 -0.059002213 0.023713415 -0.32826558 0.06323953 0.13255572
0.02465214 0.06274114 0.05458196 0.009312349 -0.0025711907 0.01643658 0.03559262 0.023252662
0.020500276 0.0007282387 -0.05546795 -0.076970115 0.4201071 -0.034567025 0.014014289 -0.034926705
0.01449812 0.030403145 0.0038981694 -0.019617304 0.026851967 0.057695035 -0.022596851 0.016907845
0.060876727 0.009963166 0.030009696 -0.014030679 0.00039001484 0.016221704 0.00853838 -0.33923584
-0.028761748 0.022110287 0.36191815 -0.0101581495 -0.062485624 0.0040243817 -0.023372201 0.026039826
-0.018627262 -0.082869165 0.04219404 0.2294932 -0.05517377 0.016279256 0.020591049 0.02237198
0.0946614 0.015646296 -0.03713756 0.0029493815 -0.0019176104 0.05312988 -0.037806816 0.02696056
0.017129425 0.06669207 -0.00023647584 0.03149793 -0.034035433 -0.24512592 -0.03488037 -0.023956459
0.07562809 -0.030792763 -0.22285922 0.039546248 0.010921575 -0.1322297 -0.057694063 0.1546213
-0.31806567 0.10034168 -0.004266587 0.11101609 -0.04705854 0.0013440452 0.050564274 0.057080727
-0.11761501 -0.06965301 0.011411425 -0.09164454 0.0355669 0.23363666 -0.0130948825 0.044376902
0.13838246 -0.006461349 -0.03883321 -0.29135302 -0.006001969 -0.1027375 -0.011155711 -0.045143053
-0.018636547 -0.011489282 -0.0115257595 -0.024599439 0.03768968 0.014817694 0.014266288 -0.0723243
-0.0092230765 -0.045127314 0.028743185 0.0037391006 -0.01261566 -0.036326 -0.05443353 -0.05605076

layers.1.bias f4 [80]
00000000: 0fb5 f83c a6e1 17bd 5a9a 9f3d a12e a53d
00000010: 3b59 8e3d eac6 553d 0254 723d 3dea b13d
00000020: 6ce2 403d 9ce0 963d ceb0 6f3d 8877 883b
00000030: c619 923d 97a0 423d 7d5a 82bc 422e 1b3d
00000040: 9d29 693d c695 6b3d 5e63 bd3c 8fa1 bf3d
00000050: 90fa 66bc 030b a3bc d2dd 543d dd75 913b
00000060: 737a 953d 1cce 3d3d 88fc 6bbd d086 323d
00000070: e5e3 f13d 914f 973d d5ea 203a 4b2e de3d
00000080: a229 7e3d 5671 843d 1a94 503d 97cc 613d
00000090: a7a7 8b3d 37ac 7e3d cd58 7a3d 3921 ae3d
000000a0: d633 943c ccc8 533d eeb4 c93d be27 c43d
000000b0: 631d e63b cb11 743d 5dd5 9e3d a992 933d
000000c0: 23b7 b0bd a4b1 8e3d 42ee 703d a3c6 0b3d
000000d0: 8275 c03c 713f 953d 00ff 8d3d 2fa2 803d
000000e0: aaad 823d f1b6 0ebd 45e4 3c3d add8 a73d
000000f0: 391d 8f3d bfb8 653d b6e7 683d 57eb 763d
00000100: 5f71 f33d 7074 2e3d 780e c2bd 89f7 a4bb
00000110: c80e 913d 16b0 283d 3fa5 dc3d 24f4 ac3d
00000120: 8dc1 123d 6b71 8f3d f67a 7a3d 4f78 663d
00000130: dbd4 6a3d e829 863d dae5 0a3d eb36 bc3c
0.030359773 -0.03708043 0.07793112 0.080655344 0.06950613 0.052191652 0.059162147 0.086872555
0.047090933 0.073670596 0.058518223 0.00416464 0.07133822 0.04751643 -0.015912289 0.03788591
0.05692445 0.057515882 0.023118671 0.09356987 -0.014097825 -0.019902712 0.051969357 0.004439099
0.07298746 0.04633914 -0.05761388 0.0435856 0.118110456 0.07388223 0.00061385083 0.108486734
0.062051423 0.064669296 0.05092249 0.055126753 0.068190865 0.062175956 0.061119843 0.085024305
0.018091124 0.051705167 0.09848963 0.09577893 0.007022546 0.05958728 0.077555396 0.072057076
-0.086286806 0.06967476 0.05882097 0.03412498 0.023493532 0.07287491 0.06933403 0.06280934
0.0638078 -0.034842435 0.046116132 0.081956245 0.06987996 0.05608439 0.0568616 0.06028303
0.11886858 0.042591512 -0.09475416 -0.0050343913 0.070828974 0.041183554 0.10773706 0.08445004
0.035829116 0.07004055 0.06115242 0.05626708 0.0573319 0.06550962 0.03391061 0.022975406

layers.2.weight f4 [90, 80]
00000000: 0494 08be c208 4a3d 3630 823e bcd9 9cbc
00000010: 52a7 d8bd b604 47be 8a17 b8bc 663e f3bd
00000020: 4c1b 73be 1ece e0bd a63e 1c3d e878 0a3e
00000030: 314d c5bd 63ef 803c e09d 22be 484d 253e
00000040: 36b3 973c c3da 653d 3943 1d3a c1a8 42bd
00000050: 359b 21be 1e15 ed3d 327a 39be 44a8 743c
00000060: f3ca 813b 01bc 513d 2b90 0b3e d6d8 6b3d
00000070: 8beb 96bd 7334 083d 3c5f e83d 0114 a8bc
00000080: cef8 6b3d e91d 07bd e48f 8d3c 700a ea3d
00000090: 9389 733d a441 d43c 9040 b23e e69c 443d
000000a0: 7157 c43e 1624 2e3d abb9 f0bd f168 12bd
000000b0: e6c8 683d 8a12 5cbd d9d4 9b3e 70b2 45be
000000c0: a45d 753c 7f75 90bd b920 babd dc5d 1bbe
000000d0: bb8d 67be 52c4 0bbe 2562 ad3e 99e4 6c3d
000000e0: c6bf d03d 8b5e 2dbe 9cad d53b 6a61 edbc
000000f0: f53a d53d e5ce a03e cc11 a8bd 3afd 013e
00000100: 6e47 9bbc c1ee 703c 4741 aa3c 4b5e 2e3d
00000110: 4099 9bbd 72d9 58bd 5bbf c0bd 229c 07be
00000120: 1281 753a 8178 083e ef8d 19be 1643 b03c
00000130: ef0a fa3d c169 7c3d df25 703d b902 3ebc
00000140: 44da b838 606a 2138 59b7 b538 6e87 f0b7
00000150: 65de 5838 6170 f137 8d66 af38 4b63 21b8
00000160: c1ba fc37 f09b 9636 cefa 9b38 74a7 a238
00000170: 1a86 fa37 43c8 2037 9efc 3f37 1f16 4ab7
00000180: 93a0 2838 cdb5 d238 4e2a 85b8 c85a 60b8
00000190: e0e4 e437 f0fc 9035 5145 8637 3392 bf38
000001a0: 62b6 bd38 1b42 0938 6a05 0bb9 dd98 c338
000001b0: d7aa 1cb7 5e3a 19b6 b2a8 5238 8c99 1638
000001c0: fcf8 ba38 4495 2438 629c 2b39 87de 1939
000001d0: a646 5a36 a2bc 1c37 7977 beb8 c6d1 0437
000001e0: 9868 b037 366b 1ab8 e549 0938 5ad1 9cb6
000001f0: c68d 65b8 00b8 c434 6422 dcb8 0a46 f538
00000200: 6e82 3db8 0b36 4e38 4d99 63b8 206f 1eb8
00000210: 3151 acb7 d869 7eb8 a937 bc38 f4dd e737
00000220: e876 d638 58b0 52b8 fd76 a2b8 9676 26b8
00000230: fa46 09b8 a0ac 64b5 0c61 bf38 8d99 b438
00000240: c493 a3b8 087e 9538 bce2 9537 08fc c337
00000250: a20a a438 2cda b7b7 b331 6338 c084 0c38
00000260: 9987 d938 2853 40b7 ec0f 9eb8 a89b 7bb8
00000270: 85f6 9538 b4eb bdb8 03fe 6e38 2ec6 3bb8
00000280: 3102 a8bb d498 743c c85f 253c e40e 0cba
00000290: c3fb 4f3b 908a 52bc 723f 9bbc 5936 07bb
000002a0: 0643 96bc 006d 11bb 7488 283c 17f6 2d3c
000002b0: 9d1a ddbb 29de 3d3c b33e c6bb d052 c53c
000002c0: c521 393c 14d5 343b 305f 613a 783d 99bb
000002d0: 0c06 c1bb 1422 04bb ccba 56bc e136 813b
000002e0: b772 823b e404 273c 1a32 e83a 0106 5ebb
000002f0: f8a1 4cbc 268f fb3b 30f1 293c 5ecc 1ebc
00000300: a8b1 073c 4735 86bb 382f 34bc ff8a 8bbb
00000310: a653 933b c42c cebb db81 813c 7453 e03b
00000320: 0235 b23c ed80 e0bb de36 aabb ad7f 93bb
00000330: 556d 03bc 235c 93bc f5bd 743c 73bc 3dbc
00000340: 0258 03bc bec0 a63b 4cb6 103b 115b 66bc
00000350: 9e27 6fbc 4fb6 60bc 2930 b33c c5a0 0c3c
00000360: 99d7 a9ba c0dd 19bc ca87 2dbc 2858 26ba
00000370: e73e aeba cf8c ab3c d205 ddbc 97a1 b83b
00000380: 5c68 12bc ba07 8e3c 63cf 57bb 8fce 1b3c
00000390: 719b 883b 9e9b b2bc 7e0d 86bc ac2a 82bc
000003a0: eae5 5e3b e91c d83a 2465 44bc 0174 613b
000003b0: 795d 7ab9 0e4f a4bb 9c7c 863c 6859 273c
000003c0: 6ac3 53b9 b5da 81bb 6967 8fb9 b332 043a
000003d0: 3259 8aba b70f 63b9 541d b53a e275 17b9
000003e0: 4036 52b9 bc85 9ab8 b821 1739 50a8 4336
000003f0: c4fe 79ba dd95 ddb8 c958 4ab9 0d42 aabb
-0.13337713 0.04932476 0.25427407 -0.019146793 -0.10578789 -0.19435391 -0.022472162 -0.11877136
-0.23740882 -0.10976814 0.038145684 0.13522685 -0.09633864 0.015739148 -0.15880537 0.16142762
0.018518072 0.05611683 0.00059990917 -0.047524218 -0.15781863 0.115762934 -0.1811302 0.014932696
0.003960961 0.051204685 0.13629214 0.057579838 -0.07369145 0.033253144 0.113462895 -0.020517351
0.057610326 -0.03298751 0.017280526 0.11427772 0.059457373 0.025910206 0.34814882 0.048001193
0.38347962 0.042514883 -0.11754163 -0.03574461 0.056832217 -0.053728618 0.30435827 -0.1930635
0.014975939 -0.070536606 -0.090882726 -0.15172523 -0.2261266 -0.13649109 0.3386394 0.057835195
0.10192828 -0.16930597 0.00652094 -0.028977115 0.10411636 0.31407848 -0.082065195 0.12694255
-0.018954959 0.014705361 0.02078308 0.042570394 -0.075975895 -0.052941747 -0.09411498 -0.13243154
0.0009365241 0.13327219 -0.1499555 0.021516364 0.12209117 0.061624292 0.058629867 -0.011597329
8.814459e-05 3.848446e-05 8.664904e-05 -2.8673294e-05 5.1705534e-05 2.878177e-05 8.363752e-05 -3.8477865e-05
3.0127705e-05 4.488502e-06 7.437692e-05 7.7559525e-05 2.9864768e-05 9.58337e-06 1.1443304e-05 -1.2045289e-05
4.0203868e-05 0.00010047443 -6.349814e-05 -5.349031e-05 2.7286296e-05 1.080245e-06 1.6006323e-05 9.1348214e-05
9.046194e-05 3.272491e-05 -0.0001325809 9.3267976e-05 -9.338101e-06 -2.283275e-06 5.022501e-05 3.590579e-05
8.915548e-05 3.923966e-05 0.00016366088 0.00014674115 3.2525654e-06 9.342244e-06 -9.0821595e-05 7.916655e-06
2.102954e-05 -3.681631e-05 3.2732165e-05 -4.673534e-06 -5.472989e-05 3.6641723e-07 -0.00010496823 0.00011695556
-4.5182584e-05 4.916456e-05 -5.426379e-05 -3.777363e-05 -2.0541805e-05 -6.0656894e-05 8.974906e-05 2.76407e-05
0.00010226463 -5.0232135e-05 -7.746925e-05 -3.9687926e-05 -3.2729447e-05 -8.518782e-07 9.125666e-05 8.61167e-05
-7.799969e-05 7.128349e-05 1.7867766e-05 2.3363173e-05 7.82211e-05 -2.1916894e-05 5.4167303e-05 3.3502234e-05
0.000103726234 -1.1463453e-05 -7.536993e-05 -5.998803e-05 7.1507915e-05 -9.0561254e-05 5.698019e-05 -4.4768844e-05
-0.0051272144 0.014929015 0.010093637 -0.0005342795 0.0031735755 -0.012850419 -0.018951152 -0.002063176
-0.018342506 -0.0022190213 0.010286439 0.010617754 -0.0067475573 0.011588612 -0.006049955 0.02408734
0.011299555 0.0027592825 0.0008597253 -0.004676517 -0.0058906134 -0.0020161914 -0.013106059 0.0039433097
0.00398096 0.010194037 0.0017715127 -0.003387809 -0.012489788 0.0076769767 0.010372445 -0.00969228
0.008282103 -0.0040957066 -0.010997586 -0.004258513 0.0044960557 -0.0062919576 0.01580899 0.006845886
0.021753792 -0.0068513067 -0.005194529 -0.004501304 -0.008021672 -0.01798827 0.014937867 -0.011580574
-0.008016588 0.0050888946 0.0022081314 -0.014059798 -0.014596848 -0.013715341 0.02187355 0.008583252
-0.001295793 -0.009391248 -0.010591457 -0.0006345534 -0.0013293893 0.020941166 -0.026980314 0.0056344974
-0.008936014 0.017337669 -0.0032930009 0.009509697 0.0041689207 -0.02180272 -0.016363855 -0.015889488
0.0034011551 0.0016488108 -0.011987004 0.003440142 -0.00023876679 -0.005014307 0.01641684 0.010214187
-0.00020195325 -0.0039628395 -0.00027352132 0.0005042955 -0.0010555147 -0.00021654261 0.0013817945 -0.00014444397
-0.0002004737 -7.368202e-05 0.00014413043 2.9155235e-06 -0.0009536559 -0.000105660154 -0.00019297296 -0.005195862

layers.2.bias f4 [90]
00000000: 822e 27bd bbec 05b9 feca 3b3c 1b48 123b
00000010: 5b27 1d3d 7905 93bb f0a0 2d3d 85ea 8a3b
00000020: c096 7aba ac19 0c3c bd09 afbc e3be 30b9
00000030: e246 5fba 683c 3cbb 9f42 4c3a fda9 d53b
00000040: 28dc c7b9 1802 8cbc e1cf 20bc 4f25 43bc
00000050: eabe 133a b898 9539 7e90 31bd 0126 24bc
00000060: be08 71ba 4c3f b4bb e7e8 acb9 315c ec3b
00000070: 5377 2d3d b2b4 103d 668a 16ba 0ae5 453a
00000080: cf81 b13b 0c30 c73a cd53 263b 45ab 9dbc
00000090: 8817 aeb9 fa61 833a 412d 21b9 b74d d33b
000000a0: 338d a8b8 cf10 27bc ea97 72bc f8dc 413d
000000b0: 28c7 b6b9 0e61 873c ca41 613c e1f8 013c
000000c0: 6a30 153b 4768 b3bb 3497 3fbc 1aac f1ba
000000d0: 498e 483c f9ce 0fb9 9b8b d63a 194b c23b
000000e0: 5a7d 26bd 83ae 6b3d ed55 8ebb 91b5 ec3c
000000f0: f76d dcbc 4c67 e1bc 9260 b93c a78a 57bb
00000100: 581c cfbb 8fa9 7bbc 7da4 97bc 6402 2c3b
00000110: e0b3 763c 6399 1c3b a8ec ed3a 7a62 933b
00000120: 26db 8ebc d651 7e3b d406 d6bc a4cc eebc
00000130: df22 f3bc e409 9439 536f e739 963e 9abc
00000140: ff3a 1b3b 082e 463c 3936 25bd ee9c 3a3c
00000150: ec27 0cbb b818 19bb e7a4 2f3a 6f4b 393c
00000160: 5275 933a 9128 233a
-0.040815838 -0.00012772057 0.011461971 0.002232081 0.03836761 -0.0044867364 0.04238981 0.0042393827
-0.00095592067 0.0085510425 -0.021366948 -0.00016855779 -0.0008517337 -0.0028722528 0.000779191 0.0065205083
-0.00038120267 -0.017090842 -0.009815187 -0.0119107505 0.00056360534 0.0002853328 -0.04335069 -0.010018826
-0.0009194723 -0.0055007096 -0.00032979922 0.0072131385 0.042350125 0.035328574 -0.0005742669 0.0007549083
0.0054170857 0.0015196814 0.002537954 -0.019246707 -0.00033205398 0.0010023706 -0.00015371015 0.0064484733
-8.037165e-05 -0.010196879 -0.014806727 0.047329873 -0.00034862128 0.016525771 0.0137485955 0.0079328725
0.0022764453 -0.0054750773 -0.0116937645 -0.0018438131 0.012240955 -0.00013714646 0.001636851 0.0059293625
-0.04064689 0.057539474 -0.0043437392 0.028895171 -0.026907904 -0.027515076 0.022629056 -0.003288904
-0.0063205175 -0.01536025 -0.018511051 0.0026246542 0.015057534 0.0023895137 0.0018152194 0.0044978233
-0.017438482 0.0038806102 -0.026126303 -0.029150315 -0.029679714 0.0002823613 0.00044142696 -0.018828671
0.0023686287 0.012095936 -0.040334914 0.011389954 -0.00213861 -0.002336068 0.00067002926 0.011309489
0.0011250174 0.00062240014

layers.3.weight f4 [5, 90]
00000000: 0fc3 8f3d 0b3b e13b b8a3 1cbc 5ca0 8bbc
00000010: 1fca 91bc 8acf a9bc 621c dabe b7f3 213c
00000020: 406f 0d3c d245 9bbb 1e07 14be 71b1 7b3c
00000030: 4cf1 8aba 0e9a 50bb 0ce0 403c c5dd 4b3b
00000040: 642a ab3b eb65 40bd a075 803d eedf 5abd
00000050: a9d0 803b 7d80 8dbc a13e c33c 8c2e 343c
00000060: 5b71 cdbc 3c66 b53a 9309 abbb f8ad b7bd
00000070: 3157 03be 4577 1abd 8ee0 033c e610 03bd
00000080: fad0 8e3c 3a1f 863c 159e c0bc 7bd0 8ebb
00000090: 2f3e 42bb 8bc7 473c e351 423c 30f5 373b
000000a0: aea6 203b 6798 093c f8ab bc3c 4b79 71be
000000b0: 6a3c 8bbc 5e3a f7ba 40b1 81bc 679d b5bc
000000c0: 0ca7 e03c d0cd 34bb 10be 353e bf00 583c
000000d0: d01f 54bb 33d1 40bb 18ef 9dba 5cf3 5dbb
000000e0: 0743 0b3e 7de6 99bd 4b6e 5a3c 2c15 01be
000000f0: 0c94 c13d 1eb8 a43d 2240 30bd 1384 8fbd
00000100: 616d 333a 3080 e83c 1520 1bbb 9341 673e
00000110: 140e 743d e750 38be 8ed4 793b a8ce d1bb
00000120: 1c74 e03d 2d4c 01bd e663 c2bc 1a7f 89bd
00000130: 703e e13b df5c ab3c e857 daba b434 da3c
00000140: 76c5 00bc f434 0dbc b938 18be 367b 2fbc
00000150: 3e14 403c 4424 8d3b df51 9a3c 4d70 273c
00000160: ea08 e73b 7403 fabc f9ef 8a3e fc79 dc3b
00000170: a143 703b 809a 87bc 358f b03c 1805 b7bc
00000180: 6bc6 9a3e b08a 393c 2a2f 043b 057b 603d
00000190: 840a 45be 77e0 803c 355b a9ba c25d 30ba
000001a0: 2fe2 443c 51fc 143b 7d06 a13b db1b 493e
000001b0: cb86 dcbc ca79 f53c 66a8 6d3b a678 8bbc
000001c0: 5b66 ab3b 709e d63b ecd5 cbbc 4242 ac3a
000001d0: d212 afbb e092 ddbc a3d4 b43d cef0 223d
000001e0: c103 ea3b 5d38 02bd fb4e bd3c 56aa 5c3c
000001f0: 7871 fdb8 3691 17bc f2d5 45bb 1a22 4a3c
00000200: 45a9 403c aae7 c63b 9890 203b 2b3d 74bc
00000210: bd9c acbd 6aa6 e93d 1de9 8abc a0db d63a
00000220: 4e16 e5bc a28c d7bc c597 c13c 0da5 373b
00000230: 1bbe 913c 8010 39ba c80e 6239 07b7 46bb
00000240: 7944 67ba 623c 8dbb 7028 f43c 24e2 11be
00000250: 22f8 513c 9b66 06be 7e73 4dbd 7add dc3a
00000260: eaa6 e7bc 2301 e73d d6a7 f1b9 696a 77bd
00000270: 668a 803d 5b7b 7e3d 6956 f83c 9f46 513e
00000280: 671b e73b 069d 91bb 7d25 42bc aab6 813c
00000290: 5c29 3e3d 74df dcbd 8466 8cbd 69de aa3c
000002a0: 44a6 c5ba ab9a 8c3b d336 f9bb ffd4 22bb
000002b0: 5d43 93be 75af 1cbe a33d 3a3c 7cc4 743b
000002c0: ee3a 913c 3586 b23c 136b eb3b 3cd9 5cbd
000002d0: c1b6 abbe a16a dd3b cbef 67bc 91f1 84bc
000002e0: 2c6a 2b3c e9d1 acbc 7bcc 283d 3087 253c
000002f0: 1e61 1a3c 3284 523e ee01 efbd 8b96 7e3c
00000300: b370 8eba c0bc 8f3b 62d2 423c ee1d 59bb
00000310: 0b83 a53b 8065 4cbd 833d 3b3c 8111 72be
00000320: 5804 7f3b 87f3 8bbc dcc1 b6bc 0534 f53c
00000330: 0a9a cabc 64bc 04bc af94 aabb 8636 b8bc
00000340: 1c26 7a3a 80e8 263d 9cfe d63b 64e1 03bd
00000350: cd5e 2c3c b0a4 cc3c 21ab 0fbd 741a 0cbc
00000360: af09 41bb 92d8 463c 86db 413c 3796 1f3d
00000370: 8bce 1c3b 1c43 60bb 7c87 633d 50c2 073e
00000380: 4db5 8abc 2279 b43a d093 1f3d 38bb b63a
00000390: 0f27 d83c 322a c7bc e229 74be dc31 483c
000003a0: a3ec ceba 5542 44bb 9d31 8aba 2873 5038
000003b0: e02e ed3c 718c 663e 0a2f 573c 707a c2b7
000003c0: ef69 27bd 7219 bdbc b546 66be 15f9 6b3d
000003d0: 0415 87b9 35f0 953c 421a 97bc f262 eabd
000003e0: 0e46 91bd 1a34 f73d fcbb 36bb c23f dabb
000003f0: 17b2 fdba 746e c83b bedc 68bc 6c1a 79bd
0.07019626 0.0068734935 -0.009560518 -0.017044239 -0.017796574 -0.020728845 -0.4259978 0.009884766
0.008632481 -0.004738548 -0.1445584 0.01536213 -0.0010600477 -0.0031830105 0.011772167 0.0031107527
0.005223559 -0.046972197 0.06272435 -0.053436212 0.003931124 -0.017273182 0.023833575 0.010997426
-0.025078466 0.0013839672 -0.005219647 -0.08968729 -0.1282623 -0.0377114 0.0080491435 -0.031998537
0.017433632 0.016372312 -0.02351288 -0.004358349 -0.0029639115 0.012193571 0.011860344 0.0028069727
0.0024513411 0.008398152 0.02303122 -0.23581426 -0.016996581 -0.0018861999 -0.01583159 -0.022169782
0.027423404 -0.0027588494 0.17748284 0.013183772 -0.0032367595 -0.0029421567 -0.0012049405 -0.0033866977
0.13599788 -0.07514665 0.01333196 -0.12605733 0.09452066 0.0804293 -0.04302991 -0.07007613
0.0006844607 0.028381437 -0.0023670245 0.22583608 0.05958374 -0.17999612 0.0038121077 -0.006402809
0.10959646 -0.031566788 -0.023729276 -0.06713696 0.006873898 0.020918308 -0.0016658278 0.026636459
-0.007859578 -0.008618582 -0.14865388 -0.010710528 0.011723576 0.0043073017 0.018837867 0.010219646
0.007050623 -0.030519225 0.2713621 0.006728409 0.0036661404 -0.016553164 0.021552661 -0.022341296
0.30229506 0.01132457 0.0020169714 0.05480482 -0.19242293 0.015732033 -0.0012920859 -0.0006727838
0.012016817 0.00227334 0.0049141035 0.19639532 -0.026919743 0.0299653 0.0036263703 -0.017025303
0.0052307076 0.006549649 -0.02488228 0.0013142305 -0.0053428197 -0.027047575 0.0882962 0.03978043
0.007141561 -0.031792033 0.02310895 0.013468346 -0.00012085115 -0.00925093 -0.0030187336 0.012337232
0.011759107 0.006070097 0.0024500247 -0.014907162 -0.08428333 0.11408694 -0.01695686 0.0016392358
-0.027964737 -0.026312176 0.02363194 0.0028021962 0.017790845 -0.00070596486 0.00021558546 -0.0030321495
-0.0008822154 -0.0043101767 0.029804438 -0.14246422 0.012815507 -0.13125078 -0.05015897 0.0016850673
-0.028277833 0.11279514 -0.0004609215 -0.060404215 0.062763974 0.06212936 0.030314641 0.20437096
0.007052827 -0.0044437675 -0.011849758 0.015834171 0.046426162 -0.10784808 -0.06855491 0.020858007
-0.0015079458 0.004290899 -0.0076054125 -0.0024846194 -0.28762332 -0.15301307 0.011367234 0.003734856
0.017728295 0.02179251 0.007184395 -0.05391811 -0.33537868 0.006757096 -0.014156292 -0.01622847
0.010462325 -0.021096187 0.041210633 0.010103032 0.009422569 0.20558241 -0.1167029 0.015538822
-0.0010867327 0.0043865144 0.0118909795 -0.0033129412 0.005051022 -0.049901485 0.01142824 -0.2363949
0.0038912501 -0.017083896 -0.022309236 0.029932031 -0.024731655 -0.008101556 -0.0052057127 -0.022486936
0.0009542422 0.040749073 0.0065611135 -0.03219737 0.010520649 0.024980873 -0.03507531 -0.008551229
-0.0029455235 0.012136595 0.011832124 0.038961615 0.002392682 -0.0034219688 0.05554913 0.13257718
-0.016932154 0.001376901 0.038959324 0.0013941294 0.026385812 -0.024312112 -0.23844102 0.012218919
-0.0015787076 -0.0029946764 -0.001054335 4.9698312e-05 0.028953016 0.22514512 0.013133774 -2.3183617e-05
-0.04087251 -0.023083422 -0.2248791 0.05761059 -0.00025764864 0.018303016 -0.018445138 -0.114446536
-0.0709344 0.120704845 -0.0027883044 -0.0066604326 -0.0019355443 0.0061166827 -0.014212785 -0.060816213

layers.3.bias f4 [5]
00000000: 56e5 e43c 1ff2 13bd ed4c 1ebd 7b72 013b
00000010: ec56 853c
0.027941387 -0.036119577 -0.03864758 0.0019752074 0.0162768
