irony/models/model_30.pt (torch_old, 58143 bytes, 8 tensors)

layers.0.weight f4 [70, 10]
00000000: eb30 91be 679c aebe 6163 80bd 8511 c53e
00000010: 0a90 5cbe 39e5 f73d 714e 12be 9d6a 623e
00000020: 467d 17bd 6509 9b3c dd83 e43e 9fa3 d8bc
00000030: 041f 46bd 1514 b13d f45e aa3d 32f7 c63d
00000040: bfd3 4b3e 7771 b2bd e72e 303e eb34 423e
00000050: d936 953e e347 963e 6c54 97bd 65ed 86be
00000060: a28f 853e f303 543e 9aca 123e f833 58bd
00000070: 7c78 b03d 698b 193e 2845 543d 3954 b03e
00000080: e239 973e a7eb 75be b93f 00bd 291b 293e
00000090: f9c3 013e e5e2 353e b983 2e3d 4c56 06bd
000000a0: 0543 a43e 2c62 95be ec0a f5bd 5944 bcbe
000000b0: 3324 1b3e 7742 113e 2128 16bd 1376 083d
000000c0: 3ca9 6cbd ab0d 003e e9fd bb3b baec 9ebe
000000d0: cea8 623e 3ae4 e73e 21c3 babd 9c18 aebc
000000e0: 37cd 20be 23a6 bd3d 8657 f33d d3a2 bebd
000000f0: 09f5 993e d071 72bd 2460 0cbf 06b0 7cbd
00000100: 9f92 5e3e fa2c 653e 5078 f9bd 773b b0bd
00000110: 9c09 a43d e7f9 593e 6120 a4be f9b3 4fbe
00000120: 56a1 9f3d 6a1c c43e 2336 923e 6beb 0dbe
00000130: 1482 2cbe db5e 2ebe da38 4b3e 073f a23d
00000140: 39a6 643e ebd4 ca3d d552 4abe c5ab abbe
00000150: d91f 313e d76d 1ebc cca1 74bb f70b e3bd
00000160: 4ea0 48be aea5 9abc 1cde 43be f680 01bd
00000170: 5fa4 2d3e 3e18 ad3e 95af a4be 1122 11be
00000180: 7af4 1dbe b731 303e 1bae 6abd 0a5e dfbd
00000190: 3537 1d3e 60c5 f3be 5d2e 5dbe c4b0 043e
000001a0: 4a51 6e3e 41ad 28be 7e73 65bb b557 2fbe
000001b0: ffe8 73bc c24a 0b3d 433c 843e 42a6 473d
000001c0: 5a1e afbe a618 6fbe 64fb 7b3e e0a2 583e
000001d0: 969a 3a3d 5b33 323d 2de5 9d3d f98a 883e
000001e0: 5d56 e2bd 66f8 0bbe e061 2e3d 9b69 c63e
000001f0: 8f4e 9c3e 3719 68bd 83f0 f3bd 5336 ebbd
00000200: 4dfb d73d ace2 023e be48 eb3e 2ff2 84be
00000210: 8e62 a6be 0aa9 af3e b834 353e 644c ce3c
00000220: 3771 06be a4b7 2cbe fef9 3ebd 2ea4 cf3d
00000230: 0059 c3be 379d d7be 5895 283c b64d 443e
00000240: 761a 633e 51da 44be 444e 1fbe 969e f3bc
00000250: 77d9 f73d 258e 143e 76ff a93c b00b 313e
00000260: a2fc 5e3e 107c b5be 7cbe b5be a317 923d
00000270: a265 e03c ea07 1d3e 1de3 05bd 37aa 1bbe
00000280: 5776 b13e d7c6 bc3e 7397 453e cedd aabe
00000290: edba 8b3e 8a95 f03c 5439 4bbe 6e69 47be
000002a0: 5c33 5dbe 9aaa 83bd 354e 6ebd 8a22 123e
000002b0: ace3 dabd 0839 e7be 13ef 6f3d b312 8ebd
000002c0: 78d5 a63b cb4e 02be 900e 25be 93fd a73d
000002d0: 3370 8cbe 7546 3f3e f3a5 c83e 6e6c 163d
000002e0: 1b13 46be 74bc 05be 5667 5a3e 5988 263e
000002f0: d366 233e 8200 ac3c 44f0 993e f8f4 7d3e
00000300: 0934 94be af40 063e 3f98 74be b434 96bd
00000310: 9d91 333e 7e5d 12be df0f 403e 1ef1 67bc
00000320: d672 cd3e 78a2 ae3e 1ef2 c33d 9003 56be
00000330: 9cf7 f8bd 6518 2c3e a418 c03d 66a6 f13d
00000340: 9b53 8e3d f531 02be 669b 003e bde3 823e
00000350: 8bda d43e 035c 783d 1563 2fbe 2473 14be
00000360: 7879 323e 95e2 ba3d a333 8ab9 00a8 ee3c
00000370: e9cf 7dbe eb91 c63e 49b8 853e 7fc9 2f3d
00000380: ba4e 6cbe 2273 4cbd b52a d1bb ed66 6d3e
00000390: 8b9e 11be efb7 30be 3587 b43d c68c 753e
000003a0: 7563 b33e 00e0 4dbe 4c21 8dbe f1ff 063e
000003b0: 13aa 5f3e c778 7b3e 55d6 b8bc 134b 00be
000003c0: 692d 9f3e a209 eb3d c068 89bc e02f b9be
000003d0: 6ff3 51be 5c95 7b3d 5620 fb3d 7918 74bd
000003e0: 69b1 e9bd e2cb 89b8 c7fe c93d a029 043d
000003f0: 775a 5d3e 8c11 613d 0c7a cabe 8d31 213e
-0.28357634 -0.341037 -0.06268955 0.3848993 -0.21539322 0.121042676 -0.14287736 0.22110982
-0.036984704 0.018925378 0.44631854 -0.026445208 -0.048369423 0.086464085 0.08318892 0.097151175
0.19904993 -0.08713048 0.17205392 0.18965499 0.29143408 0.2935172 -0.07389149 -0.26352993
0.26086146 0.20704632 0.14335099 -0.052783936 0.086167306 0.14994587 0.051823765 0.34439257
0.2953635 -0.24015675 -0.03131077 0.16514267 0.12672414 0.17762335 0.04260609 -0.032797143
0.32082382 -0.29176462 -0.11964974 -0.36770895 0.15150528 0.1418551 -0.036659364 0.03331573
-0.057778582 0.12505214 0.0057370556 -0.31039983 0.22134706 0.4529131 -0.09119249 -0.021251969
-0.15703283 0.09260204 0.11881928 -0.093084 0.3006976 -0.05919057 -0.548342 -0.061691307
0.21735619 0.22380438 -0.12181151 -0.08605092 0.08009645 0.21286736 -0.32055953 -0.20283498
0.07794444 0.38302928 0.28556928 -0.13859336 -0.16846496 -0.17028372 0.19845906 0.07922178
0.22329034 0.09903892 -0.1975816 -0.33529487 0.17297305 -0.009669743 -0.0037327884 -0.110862665
-0.19592401 -0.01887783 -0.19127697 -0.031617127 0.16957234 0.33807558 -0.32165208 -0.14173152
-0.15425292 0.17206465 -0.057294946 -0.109066084 0.15353091 -0.47611523 -0.21599717 0.12958056
0.23273197 -0.16472341 -0.0035011466 -0.17123301 -0.014887094 0.03400684 0.25827226 0.04874254
-0.34202844 -0.23349246 0.24607617 0.21155882 0.04555758 0.043506008 0.077097274 0.26668528
-0.11051629 -0.13668975 0.04257381 0.38752446 0.30528685 -0.05666467 -0.11911108 -0.11484971
0.10545979 0.12781781 0.45953935 -0.2596602 -0.32497066 0.34308654 0.17695892 0.02518291
-0.13129126 -0.16866928 -0.04662513 0.10138737 -0.3815384 -0.42112133 0.010289513 0.1917027
0.22178063 -0.19223906 -0.155572 -0.029738706 0.12102025 0.14507349 0.020751696 0.17289615
0.2177606 -0.35446215 -0.3549689 0.071334146 0.027392212 0.1533505 -0.032687295 -0.1520165
0.346606 0.36870453 0.19296055 -0.3337235 0.2729105 0.02936818 -0.19846088 -0.19473812
-0.21601623 -0.06429024 -0.058180053 0.14270988 -0.10687956 -0.451607 0.05857761 -0.0693716
0.0050913654 -0.1272537 -0.16118836 0.08202662 -0.2742935 0.18679221 0.3918911 0.0367245
-0.19343226 -0.1306017 0.21328482 0.1626295 0.15957193 0.020996336 0.3006612 0.2480048
-0.2894595 0.13110612 -0.23886202 -0.07334271 0.17536016 -0.14293477 0.18756054 -0.014156608
0.40126675 0.3410833 0.095676646 -0.20899796 -0.12156603 0.16806181 0.093797 0.11799316
0.0694954 -0.1271437 0.1255928 0.25564376 0.41572985 0.060634624 -0.1712764 -0.14497048
0.17429149 0.09125248 -0.00026359883 0.029132843 -0.24786343 0.38783202 0.2611716 0.04291677
-0.23076907 -0.049914487 -0.006383265 0.23183794 -0.14220636 -0.17257665 0.08814851 0.23979482
0.35036817 -0.2010498 -0.27564466 0.13183571 0.21842222 0.24557792 -0.022563139 -0.12528639
0.31089333 0.11476447 -0.016773582 -0.36169338 -0.20503019 0.061421737 0.12262027 -0.05959365
-0.114107914 -6.570645e-05 0.09863048 0.03226626 0.21616541 0.054948375 -0.3954624 0.15741558

layers.0.bias f4 [70]
00000000: 0e62 633d 554c 40be ca03 6ebe 0bd7 0ebe
00000010: 944d 05bd 52d3 9fbd 08fa a3bd eb50 e1bd
00000020: 5b1c cf3d a909 bb3c 7542 8e3d b374 35be
00000030: 9d00 0abe de6b 06bd d997 f73d 693c ca3d
00000040: 5568 a2bd 246a 213e 9af6 b0bd db05 babc
00000050: e8b9 aebd aecd 3fbe 13c9 3fbd a123 3dbd
00000060: d758 9a3d d55e 1a3e 8700 0cbe 7883 27bd
00000070: ee07 813d 06b9 8e3c e1fb b0bc 99cc 5f3d
00000080: a931 4bbd c20e 5abd ada7 293e 63ae bdbd
00000090: 94a8 36be 7e22 98bc 8f6c fe3c daa5 bcbd
000000a0: 6c4f d3bd 6c95 03bd 6651 d63d d1f3 07bd
000000b0: a95d cfbd 7674 fdbd 572e 303d 621a 023e
000000c0: 134c e9ba 3c1a 383d 1f58 72bd 1074 d33d
000000d0: 47ba ad3d 9c49 acbd a182 b6bd 6767 883c
000000e0: 254f 463d 1380 10be fbdc b53d bbd9 a53d
000000f0: f3c7 04bd efc5 dbbc 95e8 76bd 6240 2fbb
00000100: 1373 be3d 4333 6f3e 78a6 0dbe 462f d4bd
00000110: aca4 1a3d 2e91 fd3b
0.055513434 -0.18779118 -0.23243633 -0.1394922 -0.032544687 -0.07803978 -0.08006674 -0.11001762
0.1011283 0.022831755 0.069462694 -0.17720298 -0.13476796 -0.032817714 0.120895095 0.098748036
-0.07930056 0.15763146 -0.086407855 -0.02270787 -0.085315526 -0.18730804 -0.04682262 -0.046176556
0.07536476 0.15075238 -0.13672076 -0.040896863 0.063003406 0.01742221 -0.02160448 0.05463848
-0.049607906 -0.05323673 0.1656787 -0.09261777 -0.17837745 -0.018571135 0.031057624 -0.09211321
-0.10317883 -0.03212492 0.10464744 -0.033191506 -0.10125286 -0.12375729 0.043012943 0.12705377
-0.0017799161 0.044946894 -0.05916607 0.103248715 0.08482795 -0.084124774 -0.08911634 0.016650869
0.04841532 -0.14111356 0.08880039 0.080981694 -0.03241725 -0.02682778 -0.0602804 -0.0026741256
0.092992924 0.23359399 -0.13833034 -0.10360579 0.0377547 0.007738254

layers.1.weight f4 [80, 70]
00000000: 381c 2a3e 49da b5bd 3108 b7bd 96e8 c7bd
00000010: 6bcc b5bd 673c da3d d13f db3c f740 b43c
00000020: 28c0 a6bd 852e 913d d268 013d 68da 33bd
00000030: 9fa4 113d ff35 b23d e968 763d c2a4 14be
00000040: bc97 09bc 0a97 bdbd da08 b2bd 82e5 9f3d
00000050: a845 123c 8f8f 3139 dfa3 5c3b e84c e43a
00000060: 1122 24be 4dc3 613c 5bb4 003e ee49 b03d
00000070: 6807 cbbd df0d 1b3d 9fe3 8b3a 4702 833d
00000080: c005 45bd 1028 513d 83eb c83d 929c 633c
00000090: f167 103e b7d8 d7bc 559a 9bbd dade 10bd
000000a0: bded 63bd dcfc 41bd 3896 463d fad4 b9b9
000000b0: b9a8 5f3c b466 6ebd 612f 85bc 2a0e 1ebc
000000c0: 91fd 14be b75c 663c 4ff1 28bd b08e 01bd
000000d0: 249b 1d3e 501a 5f3d e87a 23bb 38b6 203e
000000e0: c1c7 0bbd 2e2b db3c 23e2 c13d 9221 17be
000000f0: 55c6 69bd b915 203d 0fc2 8dbc 7df2 ff3c
00000100: eb6f 7ebd c265 ba3c fd6a f9bd 0583 90bd
00000110: d145 82bc 18d2 09bd ef4d 41bd 2466 b6bc
00000120: e181 cb3c 3ed8 93bd 30a2 b4bb 2259 2dbd
00000130: d3a8 53bd 21ae 3c3e 106b febc 8c47 5abc
00000140: cfe1 113d cce4 0abc 999a 213e b5d3 883c
00000150: e9fe ab3d ff9f 9ebd 3132 a73c d4bb 5bbc
00000160: 45ad 663d 6c27 ea3b c3e9 3c3c 32a7 55bc
00000170: 30c8 91bd 9d29 85bd 4c39 7abd beab 7ebd
00000180: 01bf 21bc ae4c c13a eeed c23c 9f1f fbbc
00000190: 4f7b 91bc e345 0abd a0f1 503d 2664 df3d
000001a0: 8b17 98bc feeb c83c f229 313d 9104 343d
000001b0: 20aa 5b3d 403e 36bc f4ce aabb 712e f93c
000001c0: ffff 0ebc b033 263d e030 353d 6999 2dbc
000001d0: 36ca 17bd 523d 9c3d c872 01bd 184d 56bc
000001e0: 4de4 e0bd b689 b3bc c2c8 04bd d026 393d
000001f0: b52d b83c b37a 413d dc71 4f3d 06c1 2b3d
00000200: 9969 013e 9bc9 fb3d 4260 a4bd 69c5 613e
00000210: 6ced 3e3c 826e 0ebd b5a8 f63c 2b0e 19bd
00000220: d5ad a1bc 098b 05be e1c0 e0bc d30e 19be
00000230: cafb be3d fedd b4b9 c662 d8bc dcd8 c0bd
00000240: 1742 3c3d a493 2c3e 04cf c13c 63e9 933d
00000250: cfbc 69bd 19c9 e63d 0038 893d 881b 9dbd
00000260: c10f db3c 3682 de3d 0f3f 733d a19f 883c
00000270: 504a 90bd 447d 14be d762 70bd 3a5a a8bd
00000280: 042b 87bd 7ccf f13c 418d 033c 9d7f 073d
00000290: 6fee f3bd d57a 86bc b33a 8a3d 9f85 b4bc
000002a0: 3438 e8bd ae53 653d c38d 3ebd 515c 973d
000002b0: 2090 f63b a16b 413d 3285 1bbd d141 07bd
000002c0: e61e e13c eced 4c3d 532e dfbd 87d9 15bd
000002d0: 0226 85bd 72f0 033d b280 76bc 5170 043c
000002e0: 1f63 18bd 6109 f3bd 22cc 8ebd ac1a 70bd
000002f0: 0f5c d5bd 2ee6 a3bc 447c 9a3c 4341 97bd
00000300: 9d79 8f3d 316a 97bc 013d de3d 2f02 70bc
00000310: 7f63 a33c 7a8a 363d 6768 df3c c18e 073d
00000320: 636e 3f3c baa7 6fbc 5ff0 2e3a bf81 873d
00000330: 542e 5dbd d70a 4e3d d32f d2bd bcaa 1fbd
00000340: 1a41 b53c c13f dcbc 55a3 97bd 73a7 1ebe
00000350: 1061 ddbb 0034 95bc 58f9 97bd f311 47bd
00000360: 06ac eebd cac1 723c 64f1 71bd 24d0 c43b
00000370: a087 ad3c 4d48 0fbb 96f7 3b3d c952 29be
00000380: 94db 113d 52d7 6ebc 22a2 dabd 8b60 d73d
00000390: aa42 383d a88b 85bd 0b34 9cbd 1a20 57bb
000003a0: 8bfc 52bc d6fb 323d 2201 0ebd 7b79 b53b
000003b0: 599a 0a3d 0a0d ecbd 583c 6bbd 0a06 26bd
000003c0: 55db 16bd 71d7 e1bc 39e6 303e da5c aebd
000003d0: 7328 1ebe e243 f0bd 4184 883c 56b4 4cbd
000003e0: 3aa1 5abc 023d a5bc b964 6b3b 4af9 b33c
000003f0: 35b2 01be d511 273e 3304 09be 1fab 1a3d
0.16612327 -0.08879525 -0.08937109 -0.09761159 -0.0887688 0.10656052 0.026763828 0.022003634
-0.0814212 0.07088951 0.031594105 -0.04390946 0.035557386 0.08701705 0.060158644 -0.14515975
-0.008397993 -0.09257324 -0.086930946 0.07807447 0.00892774 0.00016933515 0.003366701 0.0017417939
-0.1602862 0.0137794735 0.125688 0.08607851 -0.09913522 0.037855025 0.0010672695 0.06396919
-0.048101187 0.051063597 0.09810545 0.01389231 0.1410215 -0.026348455 -0.07597796 -0.035368778
-0.055646647 -0.047360286 0.048483104 -0.0003544463 0.013651066 -0.058203414 -0.016257944 -0.009646932
-0.14549853 0.014060191 -0.041245755 -0.031630218 0.15391213 0.054468453 -0.0024945084 0.15694511
-0.034126047 0.026753988 0.0946696 -0.147589 -0.05707391 0.039083216 -0.017304448 0.031243557
-0.062118452 0.0227536 -0.121786095 -0.0705624 -0.015902432 -0.033647627 -0.047193464 -0.022265501
0.024842205 -0.07218979 -0.0055124983 -0.04232133 -0.051674675 0.184258 -0.03105691 -0.013322722
0.03561574 -0.008477401 0.1578163 0.016702512 0.0839823 -0.077453606 0.020409675 -0.013411481
0.056317586 0.0071458127 0.0115303425 -0.013040351 -0.07118261 -0.06502078 -0.0610898 -0.062175505
-0.009872199 0.0014747584 0.023795094 -0.030654727 -0.017758993 -0.033758055 0.05101168 0.10907774
-0.018565914 0.024526592 0.043252893 0.043949667 0.05362904 -0.01112324 -0.005212659 0.030417653
-0.008728026 0.040576637 0.044236064 -0.010595658 -0.037058078 0.076288834 -0.031603605 -0.013079904
-0.10981045 -0.021916252 -0.03241802 0.04520303 0.022482732 0.047236156 0.050645694 0.04193213
0.12637939 0.122943126 -0.08026172 0.22047962 0.0116532855 -0.034773357 0.030109743 -0.037367027
-0.01973621 -0.13041319 -0.027435722 -0.14947061 0.09325369 -0.00034497672 -0.026414286 -0.09416363
0.045961466 0.16853195 0.023658283 0.07222249 -0.057064828 0.11268825 0.06700134 -0.07671267
0.02674091 0.108646795 0.05938631 0.01667768 -0.07045424 -0.1450091 -0.05868801 -0.08220334
-0.066000015 0.029517882 0.008029283 0.033080686 -0.11910712 -0.016415993 0.06749477 -0.022036372
-0.11338845 0.055988006 -0.046521913 0.07390655 0.0075245053 0.047221784 -0.03796882 -0.03302175
0.027480554 0.050031587 -0.108975075 -0.036584403 -0.0650139 0.03221173 -0.015045332 0.008083419
-0.037203904 -0.11867023 -0.06972529 -0.058619186 -0.104179494 -0.02000722 0.018858083 -0.073854946
0.07005618 -0.018483253 0.10851479 -0.014648958 0.019944904 0.044565655 0.027271463 0.033095125
0.011684033 -0.0146273915 0.00066733913 0.06616544 -0.05399926 0.050303306 -0.10263028 -0.038981184
0.02212577 -0.026885869 -0.074042 -0.15493564 -0.0067559555 -0.018213272 -0.074206054 -0.048601102
-0.116539046 0.014816711 -0.0590681 0.0060062576 0.021182835 -0.0021863163 0.045890413 -0.16535486
0.035609797 -0.014577704 -0.10675456 0.10516461 0.04498545 -0.06520778 -0.07627114 -0.003282553
-0.012877594 0.0436972 -0.03466905 0.0055381632 0.033838604 -0.115259245 -0.057430595 -0.040533103
-0.036830265 -0.02756855 0.17275323 -0.08513804 -0.15445118 -0.117316976 0.016664626 -0.04997667
-0.0133441035 -0.020170692 0.003591819 0.021969456 -0.12665637 0.16315396 -0.13380508 0.03776085

layers.1.bias f4 [80]
00000000: 9712 a3bc 803d 9b3d 1976 c23d 654d b83d
00000010: 00d3 9c3d 81e0 893d be33 a53d 2ae8 173c
00000020: 1056 97bc 3bba 933d 8b1c 40bd f0f8 723d
00000030: b164 a43d 9459 ac3d 95c9 cd3c 2bc7 5eba
00000040: bcd3 123e 4b3d 83b9 16ff 943d c83a c83c
00000050: a09e 963d 4095 983d dc60 a03b 3611 243d
00000060: 22ce 833d 9196 c03d ac19 db3c 3201 733c
00000070: 662f 28bc 87f8 a439 0055 f5bc e604 41bd
00000080: 4bdf 0e3d 0bf4 613d c2d7 a9bc 6242 0e3d
00000090: d383 b23b 1e85 483c c750 8c3d 0460 313d
000000a0: 2742 ac3d 3181 70bc ddce 3abc 24ad c23d
000000b0: d9aa 19bd 03e1 85bc dca0 86bd a8d1 523d
000000c0: 5f5e 32bd 873f 99bc 1d39 303c 227f a0bc
000000d0: 2e3a 8dbd 4148 603d c2bc 723d cbd0 b2bd
000000e0: d032 c33d 8b56 86bc d7e5 133e fe78 c53c
000000f0: 3ed5 f63c d648 e13d 07b0 c53a 3924 2c3d
00000100: 3544 8d3d f072 cabc d667 873d 1a55 3a3d
00000110: 3123 41bc 3f94 d63c 3e23 903d 05d5 3dba
00000120: b3a1 d2bc cc57 543c e947 f03d 88de 413d
00000130: 3a15 d83d e361 903d 7bf3 b53b 2186 a23c
-0.019906325 0.075800896 0.094951816 0.08999137 0.076574326 0.06732274 0.0806651 0.009271661
-0.018473655 0.07213255 -0.04690222 0.059319437 0.08027018 0.08415523 0.025120536 -0.0008498306
0.14338583 -0.00025031934 0.07275216 0.024442092 0.07354474 0.07450342 0.004894359 0.040055476
0.06435801 0.09403718 0.02674564 0.014831828 -0.010265207 0.00031465685 -0.029947758 -0.047123812
0.034880918 0.055164378 -0.020732764 0.034731276 0.0054478436 0.012238769 0.068513446 0.04330446
0.08411055 -0.014679239 -0.011401859 0.0950568 -0.03751645 -0.016342646 -0.0657365 0.051469475
-0.04354703 -0.01870705 0.010755804 -0.019591872 -0.068958625 0.054756407 0.059262045 -0.0873123
0.09531176 -0.016398689 0.14443146 0.024105545 0.030130979 0.110002205 0.0015082367 0.042026732
0.06897775 -0.02471301 0.06611602 0.045491315 -0.011788175 0.026193736 0.07037972 -0.000724152
-0.02571187 0.0129603855 0.11732466 0.047331363 0.10550924 0.070499204 0.005552707 0.019839348

layers.2.weight f4 [90, 80]
00000000: 295d 1c3e 043d 7cbd cfe2 1a3d 881a e93c
00000010: f6bf 133e c08b f9bc 223d dbbc 2848 653d
00000020: dd90 7ebd 34de c83d 7cc9 90bd f013 6dbd
00000030: 412a 443d 3dff 153a eff2 b93d 43e1 9b3c
00000040: f9de e13c eb59 91bd a8e9 7a3c 9558 113e
00000050: 7e67 f43b 04c0 373d ff29 23bc 56bd 03be
00000060: 2c1b 1fbd 39b8 63bd 1a0e 43bc d38d d1bd
00000070: 69b6 23bd 4edc 393c a941 f73d 8b3a e03d
00000080: 82b1 45bd 28e5 a83d 6ff6 c23c 7eb9 b03d
00000090: ebb8 343c f4d3 ab3d 85bc 8abd 6c44 073d
000000a0: 8b2c 633d 1ec1 8abd 113a 05bd 6193 92bd
000000b0: de80 cdbd 458e a13d 793f 9abd dea2 313d
000000c0: ca61 bcbd 4deb adbd 7200 453c 170a d3bd
000000d0: 989b 393c 3692 b8bd 5c1b 45bc 49de 2ebd
000000e0: 5a6e ffbd f63d b1bd 1946 adbd e78b 85bd
000000f0: 983a 223d 589c 86bd 87dc debc 642c 7e3d
00000100: 65a4 123c 4227 183e 259e 7a3c 0f11 05bd
00000110: fe78 32bc f036 d6bd 79a5 07be ea88 0dbd
00000120: 1771 3ebd 4096 f63c d993 383c 9c69 05bc
00000130: 7e5f a73d 1db2 e23d 681b b73d bc90 923b
00000140: 41a5 933c 4891 c2bd 8523 42bd e626 cdbd
00000150: d1b4 8fbd 6e2c 9e3d 7822 97bd b248 9fbd
00000160: c491 87bc e083 563d ad54 b63d ada0 fc3c
00000170: 7d35 99bd aa0d 883d d230 113c 5bbd 0e3d
00000180: 770a d0bd cbce 29bd 6761 ab3d d2bb 903d
00000190: 45b0 30bd bdb6 aabc 7208 aa3c e138 e03d
000001a0: dcbb 7abc a3d2 e03c 4372 db3d 9394 3cbd
000001b0: 038d dc3c cbf3 bbbc 094c 9ebd 878b 733d
000001c0: 0166 0bbe 8bd2 793c 7631 36bd f575 03be
000001d0: f880 02be 8910 8fbd 1178 1e3d eb47 11bd
000001e0: 51c0 e53c 2889 163d 1812 513d 7414 0dbe
000001f0: 3714 de3b df34 9dbd 19ca 82bd f8ba 0abe
00000200: a293 a2bc f3ce f43c 0061 f73c 315a e53d
00000210: 90a0 62bd 056d 3abd 7d67 c0bd 7ae2 363c
00000220: b545 5c3d b2c4 5dbc faac 6ebd 5f05 ed3d
00000230: 5525 75bd a49f 4f3d 0ad2 c13d 125f 723d
00000240: 85a1 b93b d381 99bd 0324 13bd 6dda a0bd
00000250: fe0c e6bc 60f6 ee3b a219 093e 1893 8ebd
00000260: e5be f93c 8dba 6a3d 481d 073d 041f 893d
00000270: 7726 f0bd f80d 353d 54cf fcbc 9772 a8bd
00000280: 970c be3d 82d7 cfbd e373 79bd 3dde 06be
00000290: c685 2e3d 551c ce3c 7ffb 09be e9c0 d83d
000002a0: cd0d f43d 682f 10bd 0d4a 0dbd c9d1 f5bd
000002b0: ceb0 093d 9938 f43c a19c 83bd 568e f83d
000002c0: 92e2 b63d 8fb9 be3c 1ebb 54bd d154 b23b
000002d0: 4688 86bd 3f53 5cbc 4159 a33c 3b01 573d
000002e0: de38 55bd 62e4 96bc 649c 1dbc 1fc4 a93d
000002f0: 4b88 10bd cf13 e63c 85d6 14bd 6f52 bb3c
00000300: 276f 03be 362f a2bd 2418 0bbd c47d 4cbd
00000310: 6705 993c 0b57 c53c 69af 0d3d 7df3 bc3d
00000320: 1628 3b3d f827 af3d 36dd 8fbd e303 95bd
00000330: 0796 5a3d f8ef 81bd 96e2 963d 9386 95bd
00000340: 265c 2c3d b4a5 fb3c 2e58 573d b318 c2bd
00000350: a88a 633b 1a07 37bd 3c4e 7d3c 2710 e9bd
00000360: 2669 6c3d 88f8 54bd a0d7 6e3d 75b5 cb3d
00000370: bf42 86bd a961 033e 9212 383d eaa6 cfbd
00000380: f67c 00bc 6b67 2ebc 4e9b c0bd 9ec7 e73c
00000390: a355 053e d8a3 4ebd b6e4 183c 4c2b 2cbd
000003a0: be19 12be 0715 c63c 103d 043e a4e4 9cbd
000003b0: a436 aebc e136 0abe c86c 9a3c fd2d 2cbd
000003c0: c923 52bc f548 c5bd c9c6 86bd 6618 14bc
000003d0: 26cd d3bd dea2 4fbd 1240 66bd 4ba8 053e
000003e0: 9db0 7e3d 4048 f93d 2e6c a53d 818d ca3b
000003f0: bd03 ff3d 9d6e 92bd bb3f d1bd 1c66 d53c
0.15269913 -0.061581627 0.037813958 0.028455034 0.14428696 -0.030462146 -0.026762549 0.055977017
-0.06214987 0.09808007 -0.0706968 -0.057880342 0.04789186 0.00057219324 0.09079539 0.019028312
0.027572142 -0.070972286 0.015314497 0.14193948 0.0074586263 0.044860855 -0.009958743 -0.12865195
-0.038844272 -0.05559561 -0.011905218 -0.10232129 -0.03996888 0.011344029 0.120730706 0.10948666
-0.048264988 0.08246833 0.02379915 0.0862913 0.011030416 0.08390036 -0.067742385 0.033024237
0.0554624 -0.067751154 -0.03252608 -0.071570165 -0.10034345 0.07888464 -0.07531638 0.043368213
-0.09198339 -0.08492146 0.012024032 -0.10304659 0.0113286 -0.090122625 -0.012030449 -0.042692456
-0.1247222 -0.08654396 -0.08460636 -0.06520825 0.03960666 -0.06572789 -0.027204765 0.062054053
0.0089503275 0.14858726 0.015296494 -0.03248697 -0.010893105 -0.10459697 -0.13246717 -0.0345544
-0.04649457 0.030100942 0.011265718 -0.008142855 0.081725106 0.11069129 0.08940774 0.00447282
0.018023135 -0.095003664 -0.047397155 -0.10017185 -0.0701691 0.07723318 -0.07379621 -0.077775374
-0.016548999 0.05237186 0.089028694 0.030838335 -0.07480905 0.06643231 0.008861737 0.034848552
-0.10158246 -0.04145698 0.083681874 0.07067074 -0.043136854 -0.02083909 0.02075598 0.10948349
-0.015303578 0.02744419 0.10715153 -0.04604013 0.026922708 -0.022943398 -0.07729346 0.059459236
-0.1361313 0.015247951 -0.044480763 -0.12837966 -0.1274451 -0.06985576 0.038688723 -0.035468977
0.028045805 0.036751896 0.051042646 -0.13777333 0.006777312 -0.076761 -0.06386203 -0.13547885
-0.019845787 0.029883837 0.03019762 0.11198843 -0.055328906 -0.045514125 -0.09394739 0.011162395
0.053777415 -0.013535665 -0.058270432 0.1157329 -0.059850056 0.050689355 0.0946389 0.059172697
0.0056650066 -0.07495465 -0.035923015 -0.078541614 -0.028082367 0.007292554 0.13388684 -0.0696165
0.030486533 0.057306815 0.03298691 0.06695369 -0.117260866 0.044202775 -0.03086058 -0.08224981
0.09279745 -0.10148527 -0.060901534 -0.13170715 0.042608045 0.025159994 -0.13474844 0.1058367
0.11916695 -0.03520146 -0.03449445 -0.12002904 0.03361588 0.029812144 -0.06426359 0.121365234
0.089299336 0.02328184 -0.05193626 0.00544224 -0.06568961 -0.013447582 0.01994002 0.052491408
-0.052056186 -0.018419448 -0.009619806 0.0828936 -0.03528623 0.028085617 -0.036337394 0.022866456
-0.1283537 -0.07919161 -0.03395857 -0.049924627 0.018679334 0.024089357 0.034591112 0.09226129
0.045692526 0.08552545 -0.070246145 -0.07276132 0.053365733 -0.063445985 0.073674366 -0.073010586
0.042080067 0.030718662 0.05257433 -0.09477367 0.0034720097 -0.044684507 0.015460547 -0.11380034
0.057717465 -0.05199483 0.058311105 0.099467196 -0.065556996 0.12830223 0.044939585 -0.10139258
-0.007842293 -0.010644774 -0.09404622 0.028293427 0.13020949 -0.050449222 0.009331873 -0.04203348
-0.14267632 0.024179948 0.12913918 -0.07660797 -0.021266289 -0.13497497 0.018850699 -0.042036045
-0.012825915 -0.09633056 -0.06580884 -0.00903902 -0.10341863 -0.05069243 -0.056213446 0.1305248
0.06218015 0.12171984 0.08077274 0.0061814194 0.12451885 -0.07150004 -0.10217234 0.026049666

layers.2.bias f4 [90]
00000000: 1d65 a4bd 9fdc 033e c9c0 01be 7935 0bbe
00000010: 9b59 cdbd f4e5 753d 4a07 d3bd a4e3 8bbd
00000020: 3302 473d 9f1a 81bc 6850 d5bd 209f 09be
00000030: e0d9 bebd bdb9 f7bc 6852 adbc c880 85bd
00000040: 5428 87bd a1c6 433d 429a 873b aef9 3cbd
00000050: c649 98bc da73 1abb 3648 a43d 8f20 8f3d
00000060: bfc2 533d 2406 eb3c 6da4 103d a38a 123d
00000070: 5fda 3e3d 67d6 7dbd ac28 5fbd e475 2f3c
00000080: e17e 953c ddec b93d 9517 f93d fa75 b73d
00000090: c6ac 2c3c 3c8a 8d3c f214 4f3d 3812 a9bd
000000a0: b6e2 ee3c b671 05bd 961b b93d 45bd 133d
000000b0: 363a b6bd 7e98 0bbe 3bc2 e4bc c401 963d
000000c0: 0513 a63c 0ff2 1abd 98ad c6bc 7d62 0fbd
000000d0: 1c60 85bd 45a1 cb3c 8bfb 1bbe fa54 0ebc
000000e0: 362a 97bc 8c54 c63d 83f1 363d 3873 d03d
000000f0: 481f 77bb ddc2 6d3d b796 c73d 5858 39bd
00000100: 6ab4 dabd 32a3 53bc 73d3 943d be95 fdbd
00000110: 982f a83d 0694 84bd 4770 bebd 1292 43bc
00000120: 8799 cc3d 3959 593d c135 683c 929e 8ebc
00000130: 567e abbd 1e46 b93c 7481 31bc b1f7 cebc
00000140: f9ca 36bd a98e f23d 5afb ae3a 0b7a b63d
00000150: dd84 11be 85d9 b9bd 400e e1bd 40f2 f3bd
00000160: 2c8f 033c ab7d 453d
-0.08027098 0.12877129 -0.12671198 -0.13594617 -0.100268565 0.060033754 -0.10304125 -0.068305284
0.04858608 -0.015759764 -0.10415727 -0.13439608 -0.093189 -0.030239934 -0.021157458 -0.06518704
-0.06599489 0.04779685 0.004138262 -0.04613655 -0.018589865 -0.0023567588 0.08021586 0.06988632
0.051699396 0.028689452 0.03531306 0.035776746 0.046594974 -0.061972048 -0.054482147 0.01070926
0.018248977 0.09078381 0.12162701 0.08958049 0.010539239 0.01727783 0.050557084 -0.08255428
0.029160839 -0.032579146 0.09038465 0.036069173 -0.088978216 -0.1363239 -0.027924648 0.073245555
0.020272741 -0.0378285 -0.024252698 -0.035006035 -0.06512472 0.024857173 -0.15232675 -0.008687252
-0.018452745 0.09684095 0.044663917 0.10178226 -0.0037707854 0.058047164 0.097455435 -0.045250267
-0.106789425 -0.012917327 0.07266893 -0.12382077 0.08212203 -0.06473546 -0.09298759 -0.011936681
0.099902205 0.053063605 0.014172972 -0.017409597 -0.08373706 0.022616442 -0.010834087 -0.025264593
-0.044627164 0.118436165 0.0013350055 0.089099966 -0.1421084 -0.09074692 -0.10989046 -0.1191144
0.00802974 0.04821555

layers.3.weight f4 [5, 90]
00000000: cc6c 65bd c466 4d3d bdf6 ce3d 48a9 bbbb
00000010: 3b36 d3bd f521 653d c66c 1fbd 8134 2a3d
00000020: 5d5c f83d f0ca c83d 3254 ed3d 3c95 123d
00000030: 14b8 ee3d b629 60bd 0861 c6bd 92ad 093b
00000040: 1a18 1a3e 054b a4bd 8a82 2fbd de3d 013e
00000050: d080 573c a3dd d03c e96d 0abe ecd8 163e
00000060: 4114 cdbd 5cc2 14be 292e 95bd a1a7 4a3d
00000070: fdd6 273d f4dc 23be efd7 183d 5886 c93d
00000080: c68c f33d 2fd6 e3bd 1408 2cbe 623e 63bd
00000090: 13e8 ccba c9fc c93d 0bbe 29be 7844 5b3d
000000a0: ebb7 b3bd d413 803b 5b65 84bd 046b 2cbd
000000b0: 62bc 5ebd 8dd4 ca3c 7464 0a3e 0f2c 003e
000000c0: 7889 03be f0cb 7abd f54e f2bd d440 84bd
000000d0: b48b 87bc bbf6 edbd 66bf 103e 247e 9a3d
000000e0: 8c21 69bd 8721 c43d c74f 3cbe 9833 fbbd
000000f0: b76d e63d c35b 2b3d b959 aa3d c133 a43c
00000100: de31 b33d e5f9 50bc d579 ba3b 3035 eb3d
00000110: e881 26be e98c 993d 4cc7 9f3d 0b07 a33d
00000120: c593 03be 632b d03d 0752 233d 5fe8 ef3d
00000130: db3d abbd ef58 17be 206f 0bbe 0649 02be
00000140: 3cfb 143e 4089 75bd 49bb 47bd eab3 7c3d
00000150: 47a4 003d fd47 a5bc 27a0 e6bd fe59 563c
00000160: 0155 afbd c77e ebba 340f 03be eb20 e4bd
00000170: 235d 96bd 2e2c be3d fe8e 8bbd 3b1e 00bd
00000180: 1be8 ab3d cfa6 623c 035e dcbd 67cc d5bd
00000190: cd89 96bd 894b b43d 3ced 763c 58ff a03c
000001a0: 7bff f7bd 82bf 0fbe 4751 e63d c4da a63d
000001b0: 5798 73bd 4967 5cbd 5f30 d53d 5332 2fbe
000001c0: 83ac dc3d a6c7 303d a0c1 1f3d 9f25 113c
000001d0: 7b53 04be ba7f 8b3d cc12 e43d 0670 dfbc
000001e0: 16bf 163e 19ab 433e 33be 5c3c 6c62 5fbd
000001f0: 3549 8c3d 915c ddba f00c 863d 41b7 0e3e
00000200: abb0 c63c 9476 10bd c1ab 5abc 1b1b 27be
00000210: 33ad adbd 6da7 f83d 5da2 053e 5d88 8a3d
00000220: bd4a 513d a02c f33b 5af6 03bd 597b f53c
00000230: a0b1 e5bc 69d5 bc3d 198a 153e 1d3e 18be
00000240: 0a2a aa3d 3cb2 1dbe f411 363d b685 823d
00000250: ad60 933c 1490 11be d311 143d 78ae ddbd
00000260: 8bcc dcbc 1b09 123d f53b 403d fe25 65bd
00000270: 4a61 f5bd 2f7e 243e d32d e3bd 888e 29bd
00000280: fdc9 44bd 2f04 62bd 24d4 06be f696 0dbe
00000290: 9c56 ef3d ad93 0a3e 51b1 053e d29b fbbd
000002a0: 4dda bebd e608 a5bd de90 78bd 1b49 6abd
000002b0: 0338 e2bd 3a8b e73d 734b 373d f11c cb3d
000002c0: e19f fb3d bf6d c5bc 3d5f 34bd 2957 f83d
000002d0: ca77 e13d c394 02be f1a2 b4bd 1a3a 063e
000002e0: 9e72 a83d 6c94 20be 6e8e 2bbd 6d03 45bc
000002f0: 9d09 2c3d 274b 87bd f66d b93d 868e cb3d
00000300: 5345 05be 8492 ee3d 3a12 5d3c 837b 983d
00000310: 1358 133e daca 123d 1fab 6b3d 99c1 263e
00000320: 3569 0cbe 609f 9abd 1bec 4bbd b660 0fbe
00000330: 4acd ac3d 13b5 b93c 2c25 0d3d d8f9 2cbd
00000340: 4b2d 683c 59ac 043e 0b35 143c 119d 6abd
00000350: c188 463d f037 8dbc b6fe 2ebd 4a9b ce3d
00000360: ab60 61bd 7af1 a03d 1aa2 273d bc1e 123e
00000370: 28b3 1fbd d409 e63d 1fcc 073e e131 093e
00000380: 8e54 183d 447b 893b b634 94bb 9485 7bbd
00000390: 8946 fb3d c03f f3bd b9f2 e93c ae7a 053e
000003a0: 5dbf a13d 4bad c93d 049f 943d 3ef8 51bd
000003b0: 7d91 da3d 2e66 223d ac2d 53bc 88e1 48bd
000003c0: ca17 383b b166 ebbd c895 3b3d 4b4f 3f3d
000003d0: 0b14 a63d 342e f8bc 4013 15bd c290 c7bc
000003e0: 6cae a23d 52bd af3d fc67 db3d 7b46 01bd
000003f0: 37d4 5b3d 98bf 89bc 49ee 6b3d 6d7b d7bd
-0.05601196 0.050146833 0.10105655 -0.005726967 -0.10313078 0.055940587 -0.038922094 0.041553978
0.12126992 0.09804332 0.115883246 0.035786852 0.11656204 -0.05472728 -0.09686476 0.0021007997
0.15048257 -0.08022121 -0.0428491 0.12621257 0.01315327 0.02549631 -0.1351849 0.14731187
-0.10013629 -0.14527267 -0.07284195 0.04947627 0.040976513 -0.16002256 0.037315305 0.09840077
0.11892085 -0.11124837 -0.16799957 -0.055479415 -0.0015633128 0.09862668 -0.16576402 0.053532094
-0.08775314 0.0039086137 -0.064646445 -0.042094246 -0.054378875 0.024759555 0.13514882 0.12516807
-0.12845409 -0.061229646 -0.11831466 -0.064576775 -0.016546108 -0.11619326 0.14135513 0.07543591
-0.05691676 0.09576707 -0.18389808 -0.122657 0.11251395 0.041835558 0.083178945 0.02004421
0.08749746 -0.012754892 0.005690793 0.11484754 -0.16260493 0.074975796 0.07801685 0.07960328
-0.12849338 0.10164525 0.03987315 0.11714243 -0.08361407 -0.14780019 -0.1361661 -0.12723169
0.14548963 -0.059945345 -0.048762593 0.061695017 0.031406667 -0.020175928 -0.112610154 0.013082979
-0.08561135 -0.001796686 -0.12798768 -0.11139091 -0.07341983 0.0928577 -0.06814383 -0.03127883
0.0839388 0.013833716 -0.10760119 -0.10439377 -0.07350502 0.0880347 0.0150712095 0.019653007
-0.12109276 -0.14037898 0.11245971 0.08147195 -0.059471454 -0.053809438 0.10409617 -0.17109041
0.107750915 0.04315915 0.039003015 0.008859067 -0.1292247 0.06811471 0.11136398 -0.027275097
0.14721331 0.19108237 0.013473081 -0.05453722 0.06849901 -0.0016888549 0.065454364 0.13937093
0.024254164 -0.035269335 -0.013346613 -0.16318934 -0.08480301 0.12141309 0.13050218 0.067642905
0.051096667 0.007421091 -0.03221736 0.029966043 -0.0280388 0.09220392 0.14603461 -0.14867444
0.083087996 -0.15400022 0.044450715 0.063731596 0.017990435 -0.14215118 0.03614981 -0.10824293
-0.026953002 0.035653215 0.04693218 -0.055944435 -0.11981447 0.1606376 -0.11092725 -0.041395694
-0.048044194 -0.05517977 -0.13166863 -0.13827118 0.11686441 0.13532896 0.13055922 -0.1228558
-0.09318981 -0.08058338 -0.06068503 -0.057198625 -0.1104584 0.11305852 0.04474969 0.099176295
0.12286354 -0.024100183 -0.04403614 0.121259995 0.11009176 -0.1275206 -0.08820141 0.13108101
0.082249865 -0.15681618 -0.04188388 -0.012024743 0.042001355 -0.06606131 0.090541765 0.099392936
-0.13014726 0.116490394 0.013493115 0.07445433 0.14389066 0.035837986 0.05753624 0.16284789
-0.13712008 -0.075499296 -0.049785715 -0.14001736 0.08437593 0.02266935 0.034459278 -0.042230457
0.014170955 0.1295637 0.00904585 -0.057278696 0.048470262 -0.017238587 -0.04272338 0.10088213
-0.05502383 0.07858558 0.040926076 0.14269537 -0.038989216 0.11232343 0.1326146 0.13397934
0.037190013 0.0041956026 -0.004522885 -0.061406687 0.12269313 -0.11877394 0.028558122 0.1303508
0.07897828 0.09847506 0.07256892 -0.051262133 0.10672281 0.039648227 -0.012889307 -0.04904321
0.0028090351 -0.11494196 0.04579714 0.04670648 0.08109292 -0.030295469 -0.03639531 -0.024361018
0.079434246 0.08581032 0.10713193 -0.031561356 0.05366918 -0.016814992 0.057600293 -0.105215885

layers.3.bias f4 [5]
00000000: f322 03be fbb4 ccbd 215b afbc 217a 00bd
00000010: d039 ec3c
-0.12806301 -0.09995457 -0.021405758 -0.03136647 0.02883616
