irony/models/model_34.pt (torch_old, 58143 bytes, 8 tensors)

layers.0.weight f4 [70, 10]
00000000: 2e13 903e c061 bc3d 97c7 14be 4dd8 203d
00000010: 55d7 9a3e 171a 2ebe 745f 05be 39c9 1b3e
00000020: 3c7a 5e3a f548 c0bc b162 cb3e db05 c83e
00000030: f2aa acbd 912d 2e3d f6e0 8dbe d82a 7bbe
00000040: 8974 f4bd 23c6 67be 47a6 b53c f62d 943e
00000050: 506b b03e 650e 7f3e 55be 9b3e 196d 553e
00000060: 5c59 57be 7739 8fbe 14f3 62be 023d 4abd
00000070: 3eb0 9abe c255 02be 2051 2abd 59f1 073e
00000080: 8f3a 5fbe 957e a03e c752 b2bd e916 1d3e
00000090: 97d5 8bbd 3efa 753c 5b6b 5cbe 0e45 203b
000000a0: 052a 97be 455e d8bd 91de f3bd a2c4 a8be
000000b0: bb28 8a3e a2ce b2bd 0198 f63d aaf0 743e
000000c0: 26f5 edbd 6846 703d 744f a3be 3210 65bb
000000d0: 5b42 673e df0f b83e c75c 873e 31bb 91be
000000e0: 6cca 28be 9c09 34bc 4ac9 843e a5a4 80be
000000f0: cb4f 8cbe 8974 ccbd 46e4 233e 396e 1ebe
00000100: 5614 79be 033f 103e 6c8c 813d 4f46 8f3e
00000110: 205b cd3d dae3 1fbd 82e1 593e 226f fa3d
00000120: 93d3 ebbd a908 7ebe b3bb 2dbe b991 ecbc
00000130: cd82 433e 87d5 903e 1290 053b ca05 21be
00000140: 3ea0 5c3e 704e 213e 7d3d 48be 8ee1 09be
00000150: 20b7 44be 5e33 ec3d 9935 6d3e 7d3c 233e
00000160: 8571 603e fc3a 6abe 0038 f3bd 82a1 22be
00000170: ba1a 9f3b 0a10 983e cf35 543e a336 973d
00000180: dc83 c0bd 64ee e33d 449d 2fbe c684 e43c
00000190: 4167 a43e f3c4 9f3d 8d6b 513e 21e8 ed3d
000001a0: e5b8 d43d 60c4 a0be fb1c 753e 7950 423e
000001b0: e09e 76be 2c4e 81be 3874 db3d b0c2 33be
000001c0: a651 1b3e 60dc 143e cfc6 a9bb a872 2bbe
000001d0: 18fa c6bd ad93 93be ff27 a13e 462c a13d
000001e0: 6467 fcbd 14d5 923e d89e d3bd 1b7b ccbd
000001f0: 40c3 fa3c 21bc 2abe 286d 11be 6a8e 113e
00000200: fb36 11be 8c24 4cbe 06a5 243e bdbf b6bd
00000210: debd ad3e 294e 13be 2f5b a8be 0773 813e
00000220: ccbd 3dbe ae75 a63e 489f a3bd 93fb b43d
00000230: 12a1 5fbd 71eb 423a 8e07 54be d46b df3d
00000240: 625c 0dbe 83bf 1d3e e86a 993e 5d4b 1cbe
00000250: 232f b33d ed0e b4bd d5f6 3bbe 36bc bb3a
00000260: bb61 d13e e23b bdbd 245d a6be 329e 4dbe
00000270: 0cfd 23be cff9 193e 4b81 9b3e 1bd7 3abe
00000280: 3910 6d3e 50b9 fcbd 19a4 8dbd 3942 96be
00000290: cd28 50be 4a0a 173e 0b09 91bd f60e 873e
000002a0: fc41 a93d f5cb 863e a6f2 44bd d7fb 26be
000002b0: 9b36 8c3e cb36 a33e dc0e a6bc f8b7 94bc
000002c0: 38ed fdbd 82b8 333d 0b29 153e e35e 3cbd
000002d0: d567 9a3e cf48 883e 50ba 483e 1adf acbc
000002e0: 124b 44be 67cf 3fbe 899f da3d a162 87be
000002f0: 19e6 de3d 3292 83be eec9 93be f093 543e
00000300: 1158 40be 4eec c23e a624 ab3e 2d65 83be
00000310: 44e5 05be 9a31 823e 10d8 4f3e a647 823d
00000320: 4f78 0abe 5c3f 24bd 4e6d 9a3e 2ffb 7e3e
00000330: 5b9f ea3d 9019 01be dfd5 dc3d 3b9a 80be
00000340: 63a9 413e f1cc fabb 6d79 7bbc b8b8 36bc
00000350: 10e1 c63c 16b2 083e 3b5b bb3e e6a8 3abe
00000360: 9a6c babd ca13 4dbe cc81 363e 6677 0b3e
00000370: 58ac b13e b458 593e 6129 843e bea8 703d
00000380: f88a 1cbc 1832 29be 4409 d0bc bba8 1f3d
00000390: 4b96 debd 8e7c 98be b823 f93d 6337 fa3d
000003a0: e805 c1be 3289 163e baf4 c0bb f165 92be
000003b0: 38d5 5abe 3767 94be c67d 863b 5608 2bbc
000003c0: 2a01 b73e b29e 4f3e e353 7abd 1604 07be
000003d0: 035d 5ebe 01d9 233e 5684 003d 990b c63d
000003e0: c138 e03d e4a4 4e3c bbc2 663e 05a3 233e
000003f0: 6e5f 78bd 6786 74be 272f b8bd 5503 c63d
0.28139633 0.09198332 -0.14529262 0.03926878 0.3024241 -0.1700214 -0.13024694 0.15213479
0.0008486842 -0.023472289 0.39723733 0.39066967 -0.08431043 0.042523924 -0.27710694 -0.24528062
-0.1193629 -0.22634177 0.022174014 0.28941315 0.34456873 0.24907835 0.3041865 0.20842399
-0.21030182 -0.2797353 -0.2216304 -0.049374588 -0.30212587 -0.12728027 -0.041581273 0.1327566
-0.21799682 0.31346574 -0.08707195 0.15340771 -0.068278484 0.015013276 -0.21525328 0.0024455222
-0.29524246 -0.105648555 -0.119076855 -0.3296252 0.269842 -0.08730818 0.12040711 0.23919931
-0.11619024 0.058660895 -0.31896555 -0.003495228 0.22583906 0.3594961 0.2643797 -0.28463128
-0.16483468 -0.010988619 0.2593482 -0.25125614 -0.27404627 -0.09983165 0.16005048 -0.15471734
-0.24324164 0.14086537 0.063256115 0.2798333 0.10027146 -0.039035656 0.2127743 0.12228228
-0.11514964 -0.24807991 -0.16966133 -0.02887808 0.19092865 0.28287908 0.0020380062 -0.15724865
0.21545503 0.15752578 -0.19554706 -0.13464949 -0.19210482 0.11533235 0.23164977 0.15941043
0.21918304 -0.22874063 -0.118759155 -0.15881923 0.004855481 0.29699737 0.20723651 0.07383468
-0.0940015 0.11129454 -0.17149836 0.027895343 0.32110026 0.07801237 0.20451184 0.11616541
0.10386828 -0.31399822 0.23936836 0.1897601 -0.24084044 -0.25254953 0.10715526 -0.17554736
0.15167865 0.14537191 -0.0051811705 -0.16742957 -0.0971567 -0.28823605 0.31475827 0.078697726
-0.12324408 0.2867819 -0.103330314 -0.09984418 0.03061068 -0.16673328 -0.14201796 0.14214483
-0.1418113 -0.19935817 0.16078576 -0.0892329 0.3393392 -0.14385284 -0.32882068 0.2528307
-0.18529433 0.32511657 -0.07989365 0.088370465 -0.054596968 0.0007435596 -0.20706007 0.109092385
-0.13804772 0.15405087 0.29964375 -0.15263124 0.08749225 -0.08791909 -0.18355878 0.0014323059
0.40894875 -0.09239937 -0.32492936 -0.20079878 -0.16014498 0.150367 0.3037208 -0.18246119
0.2315072 -0.12340033 -0.06916065 -0.293474 -0.20328064 0.14750019 -0.07081803 0.26378602
0.08264539 0.26327482 -0.04808297 -0.16307007 0.2738541 0.3187774 -0.020270757 -0.01815413
-0.123987615 0.043877132 0.14566438 -0.04598893 0.30157343 0.2661805 0.19602323 -0.021102477
-0.19169262 -0.18731461 0.1067496 -0.26442435 0.108837314 -0.25697476 -0.28864998 0.20759559
-0.18783595 0.3807091 0.33426398 -0.25663128 -0.13075739 0.25428468 0.20297265 0.06361322
-0.13522457 -0.040099487 0.30161518 0.24900506 0.11456176 -0.12607408 0.1078298 -0.25117669
0.18912272 -0.0076538255 -0.015348774 -0.011152439 0.02427724 0.13349184 0.3659304 -0.18228492
-0.09102745 -0.2002708 0.17822951 0.13619766 0.347018 0.21225244 0.2581282 0.058754675
-0.009554617 -0.16523015 -0.025395043 0.038979273 -0.1086851 -0.29782528 0.12165016 0.122175954
-0.3769982 0.14700773 -0.0058885487 -0.285934 -0.21370399 -0.28984997 0.004104349 -0.010438999
0.35743076 0.20275381 -0.061115157 -0.13185152 -0.21715169 0.16000749 0.031376205 0.09670181
0.10948325 0.012612555 0.22535221 0.15980156 -0.060637884 -0.23879395 -0.089933686 0.09668604

layers.0.bias f4 [70]
00000000: 357f 293d 77f3 d9bd 75dd 10bd 9d9a 2ebe
00000010: 6ca7 00be 88c7 243d 0301 243d 5dc3 adbc
00000020: 00a7 90bd e247 af3d 9e70 a93d 9719 5bbd
00000030: c824 1fbe 6d57 75be b51b c03d ef3c c1bd
00000040: 3f7d 57be 7332 61be 1a10 92bd 1a22 26bd
00000050: d37e b73d dd04 d5bd 41a8 a2bc 6419 b73d
00000060: 140b 28bc b4a1 b1bd c1c5 253e 6fb0 a63c
00000070: 57fa dcbd 592d 453e de92 113e 6040 1cbe
00000080: af5b 6d3e ee60 1abe 438c 673e ed39 abbd
00000090: 74ab 023c 14ed 69be 5853 3abe 6d23 323d
000000a0: 0d40 6abe a74f 78be 8467 8f3e 2683 a73d
000000b0: 29d9 7bbe 2f57 813e 7f02 813e 4ccc f5bc
000000c0: 4a77 13be 1a43 893e ab5c 38be 019d d93d
000000d0: 0b59 8f3c 3250 0abe 1d45 e73d 04c3 44be
000000e0: 2bc9 243e 6115 3cbe 17b3 8ebe 11f1 89bb
000000f0: c940 4dbe 529d 1e3e 061d 20bd 14c4 7dbe
00000100: 8ce5 7fbe e663 1f3e 8c0c 80be fbe4 773e
00000110: 0e6e 03be 714b 7bbe
0.04138108 -0.1064214 -0.035367448 -0.17051168 -0.12563866 0.04022935 0.040040027 -0.02121132
-0.07063103 0.085586324 0.08273433 -0.0534912 -0.15541375 -0.23959132 0.09380285 -0.0943545
-0.21043871 -0.21991901 -0.071319774 -0.040559866 0.08959737 -0.10401318 -0.01985562 0.0894039
-0.0102565475 -0.086734205 0.16188718 0.020347802 -0.10789936 0.1925558 0.14216182 -0.15258932
0.23179506 -0.15076038 0.226121 -0.08360658 0.007975448 -0.22844344 -0.18195856 0.043490816
-0.22875996 -0.24249135 0.28008664 0.081793115 -0.24594559 0.25261828 0.25197217 -0.030004643
-0.14400974 0.26809007 -0.180041 0.10625649 0.017498514 -0.13507155 0.11292479 -0.19215018
0.16092364 -0.1836753 -0.2787101 -0.0042096456 -0.20044245 0.154897 -0.03909018 -0.24781829
-0.24989909 0.15565452 -0.25009573 0.24208443 -0.12834951 -0.24540497

layers.1.weight f4 [80, 70]
00000000: 3721 f5bc 2e3a 5f3d b8f8 d43d 0089 ab3c
00000010: ba3d c63d 4667 e73c 8154 54bd 17a6 f4bd
00000020: fbac fd3c 1f0e b23d fb90 443d a527 67bd
00000030: fb38 bcbd 6f79 493d 4445 7e3d daa2 d53d
00000040: f7b6 44bd 1695 d3bb 93a3 cfbd 8a8d 75bc
00000050: 4a6e 03bd acee 1f3d fd8d 8c3d c426 6f3c
00000060: 0198 24bd 0b31 c2bd 03b1 e6bc dad4 05bd
00000070: 733c 5c3c 47ce b33d c149 a23d f222 f23c
00000080: 87d7 50bd 34e4 babc 5b86 c1bd ccc3 1f3d
00000090: 1624 24bd eac9 a4bd bde6 0bbd be9b 993d
000000a0: 052b 9b3d 0051 833d 0eab d9bd 8983 f73c
000000b0: 1999 8fbd da39 b83d ec00 34bd 0342 94bd
000000c0: 3172 99bd 67d4 833d 9e56 d93c 8ac2 a93d
000000d0: 09c9 403d 40b2 913d 1ff3 63bd c825 afbd
000000e0: 1644 17be c8b7 82bd ab64 c5bd 80be 1dbe
000000f0: 1e1b a9bd ba50 cd3d bef2 0abe 6258 d7bd
00000100: 0248 6bbc d6b6 5e3d 6ec0 d4bb c5b9 823d
00000110: 5a7a b63d dec6 69bc 3b33 233c 7a02 4a3d
00000120: fef6 ed3d 906a 6a3d faea ebbd b387 f03d
00000130: 37c7 883d 58b6 91b8 2fb1 543d 936c 543d
00000140: eeae 00bd 5886 583d d02b 013d 395f 6b3d
00000150: 5a16 9d3d 121f e63d 47fa 50bd 991b 173d
00000160: 9cfa 093d c744 ce3c ae14 d03d b4eb 033d
00000170: d4f0 34bd 27dc a63d 566a 3bbd 7d6b 7f3d
00000180: 203c a13c 9b62 c0bd 77de 403d ea9c db3d
00000190: 2b20 063e 4b5d 86bd c406 1d3c 4a9f cbbd
000001a0: e49b c2bb 4de7 6a3d 43df 27be 0b4d 1bbb
000001b0: 0760 d7bd 24f9 d93d ca80 303d b987 0f3c
000001c0: 7efa 81bd ec73 d6bd 0b3a ca3c a3a3 553d
000001d0: b5d9 35bd f579 0e3c 258f 52bd 8c6a c6bd
000001e0: 12d1 3dbc 45c8 dbbc 8dd0 e9bd acd1 b1bd
000001f0: d4b5 0dbd d5b5 0ebe 087a 39bd 9bd7 c1bd
00000200: b5a8 af3c 7771 92bd 3429 24bd 373a 813d
00000210: 4078 d8bd bfa3 793d fa8b dabd 5f1e 533d
00000220: 0754 fb3c fc84 4c3d 91fe 173d d919 63bd
00000230: 2565 6abd f1ee 003d 7da0 6e3d 90c9 613c
00000240: 9c31 473c 6a17 66bc f927 163e 496b 313d
00000250: 3d40 dabd d5b8 043d f966 153e 8701 0bbe
00000260: 349d b7bd 3491 df3c abba ecbd 2633 1b3d
00000270: 6269 44bd 9bdb 65bd ee00 dabd b452 043e
00000280: e471 e13c 6b87 87bd 9621 e9bc e452 b8bc
00000290: 886d 66bd 5395 4c3d 01e6 093c 3ba4 6a3c
000002a0: ad1f aa3d fd7b 7e3d df8b 143e 96f4 073c
000002b0: ecbb 08bd f0b8 a8bd 465e 42bd a30d 8a3c
000002c0: b1db 35be 560f 5f3d b65e 9fbd b3f8 883c
000002d0: 3878 c9bd 7e70 59bc 6b6d 1b3d e769 3ebd
000002e0: b17f 253c 382d 013e cf0a 483c a32b 653d
000002f0: 0828 433d 83fb 82bc b5f5 32bd ddfd dabb
00000300: 43f1 6cbc b9c1 c53d e8ba a5bd 101d d73a
00000310: 2b82 e8bc 22b0 bdbd 4e60 7d3d 912a 2fbb
00000320: 6827 fbbd 64bc 01bd 2f79 0d3d 96f7 263d
00000330: 12c4 3f3d b8fe 0abd 840e 0f3d 6b93 77bd
00000340: 1090 143e eb10 e1bd 258d b9bc d20e 7b3d
00000350: fbda 0fbe 4fec 18bd 3b9c babd 03ad a23d
00000360: f1f9 a8bd 2837 1b3d cebb db3b 2f51 abbc
00000370: 0c83 d3bd 3251 99bd a95c 4e3d d482 803d
00000380: 46ba 9e3d ad68 acbc c570 85bd 23ed 85bd
00000390: b665 e0bc f8bb 053d 142b 573d 8bbb 763d
000003a0: 222d d73c 7f81 4e3d 6708 6d3d 0345 80bd
000003b0: bf98 333d b7de d0bd 82ce adbc d7a5 a0bd
000003c0: 2779 e03d d7ca b1bd 333e d13c 4849 eb3d
000003d0: 6526 b6bc 7632 4bbd cb56 9cbd 45a2 ec3d
000003e0: 322d 01be e50f babd e437 893d 3385 203d
000003f0: ed3e 1c3d 9eec e53d a062 7e3d d3a5 43bd
-0.029923065 0.054498844 0.10399002 0.02093935 0.09679742 0.028247487 -0.0518384 -0.119457416
0.030966273 0.086941 0.047989827 -0.056434292 -0.09190556 0.049188074 0.062077776 0.10431452
-0.04802605 -0.0064569814 -0.10138621 -0.014987359 -0.0320876 0.039045975 0.068630196 0.014596645
-0.040184025 -0.094820105 -0.028160578 -0.032673694 0.013442147 0.08779579 0.07924224 0.029557679
-0.050986793 -0.022813894 -0.094494544 0.039005086 -0.040073477 -0.080463246 -0.034155596 0.075004086
0.07576565 0.06411934 -0.10628329 0.030214088 -0.07011623 0.08995409 -0.04394619 -0.07239153
-0.074924834 0.06436997 0.02653056 0.082890585 0.047066722 0.071140766 -0.05565178 -0.08552128
-0.14772066 -0.0638271 -0.096383415 -0.15404701 -0.08257125 0.10025163 -0.13569161 -0.105149046
-0.01436043 0.054373585 -0.006492666 0.06383089 0.089100555 -0.014268605 0.009960945 0.049318768
0.11619376 0.057230532 -0.115194276 0.117446326 0.06678622 -6.948103e-05 0.051926788 0.051861357
-0.031416826 0.052862495 0.031535923 0.05746386 0.07670279 0.11236395 -0.051019933 0.036891554
0.033686265 0.02517928 0.10160194 0.032207206 -0.044174984 0.081474595 -0.045755707 0.06235837
0.01968199 -0.093938075 0.04708716 0.10723288 0.13098209 -0.06560763 0.009584133 -0.09942491
-0.0059389938 0.057349492 -0.16393761 -0.0023697044 -0.10516363 0.10643223 0.043091573 0.008760386
-0.06346606 -0.10471329 0.02468588 0.05215801 -0.044397075 0.008696069 -0.051406045 -0.09688291
-0.011585491 -0.026828894 -0.11416731 -0.0868257 -0.034597233 -0.13936551 -0.045282394 -0.094649516
0.02144275 -0.07150548 -0.040078357 0.06309932 -0.10569811 0.060947176 -0.1067123 0.051542636
0.030679716 0.04993151 0.037108008 -0.055444572 -0.057225365 0.031477872 0.058258522 0.013780966
0.012157824 -0.014043668 0.14663686 0.043315206 -0.10656784 0.032402832 0.14590062 -0.13574801
-0.08965531 0.027290918 -0.115590416 0.037890576 -0.047952063 -0.056117635 -0.106447086 0.12922174
0.027520128 -0.06617626 -0.028458398 -0.022500463 -0.0562568 0.049947094 0.008416654 0.014321382
0.08306823 0.062129963 0.14506482 0.00829806 -0.03338234 -0.08238399 -0.047453187 0.016852206
-0.17759587 0.054457985 -0.077817366 0.016720152 -0.09837383 -0.013271449 0.037946146 -0.046487715
0.010101245 0.12614906 0.012209608 0.05594982 0.0476456 -0.01598907 -0.043691356 -0.006683095
-0.014461818 0.0965609 -0.0809229 0.001641186 -0.028382381 -0.0926211 0.06185942 -0.0026728252
-0.122633755 -0.031673804 0.034539398 0.04076346 0.046817847 -0.033934325 0.034925953 -0.060443323
0.1450808 -0.10989555 -0.02265031 0.06129343 -0.14048378 -0.037334736 -0.0911183 0.079431556
-0.082507975 0.037894398 0.0067057377 -0.020912735 -0.103277296 -0.0748619 0.050381336 0.062749535
0.077503726 -0.021046007 -0.0651565 -0.06539371 -0.02739225 0.032649964 0.052531317 0.06023745
0.026266638 0.050416466 0.05786934 -0.06263163 0.043846842 -0.101987295 -0.021216635 -0.078441314
0.10960608 -0.08681267 0.025542354 0.11488587 -0.022235105 -0.04960867 -0.07633742 0.11554388
-0.12614897 -0.09085063 0.067001134 0.03918953 0.03814595 0.11226772 0.062105775 -0.047765564

layers.1.bias f4 [80]
00000000: 339d 04bd 6345 0f3d 9374 8ebb 1d61 ae3d
00000010: 15a1 24bd 67b5 92bd 82a0 b63a 9e4c c0bd
00000020: 7470 61bd 7ec9 00bd 9a77 003e d3b6 fe3d
00000030: 52d7 da3d 7622 dd3d b59e c6bb 095b f8ba
00000040: 9a48 d1bc f5ac 3abd d401 a4bc 96dd 743d
00000050: f389 93bd 8fe4 b33d 5526 8e3d 6c60 bfbc
00000060: b1f7 f63d c9d2 1abd 1e03 903d 3b8b e23d
00000070: 876b 853c 490a 373d f74b d13d 2299 eb3d
00000080: 1b1f 3a3d ec60 c13d e49a afbd 8a8d 2e3d
00000090: 37ab 8cbb 5111 ea3d c0a5 9d3d c0cf ec3d
000000a0: 6aad 2ebc 54ad 893d ef24 4e3d 5af0 993d
000000b0: 67bd a73d 0515 8abc 640b 973d 5e8d a73d
000000c0: 91ca c43d a2ca 3d3c f1aa b7bb 60e8 4fbd
000000d0: 1e29 0a3e 3cbf a13b 9509 563c 14a6 f33d
000000e0: 7af9 df3c d2b1 8dbd 8ccb 673d 9be9 fc3c
000000f0: 47d5 1b3d ac20 21bd 59f8 93bd 584c d43d
00000100: e326 f53d 69d0 a6bd 4e5d f5bb 2ef3 f8bc
00000110: 44cf 7b3c 9a29 1dbc ca2c 713d 0570 593d
00000120: 58f6 883d 02fb 113d 0644 613d e143 66bd
00000130: 85f3 67bd 4612 d33d 0495 7dbd 231b 303d
-0.03237648 0.03497828 -0.004347393 0.08514617 -0.040192682 -0.07163506 0.0013933333 -0.093896136
-0.055038884 -0.031442158 0.12545624 0.12437215 0.106856 0.107975885 -0.0060614 -0.0018948029
-0.025547314 -0.0455751 -0.020020403 0.059781633 -0.07204046 0.087838285 0.06940905 -0.023361407
0.12058962 -0.037798677 0.070318446 0.11061712 0.016286625 0.044687543 0.10219567 0.11503817
0.04543982 0.094423145 -0.08574465 0.04261545 -0.0042928713 0.11429084 0.0769763 0.11563063
-0.010661462 0.06722513 0.05032819 0.075165465 0.081904225 -0.016855726 0.073752195 0.081812605
0.09608949 0.011583956 -0.0056050946 -0.05075872 0.13492247 0.004936127 0.013063808 0.11896911
0.02734064 -0.06918682 0.0565906 0.03087311 0.038045194 -0.0393378 -0.07225103 0.10366124
0.11970308 -0.0814522 -0.0074879294 -0.030389395 0.01536924 -0.009592438 0.058880605 0.053085346
0.06687611 0.03563977 0.054996513 -0.056217078 -0.056628723 0.1030622 -0.06190969 0.04299463

layers.2.weight f4 [90, 80]
00000000: 99c7 b7bd 96da c53d 5d67 c9bd 826f c3bd
00000010: d05f 33bd 82f6 39bd 486c d13d 6dd0 ecbc
00000020: d8fc cebd 26c4 a63d 2507 953d 85bd 85bd
00000030: 9579 233d b086 323b 9a49 a2bd c656 73bd
00000040: 6128 cf3d 601e 84bd 1ce8 88bd 216c 863c
00000050: 6857 e9bc 2d0f cfbc 8cca 2c3d e3fb 54bd
00000060: cb55 123d 0a32 9ebd 0225 9fbd 63c5 913d
00000070: 350d 10bd aa31 033c 180c dbbd 9a85 b93d
00000080: 24ff f9bc dc8f f73c c2ab a0bc 13ef b53d
00000090: 1b45 1f3d 1090 b7bc 3d82 203d 41e5 a8bd
000000a0: 26bf 80bd 1753 cc3d aad2 cdbd 1eba 0dbb
000000b0: 67b5 553c 16b4 b43d 072b 613d 6db9 bc3c
000000c0: d8d5 4fbd 23dd 913d bcd0 0cbe fd80 783c
000000d0: 818a e3bd ce04 f0bb 2267 9b3d 68e4 4f3d
000000e0: 7beb 09be 0fdb e4bd edb0 d7bd 7339 02bd
000000f0: b089 56bc f91a 65bd b6ea c63c bd71 d63d
00000100: 61bc 17be 86c3 583d f2b0 f6bd b224 403c
00000110: 358c bebc 3a35 debd 809f 70bd c0e1 20bd
00000120: b14a 43bd 8d5f 0bbd 0214 25bd fa0c 003e
00000130: d131 833c 4c52 41bc 2550 9abd e1fa 7cbd
00000140: ea01 68bc 51c3 b2bc 4f5b d33d 5ea5 b4bc
00000150: b038 273d 12b8 d63d 530f 34bc bfe3 5dbc
00000160: 1d14 a43d feff 70bd 690e 14be 07a2 6a3d
00000170: e06d c0bb 681b ca3d b717 043d 50d2 203d
00000180: 8af0 b73c b8a2 1a3e cbb5 e8bc 5f70 85bc
00000190: 49fc d7ba 6d0d ec3d 9c47 7e3d 1130 ef3d
000001a0: 14d6 313d a033 61bd 9208 b83d c737 d7bd
000001b0: 8f6e 15bd b762 8c3d 4803 b93d 3003 0ebd
000001c0: 7a86 e4bd eee1 29bd 22ef 91bc 4c64 a4bd
000001d0: e491 c8bc eb6b e43d 14c4 c6bd dfa8 e2bd
000001e0: 6d0c 343d 5dc0 c43d a4be 08bd 1373 b1bc
000001f0: 0c2c ca3d 06aa e83d f3a2 e03d 4ed5 853d
00000200: 5e97 2c3b 1800 bd3d 1376 79bd ceb9 e73b
00000210: e1ce 03bc a301 063c 298c c03d a721 79bd
00000220: 3470 623d 2756 b23c 4c90 2ebd c54d 453d
00000230: 64b9 903d 85f3 163d a05e f53c 3291 603d
00000240: f1c2 e03d c516 c1bd 353a e9bb b028 2a3d
00000250: 1156 60bd b1fb 0abd 1d00 95bd 513d d73c
00000260: b919 0f3d 6ff0 85bd 28fd e1bd e69a 66bd
00000270: ab31 1e3d c75a 4c3d a52b 463d b74d 5b3d
00000280: 7f11 023c 3629 2fbd 345f cfbd a69a 123d
00000290: 1e2f babd 4ee7 7f3d d3ea 263d 3bca 043e
000002a0: d2b2 a53d 613c c5bd 85cb b5bc 0358 0b3e
000002b0: 9f5f 4c3d dc5c 923c 5130 0c3e a900 083d
000002c0: c85a 9e3d 08b3 5d3d 342c bf3d f134 d43d
000002d0: 1d58 b33d 6d13 333d 0309 55bd c5b8 423d
000002e0: 0cd6 583d e6ce d43d 5f2f 5a3d a4f8 0d3d
000002f0: cda9 813c e40e 00bd fc39 463d 3270 de3c
00000300: 4de0 d8bc 9f22 7ebd 2685 b7b8 32f6 c33b
00000310: ab4e 3ebd e2c3 13bd e463 793d e374 673d
00000320: ca9f 72bb ccac 0fbd af69 123c 43cf 03bd
00000330: 9e17 483d e596 3fbd aeab c9bd f8cf 793d
00000340: ed47 2cbd 5fcc 2f3d fee0 7dbd 6529 3c3d
00000350: bb3a b5bd 66fd 6fbc 0b28 cabc e477 4cbd
00000360: b861 9e3d 8a3b 603c 79c9 6c3b 0e39 f73b
00000370: 08bd 9cbd 6b3f 8e3d 2fb7 0fbe 6921 77bd
00000380: 838e 87bd d472 df3d 318e b3bd 9969 4f3d
00000390: eb50 923d cfcc b33d 906f aa3d e734 423d
000003a0: 1fde 1b3d 575b bc3d a4ef b9bb f54c 3ebd
000003b0: 8104 a9bd f7a9 eb3c 3d6a aa3d 2950 0fbe
000003c0: e3dd b6bd 8871 fb3c 530f 6c3d 73a5 3a3d
000003d0: fc0d b13b 9b20 0fbc 2680 eebc 37d1 b53c
000003e0: 9531 743b 919d 483d 96da d1bb 186f 23bd
000003f0: 8393 5a3d a559 fcbd 3097 7d3d a466 24bc
-0.08973617 0.096608326 -0.09834168 -0.09542753 -0.043792546 -0.045401104 0.10225731 -0.028907979
-0.1010682 0.08142881 0.07276753 -0.065302886 0.03991087 0.0027240925 -0.07924195 -0.059408925
0.101151235 -0.06451106 -0.06684896 0.016408982 -0.028484061 -0.025275791 0.04218535 -0.05199803
0.03572635 -0.07724388 -0.077707306 0.07117727 -0.035168845 0.008007446 -0.10695666 0.090586856
-0.030517168 0.030219965 -0.01961315 0.088834904 0.038884263 -0.022407562 0.039186705 -0.08246852
-0.06286459 0.09976786 -0.100499466 -0.0021625827 0.013043738 0.08823411 0.054972675 0.023037637
-0.050741047 0.071222566 -0.13751501 0.015167472 -0.11110402 -0.0073247915 0.075880304 0.050754935
-0.13468735 -0.111745946 -0.10531793 -0.03179307 -0.013094351 -0.055933926 0.02428184 0.104709126
-0.14817955 0.05292084 -0.120454684 0.011727499 -0.023260215 -0.10849996 -0.05874586 -0.039277792
-0.047678653 -0.03402667 -0.040302284 0.1250495 0.016014965 -0.011799406 -0.075348176 -0.061762694
-0.014160613 -0.02182165 0.1032015 -0.02205151 0.040825546 0.104843274 -0.010989982 -0.013543068
0.08011649 -0.058837883 -0.14458622 0.057283428 -0.005872473 0.098685086 0.03224918 0.03926307
0.022453565 0.15101135 -0.028406998 -0.016288934 -0.0016478385 0.11525998 0.06208001 0.1167909
0.04341705 -0.054980874 0.0898601 -0.105086856 -0.03648239 0.06854766 0.09033829 -0.03467101
-0.11158462 -0.04147523 -0.017814223 -0.080269426 -0.024483629 0.11153396 -0.09705368 -0.11067366
0.043957163 0.09607003 -0.033384934 -0.021661317 0.098716825 0.113605544 0.1096858 0.06534825
0.002633534 0.092285335 -0.06090362 0.00707171 -0.008044929 0.008179101 0.094017334 -0.06082311
0.055282786 0.021769596 -0.04261808 0.04816987 0.070666105 0.036853332 0.029952347 0.05482597
0.10974682 -0.09428171 -0.0071175345 0.04154271 -0.05476958 -0.033931438 -0.07275412 0.026274355
0.03493664 -0.0654 -0.11034614 -0.056300066 0.038621586 0.04989126 0.048381466 0.05354091
0.007938742 -0.04276391 -0.101255804 0.035792015 -0.09091018 0.06247645 0.04075129 0.1296777
0.08090748 -0.09630657 -0.022191772 0.13607793 0.04989588 0.017866544 0.13690306 0.033203755
0.07732159 0.054125816 0.09334603 0.1036166 0.08757041 0.043719698 -0.052010547 0.04753949
0.052938506 0.10391025 0.053267833 0.03466095 0.015828038 -0.0312642 0.048395142 0.027153108
-0.026474142 -0.062044736 -8.750921e-05 0.0059802765 -0.046461742 -0.03607548 0.06088628 0.056507956
-0.0037021511 -0.0350769 0.00893633 -0.032180082 0.048850648 -0.046774764 -0.098471984 0.06098935
-0.04206078 0.042919513 -0.061982147 0.045937914 -0.088490926 -0.014647817 -0.024677297 -0.049919024
0.07733482 0.01368607 0.003613083 0.0075446432 -0.07653242 0.0694569 -0.14034723 -0.060334597
-0.06618979 0.109105736 -0.08767355 0.050637815 0.0714434 0.087792985 0.0832206 0.047413733
0.038053628 0.09197109 -0.0056743193 -0.04646011 -0.08252812 0.028767569 0.083210446 -0.13995422
-0.0892904 0.030693784 0.0576318 0.04556794 0.0054032784 -0.008735801 -0.02911384 0.022194488
0.0037260999 0.048978392 -0.0064042313 -0.03990087 0.053363334 -0.12321786 0.06191176 -0.010034237

layers.2.bias f4 [90]
00000000: dac1 d8bd 1a84 443d 5518 06bd e1bd d63d
00000010: a293 a7bd 0de8 e03d c81e 22bd 5e98 4ebc
00000020: bb42 e83d 3388 a63d cdcc 973d 10d1 073d
00000030: 9ea9 78bd 54b1 cdbd 6722 4abd 6047 b1bd
00000040: 7589 a8bd 633c a7bd 7a20 063c f087 c03d
00000050: fcde 883d de65 ae3c d837 6f3c 9112 583d
00000060: 83c6 cf3d 93b8 8fbd 06b1 583d 61fd 3d3d
00000070: d208 aebd 9cd3 493d 5fdf 0ebd a0b6 8c3d
00000080: 5d2a bfba 2287 60bd bc9b 363d ddf3 453a
00000090: e806 7f3d b60d dabd d5ef 09bd e8c0 593d
000000a0: 1966 06bd 01fb c1bd 26bf aa3d c8c3 6b3d
000000b0: a280 1ebd 24e0 01bd 3328 9ebb a6e5 18bd
000000c0: da35 ad3c 1caf ba3d 457f dc3d 9c02 7abd
000000d0: 60fa 9bbd e760 903d 79fd a4bd aff9 cbbd
000000e0: 612f d73b 622b ee3c 9138 9a3d 0935 c6bc
000000f0: c76e 673d 9840 94bd c982 e93c 80cc 8c3d
00000100: c2d6 bd3d b61c dfbc 5f9d d1bd e5db 81bd
00000110: d6e7 7f3c 2e85 c43d 78b4 cb3d 777b 8cbd
00000120: d3d3 84bc bc2a b03c 4a8c 8c3d 1070 7abc
00000130: fcdb c4bd 6e33 f53c fed7 e8bd ed1d 513d
00000140: d1ca b6bd 6dd0 b73d 374c cabd 3343 ae3d
00000150: 9f5d d13c 4aa4 e03d 582a 88bd d36c 9c3d
00000160: 65ea 113d 48dd d13d
-0.10583849 0.047977544 -0.03273805 0.10485435 -0.081824556 0.1098176 -0.039580137 -0.012609569
0.11340853 0.08131447 0.074121095 0.033158362 -0.060708635 -0.10043588 -0.049349215 -0.08656192
-0.08229343 -0.08165815 0.008186454 0.09400928 0.06683156 0.021288808 0.0146007165 0.05275208
0.10145285 -0.070176266 0.052903198 0.04638422 -0.08497776 0.049274072 -0.034880992 0.068707705
-0.0014584769 -0.054816373 0.044582114 0.0007551292 0.062262446 -0.106471464 -0.033675987 0.053162485
-0.03281221 -0.09471703 0.0833724 0.05755976 -0.038696893 -0.031707898 -0.0048265695 -0.037328385
0.021143842 0.09115431 0.10766462 -0.061037645 -0.076161146 0.07049733 -0.080561586 -0.09959733
0.0065669273 0.02907342 0.075303204 -0.024195211 0.05650213 -0.07238883 0.028504746 0.06874943
0.092694774 -0.02723537 -0.10235094 -0.0634077 0.015619239 0.095957145 0.09946531 -0.068594866
-0.016214287 0.021504752 0.068626955 -0.015285507 -0.09612271 0.02993175 -0.11369322 0.05105393
-0.08925403 0.08975301 -0.09877818 0.08508911 0.025557337 0.10968836 -0.066487014 0.07637944
0.035623927 0.10247284

layers.3.weight f4 [5, 90]
00000000: caff 8b3d aed7 013d 4859 fd3d 7ebc 103e
00000010: cb50 ebbc 5a33 55bd 155a edbb d780 e9bb
00000020: 11e8 ebbd 3916 a9bb d962 ec3d c390 f13a
00000030: fbfc 30bd dd39 d3bc 7023 9ebd e537 953d
00000040: f3f4 0abe 8e3d 1a3d 9fa4 193d 12ff 95bd
00000050: 0af0 a23d c4da c5bd 6662 9dba 6775 f8bd
00000060: 7f47 36bd f069 28bd 2093 8f3d 88d5 063e
00000070: 2cb9 1a3e fd64 b63c 7bd2 273c a7bf bb3d
00000080: 4343 1f3d 9f57 f1bd 7bdc 96bd 5ee1 dabc
00000090: f9bd 8f3d 7ea4 e93d 52ab 5a3d a4fc 8dbc
000000a0: a462 f03d 4b8c b7bd 5776 cbbc 6964 fc3d
000000b0: 2e01 8cbd 878a ce3d 652e ecbd 3661 a33d
000000c0: 6bd3 49ba 6ff8 293d a336 223e 8205 f33d
000000d0: fb11 c53d 8417 423d 341c e43c 6468 a5bd
000000e0: 7bae f33d 4fa5 b0bd f0e5 48b9 3a62 c7bd
000000f0: 6e4b bb3d 3222 b0bc 52fb cabd cc01 0a3e
00000100: 5357 b33d 8127 0a3d 1ea2 b8bd c623 cd3d
00000110: 6b8e 9cbd 0d99 a23d faec 0abe 869c a2bd
00000120: 24e6 a03d ed36 0bbe 939d b13d aca9 a53d
00000130: 58e1 b7bc 13ea 093d 34d7 413d 4e0e 11be
00000140: 898f cbbb a30a 99bd 7050 803c e822 ae3d
00000150: e4df 063e 4460 91bd d28b 093e 6dbd 0ebc
00000160: 3c2f 2a3c e579 783d 85a8 393b 733a d33d
00000170: 2489 89bd e4a2 3a3d 277a 7abd ef5d 85bd
00000180: 00f5 3f3b ac46 ba3d 6a07 813d af74 6abc
00000190: 1668 bd3d a505 933d eff4 73bd 8cbe f53c
000001a0: 7852 f8bd accc b83d f415 06be 497c f9bd
000001b0: f19f 15bd 8de2 62bd 9c4f b63d d512 5abd
000001c0: b89b 89bd 1ce4 87bd 4325 c9bd 8a60 973d
000001d0: 16c5 c7bd 1080 993d 2b12 fb3d 7a01 babd
000001e0: bef3 a63d 74f7 1cbc c3ee 9abb 73f8 853d
000001f0: 591a 8d3c 74d8 22bc 2b34 07bc 197b 83bd
00000200: b12c f2bd 82e9 163e 30fa c2bc 61b9 c73d
00000210: a96f 013e 8dec 8c3d a4b4 b13d 789b cb3d
00000220: cf52 7ebd 6e75 17bd e3b4 acbd ba53 423d
00000230: 9d0f a7bc baff 0b3e 02f3 e7bc 8024 dd3c
00000240: 2fc4 bebd 9a9b b6bd f41d 49bd 4f4a 063d
00000250: f79f c23d ac9d 863d 2aac f53d 68ed 00be
00000260: 055d fa3c 9429 a13d 87b8 ecbd 9601 683a
00000270: 0a70 ebbd fecc be3d c454 24bd 73cf 85bd
00000280: 131b 8f3b 14b0 bebd 1c78 e93c efc1 a1bd
00000290: 56a7 30bd 45e1 ecbb c757 583c cb8f 013d
000002a0: e500 0bbd d154 fabd 0c5f 903d 36ad d23d
000002b0: c603 fbbc f4ea e13c 4847 003e a1b4 ef3d
000002c0: a719 063e 9b8c 6e3d 5e97 f7bd 7882 d43d
000002d0: a6da 673d b1ba f33d d002 d4bd dc9a 83bd
000002e0: caa1 673d 4d5c fd3d 5c03 bfbd 70a7 953d
000002f0: fdcf 6a3d 97ab 7a3d 304d e93d ff22 f8bc
00000300: 18e0 97bd 75dc 00be cd06 e6bd 2998 5dbb
00000310: 26cb f33d 8f80 75bd 6256 b53d f74f 74bd
00000320: 802d a5bd 9b1a 3bbc 1bc2 523c f7e2 c0bc
00000330: 93db ab3d dd6d 0e3e dc23 473d 27c4 eebb
00000340: f312 39bd 084d c43d 2379 19be c26c de3d
00000350: 9fd4 223d 2692 bc3d 22b2 f1bd 62a8 aebd
00000360: 8ca7 f6bd 78fd 20bd dbe1 89bd 8b2f 7ebd
00000370: fd43 12be 40ec 28bd 2bb4 503d 1e06 eebc
00000380: a649 babc 1419 093d 4a28 b2bd 98d7 44bd
00000390: df23 863d f444 e8bc 750b 58bd a21e 7d3d
000003a0: c1f3 0f3e ad49 273c c195 023e 0dc9 0bbd
000003b0: 46e6 cebd db0e 843d 25bc 613d 7678 1a3e
000003c0: e6ff fdbd 4726 0fbe ff17 81bc 6e0a 0fbe
000003d0: 8193 b7bd 9e11 66bd a0b1 b6bd 6be5 2dbd
000003e0: c89f f63d b6f5 dc3d 5885 933d 2389 983c
000003f0: 6657 c63c b35b 75bd 43d2 0fbe 350f e13d
0.06835897 0.03169983 0.12370545 0.14134404 -0.028725049 -0.052050926 -0.0072434046 -0.0071259546
-0.115188725 -0.00516012 0.11542291 0.0018429983 -0.04321001 -0.025784427 -0.07721603 0.07286052
-0.13570003 0.03765636 0.03751051 -0.073240414 0.0795594 -0.09660867 -0.0012007474 -0.12131768
-0.044501778 -0.041116655 0.07010484 0.13167393 0.151097 0.022264952 0.010243054 0.09167414
0.038882505 -0.117842905 -0.07366272 -0.026718792 0.07018656 0.114083275 0.05338604 -0.017332383
0.11737564 -0.08962306 -0.024836702 0.12323839 -0.068361625 0.10085016 -0.115322866 0.07977526
-0.0007699045 0.04149669 0.15841155 0.11866285 0.0962257 0.047385707 0.02784548 -0.080765516
0.11898514 -0.0862528 -0.00019159145 -0.09735532 0.091452464 -0.02150068 -0.09911217 0.13477248
0.0875689 0.03372908 -0.090152964 0.10016589 -0.076443516 0.07939348 -0.13566962 -0.07940011
0.07856396 -0.13595171 0.08672633 0.08089003 -0.02244632 0.033670496 0.047324374 -0.14165613
-0.006212179 -0.07472732 0.015663356 0.085027516 0.13171345 -0.07098439 0.13432243 -0.008712155
0.010387238 0.060663123 0.0028329205 0.10313883 -0.067156106 0.0455655 -0.06115165 -0.06512057
0.0029290318 0.09095511 0.06300242 -0.014310046 0.092483684 0.07178811 -0.05955976 0.029998086
-0.12125105 0.09023413 -0.13094312 -0.12181909 -0.036529485 -0.055391837 0.08901903 -0.053240616
-0.06719154 -0.06635305 -0.0982156 0.0739146 -0.09754388 0.07495129 0.12259325 -0.09082313
0.08151959 -0.009580482 -0.0047281696 0.065415286 0.017224478 -0.009939302 -0.008252184 -0.064199634
-0.118249305 0.14737514 -0.02380094 0.09752155 0.12640251 0.06881056 0.086770326 0.09941763
-0.06209069 -0.036977224 -0.08432939 0.04744313 -0.020393187 0.1367177 -0.028314117 0.026994944
-0.09314763 -0.089163974 -0.04910083 0.03278571 0.09503167 0.06573042 0.11995728 -0.12590563
0.030561933 0.078692585 -0.11558633 0.0008850334 -0.11495979 0.09316443 -0.0401199 -0.065337084
0.004367241 -0.09310928 0.028499655 -0.07898318 -0.043128334 -0.0072290027 0.0132045215 0.031631272
-0.0339364 -0.12223209 0.07049379 0.102869436 -0.030641448 0.027577855 0.12527192 0.11704374
0.13095723 0.05823956 -0.12089418 0.103764474 0.056605004 0.11900843 -0.10352099 -0.064260215
0.05655078 0.123711206 -0.093268126 0.07307327 0.05732726 0.061198797 0.113916755 -0.030290125
-0.07415789 -0.12584098 -0.11231766 -0.0033812618 0.11903982 -0.059937056 0.08854367 -0.059646573
-0.08065319 -0.011419917 0.012863661 -0.023545725 0.0839149 0.13909097 0.048618183 -0.007286567
-0.045184087 0.09585005 -0.14987616 0.10860588 0.039753553 0.09207563 -0.11801554 -0.0852821
-0.12043676 -0.039304227 -0.06732532 -0.06205706 -0.14283748 -0.04124093 0.05095307 -0.029055651
-0.022740196 0.033471182 -0.08699091 -0.04805717 0.065498106 -0.028353192 -0.0527453 0.06179679
0.14057828 0.010210437 0.12752439 -0.034127284 -0.10102515 0.06448146 0.05511107 0.15085015
-0.124023244 -0.13979445 -0.015758513 -0.13968822 -0.08963681 -0.056169145 -0.08920598 -0.04245512
0.120421946 0.10789053 0.07203168 0.01862008 0.024211597 -0.059901904 -0.14045052 0.10989229

layers.3.bias f4 [5]
00000000: dfa3 88bd 51a3 71bd 74a0 2b3c 5aa8 c43c
00000010: a97a 7dbd
-0.06671881 -0.05899364 0.010475267 0.024006058 -0.061884556
