irony/models/model_15.pt (torch_old, 58143 bytes, 8 tensors)

layers.0.weight f4 [70, 10]
000000 58 5c 90 be 10 c1 2b be d5 ca 28 be 3e 80 c8 3e
       -0.28195453 -0.16772866 -0.16483624 0.3916034
000010 cd 3f c7 3e d9 a9 30 be 6e 6d ec bd 01 6c 0d be
       0.38915864 -0.17252292 -0.115443096 -0.13810731
000020 22 d1 5a 3e 71 18 1d 3e 43 af 91 be e9 55 1e bd
       0.2136884 0.15341355 -0.28454027 -0.03865615
000030 5f dc 02 3f 36 dc a7 bd c9 2c 8a be d0 d0 b8 bd
       0.5111751 -0.08196299 -0.26987293 -0.09024203
000040 85 8a 4b 3d a8 8d a5 3d 08 e2 98 3d 29 3b 30 be
       0.04969265 0.080836594 0.07464987 -0.17210068
000050 e1 23 88 3e 77 8b fa 3d 84 00 bb be 9d 81 a3 3c
       0.26589873 0.12233632 -0.3652383 0.019959265
000060 5b 83 c7 3e 47 63 61 3e 0a 3f d0 bd ad e6 2a 3c
       0.38967404 0.22010528 -0.10168274 0.010430974
000070 e8 fa 1f 3e 3b 2b 86 3d 48 2d 0b be 9b 44 c3 be
       0.15623057 0.06551214 -0.13591492 -0.3813828
000080 d9 8e ed 3d 6a 3d 51 3e be e8 07 be 88 06 10 bd
       0.11599512 0.20433584 -0.13272378 -0.03516248
000090 1b 01 3f be 3b 15 ba 3b d5 22 51 bd f4 68 2a bd
       -0.18652765 0.0056788004 -0.05105861 -0.041603997
0000a0 d1 93 14 be 31 be 93 be 6c be 12 3e f4 1c b1 3e
       -0.14509512 -0.28856042 0.14330453 0.34592402
0000b0 14 8c ee 3c e5 9d 42 be 60 45 54 be bd 84 05 bd
       0.029119529 -0.19005544 -0.2072959 -0.032597292
0000c0 4e 64 cb bb f9 55 09 be 83 cd c0 be 3e c8 34 3e
       -0.0062070256 -0.13411702 -0.37656793 0.17654511
0000d0 94 89 8b 3e cd 19 ed 3e c7 ce 9d bd ee 02 55 3d
       0.272534 0.46308747 -0.07705455 0.052004747
0000e0 44 f1 19 bd 34 e6 6f 3e a2 54 8b 3d a0 51 3f be
       -0.037583604 0.2342766 0.06803252 -0.18683481
0000f0 4e 12 8d 3d c5 ff 97 3c c8 b3 af 3e c1 26 52 3d
       0.06888257 0.018554578 0.3431685 0.05130649
000100 51 d3 66 bd 6b 2f 1b bd 35 b8 07 be de 43 4c bd
       -0.05635387 -0.03788702 -0.13253863 -0.04986941
000110 e5 6c 4b 3e 7e 08 ef bc f1 4a be 3e b1 67 c5 3d
       0.19865759 -0.029178854 0.3716655 0.09638918
000120 3f a9 88 be 05 da 48 3d 5e 58 66 be ca 70 e4 bd
       -0.26691625 0.049036045 -0.22494647 -0.11154325
000130 bd 1d b2 3d b8 d9 79 be 53 44 d0 bd 12 7b 3f bd
       0.086970784 -0.2439946 -0.10169282 -0.04674823
000140 6f 4d 98 bd 99 45 d5 3d 09 88 c8 be 7f e7 54 3e
       -0.07436644 0.10413665 -0.39166287 0.20791434
000150 c6 d6 be 3e ec 56 7a bd 2e 96 b5 bd 4f 2d 30 be
       0.37273234 -0.06111805 -0.08866535 -0.17204784
000160 aa 70 c6 3c 45 7b fa 3d 6d e2 74 3e dd d1 92 bd
       0.024223644 0.12230543 0.239145 -0.071689345
000170 a9 c4 ca bc 08 0a 92 bb d8 f9 c6 bd e7 92 18 be
       -0.024751978 -0.004456762 -0.09715623 -0.14899789
000180 0a 35 86 3d 13 c3 e4 bd 86 11 88 3d d0 61 34 be
       0.06553085 -0.1117002 0.06643967 -0.17615438
000190 63 f3 c7 bc 4e 71 bf 3e 87 7d cd bd 0d fa e2 bd
       -0.024408048 0.37391132 -0.10033708 -0.1108285
0001a0 a1 9b 57 be fe 83 d4 bd fd d1 82 bd d8 59 2c be
       -0.21055461 -0.10376738 -0.06387708 -0.16831148
0001b0 68 a8 69 be 25 88 33 bd 5c 36 8e be 9d 3a 2f 3d
       -0.22818148 -0.04383101 -0.27775848 0.042780507
0001c0 63 40 92 3d ea 37 8e 3e 23 1c b1 3e 50 c7 50 be
       0.07141187 0.27777034 0.3459178 -0.20388532
0001d0 d5 32 27 be 8d 6b 59 bd 10 b8 55 3c 3c b1 3c 3e
       -0.16327985 -0.053081084 0.013044372 0.18426985
0001e0 3b 85 73 3e 9e 66 99 3d 42 8a 6a be 4f f6 d5 be
       0.23781292 0.07490276 -0.22904304 -0.4178948
0001f0 3b 0c f7 bd 73 aa b7 bd 0a a6 cf bc 35 1d c5 bd
       -0.1206288 -0.089680575 -0.025347728 -0.096247114
000200 98 bc 22 be 0a 4f aa 3d c7 f7 99 3e 2b 0a 38 be
       -0.15892255 0.08315857 0.30071852 -0.17972629
000210 c0 18 48 be 2f ba b8 be 1d bb 8a 3e 8f ef d6 bc
       -0.19540691 -0.36079547 0.2709588 -0.026237277
000220 e8 bc 76 be 1b 57 0a be 1e ea 64 be 4c 76 44 3e
       -0.240955 -0.1350979 -0.22354934 0.19185752
000230 9d a1 30 3e d3 62 3c bd da a9 45 3e 6f 27 16 3e
       0.1724915 -0.045992684 0.19303074 0.1466348
000240 de 32 ae be 3d 67 a4 bd ac 87 84 3e ed 11 b7 bb
       -0.34023184 -0.08027504 0.2588476 -0.0055868537
000250 27 0f 7c 3d 00 be c9 3d 55 72 09 be 5a 57 3a 3d
       0.061537888 0.09850693 -0.1342252 0.04549346
000260 7a 01 76 bd 7d 34 13 3e 5c 4a 64 be 8b 88 a6 bd
       -0.060060002 0.14375491 -0.22293991 -0.08131512
000270 60 f8 39 bc a7 e9 8a 3e b8 1d 6a be 07 36 48 be
       -0.011350721 0.27131388 -0.228629 -0.1955186
000280 7e d2 dc 3e b7 63 f1 3d 71 f4 88 be 1f 02 a8 be
       0.43129343 0.11786597 -0.26748994 -0.32814118
000290 93 0e c8 3e ce 27 9e bd bf 31 11 be a1 aa 60 bd
       0.3907362 -0.07722436 -0.14179133 -0.054850224
0002a0 62 36 98 3d a2 51 55 3e c7 be 7e be 2c ae f1 bd
       0.07432248 0.20831922 -0.24877463 -0.11800799
0002b0 22 a5 18 bc d7 c7 8b 3d 67 5f 77 3e 1b 02 82 3d
       -0.0093167145 0.06825226 0.24157487 0.06348058
0002c0 5e 81 fd 3d a4 da e8 3d 9a 26 64 3e c6 20 80 3e
       0.123781905 0.113698274 0.2228035 0.25025004
0002d0 9b db a5 3e 93 fb 84 be 1a 99 0d bc b9 b3 43 3e
       0.32394108 -0.25973186 -0.008642459 0.19111528
0002e0 cd eb 55 be e4 35 ac 3d ed 64 1a be 27 2b 57 bd
       -0.20890732 0.08408716 -0.15077563 -0.052531388
0002f0 89 96 91 3e 2b da 0a be b4 8b 68 3d ec 16 e1 3e
       0.28435162 -0.13559787 0.056773856 0.439628
000300 82 e4 8f 3e 97 e4 41 be af 60 99 be 94 48 92 3c
       0.28104025 -0.18934856 -0.29956576 0.017856874
000310 19 ca ce 3c 8a 3c 92 3e bf 4d 13 bd c9 26 1f be
       0.025242852 0.28561813 -0.035962816 -0.15542139
000320 09 70 5e 3e 50 89 32 3e c9 a3 c9 bd ed bc 60 be
       0.21722426 0.17435193 -0.09845693 -0.2194707
000330 ae db 7e be 8e 16 a8 3e 05 fb 70 3e b1 29 5e bd
       -0.24888489 0.32829708 0.23533256 -0.05423898
000340 11 8e 59 3d 22 b4 53 be 78 87 c1 bd d3 8c e1 be
       0.053114 -0.20674184 -0.09449667 -0.44052753
000350 ff e7 a2 3d 9c 11 8a 3e 6d 61 a4 3e a6 47 b7 bd
       0.07954406 0.2696656 0.3210558 -0.08949213
000360 0d 47 6a be 8a 59 ff bd 57 08 3d bd 02 57 0b bd
       -0.22878666 -0.1246825 -0.04615053 -0.034018524
000370 d1 db 96 3c 60 1f 98 be 9f a2 23 be 15 93 80 be
       0.018415364 -0.29711437 -0.15980004 -0.25112215
000380 f7 43 9a 3e 90 25 e2 3d aa d8 da bd 03 f1 8d bd
       0.30129978 0.11042321 -0.10685857 -0.06930735
000390 40 4d 47 be b3 27 55 bd 9a f1 d3 bd 66 59 73 be
       -0.19463062 -0.052039813 -0.10348816 -0.23764572
0003a0 16 55 1b be 2a 67 a9 3e 8c 6c 39 3e 93 79 76 bc
       -0.15169176 0.3308652 0.18107814 -0.015043634
0003b0 8c be 8f bd 7b 9e bb bc 09 42 5e 3e 96 c7 e6 3d
       -0.07018766 -0.022902718 0.21704878 0.11268537
0003c0 ec bd 0d be 60 a8 c5 be 75 78 b3 3d 45 85 b4 3d
       -0.1384198 -0.38605022 0.0876321 0.08814482
0003d0 fb 35 81 3e fd 19 33 3e e1 b3 05 3e 3f c2 08 bd
       0.25236496 0.17490382 0.130569 -0.033388373
0003e0 5d 03 c5 3d 6a 14 02 3d 79 2d 9a 3d 8b 2b f2 3d
       0.09619782 0.03175775 0.075282045 0.118247114
0003f0 94 55 f8 be 2a aa 91 be df 75 4b 3e cb 92 5d 3e
       -0.4850279 -0.28450137 0.19869183 0.21638028

layers.0.bias f4 [70]
000000 9d af 13 be fb e4 54 3d 53 b5 1c be 4d 8f c7 3d
       -0.1442246 0.051976185 -0.15303545 0.09744129
000010 d0 93 ce 3d 0c 98 42 be 7b 45 d5 3d 7c d9 03 3e
       0.10086787 -0.19003314 0.10413643 0.12875932
000020 32 6f a5 bd ac 37 11 be b9 ae 6a 3c 16 df bb bd
       -0.080778494 -0.14181393 0.014323884 -0.0917341
000030 21 8e 59 3e f3 6b d6 3d df a2 8a bd 7f 60 a9 bd
       0.21245624 0.104698084 -0.067693464 -0.08270358
000040 ef b7 02 be dc 98 47 be 4c f4 95 3d 94 ed 0a bd
       -0.12765478 -0.19491905 0.073219866 -0.03391798
000050 2f 5f 0c be 12 e3 e1 3d c5 f2 f0 3d 68 fd 45 bd
       -0.13708185 0.11029638 0.117650546 -0.04833737
000060 ef 6c c6 bd 38 bb 1b 3d fc b8 71 3e bb ac 51 bd
       -0.09688746 0.038020343 0.23605722 -0.05119012
000070 32 fc 64 bc 04 01 17 3b 7d 8f ba bb 17 ca 91 bd
       -0.013976144 0.0023041377 -0.0056933747 -0.07118624
000080 35 86 04 be 7d 1d 3d bd 3f 66 f9 bd c7 b9 e4 bd
       -0.12941821 -0.0461707 -0.12177705 -0.11168247
000090 9a f0 6f bc 7b fc 63 bd 12 8c b7 3d 54 2d 4b 3d
       -0.014644766 -0.055660706 0.08962263 0.049603775
0000a0 3a 94 8a bd a0 20 cc bd ee fd 9d bd 70 89 44 be
       -0.06766553 -0.0996716 -0.07714449 -0.19193053
0000b0 ea 36 44 be f4 62 41 be 56 cb fd bd e8 cd 6d 3d
       -0.19161573 -0.18885404 -0.12392299 0.058057696
0000c0 3f 9f 65 be fa 77 45 3e 56 eb 3e be 18 f7 da 38
       -0.22424029 0.19284049 -0.18644461 0.00010441075
0000d0 1e 59 36 3d fd 8c c9 3d c0 d8 86 be 97 d7 fe 3d
       0.044518583 0.098413445 -0.26337242 0.12443464
0000e0 2d a1 76 3d 2e b6 4c 3e cc 58 3a 3e 62 56 15 be
       0.060212303 0.19991371 0.18197936 -0.14583734
0000f0 b7 bb 2a 3e 8f 61 dd bd 4d d2 5a 3d 55 03 e3 3c
       0.1667317 -0.108096235 0.053423215 0.02771155
000100 ae 2c 41 3c 3b 0b bd bd 6c f0 df 3d e4 d7 e6 3c
       0.011790438 -0.09230658 0.10934529 0.028179117
000110 d8 0e 8a 3e 59 a2 28 be
       0.2696445 -0.1646818

layers.1.weight f4 [80, 70]
000000 6c fa cd ba ab 8c 22 3e d3 71 94 bd c2 9d 2b 3e
       -0.001571489 0.15873973 -0.07248273 0.16759399
000010 0e d4 40 3e 0e d1 4b 3e 73 8e 84 3d 82 a5 11 3d
       0.18830892 0.19903967 0.064724825 0.03555823
000020 56 83 ec bd cc 21 46 bb 4d de 74 bd 20 5b bc 3c
       -0.11548488 -0.0030232547 -0.059782315 0.02299267
000030 cf da 23 bd 47 de 75 bd 7b bb af 3d 8b 8c 30 3d
       -0.040003594 -0.060026433 0.08580681 0.043102782
000040 f0 82 d9 bd ac 85 e0 3d d3 df 00 3b be c5 8f bd
       -0.106206775 0.10962996 0.001966466 -0.07020138
000050 08 64 9b bc 7e 14 9b 3d 10 b3 18 bb ad 00 f3 3d
       -0.018968597 0.07572268 -0.002330009 0.11865363
000060 e6 2a d2 bc 1c e7 2c be d9 0b ed 3d 84 04 a4 bd
       -0.025655221 -0.16885036 0.115745254 -0.08008674
000070 e2 3f 2a be 50 c0 60 bd 83 98 0e bd f3 45 b0 3d
       -0.16625932 -0.054870903 -0.034813415 0.08607092
000080 92 dd 60 bb 7c 90 22 bd 9f 55 0b 3e 8a 0e b6 3b
       -0.0034311754 -0.039688572 0.1360688 0.0055559324
000090 64 41 36 3d d9 ed 04 3e c6 e0 63 3d ca 49 0e be
       0.044495955 0.12981357 0.055634283 -0.13895336
0000a0 e9 2f ca 3c 3d 9f 21 bd 42 db 02 be d5 cf 69 3d
       0.024681048 -0.039458502 -0.12778953 0.05708297
0000b0 88 e8 20 bd b9 c6 77 3d 56 86 ae bd 9d 03 80 3d
       -0.03928426 0.06049225 -0.08521716 0.06250689
0000c0 f7 29 e8 bd 68 24 e7 3d 5f 07 f4 3b 34 5e 1f bc
       -0.11336129 0.11286241 0.0074471678 -0.00972705
0000d0 60 ce 10 3d b9 e8 90 bc 0c 33 a2 bd 47 26 46 bd
       0.035353065 -0.017689096 -0.07919893 -0.048376348
0000e0 f1 28 ac 3d 60 32 a6 3c cf 8d 1e bb cf db 53 3d
       0.084062465 0.020287693 -0.0024193411 0.051723298
0000f0 98 31 96 3d 80 9d 10 bc dc 74 ac 3d 41 67 3e 3d
       0.07333678 -0.008826613 0.08420727 0.04648519
000100 33 a8 44 3c a8 b0 ed b9 43 c3 10 bc 5a 0b b3 3d
       0.012002992 -0.00045335782 -0.0088356165 0.087423995
000110 62 d9 bd bc ba fc 6e 3d 56 a9 14 3d 6a d6 8c bd
       -0.023174945 0.058346488 0.036294304 -0.06876834
000120 e1 a1 40 3c cb f6 a9 bd 75 d2 d4 bc 07 c3 9f bd
       0.011757345 -0.08299025 -0.02597926 -0.078008704
000130 9f 95 a7 3c 94 ac 80 bd da d3 e9 3d 0a 07 37 3d
       0.020457087 -0.06282917 0.114173606 0.044684447
000140 28 06 fd 3c d5 fb c1 3d 7e 92 8c bb 0c e8 ed 3c
       0.030886725 0.09471861 -0.004289924 0.029041313
000150 d4 dc cd 3c 68 d2 8b bd 40 6e 7e 3d 6c 59 e4 bc
       0.025129713 -0.06827241 0.06211686 -0.02787467
000160 18 36 58 bd 50 6c fa bd ae 19 f8 bc 57 4c a3 bd
       -0.052785963 -0.1222769 -0.030285683 -0.07973545
000170 fc 90 ec bc 83 3b 51 3d 6e 97 ae 3d 5a 70 49 bd
       -0.028877728 0.051082145 0.08524977 -0.049179412
000180 a0 b4 29 be cc bb 0d 3e 03 df d5 3d ca aa bb 3c
       -0.16572809 0.1384117 0.10442927 0.022908587
000190 28 d0 e1 3d be ec 1e 3e 17 32 ca bc 6b 88 e6 3d
       0.11026031 0.15519997 -0.024682088 0.112564884
0001a0 93 9a 30 be df bc fb 3d 89 b5 49 bd 3e be a2 bd
       -0.17246465 0.12291884 -0.04924539 -0.07946442
0001b0 fa a3 e4 bc 20 91 04 bd a6 83 c7 3c a2 71 0e 3e
       -0.027910221 -0.032364964 0.024354767 0.13910535
0001c0 33 8f 53 3d fa 27 67 bc ab b7 a9 3d 8b 71 e9 bb
       0.051650237 -0.014108652 0.08286985 -0.007124131
0001d0 46 a8 33 bd 21 21 b8 3d 5a 0f 2f bd 2d 68 62 bd
       -0.04386165 0.08990694 -0.04273925 -0.05527513
0001e0 45 bd 46 bb 8b e1 81 bd c6 7a 3f 3b 75 d7 d9 bc
       -0.0030325216 -0.06341847 0.0029217466 -0.026591996
0001f0 76 ed f8 bd 46 69 4c 3d 6a 9e 85 3d 81 d7 c2 3d
       -0.12154667 0.049905084 0.06524356 0.0951376
000200 dc e0 61 3c 19 0c dc bc 12 ec 26 3d f9 06 15 bd
       0.013786521 -0.026861237 0.040752478 -0.036383603
000210 b0 5b 14 3c 80 65 c6 bd 2b 2c 5b bd 6d e0 cf 3d
       0.009055063 -0.09687328 -0.05350892 0.10150228
000220 2c 8f 8b bd 05 a6 aa bd 8c 8a ed bc 14 98 cb bd
       -0.06814417 -0.08332447 -0.028996728 -0.09941116
000230 9c cf 8c bd d9 ea 1f 3e 51 49 e2 bd f4 51 fb bd
       -0.06875536 0.15616931 -0.1104914 -0.12271491
000240 54 ac f6 3c 15 4c 5e 3d e9 b3 c3 bd fc 64 70 3d
       0.03011147 0.054271776 -0.095557995 0.058690056
000250 83 14 d6 bc 8e cb 4d bd 57 83 66 bb e0 4d c2 3d
       -0.026132828 -0.050242953 -0.00351735 0.0948751
000260 42 b0 e1 ba 45 93 9e bd 63 90 c4 3d 67 80 5f bd
       -0.0017218667 -0.07742933 0.09597852 -0.054565813
000270 08 2e 44 bb 06 e8 f7 3d b6 cb 27 be cb 73 8c bd
       -0.0029934663 0.12104802 -0.16386303 -0.06858023
000280 61 f3 3f 3d ca 24 d1 b9 6c 3d a6 bd cb d7 06 be
       0.046862964 -0.00039890996 -0.08117184 -0.13168256
000290 8e 31 40 bd 68 5e f0 bd 8b 0e 33 bd 86 ef f0 bb
       -0.04692226 -0.117367566 -0.04371504 -0.007352772
0002a0 1c c7 14 3c d4 f7 6d bd 02 1e be 3d cc 46 33 3d
       0.0090806745 -0.058097675 0.09283067 0.04376869
0002b0 11 3a 9a bd df 5d cc 3c 90 e3 1a bd 2b e9 ec 3c
       -0.075306065 0.024947105 -0.037814677 0.028919777
0002c0 4b 71 91 3d 65 c2 39 3b 75 b5 b2 bc 9f a5 d9 bc
       0.07101687 0.0028344628 -0.021815041 -0.026568232
0002d0 31 1e c1 3b 21 ab d7 bc 85 d6 28 3e 37 80 58 3d
       0.0058934917 -0.026326718 0.16488083 0.05285665
0002e0 19 79 b7 bc 5e de aa bc 74 40 6b 3c f2 86 d1 bc
       -0.022396611 -0.020857986 0.014358629 -0.025577042
0002f0 ca 88 80 3e b6 51 99 bd 48 99 9f bc b9 4e 4c 3d
       0.25104362 -0.07486288 -0.01948227 0.049879763
000300 6d f6 9d bd e2 8c ff 3d bd f9 b4 3d ce 00 2f 3d
       -0.077130176 0.12478043 0.08836696 0.042725377
000310 4d a8 e8 bd 17 d8 5a bd 2c e1 58 3d ae dd bf 3d
       -0.11360226 -0.053428736 0.052949116 0.09368454
000320 9b 81 bc bd b4 cc 96 3c cf c8 53 bc 0e d3 6e bc
       -0.09204408 0.018408157 -0.0129262945 -0.014576687
000330 59 54 f8 3d 92 f3 9e bd a5 29 35 3e 3f e2 41 be
       0.12125463 -0.07761301 0.17691667 -0.18933962
000340 41 94 89 bd 73 08 af 3c da 19 2e 3e 36 c1 db bd
       -0.0671773 0.021366334 0.17002049 -0.107302114
000350 19 72 08 bd 03 44 8e 3d 63 d4 10 3c c4 01 90 3d
       -0.033311937 0.06946566 0.008839699 0.07031587
000360 f8 31 64 bd bb 97 cb 3c 64 cb 7e 3d 5f bf e2 3a
       -0.055711716 0.024852624 0.062205687 0.0017299465
000370 1d 93 1c 3d 52 27 0d 3e cc 3f b5 3a 68 29 97 3d
       0.038226236 0.13784531 0.0013828217 0.073809445
000380 7c 69 9f bb 52 04 92 bd b4 27 1e bd b8 1a 19 b9
       -0.0048648696 -0.0712973 -0.038612083 -0.0001460117
000390 ac ef db bc 3a ef 1b be 4a 62 3f bd f9 56 cc bc
       -0.026847683 -0.15227976 -0.046724595 -0.024943816
0003a0 bb 40 92 3d 5a cf eb 3d bd 08 d6 3c a4 f0 5c 3b
       0.071412526 0.115141585 0.026127214 0.003371277
0003b0 5e b9 49 3d b8 fd d5 3c 1e 93 b4 3d fc 17 36 3e
       0.049249046 0.02612196 0.08817123 0.17782587
0003c0 90 31 c1 3d 42 3d 51 3d 55 13 6f 3d 0e 95 f2 bd
       0.094332814 0.05108381 0.058368046 -0.11844836
0003d0 03 a5 e3 3c 75 68 20 3d ab cb ab bd 20 76 d7 3d
       0.027788645 0.039162118 -0.08388456 0.105205774
0003e0 9e 37 94 bd b5 62 70 3d 91 b3 0e be 60 cb f8 bc
       -0.07237171 0.058687884 -0.13935687 -0.030370414
0003f0 56 c2 57 bd 25 0b 98 bd ba 9e 92 bd d8 ad 0c be
       -0.052675568 -0.07424001 -0.07159181 -0.13738191

layers.1.bias f4 [80]
000000 83 ef 17 bd 51 1e cb 3a d7 f8 b9 3d bd ad 4d 3d
       -0.03709365 0.0015496706 0.090806656 0.050214518
000010 5d 3c 79 bd be 19 09 bc ee bd f3 3c 45 56 18 bd
       -0.060848583 -0.008367954 0.029753651 -0.037191648
000020 2e 3d 77 3d 69 98 5f 3b a6 35 b3 bc 88 da 9e 3d
       0.06036108 0.0034117943 -0.021876168 0.07756525
000030 c9 b8 e9 bc cf 95 02 3c ca 83 59 3b be 13 02 bd
       -0.028530495 0.007970287 0.0033190125 -0.03175711
000040 d8 0d a7 3b a7 fb ca 3a 0a b0 9a 3d 9b ca 9a bc
       0.005098086 0.0015486375 0.07553108 -0.018895438
000050 4c c9 23 3d 3e 06 bd 3d 19 a1 0c 3c 5b e8 cf 3c
       0.039986894 0.09229706 0.008583331 0.02537935
000060 60 5b 73 bd b8 68 b1 3b ff 5b 71 3d 95 b8 6c 3d
       -0.059413314 0.005414095 0.058925625 0.05779322
000070 74 cc 62 bd 15 00 c2 3d b9 e9 5a bd b2 7c 6b bd
       -0.055370763 0.09472672 -0.05344555 -0.057491966
000080 62 a3 66 3d 1a 68 a6 3d b8 e1 b7 3d 36 8b ff bc
       0.056308158 0.081253245 0.08978599 -0.03119431
000090 9f 5e 9f 3d cb b8 08 3c 20 fe e4 bc de 72 9c 3d
       0.077817194 0.008344839 -0.027953207 0.07639097
0000a0 d6 fd 24 bd 7c f8 07 3d be 13 3b bd 77 2f 78 bd
       -0.04028114 0.033195958 -0.045673124 -0.06059214
0000b0 b2 cd 41 3d a2 24 06 bd f6 1c 30 3d c7 ef de 3c
       0.047315307 -0.03274978 0.04299637 0.027213944
0000c0 47 25 1a 3d 20 0c 8c bd a6 d8 e2 3c 81 20 50 bd
       0.037633207 -0.0683825 0.027691197 -0.05081225
0000d0 dc 6a bb bd 68 61 bc bd 7a 4b dc 3d 21 1c 8e 3d
       -0.09151241 -0.09198266 0.107565835 0.06938959
0000e0 2f bd e2 3c 84 70 6f bd 35 20 ac bd db 9a 67 bd
       0.0276781 -0.058456913 -0.084045805 -0.056544166
0000f0 a2 72 f4 3d d8 77 b8 bc c9 7a 37 ba bc 8a 08 3e
       0.11935927 -0.022518083 -0.00069991924 0.13334173
000100 35 ee 0f 3d bf 87 31 bd a4 ae c1 3d 17 8c f2 3b
       0.03513928 -0.04334235 0.09457138 0.007401954
000110 04 7a 63 3d a1 30 a6 3d 7e 19 bb bc 71 d8 aa 3d
       0.055536285 0.08114744 -0.022839304 0.08342064
000120 f2 51 8e 3d d1 db 10 3d 09 07 b4 3d ef d0 29 bd
       0.069492236 0.035365883 0.08790404 -0.04145902
000130 83 b4 96 3d 0a 4c 15 3d 23 0f 96 3d 26 87 49 bc
       0.07358649 0.03644947 0.07327106 -0.012300288

layers.2.weight f4 [90, 80]
000000 e4 2e bf 3c 93 32 58 3d 2e f5 81 3d 41 31 1f bc
       0.023337789 0.052782606 0.063455924 -0.009716333
000010 5b 15 03 3e 84 07 8b bd 72 4e 7b 3c 62 00 b4 3c
       0.12801115 -0.06788543 0.015338527 0.021972839
000020 41 d1 c2 bd 08 f5 ab bd 27 7a 1c 3e 11 5f 20 3d
       -0.09512568 -0.083963454 0.15280972 0.039153162
000030 41 16 02 3d 8a 74 5c 3d a1 48 c1 bc e3 2c a7 bd
       0.031759504 0.053822078 -0.023594202 -0.08162858
000040 33 3b 48 3d 34 17 6d 3c 5d 86 dd 3d 74 45 00 3b
       0.04888458 0.014470864 0.108166434 0.0019572647
000050 b2 8e e7 3c 22 10 fb bd 90 88 38 bd cc 4b f1 bd
       0.028266285 -0.122589365 -0.04505211 -0.11782035
000060 90 cb 13 be 67 e1 f1 bb 8f a1 6e 3d 38 30 e3 3d
       -0.14433122 -0.0073816064 0.058259543 0.11093181
000070 81 7e 44 3d 62 7c 9a 3d f7 99 49 bb 56 0c e9 3d
       0.047972206 0.075432554 -0.0030761936 0.11379306
000080 76 6c a1 bd d4 2a ae bc 02 92 f8 3c 9c ae 82 3c
       -0.078820154 -0.021260656 0.03034306 0.0159524
000090 83 4c 7a bc 15 96 f7 bd a1 d3 c2 bd d7 7e db 3c
       -0.015277031 -0.12089173 -0.09513021 0.02679388
0000a0 5a 21 df bd 40 36 f6 bc 4b c4 09 be ca 50 83 3d
       -0.10895033 -0.030055165 -0.13453786 0.06411894
0000b0 68 08 89 bd 18 22 9e bd 15 63 ab 3c 2b 3d a1 3d
       -0.066910565 -0.077213466 0.02092127 0.07872995
0000c0 98 d6 93 3c 0a b7 5f bd d3 3c 19 bd 5b 90 50 3d
       0.018046662 -0.05461792 -0.037411522 0.050918918
0000d0 db 72 ad 3d fc 75 b9 bd 45 26 4f bd bb 68 00 be
       0.084691726 -0.09055707 -0.050573606 -0.12539952
0000e0 53 0f f8 bd 04 55 a6 3d 8e 22 35 3d 6c 99 10 3e
       -0.12112298 0.08121684 0.044222407 0.14121026
0000f0 e2 04 f2 3c cf c3 a5 bd 3e 3c 7f 3d 75 7a a4 3d
       0.029543344 -0.08093988 0.06231331 0.08031169
000100 f0 57 01 3e 81 fa 0c 3e 67 8b 43 bd 55 bf 44 bc
       0.12631202 0.13767435 -0.047740366 -0.012008508
000110 97 8c 9f bb 39 62 25 3d cf 11 f4 bb a4 68 78 bb
       -0.0048690545 0.040376876 -0.007448412 -0.0037904168
000120 eb 86 bf 3d 70 88 33 bd b3 84 01 3d ff bc e2 3d
       0.093519054 -0.04383129 0.031620692 0.110712044
000130 57 a4 a3 3c 99 40 db 3d 0e e7 bd bd be 24 38 ba
       0.019975824 0.107056804 -0.09272586 -0.0007024518
000140 04 f4 2b bd e3 4d 62 3d 92 d6 0a bd 55 d1 38 3d
       -0.04198076 0.05525006 -0.033896036 0.04512151
000150 60 b2 b9 3d 27 02 23 3c 44 4f cf 3c 34 d4 70 3d
       0.090672255 0.009949244 0.025306351 0.058796123
000160 ca 17 a9 3d df 63 90 bc 88 cf b6 3d ac 7f 87 3d
       0.082564905 -0.017625747 0.08926302 0.06616148
000170 3e ef ce bc f0 64 ef 3d b3 52 3d 3b cb 78 38 bc
       -0.025260564 0.11689174 0.0028888404 -0.011259268
000180 f7 fd 88 3d 99 9b ff 3d d8 c7 3f 3e c9 7e a6 bd
       0.06689065 0.1248085 0.18728578 -0.08129651
000190 12 b4 45 bd ae 59 75 bd c5 28 4f 3d 9a 4b 00 bd
       -0.04826743 -0.05989998 0.05057599 -0.0313221
0001a0 c5 19 87 bd c1 32 e1 3d 72 d1 52 3d 18 4e 0a 3d
       -0.06596712 0.10996009 0.051469274 0.033765882
0001b0 6d d5 a9 3c 6f 76 8d 3d a9 2c 74 bd f7 7c b1 bc
       0.020731652 0.06907355 -0.059612904 -0.021666033
0001c0 ea 48 bb bc 89 df c6 bd 7c ee 04 3c 88 ce 1e bc
       -0.022861917 -0.09710605 0.0081135 -0.009692796
0001d0 07 9d 86 3b c7 55 b3 bd 84 bb 8c bd fc cd b4 bc
       0.0041080746 -0.08756595 -0.06871703 -0.022070877
0001e0 54 be 39 3d 3b 01 1d bd ac 12 48 bc 41 17 ef bd
       0.045347527 -0.03833125 -0.012211483 -0.11674357
0001f0 f2 c5 39 3b 0d b4 81 3d 35 ca ed 3c 64 f8 a7 3d
       0.0028346744 0.0633317 0.029027084 0.082016736
000200 c2 08 20 bd 84 8a a8 bd 26 41 79 bd c2 20 fe bd
       -0.039070852 -0.08229545 -0.060853146 -0.12408592
000210 f7 ba 90 bd a8 f0 d2 3d db 82 50 3d f0 8c 46 3d
       -0.07066911 0.10299808 0.050906043 0.048474252
000220 5f ce ba bc 11 57 1a 3e de db dd 3d 1a cc 0c 3e
       -0.022803484 0.15072276 0.10832952 0.13749734
000230 e4 19 3d 3d bb 6d 88 bc 8c e8 2d 3c 5e 20 f3 3d
       0.04616727 -0.016653886 0.0106145255 0.11871408
000240 0d 2d ef bd c7 58 d0 3d 07 28 41 bd ac f1 cc bd
       -0.11678515 0.10173183 -0.047157314 -0.10007033
000250 2a 46 09 3e 4a 2a b6 3d 30 64 da 3d e1 5c c1 bd
       0.13405672 0.08894785 0.106636405 -0.09441543
000260 7c f5 4f 3d 1e e4 e3 3d 91 fa 63 bd 30 93 87 3d
       0.05077122 0.11127494 -0.05565888 0.06619871
000270 a2 94 fc 3d 5a 95 cb 3c a7 5c a9 3d 49 a5 05 3d
       0.12333037 0.02485149 0.08269625 0.03262833
000280 8c 54 c2 bd 51 a2 c3 3c 31 77 66 bd b0 3e 75 bd
       -0.09488782 0.02388111 -0.056266014 -0.059874237
000290 8e e9 69 bd dc 18 7d bd 5a fb 46 bd d6 bc 00 3e
       -0.0571075 -0.061791286 -0.04857955 0.12572035
0002a0 67 98 97 3d 01 6c a8 3d 2e 80 c3 3d 9c 89 3d 3c
       0.07402115 0.08223725 0.09545933 0.011568453
0002b0 69 43 88 bd 96 ad 1e bd bc cf ee b9 d8 9a 2a be
       -0.066534825 -0.038739763 -0.00045549672 -0.1666063
0002c0 7a 99 16 3c 33 97 34 3d 7f 61 93 3a de db b3 bc
       0.009191865 0.044089507 0.0011244266 -0.021955427
0002d0 2f 1f 1e 3d df 9d 27 bd 14 96 c1 3d 46 02 02 bd
       0.038603958 -0.040922042 0.09452453 -0.03174045
0002e0 cf c9 71 3c 5b 5b ff bb 59 0d 50 bd ba d8 e2 bc
       0.014757588 -0.007792873 -0.05079398 -0.027691234
0002f0 02 de 90 bd 31 1c 08 bc a8 60 bb bd f1 fb d3 3d
       -0.07073595 -0.008307503 -0.09149295 0.103507884
000300 13 45 c8 bd 68 10 32 3d 69 91 3e 3d 97 9f 04 bb
       -0.097788 0.043472677 0.046525393 -0.0020236725
000310 a1 58 71 3d 33 db 8c 3d 85 dc 0b be ba 73 a7 3d
       0.058922414 0.068777464 -0.1365834 0.0817637
000320 d0 dd ef bd fd 77 af ba 6b 23 d9 bd 2a f2 3e 3d
       -0.11712229 -0.00133872 -0.106024586 0.046617664
000330 4e 0c 88 3c e6 6e c2 3c d9 c9 9b 3d 16 fa 19 bd
       0.01660743 0.023734521 0.07606859 -0.037592016
000340 fa c0 82 3d 92 32 82 3d 6b 6f 7e 3b 03 c9 be bd
       0.063844636 0.06357302 0.0038823735 -0.09315684
000350 ec 20 4f bd d2 87 f2 3c 2e 75 51 bd 4e fa 98 bd
       -0.050568506 0.02960578 -0.051137142 -0.07469617
000360 ab 81 43 bc 9a ba 96 3c 15 38 ff 3d 18 95 8f bd
       -0.011932771 0.018399525 0.12461869 -0.07010859
000370 93 56 45 bd 51 ec 20 3b 3f 1a 00 3c ec 16 32 3b
       -0.048178267 0.0024554918 0.007818758 0.0027174307
000380 78 23 8a 3d ae 7d 3f 3d 8d fc 6f bc 15 4e 65 3d
       0.067450464 0.046750717 -0.014647615 0.055982668
000390 b9 05 7f bd bd 25 6a bd 29 62 ca 3d 33 07 2d be
       -0.062261317 -0.057164896 0.09882004 -0.16897278
0003a0 b9 e2 c1 bc 54 7d b9 3d a8 3a 1d bd aa 13 05 3d
       -0.02366768 0.090571076 -0.038386017 0.032489456
0003b0 1b ae 8b 3d 5d 69 56 bd 55 1c d3 3d ec 81 84 bd
       0.06820317 -0.052346576 0.10308138 -0.06470093
0003c0 83 aa ac 3c e2 a4 2d 3d 19 af 97 3d 3a 21 a2 bd
       0.0210774 0.042393573 0.07406444 -0.07916494
0003d0 23 f8 f8 3d fd 48 b7 bc 87 e3 10 be 5b 46 e5 3c
       0.12156703 -0.02237367 -0.14149295 0.02798765
0003e0 b4 79 18 be fb 4e e7 3d 56 53 61 bd 3c 25 14 be
       -0.14890176 0.11294361 -0.055011116 -0.14467329
0003f0 52 bb 1b 3d 10 b3 7a bd 8f 30 84 bd 16 1c 9d bd
       0.03802044 -0.061205924 -0.06454574 -0.076713726

layers.2.bias f4 [90]
000000 ee 8b 54 bb bc b8 04 be 57 d8 ed bb 7b 6d b9 bd
       -0.0032432037 -0.12961096 -0.0072584557 -0.09054085
000010 5f 54 db 3d aa 06 d4 bd 28 a9 4b bd 83 9b 1b 3d
       0.10709452 -0.103528336 -0.049721867 0.037990104
000020 8e 81 a7 bc 6e 43 b1 bd dd 46 d1 bd 96 1e 9e bd
       -0.020447519 -0.08655439 -0.10218594 -0.077206776
000030 5f 5b 4b 3d 3c e2 92 bd 99 b4 ab 3d 96 8b 52 3d
       0.049647685 -0.07172057 0.08384056 0.05140265
000040 4e 08 0c 3e 0e e4 75 3d 3f 6d 01 bb 82 c2 71 bc
       0.13675043 0.060031943 -0.0019748954 -0.014755847
000050 4b f6 d1 3b 6b 90 c1 3d e9 b3 2f 3d 2b 40 a8 bd
       0.0064075342 0.09451374 0.042896185 -0.08215364
000060 4b 98 ea bd 42 1a a6 bc 52 e0 5f bd 11 40 83 3d
       -0.11454829 -0.020276193 -0.054657288 0.06408704
000070 cb 54 ba bd bd 86 29 3d 4a fc 44 bc ea df 46 bc
       -0.09098204 0.041388262 -0.012023041 -0.012138346
000080 8e 43 64 bc 6e 9a 92 3d 1f b0 b5 bd b4 d5 cb bd
       -0.013932122 0.071583614 -0.08871483 -0.0995287
000090 a6 c4 ea 3d b4 77 d4 bd 2d ab 67 bd 1e 6f b9 bc
       0.11463289 -0.10374394 -0.05655973 -0.022635993
0000a0 74 0e ad bd 07 a6 8f 3c 66 e4 02 3d c2 3d b8 bd
       -0.08450022 0.017535223 0.0319561 -0.08996154
0000b0 8c 6a ac 3c 27 38 95 3b 7d db f0 bc 20 a5 97 3c
       0.0210469 0.004553813 -0.029401535 0.018511355
0000c0 0f a7 a8 bd 14 80 be 3d 03 a8 3d 3d ac 83 7a 3d
       -0.08234989 0.09301773 0.046302807 0.06116073
0000d0 fb a7 a7 3d 49 ff bc 3c d0 40 e6 3b d5 27 6e bd
       0.081863366 0.023070948 0.007026769 -0.058143456
0000e0 a9 95 fa bc 07 a4 82 bd 85 58 27 3d 02 a6 67 3d
       -0.030588942 -0.06378942 0.040855903 0.0565548
0000f0 d0 ee 9e bd 56 33 3a 3c 84 9f af 3d a4 02 25 bc
       -0.077603936 0.0113647785 0.08575347 -0.01007143
000100 91 85 cd 3c ee a0 a2 3d 8d 31 94 3d 39 de 98 3d
       0.025088103 0.07940851 0.072360136 0.074642606
000110 e8 3a 25 3d 82 98 82 bd 4f 63 1c 3d 12 27 1e bb
       0.04033938 -0.06376745 0.038180646 -0.0024132174
000120 df a4 84 bd eb 65 ee 3d 70 9e ac 3d 45 69 0a 3c
       -0.06476759 0.11640533 0.08428657 0.00844795
000130 19 fa c3 bc 22 95 90 bc db 0f a9 bd b8 3d 95 bd
       -0.023922967 -0.017649237 -0.08254977 -0.072871625
000140 f4 cc 2f 3e 5e 56 21 bb 23 54 ab 3d f3 37 02 3e
       0.17168027 -0.002461813 0.08365657 0.12716655
000150 75 f1 dc 3b f8 1d 81 bd 6d ea f2 3c d4 82 42 bd
       0.006742651 -0.06304544 0.029652799 -0.04748805
000160 a2 01 c1 bd d2 71 16 bc
       -0.094241396 -0.00918241

layers.3.weight f4 [5, 90]
000000 5e 76 bc 3d b4 2a b0 3d 62 71 d6 3d 63 db a6 bc
       0.09202264 0.08601895 0.10470845 -0.020368284
000010 eb 91 8a bd b7 92 5e 3d d4 07 33 bd 91 8d 13 3d
       -0.06766113 0.054339137 -0.043708637 0.03602368
000020 72 c6 c8 bb 91 32 0b 3e eb 2d 82 3d c4 65 ca bc
       -0.006127172 0.13593508 0.063564144 -0.024706729
000030 1e a5 f6 bd 94 90 a1 3d 76 60 94 bd 02 21 2a bc
       -0.12043212 0.07888904 -0.07244961 -0.010383846
000040 4c c5 ab bd 1f 76 75 3d d3 f1 0b 3d e3 10 0d be
       -0.08387241 0.059927102 0.03416617 -0.13775973
000050 3e e9 73 3d 58 de 03 bd 37 33 8a 3c d0 04 bf bd
       0.05954861 -0.032194465 0.016870124 -0.0932709
000060 76 85 cf bc da 84 ba bd 26 c4 ac bd 82 b2 ae bd
       -0.025332194 -0.09107371 -0.0843585 -0.085301414
000070 9a 15 35 3d ab 09 cd bb 28 5b d9 bd 7a d4 03 3e
       0.044210054 -0.006257256 -0.1061309 0.12874022
000080 78 90 f1 3d cd 82 26 bd 1f 28 3d bd 99 c3 27 bc
       0.11795133 -0.040652085 -0.04618084 -0.010239505
000090 1d a9 bc bd e1 32 a0 3d 55 c8 b0 3c 82 28 81 bc
       -0.09211943 0.078222044 0.0215799 -0.015766386
0000a0 36 db 18 be fa 6a f7 bd 00 f2 41 bd 6f 1c 08 3d
       -0.14927372 -0.12080951 -0.04734993 0.03323024
0000b0 70 74 5b bd ea cc cf bd f9 ea 1a 3d 5b 9c af bd
       -0.05357784 -0.10146506 0.037821744 -0.08574744
0000c0 40 2e b2 3d 1a f9 7b bd 65 9b 0f bd dc 6a a6 3d
       0.08700228 -0.06151686 -0.035060305 0.081258506
0000d0 3b 7b d7 bd 62 3b 86 3d b0 78 ed bd 6b 5d be bd
       -0.10521551 0.06554295 -0.11595285 -0.09295162
0000e0 8d fa 84 3d 70 00 e6 3d 55 cd 18 3d 23 2c 09 3e
       0.06493101 0.11230552 0.037305195 0.13395743
0000f0 fd 50 02 3d fb fa 02 3d 69 b0 89 bd 62 3d 5b bc
       0.031815518 0.031977635 -0.06723101 -0.013381334
000100 31 13 be bd 50 be e8 3d 44 9e 23 be 37 0d 3e 3d
       -0.09281004 0.11364424 -0.15978342 0.04639932
000110 ec 63 bf 3c 86 28 8b bd 70 66 16 3d e4 a0 a5 bd
       0.023363076 -0.067948386 0.036718786 -0.08087328
000120 0b 54 5d 3d f9 fa 7e 3d 49 3d f0 3d ee 61 99 3d
       0.054035228 0.062251065 0.11730439 0.07489382
000130 2a 0b 18 bd 42 4d 19 be 1e 60 b6 3d b9 9e c6 3c
       -0.037120022 -0.14970878 0.08905052 0.024245607
000140 80 d4 06 be 2c 0b f2 3d bf 0c 04 3d ac 1f 85 bd
       -0.13167 0.11818537 0.032238718 -0.065001816
000150 2f aa 8e 3d d3 1a 01 3e ab e8 8c 3d c5 e8 ee 3c
       0.06966054 0.12607889 0.068803154 0.029163728
000160 a8 a2 b4 bd c7 41 bb 3c 4a f4 0a 3d 21 35 cb 3d
       -0.08820087 0.022858514 0.03392438 0.09922243
000170 da ab be bc 45 73 ad bd a8 db 14 3e 10 3d 89 3d
       -0.023275305 -0.084692515 0.14536917 0.067011
000180 51 c9 cc bd d6 e1 de 3c 71 cb 71 bc cf 88 91 3b
       -0.099993356 0.027207296 -0.014757977 0.0044413577
000190 ab b1 5b ba 5e 28 6f 3c b1 88 06 3c 78 20 8c 3c
       -0.00083806616 0.014597027 0.008211301 0.017105326
0001a0 fb 37 e7 3d 5b 0d fc bd f4 1d 04 3e 7b 2a b7 bc
       0.11289974 -0.12307235 0.12902051 -0.022359123
0001b0 0f 81 37 3c 9b 47 c3 3d 9b 16 20 bd 81 0e d3 bd
       0.011200204 0.09535142 -0.03908406 -0.10305501
0001c0 d8 4a 01 bd 13 c8 f0 bd cc a1 2f bd 3a 6f 94 bd
       -0.031565517 -0.11756911 -0.04287891 -0.07247777
0001d0 7d 7c 0b be b9 b2 dd bc 77 0e 03 be f0 f2 e4 3d
       -0.13621707 -0.02706276 -0.12798487 0.11179149
0001e0 cc 13 0f be 21 bc 88 3d 7f 38 f5 3d 0d 3f b5 bd
       -0.13972396 0.06676508 0.119736664 -0.088499166
0001f0 06 82 c7 3d 9c 5d 13 be ae ee e5 bc cd 52 b6 3d
       0.09741597 -0.14391178 -0.028067913 0.08902512
000200 9e 2d 24 be 15 ff 9f 3d 3e 2d 83 bd de d0 37 3d
       -0.16033027 0.07812325 -0.06405114 0.044876926
000210 cd f4 23 3e b6 ad 19 be f9 49 f3 bd 7f f5 42 bd
       0.16011353 -0.15007672 -0.118793435 -0.047597405
000220 81 ab 05 3e 2c d3 b1 bd 7c ab e5 bd e7 7f 33 3d
       0.13053705 -0.08682856 -0.11214349 0.04382315
000230 2c c3 db 3d a1 e4 71 3d 82 b3 86 ba 36 5e 59 39
       0.107305855 0.05905593 -0.0010276886 0.00020729829
000240 7a 67 84 bd 6e 38 3d bd 6f 30 e9 bc 55 0a 02 be
       -0.06465049 -0.046196394 -0.028465478 -0.12699254
000250 40 60 b0 bd 7c 30 46 bc e1 f4 cf bd db 74 c6 3d
       -0.08612108 -0.0120965205 -0.10154129 0.09690257
000260 e0 78 1b 3e ed fc e1 bd 2c f8 36 bd 8a eb 1e bd
       0.15182829 -0.1103457 -0.04467027 -0.038798846
000270 97 61 02 3d 55 14 82 3a 36 c9 55 3d 5f 10 14 be
       0.03183135 0.0009924272 0.052193843 -0.1445937
000280 80 00 1f 3e 42 6c 56 3d ee a5 1b bc 32 7d 90 bc
       0.15527534 0.052349336 -0.00950001 -0.017637823
000290 fb 52 52 bd 17 af 06 3e 06 54 88 bd 6c cb 52 bd
       -0.051348668 0.13152729 -0.06656651 -0.05146353
0002a0 51 8a 85 3d 85 06 0f 3e 55 f6 8d 3c 82 0e dc ba
       0.065205224 0.13967331 0.017329374 -0.0016788992
0002b0 d8 cd d9 bc e5 f4 1b 3e 59 26 7b bd 0e e2 e2 bb
       -0.026587412 0.15230139 -0.061315868 -0.0069239205
0002c0 18 77 f0 bc 43 94 df 3d 99 c5 bb ba 98 d7 19 3e
       -0.029353663 0.109169506 -0.0014325856 0.15023649
0002d0 2c ed 11 bd 9d 96 1b be 11 2c 82 bd ba 90 cb bd
       -0.035626575 -0.15194173 -0.06356061 -0.09939714
0002e0 d5 30 f4 3d 60 71 b8 3d 95 42 bf 3c 23 ed 5d bd
       0.119233765 0.090059996 0.023347178 -0.05418123
0002f0 08 c2 19 3e c4 cb 9d bd 39 98 af bc f6 4d a8 bd
       0.15015423 -0.07704881 -0.02143489 -0.08217995
000300 52 d2 ea bd ee 27 ce bd f7 b6 d0 bd 08 33 bb bd
       -0.11465897 -0.1006621 -0.10191148 -0.09140593
000310 ec 74 5d bd 3f ae 4c bd 10 e4 93 bd f3 0f 02 3e
       -0.054066584 -0.04997086 -0.07221234 0.12701397
000320 48 2f 32 bc 86 63 e4 bd 67 47 06 3e 3c bf 18 bd
       -0.010875531 -0.11151795 0.13113175 -0.03729175
000330 92 ce 06 3e 04 b7 c0 bd e3 0b fd 3d 79 c6 96 bd
       0.13164738 -0.094099075 0.12355783 -0.073620744
000340 d6 f6 80 3d 95 9d 0b bd 81 d4 44 3d 6b fb 84 3c
       0.0629708 -0.03408583 0.048054222 0.016233167
000350 7b 22 ef 3d 93 a7 00 be c5 69 b6 3b c1 32 49 bc
       0.116764985 -0.12563924 0.005566808 -0.012280167
000360 8a 63 c9 3d 51 4a 8a bd 5c f2 73 bd bf 8d e7 bd
       0.09833439 -0.06752456 -0.059557304 -0.11306333
000370 5b 06 8f bc bb 19 1b be 08 af 1a 3c 4d 4c 8e 3d
       -0.017459085 -0.15146534 0.009441145 0.06948147
000380 d6 d0 4d 3d 19 7e c0 3d bc 87 8e 3d fe e6 20 3d
       0.05024799 0.09399051 0.06959483 0.03928279
000390 47 d5 a8 bd 06 29 d6 3c 52 e5 e8 3d ae 6d 97 3c
       -0.082438044 0.026142608 0.113718644 0.018484917
0003a0 2a 54 88 3c ab 5c a5 3d 68 8a 72 bd 56 5f a4 bd
       0.016641695 0.08074316 -0.059214026 -0.080259964
0003b0 4c 40 4e 3d ca 4b 1e be 01 6a db bd 74 19 c7 3d
       0.050354287 -0.15458599 -0.10713578 0.09721652
0003c0 43 74 85 bd ad 54 4c bd 7c 41 77 3d 46 77 96 bc
       -0.06516316 -0.04988544 0.060365185 -0.01836742
0003d0 04 92 0d 3e 81 41 13 3e a7 81 2b bb 68 bb 00 be
       0.13825232 0.14380457 -0.0026169808 -0.1257149
0003e0 2f 35 74 3c 19 a1 00 3e f0 d7 0e 3e fe 04 87 3d
       0.014905258 0.12561454 0.13949561 0.06592749
0003f0 6c 0e 4b 3c dc 46 5e 3d 75 0d 95 bd 1a 1c 90 bd
       0.012393575 0.054266796 -0.07277957 -0.0703661

layers.3.bias f4 [5]
000000 03 6a a7 3d d3 85 56 bd 1c b6 28 3d ab 9c a6 bb
       0.08174517 -0.05237372 0.041189298 -0.0050845942
000010 62 38 e9 3b
       0.007117317
