irony/models/model_22.pt (torch_old, 38823 bytes, 8 tensors)

layers.0.weight f4 [70, 10]
0.22690801 0.04679043 0.16610068 -0.2500972 0.4033444 0.18669835 -0.06436722 -0.16615115
0.21239004 -0.05562141 0.22842893 -0.06316786 -0.24775225 -0.37393516 0.17128521 0.043449465
0.1438419 0.0038255544 -0.009091137 -0.13055833 0.0091433665 0.27476716 -0.08634843 -0.24141502
-0.2626401 -0.10558639 0.1969463 0.03688041 -0.12892227 0.01793932 -0.21137947 -0.0942894
0.026698893 0.4136998 0.25968578 -0.055765398 -0.17240563 0.17913263 -0.014783936 -0.014363851
-0.18834955 0.09019662 -0.23751241 -0.07985543 0.11957376 -0.13222381 -0.08152973 -0.119929634
0.2531561 0.2743767 -0.48180702 -0.1475414 0.1471291 0.11941973 -0.24055515 0.12144261
-0.17998208 0.19417953 0.122769855 -0.06512578 -0.21960439 0.12180672 0.14399938 -0.19971871
-0.3722975 -0.2007277 0.13934083 0.10349851 0.10688147 -0.174386 -0.061260007 -0.25759593
-0.39209914 0.10175949 0.14441186 -0.013928926 -0.2603408 0.074405886 -0.19477707 -0.019585852
0.18831314 0.21976055 -0.29253867 -0.32519165 0.20494229 0.21581818 0.08639882 0.05356007
-0.029048534 0.18198805 -0.3429901 0.22555988 -0.03904536 -0.46497056 0.25306606 -0.26756108
0.22178428 -0.0075238687 0.1529687 0.22536872 0.46373573 -0.005405042 0.16071706 -0.200924
-0.22729069 0.07979331 -0.050657783 0.03590474 -0.096870184 -0.09578515 -0.07556882 0.075674266
0.05348924 0.124443844 0.34706622 -0.18740311 0.009751337 -0.25281486 -0.016683154 0.026755247
-0.19543692 0.24398398 0.4272606 -0.017398233 -0.06677318 -0.002302516 0.0067913616 0.12501036
-0.024431566 -0.087372094 -0.18701716 0.08084446 -0.29251146 -0.28404266 0.29618776 -0.08528635
-0.111555636 -0.14733069 -0.15274306 0.029178917 0.42737305 -0.08948561 0.41629094 -0.09308467
-0.21469226 0.18951437 0.09811072 0.20939894 -0.17481877 -0.047593635 0.22600527 -0.030154137
-0.313956 -0.36444572 0.26197842 0.025223916 -0.23379077 -0.16902944 -0.22999234 0.11312357
0.30887386 -0.22370231 -0.2626106 -0.17876463 0.096529365 -0.043819424 -0.18111332 -0.276307
-0.25193095 -0.06354541 0.26289997 -0.16616398 -0.19304155 -0.48623854 0.15856618 -0.004889054
0.12817664 -0.13121745 -0.18743028 0.087314956 -0.326265 0.24890694 0.41518486 -0.07967112
0.08144345 0.018097015 0.19935392 -0.080422185 0.0121300155 0.20453662 0.19423099 0.3421405
-0.2763044 -0.14025265 0.2561301 0.09432518 0.021587914 -0.16131802 -0.091399685 0.093275204
-0.19914226 0.17759292 0.2673489 0.23424284 -0.2820384 -0.013143649 0.033753008 0.022032602
0.1526765 -0.1206391 -0.14417043 -0.0626402 0.41529986 0.09704843 -0.2874214 -0.110328935
0.07043871 -0.14645194 -0.03351322 -0.22140521 -0.19623089 0.11351252 0.05910648 0.29118046
-0.18834355 0.18975823 0.045913585 -0.0060354066 -0.109499715 0.06993018 0.105998866 0.31924242
0.049784184 -0.2850055 -0.16157012 0.12736413 0.09815896 0.0327707 0.031356305 0.0905028
0.08140574 -0.41741404 -0.041166566 0.28513426 0.008306169 -0.23073934 -0.032471437 -0.27394998
0.22433522 0.047176797 -0.22312866 -0.10164473 0.14184858 0.13275275 0.2957579 -0.18447343
00000000: 935a 683e 52a7 3f3d 4c16 2a3e bd0c 80be
00000010: 2883 ce3e da2d 3f3e f6d2 83bd 8723 2abe
00000020: c67c 593e 47d3 63bd 46e9 693e 275e 81bd
00000030: c4b2 7dbe 6e74 bfbe 6465 2f3e 11f8 313d
00000040: 4b4b 133e 27b6 7a3b fef2 14bc 15b1 05be
00000050: 0fce 153c 48ae 8c3e 72d7 b0bd 8035 77be
00000060: c378 86be ad3d d8bd 4aac 493e ea0f 173d
00000070: 3304 04be 7bf5 923c dc73 58be cd1a c1bd
00000080: a3b7 da3c 76d0 d33e 89f5 843e 426a 64bd
00000090: 1a8b 30be 8b6e 373e 5238 72bc 5c56 6bbc
000000a0: b4de 40be 01b9 b83d 7436 73be 3e8b a3bd
000000b0: 16e3 f43d ae65 07be 0ff9 a6bd ab9d f5bd
000000c0: ad9d 813e 1a7b 8c3e 69af f6be 1815 17be
000000d0: 03a9 163e 5592 f43d 1754 76be e7b6 f83d
000000e0: 394d 38be 00d7 463e c36e fb3d aa60 85bd
000000f0: f9df 60be cd75 f93d 9374 133e 1083 4cbe
00000100: c79d bebe 908b 4dbe 5daf 0e3e 07f7 d33d
00000110: ace4 da3d 3e92 32be c6eb 7abd 9de3 83be
00000120: 38c1 c8be 4867 d03d b4e0 133e 2636 64bc
00000130: 644b 85be 1d62 983d a473 47be 8272 a0bc
00000140: 29d5 403e e908 613e a1c7 95be 857f a6be
00000150: 64dc 513e 71ff 5c3e ddf1 b03d ce61 5b3d
00000160: 31f7 edbc 135b 3a3e 669c afbe 2bf9 663e
00000170: 07ee 1fbd 9f10 eebe e091 813e c4fd 88be
00000180: 6b1b 633e c98a f6bb d4a3 1c3e 0fc7 663e
00000190: c56e ed3e c71c b1bb 0393 243e 05bf 4dbe
000001a0: e4be 68be ad6a a33d 897e 4fbd d910 133d
000001b0: e063 c6bd 012b c4bd d3c3 9abd 1cfb 9a3d
000001c0: 8917 5b3d 6adc fe3d aab2 b13e 9ae6 3fbe
000001d0: 12c4 1f3c f370 81be 1cab 88bc d22d db3c
000001e0: 9e20 48be f0d6 793e e7c1 da3e bd86 8ebc
000001f0: 61c0 88bd cfe5 16bb 128a de3b b702 003e
00000200: b524 c8bc 24f0 b2bd 6d81 3fbe c891 a53d
00000210: 10c4 95be 0a6e 91be eca5 973e 9caa aebd
00000220: 4877 e4bd dbdd 16be ad68 1cbe a008 ef3c
00000230: a4d0 da3e 3b44 b7bd 1624 d53e 2da3 bebd
00000240: 4ad8 5bbe 0e10 423e 46ee c83d ad6c 563e
00000250: b103 33be 8bf1 42bd ed6d 673e cf05 f7bc
00000260: d7be a0be a198 babe 0922 863e 63a2 ce3c
00000270: d966 6fbe 0e16 2dbe 1d83 6bbe 55ad e73d
00000280: b724 9e3e 3812 65be e674 86be 130e 37be
00000290: 30b1 c53d ff7b 33bd c575 39be 1c78 8dbe
000002a0: 18fd 80be 1924 82bd d39a 863e e426 2abe
000002b0: afac 45be 42f4 f8be 2c5f 223e 5c34 a0bb
000002c0: bd40 033e de5d 06be b9ed 3fbe 2fd2 b23d
000002d0: 350c a7be 76e1 7e3e 1c93 d43e 9d2a a3bd
000002e0: d3cb a63d 3140 943c 6f23 4c3e 63b4 a4bd
000002f0: f9bc 463c 0c72 513e 7de4 463e 0a2d af3e
00000300: c577 8dbe 649e 0fbe 7c23 833e 8f2d c13d
00000310: 23d9 b03c 8d30 25be c22f bbbd 1207 bf3d
00000320: f3eb 4bbe ebda 353e f4e1 883e 5bdd 6f3e
00000330: 5667 90be 7658 57bc 9840 0a3d b77d b43c
00000340: 3a57 1c3e a211 f7bd 6aa1 13be 8149 80bd
00000350: 2fa2 d43e 54c1 c63d e628 93be 23f4 e1bd
00000360: 2c42 903d 7ff7 15be 2845 09bd 0cb8 62be
00000370: c0f0 48be 4179 e83d a319 723d 9b15 953e
00000380: 22dd 40be fb4f 423e e20f 3c3d a9c4 c5bb
00000390: 6341 e0bd 8e37 8f3d ef15 d93d be73 a33e
000003a0: 80ea 4b3d 3eec 91be a372 25be be6b 023e
000003b0: 9107 c93d 923a 063d 786f 003d 8859 b93d
000003c0: 0db8 a63d 4bb7 d5be 469e 28bd 1efd 913e
000003d0: 9916 083c ef46 6cbe c500 05bd 2c43 8cbe
000003e0: 22b8 653e 753c 413d d77b 64be 1d2b d0bd
000003f0: c140 113e 56f0 073e 946d 973e 9ae6 3cbe

layers.0.bias f4 [70]
-0.19388916 0.08033769 0.09735382 -0.0689047 0.02148912 0.056784008 0.19633293 0.15957819
-0.123555794 0.02924882 -0.011854857 -0.09284398 -0.08665786 0.073976696 -0.09625059 0.14307877
0.20459238 0.16726434 -0.12935503 -0.073217295 0.07677005 0.13789055 -0.18369682 -0.08791552
0.029750587 -0.04102588 0.013951228 -0.034569517 -4.0566956e-06 -0.11567648 0.020067284 0.10228953
-0.19243938 0.20996928 -0.19003402 0.09665223 0.09452329 -0.15163298 -0.071988 0.21672867
-0.16410086 0.16362433 -0.044072457 0.09171857 0.10175157 0.109181516 -0.085611396 -0.10767716
-0.12043509 -0.027458934 -0.061648406 -0.067328215 -0.009449205 -0.09043703 0.14690244 -0.08259416
-0.104822114 -0.16462108 -0.021921065 0.053526644 0.049959693 0.03639523 0.20860182 0.24556775
0.2359518 -0.21571836 -0.116052195 -0.22352113 0.0023720656 0.19295716
00000000: e18a 46be 1688 a43d 7161 c73d e81d 8dbd
00000010: f309 b03c 5996 683d 800b 493e 7768 233e
00000020: d20a fdbd 399b ef3c e03a 42bc fc24 bebd
00000030: ad79 b1bd 1881 973d 081f c5bd 3e83 123e
00000040: aa80 513e 5847 2b3e a575 04be f3f2 95bd
00000050: 9e39 9d3d 2e33 0d3e 051b 3cbe 0d0d b4bd
00000060: 81b7 f33c c10a 28bd b193 643c c498 0dbd
00000070: c01e 88b6 cae7 ecbd 2564 a43c 2c7d d13d
00000080: d40e 45be 3002 573e 4798 42be 9bf1 c53d
00000090: 6d95 c13d ad45 1bbe 726e 93bd 1fee 5d3e
000000a0: 0e0a 28be 238d 273e 5285 34bd f2d6 bb3d
000000b0: 2163 d03d 8f9a df3d 0755 afbd d885 dcbd
000000c0: aca6 f6bd 8ff1 e0bc 0a83 7cbd 60e3 89bd
000000d0: d7d0 1abc 0d37 b9bd 986d 163e 2127 a9bd
000000e0: faac d6bd 6e92 28be ce93 b3bc c13e 5b3d
000000f0: 89a2 4c3d 2a13 153d b79b 553e 1d76 7b3e
00000100: 599d 713e 46e5 5cbe c6ac edbd b9e2 64be
00000110: a874 1b3b 9096 453e

layers.1.weight f4 [50, 70]
-0.049160946 0.13448052 0.11174852 -0.08062238 -0.049003545 -0.22397423 -0.016960353 0.0023167694
0.034266833 0.134336 -0.034114383 0.03734364 -0.13039668 0.03379873 -0.0563279 -0.0035405282
0.10423011 0.19137847 0.12575601 0.21608931 -0.13082102 0.08766921 -0.036622424 0.05677249
-0.04836962 0.09199928 0.044763986 0.00643377 -0.050926995 0.07231487 0.091300055 0.11535571
0.053792764 0.17784187 0.072791435 -0.0134866275 -0.021627977 -0.082125194 0.036244605 0.0622593
-0.056259025 0.037705902 -0.016314989 0.08094657 0.16499545 -0.052968368 -0.11131085 -0.17909244
0.018339764 0.011084726 -0.1096792 -0.106751665 -0.12369789 -0.047418922 0.0482863 0.09264567
0.05314184 0.0044998857 -0.03253184 -0.009152238 0.048622597 -0.20461999 0.0025423092 -0.07588165
-0.13833748 0.0022636435 0.045649726 0.025209455 0.10157829 0.14361432 -0.069580644 0.009736421
0.1303281 -0.035695948 0.066365056 -0.01731121 0.055845648 -0.19826618 -0.08364172 0.01804771
-0.00024107436 0.06638679 0.07229106 -0.06611145 -0.089767136 -0.16477305 -0.08553929 -0.06957919
0.12202629 -0.023242036 0.16839014 0.21724355 0.028151732 0.0025101944 -0.024035456 0.08584813
0.04549482 -0.008707698 -0.100006565 -0.068985 -0.09790163 0.047211107 0.00219576 -0.028077634
-0.07869962 -0.009293224 0.01411664 -0.05585511 0.030784518 -0.16006568 0.055097416 0.033584766
-0.035077732 0.13851362 -0.091120295 0.16474885 -0.2682942 -0.06935137 -0.07070305 0.08670954
0.005752571 -0.049898345 -0.06613645 -0.00409587 0.09092234 -0.06478419 -0.10062621 -0.08190314
0.03724729 -0.13168715 0.10402371 0.03228587 0.029548297 0.068352915 0.02669444 0.055516392
0.06267005 -0.06694133 0.0075078188 -0.019743735 -0.036947172 0.12711701 -0.00053987966 0.005269282
0.09989763 -0.011599049 0.067891486 0.04295636 0.029112281 0.09646641 -0.07638799 0.08751536
0.023015013 0.052764066 -0.1163427 -0.011092187 0.07775634 -0.041172538 0.06873636 0.09986367
0.01111 -0.047538273 -0.028621286 -0.0234886 -0.030945482 0.074999586 0.11860396 1.5123449e-05
0.07617967 0.12944311 -0.07150448 -0.0984666 -0.11413226 -0.036674906 -0.025119271 -0.05868497
-0.113774076 0.12866826 -0.17409754 0.024870856 -0.13796647 -0.10527259 0.027086059 -0.040069547
0.061156806 -0.10256702 -0.032107797 0.045966446 0.04312807 -0.10881683 -0.03370887 0.115409635
-0.0033434266 -0.014855569 0.117573075 0.0056666294 0.10678338 -0.03613239 0.061511565 -0.047842927
0.017465437 -0.07274501 0.04580101 -0.13093089 -0.08848308 -0.022818636 0.12064679 0.07213329
-0.06522074 0.08545001 0.053289868 -0.029424716 -0.14312595 0.038990032 0.03273072 0.047888733
-0.024467811 0.0055520227 0.028545454 0.019053072 -0.14729646 0.12912592 -0.0021545012 0.10806222
-0.12481596 0.059962407 -0.016220609 -0.0015656516 0.04623484 -0.06782505 0.02413046 -0.079298615
0.05407135 -0.10393568 -0.0205292 -0.014509419 -0.023315895 0.05516999 0.003477479 0.11743707
0.043350443 -0.11583242 -0.012769867 -0.045205675 -0.017872531 -0.11398346 -0.112133406 0.1848202
-0.005737619 0.05576505 -0.063175194 -0.15309809 0.107466586 -0.08114667 0.0038123045 -0.13687159
00000000: fd5c 49bd 43b5 093e 68dc e43d 591d a5bd
00000010: f1b7 48bd 8059 65be 70f0 8abc f1d4 173b
00000020: 615b 0c3d 608f 093e 86bb 0bbd a5f5 183d
00000030: b586 05be 8970 0a3d 16b8 66bd 3508 68bb
00000040: 9976 d53d b8f8 433e 2fc6 003e 8446 5d3e
00000050: f2f5 05be ea8b b33d 6501 16bd 458a 683d
00000060: 391f 46bd 1e6a bc3d 715a 373d 60d2 d23b
00000070: d398 50bd d219 943d 86fb ba3d 9d3f ec3d
00000080: cd55 5c3d 2e1c 363e ad13 953d 04f7 5cbc
00000090: 282d b1bc 4131 a8bd 3975 143d 9c03 7f3d
000000a0: dd6f 66bd 8171 1a3d 03a7 85bc 51c7 a53d
000000b0: 91f4 283e 5cf5 58bd f1f6 e3bd 0264 37be
000000c0: 463d 963c b69c 353c 7d9f e0bd 9ea0 dabd
000000d0: 5255 fdbd 583a 42bd dbc7 453d 03bd bd3d
000000e0: 42ab 593d c773 933b 1b40 05bd 45f3 15bc
000000f0: 7d28 473d e787 51be df9c 263b d767 9bbd
00000100: 57a8 0dbe a359 143b 35fb 3a3d 0f84 ce3c
00000110: 4708 d03d a20f 133e 4c80 8ebd 8285 1f3c
00000120: bb74 053e ea35 12bd 67ea 873d 3dd0 8dbc
00000130: 68be 643d 4a06 4bbe 5a4c abbd cbd8 933c
00000140: e8c8 7cb9 ccf5 873d 560d 943d 7165 87bd
00000150: d5d7 b7bd 44ba 28be 392f afbd 897f 8ebd
00000160: ebe8 f93d 1566 bebc 776e 2c3e 1875 5e3e
00000170: 769e e63c 1382 243b 01e6 c4bc 25d1 af3d
00000180: c758 3a3d bcaa 0ebc 3ed0 ccbd 0248 8dbd
00000190: a680 c8bd 6f60 413d bde6 0f3b 1103 e6bc
000001a0: 442d a1bd 9b42 18bc 7b49 673c 54c8 64bd
000001b0: d02f fc3c 42e8 23be d4ad 613d 2e90 093d
000001c0: abad 0fbd 84d6 0d3e 479d babd ecb3 283e
000001d0: db5d 89be 1708 8ebd c3cc 90bd c594 b13d
000001e0: 1080 bc3b 3562 4cbd 8c72 87bd a636 86bb
000001f0: 7e35 ba3d 93ad 84bd 1d15 cebd d5bc a7bd
00000200: 9d90 183d ffd8 06be 620a d53d 303e 043d
00000210: 450f f23c 9dfc 8b3d 4cae da3c 2865 633d
00000220: 2859 803d 8918 89bd 2604 f63b 9dbd a1bc
00000230: eb55 17bd f62a 023e b686 0dba f1a9 ac3b
00000240: 2197 cc3d f009 3ebc b10a 8b3d 02f3 2f3d
00000250: e17c ee3c 2e90 c53d 4e71 9cbd 413b b33d
00000260: fb89 bc3c 221f 583d 1545 eebd 01bc 35bc
00000270: b73e 9f3d 89a4 28bd a6c5 8c3d 5385 cc3d
00000280: b806 363c 7eb7 42bd 3077 eabc 2a6b c0bc
00000290: 6181 fdbc 6299 993d a2e6 f23d b8ba 7d37
000002a0: 1604 9c3d bc8c 043e f170 92bd dba8 c9bd
000002b0: 2dbe e9bd 6d38 16bd eec6 cdbc a75f 70bd
000002c0: 6202 e9bd 9dc1 033e a046 32be f7bd cb3c
000002d0: 1547 0dbe 2899 d7bd 95e3 dd3c f71f 24bd
000002e0: 8f7f 7a3d a80e d2bd 7783 03bd 5047 3c3d
000002f0: 0fa7 303d 5cdb debd 5012 0abd e35b ec3d
00000300: 641d 5bbb c664 73bc 27ca f03d 22af b93b
00000310: 3fb1 da3d 8fff 13bd 8df3 7b3d f2f6 43bd
00000320: ad13 8f3c 56fb 94bd d799 3b3d bf12 06be
00000330: 9e36 b5bd 26ee babc aa15 f73d 9eba 933d
00000340: 7492 85bd 6a00 af3d 7a46 5a3d 1a0c f1bc
00000350: 9c8f 12be 03b4 1f3d a610 063d fa26 443d
00000360: b870 c8bc beed b53b 28d8 e93c 3015 9c3c
00000370: e2d4 16be 9639 043e 8832 0dbb ba4f dd3d
00000380: 839f ffbd 249b 753d 15e1 84bc 8d36 cdba
00000390: be60 3d3d dce7 8abd 3ead c53c 5067 a2bd
000003a0: eb79 5d3d 3bdc d4bd da2c a8bc eab8 6dbc
000003b0: fa00 bfbc edf9 613d 6be6 633b d982 f03d
000003c0: 3c90 313d 8c39 edbd b438 51bc 9629 39bd
000003d0: 6a69 92bc 2970 e9bd 33a6 e5bd 8241 3d3e
000003e0: a302 bcbb e569 643d ff61 81bd bfc5 1cbe
000003f0: 7117 dc3d 3a30 a6bd dbd7 793b 1128 0cbe

layers.1.bias f4 [50]
0.0011446795 0.0497515 -0.034556758 0.046092227 0.1090555 0.0022686827 0.1649133 0.028350314
-0.054847613 0.017508721 0.03835709 -0.007930202 0.06740928 0.00056164945 0.061768435 0.044510458
0.0070377286 -0.03290457 0.114782855 0.017586775 0.09366941 0.01984284 0.029926077 -0.055625163
0.015812472 -0.012455443 0.0161188 0.060141873 0.080300435 0.11593333 -0.036248494 0.09415734
0.07843191 -0.07477113 -0.036511295 0.08211359 -0.017088061 0.055120453 0.09078996 0.026111802
0.03383225 -0.012758382 0.05588075 -0.042412672 -0.016313786 -0.015982673 0.041277688 -0.01295628
-0.009602534 0.07089344
00000000: 1209 963a 3bc8 4b3d 638b 0dbd 34cb 3c3d
00000010: 7d58 df3d 2eae 143b 08df 283e eb3e e83c
00000020: e4a7 60bd 736e 8f3c 531c 1d3d aeed 01bc
00000030: e00d 8a3d a83b 133a e600 7d3d 9950 363d
00000040: bf9c e63b f1c6 06bd 4613 eb3d 2412 903c
00000050: bfd5 bf3d 748d a23c 8827 f53c 36d7 63bd
00000060: 2889 813c ea11 4cbc 930b 843c 5357 763d
00000070: 8e74 a43d 746e ed3d 4d79 14bd 90d5 c03d
00000080: e9a0 a03d 9b21 99bd de8c 15bd 2b2b a83d
00000090: 43fc 8bbc fcc5 613d 16f0 b93d 6be8 d53c
000000a0: af93 0a3d 8808 51bc 37e3 643d e9b8 2dbd
000000b0: 7da4 85bc 18ee 82bc cb12 293d 9446 54bc
000000c0: f253 1dbc 9430 913d

layers.2.weight f4 [90, 50]
0.055097412 0.05787598 0.01304414 0.15861362 -0.16169764 -0.027260024 -0.20000443 0.088870846
-0.14344376 -0.17515157 -0.026050584 0.10013868 0.10281404 -0.04237162 0.078307375 0.008625544
0.025688779 -0.09947383 0.06823071 -0.0735433 -0.05612542 -0.119976826 -0.059003823 0.118603416
-0.13252108 -0.004972976 0.03247995 0.049790118 0.10471567 0.045952205 -0.06941222 0.043531764
0.07856332 0.032219492 -0.117158666 -0.077928826 -0.054917738 -0.10118537 0.03639212 -0.015260415
0.0415384 -0.007616853 0.0067579285 -0.17001188 -0.038280647 -0.15932015 0.011131161 0.14113481
0.037735447 -0.062441655 0.029604511 -0.05298116 -0.03830819 0.11634896 0.03826738 0.12591967
-0.039770193 0.08107875 0.061969403 -0.030441215 0.11886129 -0.03553791 -0.083741985 -0.08626571
-0.10259754 -0.07744124 -0.028055366 -0.03652683 -0.08691594 0.038315047 -0.095028006 0.1261941
-0.16963984 -0.027678313 0.046289228 0.015662305 -0.08268121 -0.11142348 0.07780774 -0.078852914
0.011350273 -0.008993543 -0.04526746 -0.13619038 -0.029524516 -0.124564126 -0.022431836 -0.05583842
-0.13380773 0.11003461 0.14916919 0.165726 0.0060637617 0.014442804 -0.08858165 -0.04235094
-0.10828635 0.028317856 0.070330456 0.16286787 0.055870894 0.043307 -0.01347949 -0.050421435
-0.09441382 -0.020463334 -0.117736936 0.019556431 0.0735561 -0.019854125 -0.025616288 -0.072111815
0.0989349 0.071512155 0.045800105 -0.11361765 -0.020405032 0.07829819 0.12302251 -0.15439032
0.05336561 0.06081113 0.048706 0.10534522 -0.11893508 0.11833161 0.008175681 0.034727484
-0.113046266 0.03726384 0.033763744 0.0015341121 0.03294047 -0.054504644 -0.046823006 0.04052372
-0.08343619 0.07528411 0.17853518 0.009139846 -0.039557923 0.03706199 0.0469637 0.07042828
-0.09259077 0.081104934 -0.036331587 0.013614608 0.13977551 -0.11364345 0.06459136 -0.05126035
0.06390692 0.045916792 0.018135088 -0.052319802 -0.014414675 -0.07713372 0.02157595 0.018824171
-0.01618357 0.16956453 0.11154859 0.11340909 -0.14304802 0.05808542 0.016757261 -0.031057801
-0.05820074 0.06511431 -0.13289116 -0.091885164 0.066534124 -0.10212961 0.09465667 0.014342803
-0.05380114 -0.09075481 0.038008366 -0.031519447 0.08687603 -0.10003383 -0.03434928 -0.03166308
0.034667913 -0.011031118 -0.0650567 0.1460466 -0.17358407 -0.08303171 -0.052807126 0.0838836
-0.014493075 -0.012961729 0.0022929478 0.12710357 0.05281281 0.057943184 -0.08700403 -0.045157377
0.030955497 0.12901269 -0.00082463707 0.050146278 0.05525195 -0.0017903401 -0.029068122 0.07811778
0.13397592 0.1582639 0.006679325 -0.028055957 0.085221075 0.07387145 0.119586945 -0.16008079
-0.13616197 -0.16976392 0.08355166 0.031699315 -0.01740508 0.09616333 -0.07499023 0.042438507
-0.028018264 -0.024714159 -0.02052034 -0.061380845 0.016721206 0.042161427 -0.019416638 -0.038474403
-0.061551474 -0.023923045 0.114774466 0.013846811 0.035630308 0.08407464 0.14778939 0.07407826
0.009260995 0.055822443 -0.11845446 -0.15416831 0.058999464 -0.08183941 -0.013021353 0.14677306
0.072012044 0.14953485 -0.040782474 0.11610315 -0.018050922 -0.02296793 0.13483699 -0.10393932
00000000: d3ad 613d 5d0f 6d3d 17b7 553c 9c6b 223e
00000010: 1194 25be 6a50 dfbc f6cd 4cbe eb01 b63d
00000020: ece2 12be ef5a 33be 0968 d5bc 8215 cd3d
00000030: 2b90 d23d dd8d 2dbd 9e5f a03d 2752 0d3c
00000040: 4671 d23c efb8 cbbd 8bbc 8b3d df9d 96bd
00000050: c5e3 65bd 69b6 f5bd fead 71bd 59e6 f23d
00000060: 9bb3 07be 59f4 a2bb b209 053d b9f0 4b3d
00000070: 2b75 d63d 6138 3c3d fe27 8ebd 5d4e 323d
00000080: cee5 a03d 96f8 033d e2f0 efbd 2699 9fbd
00000090: 6cf1 60bd 463a cfbd e70f 153d d206 7abc
000000a0: 2b24 2a3d cb96 f9bb 9d71 dd3b 9817 2ebe
000000b0: 2bcc 1cbd d224 23be 795f 363c a585 103e
000000c0: 7c90 1a3d d2c2 7fbd 2985 f23c c602 59bd
000000d0: 0ce9 1cbd 5d48 ee3d 42be 1c3d 16f1 003e
000000e0: 12e6 22bd 9e0c a63d a1d3 7d3d db5f f9bc
000000f0: 8c6d f33d 3390 11bd eb80 abbd 14ac b0bd
00000100: a91e d2bd 8399 9ebd 5ed4 e5bc 289d 15bd
00000110: fc00 b2bd 3df0 1c3d 0b9e c2bd 0739 013e
00000120: 11b6 2dbe a1bd e2bc c699 3d3d 3c4e 803c
00000130: c454 a9bd fe31 e4bd aa59 9f3d a37d a1bd
00000140: 7ff6 393c a759 13bc 5f6a 39bd 7e75 0bbe
00000150: 66dd f1bc 7a1b ffbd f8c2 b7bc d4b6 64bd
00000160: e504 09be d359 e13d cfbf 183e 14b4 293e
00000170: 85b2 c63b 83a1 6c3c 4c6a b5bd 2e78 2dbd
00000180: 3cc5 ddbd d9fa e73c 6a09 903d d6c6 263e
00000190: e1d8 643d ae62 313d 14d9 5cbc b586 4ebd
000001a0: 085c c1bd b9a2 a7bc 1020 f1bd cf34 a03c
000001b0: 95a4 963d 1ea5 a2bc 40d9 d1bc 5caf 93bd
000001c0: 619e ca3d f774 923d e498 3b3d 5fb0 e8bd
000001d0: 7428 a7bc cd5a a03d 3af3 fb3d 7f18 1ebe
000001e0: e695 5a3d 1715 793d f17f 473d 3cbf d73d
000001f0: 3c94 f3bd d857 f23d 4bf3 053c 683e 0e3d
00000200: cd84 e7bd f8a1 183d da4b 0a3d 4314 c93a
00000210: 96ec 063d 4340 5fbd 7bc9 3fbd 33fc 253d
00000220: 98e0 aabd 8e2e 9a3d edd1 363e 4bbf 153c
00000230: 7d07 22bd 50ce 173d 025d 403d b43c 903d
00000240: 3ba0 bdbd 581a a63d 6ed0 14bd ce0f 5f3c
00000250: 5021 0f3e e6bd e8bd 7a48 843d 5ff6 51bd
00000260: a2e1 823d 3f13 3c3d 0990 943c 4a4d 56bd
00000270: 872b 6cbc 49f8 9dbd 0cc0 b03c 2635 9a3c
00000280: 6893 84bc 53a2 2d3e 9673 e43d 0643 e83d
00000290: 2e7b 12be faea 6d3d 8646 893c ee6c febc
000002a0: e663 6ebd a75a 853d 9f14 08be 4a2e bcbd
000002b0: 0b43 883d 5429 d1bd 5bdb c13d 13fe 6a3c
000002c0: 965e 5cbd a8dd b9bd a9ae 1b3d 891a 01bd
000002d0: 0fec b13d 89de ccbd d5b1 0cbd 25b1 01bd
000002e0: f1ff 0d3d ddbb 34bc 723c 85bd 3d8d 153e
000002f0: 06c0 31be 870c aabd 494c 58bd 2acb ab3d
00000300: 5d74 6dbc 6f5d 54bc 4845 163b 7027 023e
00000310: 3f52 583d d555 6d3d 2b2f b2bd f1f6 38bd
00000320: 6296 fd3c e71b 043e 752c 58ba 2f66 4d3d
00000330: de4f 623d d8a9 eaba 4520 eebc 37fc 9f3d
00000340: fc30 093e ef0f 223e 3dde da3b 9bd5 e5bc
00000350: 6388 ae3d ea49 973d 00ea f43d 38ec 23be
00000360: 0b6e 0bbe 98d6 2dbe 221d ab3d 24d7 013d
00000370: 1995 8ebc 48f1 c43d 7a94 99bd 00d4 2d3d
00000380: 8f86 e5bc 5975 cabc 461a a8bc 7b6a 7bbd
00000390: e9fa 883c 76b1 2c3d a40f 9fbc 5697 1dbd
000003a0: 661d 7cbd 43fa c3bc e00e eb3d bcdd 623c
000003b0: 16f1 113d 532f ac3d 1a56 173e 58b6 973d
000003c0: 6ebb 173c 13a6 643d 4098 f2bd 4cde 1dbe
000003d0: 6ca9 713d 6c9b a7bd 8357 55bc ad4b 163e
000003e0: 0d7b 933d aa1f 193e 860b 27bd 7dc7 ed3d
000003f0: 87df 93bc 3e27 bcbc b512 0a3e 23de d4bd

layers.2.bias f4 [90]
0.0023900091 0.025492432 0.080472365 -0.013573433 0.05867458 -0.04535618 0.007820963 -0.035040118
0.096388444 0.10023692 0.014805339 0.011863655 0.16014755 0.087914795 -0.040804125 0.035015732
-0.074357994 -0.122152194 0.16499333 -0.030939078 0.10519214 -0.1243445 0.03082053 -0.10125961
-0.15131804 -0.07501957 0.080014676 -0.0675359 -0.12315084 -0.09616125 -0.14055201 0.07927929
-0.11576954 0.14925309 -0.111366905 0.044402078 0.14949232 -0.12900281 0.059225008 0.043808687
-0.10678974 -0.08773337 0.11379472 -0.062582 0.08400212 -0.03672313 0.09032145 0.09475504
-0.09554459 -0.054598413 0.10389652 -0.10535594 -0.0889081 0.068815 0.12045427 0.1350702
-0.05474081 0.0234541 0.10158456 -0.021440191 0.015329772 -0.026234217 0.13963555 0.0066776946
0.16974366 0.09934148 -0.0804762 -0.08541965 0.13947964 -0.10521205 0.08949173 -0.14334099
0.056766264 0.0071134525 0.07153871 0.049482998 -0.087257855 0.07357159 0.08496288 -0.10196122
0.011049432 0.045559995 -0.0450741 -0.15118909 -0.06860678 0.109705724 0.11322215 -0.058275
-0.075665414 -0.14750497
00000000: b3a1 1c3b 81d5 d03c b2ce a43d 1b63 5ebc
00000010: c254 703d 67c7 39bd 7f23 003c 3a86 0fbd
00000020: 4e67 c53d 0449 cd3d 1892 723c c75f 423c
00000030: b8fd 233e ac0c b43d 3a22 27bd a86c 0f3d
00000040: 0149 98bd ee2a fabd 03f4 283e f373 fdbc
00000050: fa6e d73d 54a8 febd 567b fc3c 3361 cfbd
00000060: 1ef3 1abe dca3 99bd bcde a33d 4350 8abd
00000070: 8236 fcbd 30f0 c4bd deec 0fbe 2e5d a23d
00000080: 9518 edbd cdd5 183e 5514 e4bd f4de 353d
00000090: 8414 193e 5019 04be ec95 723d bd70 333d
000000a0: 94b4 dabd 8ead b3bd 350d e93d fe2a 80bd
000000b0: 4e09 ac3d fe6a 16bd 74fa b83d ee0e c23d
000000c0: e2ac c3bd 96a2 5fbd b3c7 d43d dbc4 d7bd
000000d0: 7315 b6bd e1ee 8c3d bab0 f63d d84f 0a3e
000000e0: e637 60bd d022 c03c 910b d03d 57a3 afbc
000000f0: b929 7b3c 24e9 d6bc 9ffc 0e3e 90d0 da3b
00000100: 48d1 2d3e 8c73 cb3d b5d0 a4bd 7ff0 aebd
00000110: c0d3 0e3e 6a79 d7bd 7147 b73d fbc7 12be
00000120: be83 683d f717 e93b e382 923d afae 4a3d
00000130: 3fb4 b2bd b4ac 963d 0501 ae3d 0bd1 d0bd
00000140: ad08 353c 1e9d 3a3d 9f9f 38bd 50d1 1abe
00000150: b681 8cbd 65ad e03d 04e1 e73d c4b1 6ebd
00000160: 78f6 9abd 8b0b 17be

layers.3.weight f4 [5, 90]
-0.037663244 -0.06946057 -0.11538577 0.11000036 -0.15104005 0.008376827 0.065532215 0.014399495
0.13223797 -0.09832174 -0.18093848 0.0722068 -0.077091314 0.060869608 0.062148232 -0.10410854
-0.026933914 0.066455156 -0.034942668 0.09225787 -0.00023767269 -0.0907528 0.08035349 0.12678513
0.11787331 0.10364259 -0.189634 -0.1550262 -0.08003783 -0.064258285 0.16470607 -0.08217074
0.11926033 -0.051225558 -0.10901709 0.083232254 -0.036910973 0.10233958 -0.15940899 -0.07114637
-0.05031193 0.14478357 0.016164118 0.036920864 0.07961429 -0.10633848 0.12338548 0.02680471
-0.11016062 -0.010696544 -0.10129693 -0.04765132 0.11391582 -0.061423413 -0.090468094 -0.082570314
-0.012419727 0.022526994 -0.11609711 0.08096175 0.09998871 0.060547043 -0.13263313 0.086583845
-0.07312607 -0.0671561 0.13694535 -0.10379218 -0.17099889 -0.050114457 -0.061606277 -0.048156798
0.077916265 0.002653419 -0.11176499 0.13446431 -0.14431545 0.1150115 0.03206688 -0.10234101
0.054041665 -0.042958364 -0.108519174 0.07479133 0.003344838 -0.006897682 0.038716067 0.019031554
0.05457323 0.0127812065 -0.07779386 -0.024516204 -0.012363187 0.12106124 0.0056064315 0.113108575
-0.05972069 -0.08579934 0.09623966 0.0016352029 0.029234834 0.026966276 -0.09713803 -0.10536176
0.10632864 -0.17332202 -0.15516478 0.02952356 -0.032894377 0.19926274 0.051681977 0.13612458
0.017920787 0.12034316 0.14879823 -0.16156113 -0.08075826 -0.015589965 0.09019317 -0.15889095
0.06218382 -0.07358597 0.08513333 0.010731269 0.13447796 -0.004223181 -0.09191594 0.02095811
0.073367484 -0.13134162 -0.08348221 -0.035392974 -0.017517738 0.091364555 0.014235488 0.018007493
-0.10593938 0.038518958 -0.08596084 0.08441747 -0.022159018 -0.06336781 0.06389017 0.03541269
-0.008247219 -0.00068507734 -0.117267065 0.02276282 -0.052404083 0.055964537 -0.053987704 0.009478099
-0.021256847 0.101631075 -0.13451253 -0.032478355 0.114481 -0.03235113 -0.07013571 0.09219947
0.019139448 0.048863236 0.106848836 -0.13640352 -0.13266782 -0.039049186 0.08574129 -0.098523036
0.0042903926 -0.11519202 0.02120642 -0.09478299 -0.0018220927 0.089926034 -0.02883512 0.16392292
-0.058189463 -0.09976483 0.02137193 0.058380514 -0.02116264 -0.024259927 0.008844893 -0.09416111
0.040142834 0.10939764 -0.077844016 0.10868857 -0.051702544 -0.038415927 0.16266474 0.033815
-0.05068556 -0.078531496 0.115144216 -0.009851377 -0.050274022 0.10259432 -0.13332963 -0.123917274
0.00923296 0.12762256 0.055184416 0.12057469 0.03542579 0.09436737 0.11977409 0.04298056
0.07968909 0.046297394 -0.0447693 0.08630295 0.06891014 -0.10061495 -0.025470162 0.014788358
-0.010556848 -0.08809972 -0.11576987 0.03183986 0.14870772 -0.038924478 0.029547494 -0.022640409
0.13038841 0.09342782 0.019915609 0.024428414 0.15570004 0.032223985 0.025180317 0.040227417
0.046164155 -0.11451383 -0.020799361 0.0640671 0.14093621 0.11244238 0.015352955 -0.07081353
-0.02594713 0.05962641 -0.10242568 0.12715647 -0.11084547 -0.027243406 0.17266949 0.057250533
-0.0770039 0.043882005 -0.032717433 0.054673012 -0.098121606 -0.11681672 0.10086746 -0.06308121
00000000: c644 1abd 5841 8ebd 604f ecbd de47 e13d
00000010: 3eaa 1abe f63e 093c c135 863d dceb 6b3c
00000020: 6469 073e e95c c9bd f047 39be 29e1 933d
00000030: 0de2 9dbd 6952 793d 258f 7e3d dc36 d5bd
00000040: 83a4 dcbc a419 883d 0b20 0fbd b2f1 bc3d
00000050: c737 79b9 9bdc b9bd 5f90 a43d f6d3 013e
00000060: 9067 f13d 9142 d43d 6a2f 42be 30bf 1ebe
00000070: e0ea a3bd d999 83bd b5a8 283e 2249 a8bd
00000080: c33e f43d e4d1 51bd 5a44 dfbd ac75 aa3d
00000090: f62f 17bd 6a97 d13d 1c3c 23be 30b5 91bd
000000a0: e213 4ebd 2542 143e 9d6a 843c 553a 173d
000000b0: d10c a33d fdc7 d9bd 87b1 fc3d 8d95 db3c
000000c0: e49b e1bd 8f40 2fbc c474 cfbd 082e 43bd
000000d0: b34c e93d 1e97 7bbd 5647 b9bd a01a a9bd
000000e0: 1c7c 4bbc 888a b83c 52c4 edbd 46cf a53d
000000f0: e1c6 cc3d 2d00 783d fbd0 07be df52 b13d
00000100: 1fc3 95bd 2389 89bd 673b 0c3e ff90 d4bd
00000110: 551a 2fbe d144 4dbd dd56 7cbd 1040 45bd
00000120: 9092 9f3d fce4 2d3b 0be5 e4bd 03b1 093e
00000130: 6ec7 13be 268b eb3d 9058 033d 2a98 d1bd
00000140: cb5a 5d3d 1cf5 2fbd 4d3f debd 322c 993d
00000150: 1235 5b3b f305 e2bb bd94 1e3d 10e8 9b3c
00000160: 2e88 5f3d 4468 513c 6352 9fbd 35d6 c8bc
00000170: f78e 4abc f5ee f73d 28b6 b73b 78a5 e73d
00000180: af9d 74bd 90b7 afbd 4d19 c53d 4e54 d63a
00000190: e47d ef3c 61e8 dc3c 4ef0 c6bd e8c7 d7bd
000001a0: d4c2 d93d 547b 31be 84e3 1ebe 65db f13c
000001b0: 41bc 06bd 880b 4c3e 7bb0 533d 3e64 0b3e
000001c0: 9dce 923c 7a76 f63d 905e 183e 4870 25be
000001d0: 9664 a5bd 0d6d 7fbc 32b7 b83d 4fb4 22be
000001e0: 76b4 7e3d 3eb4 96bd 625a ae3d 34d2 2f3c
000001f0: 97b4 093e 9c62 8abb 6d3e bcbd 58b0 ab3c
00000200: b141 963d 6b7e 06be b9f8 aabd 39f8 10bd
00000210: 5c81 8fbc 571d bb3d f73b 693c 7384 933c
00000220: bff6 d8bd 0ec6 1d3d 3d0c b0bd 11e3 ac3d
00000230: d486 b5bc fbc6 81bd d9d8 823d e60c 113d
00000240: 581f 07bc c396 33ba b729 f0bd 1879 ba3c
00000250: aaa5 56bd 123b 653d 3622 5dbd 074a 1b3c
00000260: d722 aebc f423 d03d a7bd 09be 0608 05bd
00000270: 0475 ea3d 9e82 04bd 50a3 8fbd 13d3 bc3d
00000280: 55ca 9c3c d124 483d 90d3 da3d 5dad 0bbe
00000290: 13da 07be 0af2 1fbd 2199 af3d 72c6 c9bd
000002a0: 6c96 8c3b cbe9 ebbd 16b9 ad3c 961d c2bd
000002b0: 49d3 eeba 242b b83d a137 ecbc 69db 273e
000002c0: 1358 6ebd 8151 ccbd 3014 af3c 6820 6f3d
000002d0: 465d adbc c1bc c6bc 2cea 103c 8ad7 c0bd
000002e0: d06c 243d df0b e03d af6c 9fbd 1d98 de3d
000002f0: 0cc6 53bd 055a 1dbd 9691 263e 9981 0a3d
00000300: a99b 4fbd 1fd5 a0bd bbd0 eb3d ac67 21bc
00000310: 22ec 4dbd f91c d23d 9087 08be 57c8 fdbd
00000320: d745 173c 7daf 023e 0e09 623d ddef f63d
00000330: a21a 113d ae43 c13d 1e4c f53d 620c 303d
00000340: 0934 a33d 56a2 3d3d 0360 37bd 9abf b03d
00000350: c220 8d3d 360f cebd cda6 d0bc de4a 723c
00000360: a1f6 2cbc a06d b4bd c118 edbd 836a 023d
00000370: d646 183e 466f 1fbd 960d f23c 6178 b9bc
00000380: 8a84 053e 1657 bf3d 0f26 a33c 191e c83c
00000390: d56f 1f3e 4cfd 033d f446 ce3c 81c5 243d
000003a0: a016 3d3d 3a86 eabd 6c63 aabc 9d35 833d
000003b0: 9551 103e 3148 e63d f68a 7b3c af06 91bd
000003c0: 138f d4bc d33a 743d 8ec4 d1bd 4e35 023e
000003d0: f302 e3bd 902d dfbc 45d0 303e 897f 6a3d
000003e0: 39b4 9dbd 9ebd 333d b702 06bd cff0 5f3d
000003f0: fbf3 c8bd 9b3d efbd 9993 ce3d b930 81bd

layers.3.bias f4 [5]
-0.04659816 -0.054203417 -0.040857807 0.043908097 0.12197292
00000000: b6dd 3ebd 6704 5ebd 845a 27bd fad8 333d
00000010: f0cc f93d
