irony/models/model_6.pt (torch_old, 13324 bytes, 6 tensors)

layers.0.weight f4 [70, 10]
000000 ac 3e 2a bd 25 93 c4 3e 68 38 01 bd 2e 25 6c be
       -0.041563675 0.38393512 -0.031547934 -0.23061058
000010 0e cc b6 be 5a c7 23 bd d3 44 bb 3c 9d 46 bf 3c
       -0.35702556 -0.03998504 0.022859966 0.0233491
000020 b6 27 c8 3c d3 16 97 bd 28 8b 13 bd b0 05 84 3d
       0.024432998 -0.073774 -0.03602138 0.06446397
000030 8d d2 54 be b0 b9 aa be d0 31 a6 3e 90 0e 08 3e
       -0.20783444 -0.33344793 0.3245988 0.13286805
000040 43 59 8e bd 4f 7d 74 be f9 d5 31 be a5 2f e7 3c
       -0.06950619 -0.23875926 -0.1736678 0.02822096
000050 30 a6 53 3d 73 ad e1 be a0 d0 60 be 87 10 a0 bd
       0.05167216 -0.44077644 -0.21954584 -0.07815652
000060 a2 70 b6 3e 78 b1 5c be 3e d4 a3 bd e1 23 32 be
       0.35632807 -0.21552074 -0.07999466 -0.17396499
000070 13 15 1c be ba 3c f4 3d d7 99 d6 be b4 27 c1 3c
       -0.15242414 0.11925645 -0.41914245 0.023578502
000080 ed 91 28 3e ba 25 a6 3e d1 88 95 3e 41 b9 91 be
       0.16461916 0.32450658 0.29205945 -0.2846165
000090 5c 3d ac be a9 3f 58 3b 98 42 26 be 94 f2 59 3b
       -0.33640563 0.0032996929 -0.16236341 0.003325616
0000a0 62 ba ac be 74 72 90 3e fb 24 40 3e c1 c0 00 3e
       -0.3373595 0.2821232 0.18764107 0.1257353
0000b0 3d 0a cc be e7 53 ad bd a9 3f cd 3c 4d 55 0b 3e
       -0.3985156 -0.08463269 0.02505477 0.13606758
0000c0 15 1a a9 bd ee 41 15 be e7 1f 88 be bf 19 b7 be
       -0.08256928 -0.14575931 -0.2658684 -0.3576183
0000d0 51 99 52 bd f1 71 b3 3e 33 90 a2 3e a0 0f a9 be
       -0.051415745 0.35047868 0.3175064 -0.33019733
0000e0 15 7c 6e be 82 64 a8 be a6 72 b4 bd 32 97 a9 bd
       -0.23289521 -0.3288918 -0.0881093 -0.08280791
0000f0 4f 97 bc 3e b5 8e 58 3e 84 ce b2 be be 7f 86 be
       0.3683419 0.21148188 -0.34923184 -0.26269335
000100 14 11 3c 3e bb 6f 1f 3e 04 14 e5 3d 66 83 df 3b
       0.1836589 0.15569966 0.11185458 0.006821084
000110 e4 7a 30 bc 0e 12 73 3e 91 24 0b bf 4f a9 17 3e
       -0.010771487 0.23737356 -0.5435267 0.1481068
000120 59 08 9e 3e f9 52 4f 3e 28 c5 b8 be d7 fd 63 be
       0.30865744 0.20246495 -0.36087918 -0.22264801
000130 6e 98 0a bc 97 3a 1c 3d a4 3b 03 3d 84 3b 91 be
       -0.008459194 0.038141813 0.0320393 -0.2836572
000140 69 51 80 3e 71 f0 b0 bd a3 15 9e 3e ed ee 93 3e
       0.2506211 -0.086396106 0.30875883 0.28893223
000150 91 75 bb be b7 4c 81 3d 1e d0 db 3d ce b4 34 3c
       -0.36613134 0.0631346 0.107330546 0.011029435
000160 20 1a 94 3d f6 c4 02 be ed 4a b0 be 36 f6 97 3e
       0.072315454 -0.12770447 -0.34432164 0.29680032
000170 f2 a2 68 3e b9 fc ef 3e 34 1d 7e 3d 30 47 14 bd
       0.22718409 0.468725 0.06203957 -0.036200702
000180 d5 39 7a 3e 98 25 0f 3e 94 a1 3e 3e 37 23 b0 bc
       0.24436124 0.13979185 0.18616325 -0.021501167
000190 ef 0b f5 bd b1 28 e5 be 0f 25 48 3d 1c 8c 2d 3f
       -0.11965167 -0.44757608 0.048863467 0.67791915
0001a0 8a e1 3c be e7 bf 42 bd 57 00 d3 bd 2c de bf 3d
       -0.18445411 -0.047546294 -0.10302799 0.09368548
0001b0 2c cd 07 3e 67 69 2e 3d 93 d8 db be e6 f8 66 be
       0.1326186 0.04258099 -0.4293867 -0.22555885
0001c0 c9 37 00 be 8d 38 60 3e 43 68 47 3d c0 2e 5b be
       -0.1252128 0.21896572 0.048683416 -0.21404552
0001d0 6d ea 8c be 1b 34 a7 3d 52 41 31 bd c8 68 16 3d
       -0.27522603 0.08164235 -0.043275185 0.03672102
0001e0 ae 14 78 be e8 c6 c2 be 42 c6 16 be 83 18 45 3e
       -0.24226639 -0.38042378 -0.14724067 0.19247632
0001f0 87 3e 78 3e e0 6f fe bd 13 e6 6a be 8e ae 8d be
       0.24242602 -0.12423682 -0.22939329 -0.27672237
000200 65 46 93 3d 96 8d b2 bd e3 5d c9 3e 17 8d 85 be
       0.07191161 -0.087184116 0.39329442 -0.26084206
000210 8e 70 d6 be e2 f4 42 be c9 9a 78 3e e8 9b 67 3e
       -0.41882747 -0.19038728 0.24277796 0.22618067
000220 12 eb 14 bd ac 51 85 bd 60 45 b7 b8 69 0f 13 3e
       -0.036356993 -0.06509718 -8.739042e-05 0.14361347
000230 60 eb 26 be 1d a5 89 be c9 1e a1 3e f9 88 87 be
       -0.16300726 -0.26883784 0.314688 -0.2647169
000240 9a 20 89 3e 05 37 87 bd 07 c9 e9 bd 28 34 21 3e
       0.26782686 -0.06602291 -0.11415296 0.15742552
000250 74 4c c0 bd 29 9b b0 3d 5b b8 88 3e a0 27 7d bd
       -0.09389582 0.086233445 0.26703152 -0.061805367
000260 dc d2 f5 be 96 8a b0 3e 14 f4 77 be 0e e3 02 bc
       -0.48012435 0.34480733 -0.24214202 -0.007988704
000270 1d 94 e6 ba 98 b8 1d be 76 d7 6a 3e 1e 05 b8 3c
       -0.0017591749 -0.15402448 0.22933754 0.022463378
000280 73 90 3f be 19 a4 75 be db 5d c2 3c 3b 80 cc 3e
       -0.18707447 -0.2398838 0.023726394 0.39941582
000290 eb 39 b8 3e 72 0f a1 bc a2 97 40 bb a2 5e 0f bd
       0.35981688 -0.019660685 -0.0029387255 -0.03500236
0002a0 f9 40 51 3e c9 1e 68 3e d8 57 e0 be 0f cf 04 3d
       0.20434941 0.22667994 -0.4381702 0.03242403
0002b0 11 ce 59 3e c7 f8 88 3d 35 97 97 be 59 24 ad bd
       0.21270014 0.066880755 -0.2960755 -0.084541984
0002c0 a6 71 25 3e 78 e7 fb 3d 5e d7 23 3e 74 76 00 be
       0.16156635 0.123000085 0.16000125 -0.12545186
0002d0 1a 39 f8 bd 48 f9 c7 be 1e 27 9f 3d 3a a4 8b 3e
       -0.12120266 -0.39057374 0.07771133 0.27273732
0002e0 c3 83 90 3e 6d 8e a9 bd 12 1d 0b be 5d 99 77 bd
       0.28225526 -0.08279119 -0.13585308 -0.060448993
0002f0 67 63 9d 3d 4e 51 0d 3e d0 d5 f3 3c d3 3a 67 3e
       0.07684975 0.13800547 0.02976504 0.22581033
000300 0c cc 1f 3e 48 ae 43 3e a9 75 a4 be 41 dd e8 bc
       0.15605181 0.19109452 -0.32121018 -0.028425815
000310 e8 92 d6 3d c6 5a 98 bc 0c bb e3 3d 79 3d b9 bd
       0.10477239 -0.018597972 0.11119661 -0.09044928
000320 66 fa d3 3e 50 74 47 bc 9c 57 be be bc ec 4a 3d
       0.41401976 -0.012173727 -0.37176216 0.049542174
000330 ec 09 b3 3e 54 d4 eb 3d 9d dd cd bc ee 1c ce bd
       0.34968507 0.11515108 -0.025130088 -0.10064112
000340 ac c0 92 3b 89 f3 34 3e 86 f5 a6 be c3 94 d8 be
       0.0044785347 0.17671026 -0.32609195 -0.42300996
000350 ec a5 1a bc 8b 06 a9 3d 77 27 9d 3e b4 5b 8f be
       -0.009438973 0.08253201 0.30694172 -0.2799965
000360 44 07 52 be 51 f3 3f be d3 45 f9 bd f5 49 b1 bc
       -0.20510584 -0.18745162 -0.12171521 -0.02164171
000370 1d 08 c9 3e f0 4e 03 3e 0d 5b 89 be 2e f0 ba bd
       0.39264002 0.12823081 -0.2682728 -0.09127842
000380 54 dd 28 3e de 0c c3 3d 12 a9 1a 3e f6 a9 5a 3b
       0.1649068 0.095239386 0.15103558 0.0033365465
000390 f7 cd ed 3d 60 84 30 3e 35 09 8c 3e 2a 50 6d 3e
       0.1161155 0.17237997 0.27350774 0.23175111
0003a0 47 a0 95 be 3c 66 9d be 6d 99 03 3e b3 61 ef bd
       -0.29223844 -0.3074206 0.12851496 -0.116885565
0003b0 42 40 81 bd 3b b2 9c be 26 b3 96 be 14 81 e8 bd
       -0.06311084 -0.3060473 -0.29433554 -0.11352745
0003c0 59 fe 3a 3e 68 f7 d0 3e 87 bd da 3d e5 fb 2d be
       0.18261088 0.40813756 0.10680681 -0.16990621
0003d0 8f ae 6a be 8d a7 57 3e 31 f0 0f 3e e9 0c 56 3e
       -0.22918151 0.2106001 0.1405647 0.20903362
0003e0 f6 3b 99 bc c5 f9 c4 bd e3 74 5d be 58 b0 e4 be
       -0.01870535 -0.09617952 -0.2162662 -0.4466579
0003f0 62 ea 82 3e f8 17 4c 3e 70 ab 48 be fd 49 77 3d
       0.25569445 0.19931018 -0.19596648 0.060373295

layers.0.bias f4 [70]
000000 7c cd a3 3d 38 8f bc bd 18 28 f9 3b 2d 28 54 3e
       0.079981774 -0.09207004 0.0076036565 0.20718451
000010 5c d9 8f 3c 0f af b0 3d aa 85 b4 bc 1b ad 28 3e
       0.0175597 0.0862714 -0.022036392 0.16472284
000020 8a 76 c9 3d 93 70 32 be f9 ce 7b 3d c5 cd 7e 3e
       0.09837063 -0.17425756 0.06147668 0.24883182
000030 10 c6 c8 3d 5d ba 34 be 07 90 36 3d 5f b1 38 bd
       0.098034024 -0.17649217 0.04457095 -0.04509103
000040 3a a4 92 be 47 a6 c8 3d 7c e6 88 bd 0e 97 a1 3d
       -0.2864092 0.0979734 -0.066845864 0.078901395
000050 c1 2c 86 be 28 0d eb 3d 4a 9d b0 bd 87 ba 7e 3e
       -0.2620602 0.11477119 -0.086237505 0.24875842
000060 02 61 ea bd 37 44 01 be d8 05 47 3d 8b 30 d5 bb
       -0.11444284 -0.12623678 0.048589557 -0.006506031
000070 62 e0 3c 3e a2 b7 4c bd 9c 63 3f be fd 65 84 3d
       0.1844497 -0.049979813 -0.18690342 0.06464765
000080 b4 d9 21 bd 80 ce 00 3e 61 cd 85 bd b2 a8 4a 3d
       -0.03951426 0.12578773 -0.065333135 0.049477287
000090 6d 38 cc bc 7f 3e 61 3e 11 84 50 3d 2a 39 4b bd
       -0.02492925 0.21996497 0.0509072 -0.049615063
0000a0 f5 c8 c6 3d b6 3f b7 bd 50 a0 ad bd b4 ef b0 bc
       0.09706298 -0.08947699 -0.08477843 -0.021598674
0000b0 eb f3 15 be 48 dd 90 bd 67 32 b2 3c ec 08 43 be
       -0.14643829 -0.07073456 0.02175255 -0.19046372
0000c0 e9 00 75 bd 58 22 a4 3d 87 a1 05 3d ad 7b b4 bd
       -0.05981532 0.08014363 0.032624748 -0.08812652
0000d0 df ae d3 bd 0f d1 c4 3d 9d 49 4f 3d d9 bb d8 bb
       -0.103360884 0.09610187 0.050607312 -0.00661419
0000e0 65 ac 39 bd c8 ff 48 3e 2f a8 a6 3d 85 49 6f 3e
       -0.045330424 0.19628823 0.08137547 0.23367889
0000f0 31 31 d6 3b 97 f7 52 bd 50 9e 17 3c 10 1e da bc
       0.006536626 -0.05150565 0.009254053 -0.026625663
000100 39 ab 2a be 09 74 dc 3d fb f4 82 bc 10 30 1c 3b
       -0.16666879 0.107643194 -0.015985956 0.0023832358
000110 fd a4 80 bd 97 2d 95 3d
       -0.06281469 0.07284086

layers.1.weight f4 [30, 70]
000000 2f e3 ee bd 2d 1a c2 3d 0f 04 87 3e 3b 99 0b 3e
       -0.116644256 0.09477649 0.26370284 0.13632672
000010 8d fd ad bd 27 26 5c 3e 34 4e 04 3d 66 30 d5 bc
       -0.084956266 0.21498929 0.032301143 -0.026024055
000020 af 01 71 be 6b 0f e6 3d 44 9f b3 bd 2f 22 6f 3d
       -0.23535798 0.112334095 -0.08770612 0.05838221
000030 85 ca 04 bd 34 f2 fa 3d 1d 5b da 3d 1b 01 2b be
       -0.0324197 0.12253228 0.1066191 -0.1669964
000040 2a 09 09 3e 22 21 2a bb 52 b6 98 3d 94 48 04 be
       0.13382402 -0.002595969 0.0745665 -0.12918311
000050 a5 a4 b8 3c c3 ba 86 3e 50 5b e4 3d ed 8c 90 3d
       0.022539446 0.26314363 0.11150229 0.070581295
000060 6c 8c 26 be 03 d5 a6 bc 62 aa 0c 3e 4d 00 d8 3d
       -0.16264504 -0.020365244 0.13736871 0.10546932
000070 f0 a3 ae bd d2 56 05 3e 2c ea b1 3d e9 a2 c3 3d
       -0.08527362 0.130214 0.08687243 0.09552557
000080 c2 9c 89 bd 87 23 05 bd 2e 93 2b 3e 73 84 4a 3e
       -0.06719352 -0.032504585 0.16755363 0.19777088
000090 ed d3 2c 3e c9 0e 6b 3e b0 b5 84 bd ef fd be 3d
       0.16877718 0.22954859 -0.06479967 0.09325778
0000a0 35 98 03 3e 5b 2d 0a 3e 1c 28 f1 bd 9f 0b 88 3d
       0.12851031 0.13493864 -0.117752284 0.066428415
0000b0 d5 a3 87 3d de 3c 92 be 4b 8f a7 bc 4c 71 b9 bd
       0.06623045 -0.28562063 -0.02045407 -0.09054813
0000c0 c8 1f 6b 3b 9b d5 41 bd 1c f8 1c be cd 0a d3 3c
       0.0035877097 -0.04732285 -0.15329021 0.025761986
0000d0 22 3b 94 3d cf 82 17 3e f6 49 24 3d 25 d6 68 3c
       0.07237841 0.14795993 0.040109597 0.014211212
0000e0 76 b2 e6 3d 7a c5 89 3b 43 be b8 bd 2e 68 b1 bd
       0.112645075 0.0042044492 -0.090206645 -0.08662449
0000f0 ea a6 63 3d 8c fd df 3c 86 6c ca bc e6 97 d8 3a
       0.055579104 0.02734258 -0.024709951 0.0016524761
000100 af 40 08 3e be ab 04 3d e5 c0 07 be 3f 78 94 be
       0.13305925 0.03239035 -0.13257177 -0.2899799
000110 95 8b 2b be 91 08 58 3c f4 5b 4c bd 19 86 77 3e
       -0.16752465 0.013185636 -0.04989238 0.24172248
000120 6b 45 dd 3d c9 76 61 bd 41 04 34 be ee 73 ef 3c
       0.10804256 -0.055044923 -0.17579748 0.029230084
000130 56 94 23 3d 7d 2e af be 66 ee a1 bd 50 82 66 be
       0.039936386 -0.34215155 -0.07906799 -0.22510648
000140 5f 83 d1 bd fc 93 98 3d fe 62 81 3d 27 01 e7 3e
       -0.10230135 0.07450101 0.063177094 0.45118067
000150 ed 0a 4f 3c bb 02 cc bd 9e f9 a0 3c b8 ca 48 be
       0.012636882 -0.09961458 0.019650277 -0.19608581
000160 95 33 07 3e d6 53 58 bd 8e 3c ca 3e 6f e3 39 3c
       0.1320327 -0.052814327 0.39499325 0.011345728
000170 ba 28 32 bd 0b 37 f6 bc b9 a1 c5 3d 1a da 9f bd
       -0.04349587 -0.030055543 0.09649987 -0.078052714
000180 1b dc a7 bd fe 50 ea bc a9 a2 de bc dc 72 38 bd
       -0.08196279 -0.028603073 -0.027177172 -0.045031413
000190 fd fa bf 3e e5 f3 cf 3a 1d 13 b9 bd 3a c0 39 3b
       0.37496176 0.0015865533 -0.09036849 0.0028343336
0001a0 8b 9d 71 3e ba 26 86 3d 81 61 89 bd a6 60 35 bd
       0.23595254 0.06550355 -0.067080505 -0.044281624
0001b0 2e 49 79 bd d1 23 3c bc 7b e3 22 be b4 f1 46 bd
       -0.060860805 -0.011483149 -0.1590709 -0.04857035
0001c0 28 f6 20 be d4 93 51 bd 30 6a 8c 3d 26 49 d9 3c
       -0.15718901 -0.05116637 0.06856191 0.026524138
0001d0 d7 ce 24 be 9f b0 10 bd ae e5 9d 3c 07 d1 67 3e
       -0.16094528 -0.03532469 0.019274559 0.22638331
0001e0 cf 1d 6c bd 39 80 cf 3d 7a ff 61 3e ef 7a 3b 3e
       -0.057645615 0.101318784 0.22070113 0.18308614
0001f0 a8 e6 bf 3d f4 b7 31 3e e4 5b c4 3c 55 a9 80 3b
       0.09370166 0.17355329 0.023969598 0.003926436
000200 15 be 9d be 88 17 25 bd a1 97 0a be 47 47 89 bc
       -0.30809084 -0.040305644 -0.13534404 -0.01675762
000210 a1 6c b6 be c5 af 0e be 43 42 2d bd e7 f9 5e be
       -0.35629752 -0.13934238 -0.04229952 -0.21775018
000220 3b ab 1d 3e 46 e9 af bc b9 03 d4 bd 3b bc 9c 3d
       0.1539735 -0.021473538 -0.103522725 0.076530896
000230 d5 44 7c 3d 3d 78 89 3c 85 8b cb bd b4 66 4f bb
       0.06158908 0.016780967 -0.099387206 -0.003164691
000240 b1 2b bc 3d b2 b7 d3 bd 26 f7 cc bd a8 a0 f9 bd
       0.09188021 -0.103377715 -0.10008077 -0.12188846
000250 7f a2 a2 bc 1f f4 46 be c6 1e db bc 11 f0 80 3b
       -0.019852875 -0.19429062 -0.026748072 0.003934868
000260 cb c6 2a be 0c a7 b0 bc 57 c4 29 bd a4 2b 43 3c
       -0.16677396 -0.02156403 -0.04144701 0.01191226
000270 e8 46 4f be 67 2b a7 bd 2c e5 26 be 0a 58 13 bc
       -0.20241892 -0.08162575 -0.1629836 -0.008993158
000280 e8 62 18 bd 6e f0 94 be 76 39 14 be 6c ef b1 3d
       -0.0372037 -0.29089683 -0.14475045 0.08688244
000290 05 a4 43 3e 2d bf a6 bd 5c 86 be bd b1 86 a5 be
       0.19105537 -0.08141933 -0.09302971 -0.32329324
0002a0 59 ff 32 bd cc 60 90 3e 52 ec c5 bd 22 93 1a 3e
       -0.04370055 0.2819885 -0.09664215 0.15095189
0002b0 4f ae 0b bd 6d 5f f0 3d dc 8c 88 bd 72 42 1d be
       -0.03410178 0.11736951 -0.06667492 -0.15357378
0002c0 de a2 a8 be da e4 6f be ed 89 77 be 92 9c c0 bd
       -0.32936758 -0.23427144 -0.24173708 -0.094048634
0002d0 93 86 57 be 76 d3 21 be 42 ac 2b 3c d1 12 b4 bc
       -0.2104743 -0.15803322 0.010478081 -0.021981629
0002e0 cd 31 ee 3d 78 0f 96 3d 27 f8 ab 3d be 48 15 be
       0.116305925 0.07327169 0.08396941 -0.1457853
0002f0 97 2c 20 3d a8 c7 01 bd fb 8f d3 3c 56 62 b7 ba
       0.039105024 -0.031684548 0.025825491 -0.0013991098
000300 eb 8b 83 3c 95 e1 91 bc 39 64 54 be 97 e0 12 3d
       0.016057929 -0.017807761 -0.20741357 0.035858717
000310 20 3f 09 3e 6e b7 12 3c 14 56 69 3d 71 ac 2e 3d
       0.13402987 0.008954866 0.056966856 0.04264492
000320 06 ac 4e be 0a dc 70 3e dd 0f 1e be d4 20 32 3e
       -0.20182809 0.23521438 -0.15435739 0.17395335
000330 ff 3f 99 bd 28 d4 fe 3b ae 7d be 3c fc 1d 2e 3e
       -0.074829094 0.007776756 0.023253288 0.17003626
000340 d3 76 a5 bd 5d ca 23 be 89 ab 15 3e 0f a5 0f bd
       -0.080793045 -0.15995164 0.14616217 -0.03506952
000350 a7 47 e3 bd c6 56 58 bc d6 f5 64 3e b7 40 b1 3d
       -0.11097651 -0.013204282 0.22359404 0.086549215
000360 d2 66 bd bd 97 b3 72 3e 07 55 09 be b1 dc 4e 3e
       -0.09248127 0.2370132 -0.13411342 0.20201375
000370 57 6a 04 be 9f 53 96 3b 95 eb 6e bd d5 74 39 be
       -0.1293119 0.004587605 -0.058330137 -0.18110974
000380 80 ab 03 bd 16 af 1f bd 2d 9f 61 bd dd 0e 39 3e
       -0.032145977 -0.038985334 -0.055083442 0.18072076
000390 95 7b f1 3c 3a 87 46 3e be 84 82 be 02 1d 0c 3e
       0.029477874 0.19387522 -0.254919 0.1368294
0003a0 95 c8 22 be c0 bd 86 bd 76 4c 08 bb 6b f3 f6 bd
       -0.15896828 -0.06579161 -0.0020797527 -0.12058147
0003b0 56 5d c4 3d 03 f9 74 bc 4f bb 98 bc 05 f5 77 be
       0.09588115 -0.014951947 -0.018644003 -0.24214561
0003c0 47 f6 0d be e7 32 ab bc 24 36 46 3e 71 53 0f be
       -0.13863479 -0.020898296 0.1935659 -0.13996674
0003d0 d0 bf 04 be 57 ca 11 3e 06 eb b7 3d 65 61 e7 3d
       -0.12963796 0.14237343 0.08980374 0.112978734
0003e0 f7 a2 67 bd ba a2 3c 3d ae 66 b1 3e 55 1a c5 bc
       -0.0565519 0.046053626 0.3464865 -0.024060408
0003f0 f2 4c e2 3d 10 f6 b8 bc 81 b3 40 bb 5a 68 0b 3d
       0.110498324 -0.02257827 -0.0029403868 0.034035064

layers.1.bias f4 [30]
000000 70 c7 b5 3c fb 77 09 3b 77 0e 7f 3d a8 e8 17 3d
       0.022189826 0.0020976055 0.062269654 0.037087113
000010 b2 7f 0c bd 72 f3 48 bb b0 7d 05 bd c5 e4 05 be
       -0.034301467 -0.0030662683 -0.032590568 -0.1307555
000020 1c e1 e1 3d 6c 1a 30 bd bd 97 98 3b 5b a0 d9 3c
       0.11029264 -0.042993948 0.0046567605 0.026565721
000030 31 d6 cf bd 33 6b 95 3d 95 e9 9e bd 53 79 04 3e
       -0.10148276 0.07295837 -0.07759396 0.12936907
000040 a7 9d e2 3d ea 59 22 3d a8 53 01 3d 75 ef f4 3d
       0.11065226 0.03963653 0.03157392 0.11959735
000050 1c fa 37 3e d1 bf a3 bd d5 ce 36 3e 45 95 ae bd
       0.17966503 -0.079955705 0.17852338 -0.08524565
000060 1e 41 18 3e 82 3d 58 3e 3b c7 4e bd 00 60 c0 bd
       0.1486859 0.21117213 -0.05048297 -0.093933105
000070 d8 0a 4e bd 6d 67 ac 3d
       -0.05030331 0.084181644

layers.2.weight f4 [5, 30]
000000 9f 6f 2b be ee 11 97 3d 9f 6b 12 3e 8b 5d 3e be
       -0.16741799 0.07376467 0.14298867 -0.18590371
000010 0f 7c 0d 3d 37 61 45 be cd b1 56 be e5 d7 1b 3e
       0.03454214 -0.19275366 -0.20966263 0.15219076
000020 48 5f 85 bd 70 28 5e 3d dc 3b 21 be 77 da 87 be
       -0.06512314 0.054237783 -0.15745491 -0.26533863
000030 1d 7b 14 3e 93 a9 1b be 6d 39 d2 3d b2 e6 0b be
       0.14500089 -0.15201406 0.10264859 -0.13662222
000040 05 e6 15 3e 8d c1 30 3e b8 22 2a 3d 90 48 21 bc
       0.14638527 0.17261334 0.041537017 -0.00984396
000050 96 da 6a 3e d4 f3 cf bd e6 45 16 be 53 9a 32 3e
       0.22934946 -0.101539284 -0.14675102 0.17441683
000060 c4 de 49 be 4b ee b0 be 61 16 57 be df 81 93 3d
       -0.19713885 -0.34556803 -0.2100463 0.07202505
000070 49 cf 3d be ee 0b d1 3d 1a 42 d2 bc a4 e8 12 be
       -0.18536104 0.102073535 -0.025666285 -0.14346558
000080 08 f3 8b 3d 57 4c 0d 3e b2 26 c3 3d 46 4f f9 bd
       0.06833464 0.13798653 0.09528865 -0.12173323
000090 7b 73 c6 bd 75 e5 47 3e a5 b7 b9 bd 68 55 0c bd
       -0.09689995 0.19521125 -0.090682305 -0.034261137
0000a0 23 1e d5 3d 1e 77 03 be a5 f2 2b 3e 3b 7f 9e bd
       0.10406139 -0.12838408 0.1679178 -0.07739111
0000b0 5b ba 41 3d d0 24 8b bd 55 96 32 3e 9e 69 6a 3d
       0.047296863 -0.06794131 0.1744016 0.05722963
0000c0 e3 80 95 bd 88 80 5e 3e 7d bf 53 3e f9 84 09 3b
       -0.07299974 0.21728718 0.20678516 0.00209838
0000d0 d7 58 9b be e7 9f 18 3e 54 fc a7 be 20 28 d5 be
       -0.30341217 0.14904748 -0.328097 -0.41632175
0000e0 56 8b c6 3d 6a fb cd bb cf 38 94 3b 01 84 30 bd
       0.09694545 -0.0062860744 0.0045233737 -0.04309464
0000f0 84 37 0d bd 5f b5 69 be e6 9d 43 3d a8 bf 26 3e
       -0.034476772 -0.22823094 0.047758006 0.16284049
000100 70 59 ed bc 87 c0 34 bd 38 1e 09 3e 23 7d 0e bd
       -0.028973311 -0.04412892 0.13390434 -0.03478731
000110 ff 92 80 3e 6b 3a 63 bd 1e 5d 46 3e b7 cc ff bd
       0.2511215 -0.055475634 0.19371459 -0.12490218
000120 9c 4b 32 bd 96 db f4 bc b2 1a 0c be ac 41 0b bd
       -0.043529138 -0.029889863 -0.13682058 -0.033998176
000130 f6 79 0d 3e 2a d3 38 be 0b 4e 8c be 08 5b 44 3e
       0.13816056 -0.18049303 -0.27403292 0.1917535
000140 4f 89 35 3e 36 e4 58 3c b5 03 11 3d 34 93 14 bc
       0.1772816 0.0132380035 0.035403926 -0.009068299
000150 83 d0 48 3d a4 e5 2b 3d 86 05 21 3e 7a b3 a6 3d
       0.049026977 0.04196705 0.15724763 0.08139701
000160 d6 87 3e 3e 03 8b 9d be cf ce 6b bd 1b 9a 51 be
       0.18606505 -0.3077012 -0.057570275 -0.20468943
000170 5d c7 37 be 67 47 01 3e 29 a8 63 be 08 1a de bd
       -0.17947145 0.12624894 -0.22232117 -0.10844809
000180 e6 b7 29 3e e3 7e 3c be d3 21 61 3e 58 d5 a5 bc
       0.16574058 -0.18407778 0.21985559 -0.020243332
000190 f7 0c 01 3e 54 fc 63 3e 1a 4b 41 be 2c 9b 5c 3e
       0.12602602 0.22264224 -0.18876305 0.21543568
0001a0 57 12 6b be 23 5a 46 3e 54 2a cc bd 7d 7a a0 bd
       -0.22956215 0.19370322 -0.09969011 -0.07835863
0001b0 10 e8 f5 bd c2 77 2a 3e 0f 13 37 3d 00 ae b0 3c
       -0.12007153 0.16647246 0.04469591 0.021567345
0001c0 12 8f 24 3e e9 e1 ee bd 14 ff 29 3e 37 fc 62 3d
       0.16070202 -0.11664183 0.16601211 0.055416312
0001d0 29 05 1e 3e 32 fb 54 be bd 9e 22 3e bc 0c 21 be
       0.15431656 -0.20798948 0.15880866 -0.15727514
0001e0 3d 03 38 3e d7 41 e2 3d 8c 83 b9 be 70 8e 5b be
       0.17969985 0.11047714 -0.36233175 -0.21441054
0001f0 52 cf b3 be c0 e1 cd 3d 8f e2 eb bd d4 be 67 be
       -0.3511911 0.10052824 -0.11517822 -0.22631389
000200 09 57 0f 3d 8c f5 4f 3e 2c d3 18 be f3 e8 3a 3e
       0.034995113 0.20308512 -0.14924306 0.18252926
000210 03 ac 5e be ea 48 6b 3e 93 68 8b be c4 dc 6c 3e
       -0.21745305 0.22977033 -0.2722822 0.2313109
000220 cf 07 c2 be 94 79 52 3e 3a 92 ff 3d 40 a0 42 be
       -0.37896582 0.20554191 0.124790624 -0.19006443
000230 d5 ca 8e be 78 fd 5b 3e 6b 63 0d 3e 90 84 85 be
       -0.27889124 0.2148341 0.13807456 -0.260777
000240 43 10 de 3d 2b 43 39 3d a3 ad 4a be 83 c0 ce be
       0.108429454 0.045230072 -0.197928 -0.4038125
000250 e9 14 23 be 1b 29 eb 3d
       -0.15925945 0.114824496

layers.2.bias f4 [5]
000000 71 1c e5 be cd 13 a0 be 40 cc 98 be ab 5c e1 3d
       -0.44748262 -0.31265107 -0.2984333 0.11004003
000010 79 76 a2 3e
       0.31731012
