irony/models/model_23.pt (torch_old, 38823 bytes, 8 tensors)

layers.0.weight f4 [70, 10]
000000 39 1a 7e be 28 12 ae be a4 bd 97 3e 43 86 55 3e
       -0.2481469 -0.33998227 0.29636872 0.20851998
000010 da 1f 31 be a2 d7 f5 3d 4a 3c 52 3d aa 4f 71 be
       -0.17297307 0.12004019 0.051327027 -0.23565546
000020 37 d5 39 be d8 39 0c be c4 7d 4c be bc 65 19 3e
       -0.18147741 -0.1369394 -0.19969851 0.14980215
000030 d2 d4 91 bd 52 b5 d9 3c 96 21 9f be 02 88 de 3d
       -0.071206704 0.026575718 -0.31080312 0.10865785
000040 fb 9f 65 3e e5 d5 8c 3e 58 6a 68 be e0 64 43 3d
       0.22424309 0.2750694 -0.22696817 0.047703624
000050 b5 67 2f 3e b2 0b d4 3d 5b 3b 52 bc 07 56 4f be
       0.17129405 0.10353793 -0.012831534 -0.2024766
000060 22 c0 6c 3c 8f 81 7a bd fe 25 fa bb 26 fd 63 bd
       0.014450105 -0.061158713 -0.0076339236 -0.055661343
000070 78 c2 1c 3c 07 4d 00 3c 4a c5 84 3c c2 fc 60 bd
       0.009567849 0.007830865 0.016207356 -0.05492855
000080 f2 96 46 3e 13 a2 a2 3c f6 0b a5 3e f3 43 97 3d
       0.19393519 0.019852674 0.32235688 0.07386007
000090 d9 95 25 3e ef f1 e7 3d 10 f8 00 3e 63 b9 e7 3d
       0.16170444 0.11325442 0.12594628 0.113146566
0000a0 5c 15 56 3e d6 70 62 be 2d 38 da 3c 75 de fd bc
       0.20906585 -0.22113356 0.026638115 -0.030989865
0000b0 0e 6d 83 be ce 32 00 be ac 49 1d 3e 27 62 dd bd
       -0.2566914 -0.1251938 0.15360135 -0.10809737
0000c0 28 13 98 bd 00 3c 82 3c 01 f4 0a 3e 4e ac 90 bd
       -0.07425529 0.01589775 0.13569643 -0.070641145
0000d0 b1 23 68 be 7f 89 2a 3e 98 87 d4 bd 47 08 35 3e
       -0.22669865 0.16654013 -0.10377425 0.17678939
0000e0 4f 73 43 be 71 17 56 3e 58 5a 64 be 6a ed 1d be
       -0.19086955 0.2090738 -0.22300088 -0.15422598
0000f0 34 fe 35 be a7 53 ae be 2e 81 d7 3e cd 37 37 3e
       -0.17772752 -0.34048197 0.42090744 0.1789238
000100 b2 0a 59 be 22 fc bc 3d 87 d5 1e be 2d 7d b0 bd
       -0.21195486 0.09227778 -0.15511142 -0.086176254
000110 e4 8f 6e 3e 9e 60 49 3e cf cd 20 3e 50 5a 88 3e
       0.23297077 0.19665763 0.1570351 0.26631403
000120 db 97 f2 bc 52 7c b2 bd 2f 0d ae be 9f 3b 9d 3e
       -0.029613426 -0.087151185 -0.33994433 0.3070955
000130 ff b2 42 bc 21 4c ce 3d 19 78 40 bc c7 0d a3 bd
       -0.011883496 0.10073114 -0.0117473835 -0.07961612
000140 00 99 8c 3e 4b 60 6a 3d 64 d4 c4 3c 0f 1a ac be
       0.2746048 0.05722074 0.024027057 -0.3361363
000150 05 f8 90 3b b6 43 9b ba 5d 6c d0 3d eb 07 65 be
       0.0044240975 -0.0011845741 0.10176919 -0.22366302
000160 48 5b 5c be 2a 5e 29 be ce a9 79 be a1 4e 46 be
       -0.21519196 -0.16539827 -0.24381182 -0.19365932
000170 40 46 9b 3e 41 e4 94 3d 4f 49 4a be 6a 3f cd 3d
       0.30327034 0.072700985 -0.19754528 0.10021861
000180 db 25 12 bd ca f5 40 be 3e a7 10 be 37 ec 8f be
       -0.035680633 -0.18843761 -0.14126298 -0.28109905
000190 9f 81 90 3e 84 a1 5c bd ca 69 75 be 26 bc 31 be
       0.28223893 -0.05386497 -0.23966137 -0.17356929
0001a0 f1 7a b7 be 06 e6 97 3e bf ac 59 bd 43 90 94 3d
       -0.35835984 0.2966768 -0.05314326 0.07254078
0001b0 f4 f4 d1 3d 14 d0 f9 bd 64 2c 8b bd 95 68 98 bd
       0.10251799 -0.12197891 -0.06795576 -0.074418224
0001c0 eb ad a3 be 96 ca 0a bd 1d 14 95 3e f1 91 ab 3d
       -0.31968626 -0.033884607 0.29116908 0.083774455
0001d0 96 81 70 be 37 8c 7b 3e 5b e2 1c 3e d9 bc 3d be
       -0.23486933 0.24565206 0.15320723 -0.18529071
0001e0 63 d6 18 be 02 68 99 3d a5 20 94 be 52 dd bf be
       -0.14925532 0.07490541 -0.28931156 -0.37473541
0001f0 5b 26 5a be c9 ae 10 be cd 8f 99 3e 0d f4 89 3e
       -0.21303694 -0.14129175 0.29992524 0.26944008
000200 dc cd 66 be 1b 85 8d bd dd 44 c8 3c d4 52 61 3e
       -0.22539467 -0.069101535 0.0244469 0.22004253
000210 0f f8 3e 3e 68 e5 ee 3d 2c 3f 4b be 15 b4 bd bd
       0.18649314 0.116648495 -0.19848317 -0.092628635
000220 5c d4 ac 3c 60 39 3e bd b5 7d 67 3e 3f d4 75 be
       0.021097355 -0.046441436 0.22606547 -0.24006747
000230 1d e3 db bc 52 15 04 3e 3c 47 37 be 2c 2f 8e bc
       -0.026841694 0.12898758 -0.17898268 -0.017356478
000240 13 e1 7e be df 9c a7 3c ba 5d 9d 3e 7d 5a de bd
       -0.24890547 0.020460544 0.3073557 -0.10857103
000250 30 cf fd 3d f9 3e 14 3b c2 e6 91 bd 24 a6 80 be
       0.123930335 0.0022620542 -0.07124092 -0.25126755
000260 87 6e 9b 3e 4f 78 00 be 03 ba ae be 48 26 8c bd
       0.30357763 -0.12545894 -0.3412629 -0.06843239
000270 ce 3e b9 3c 4c 6e a9 3e 8e 12 78 be 63 1e fa 3d
       0.022612955 0.33091962 -0.24225828 0.12212827
000280 b4 b9 8a be bf 4c 4f 3e d1 68 8f 3e f6 94 3e bd
       -0.27094805 0.2024412 0.28009656 -0.04652878
000290 dd 72 97 bd d7 7d 99 be ff 2b e9 bd f1 69 f3 bc
       -0.07394955 -0.2997882 -0.11385345 -0.029713603
0002a0 d5 09 82 3d 4d 19 3d be 88 c5 b5 3c 64 04 30 3d
       0.063495316 -0.18466683 0.022188917 0.042972937
0002b0 a7 ca e3 3d fb 11 30 3e be 9e 86 be 4d b7 18 bd
       0.11122637 0.17194359 -0.26292986 -0.037284184
0002c0 c5 a6 7e be a4 ef 95 3e 80 27 b2 3d 63 59 fc bd
       -0.24868305 0.29284394 0.0869894 -0.12321737
0002d0 d1 3f 4e 3e e2 0c a4 be 2c 3d 3b 3e 37 1c d0 3d
       0.20141532 -0.3204108 0.18285054 0.101616316
0002e0 c1 f3 fe 3b 2b 62 75 be 64 46 92 3d ca 25 4f 3e
       0.0077805226 -0.2396323 0.07142332 0.20229259
0002f0 e1 ee 7f 3e 21 ab 5f be 79 1b 8e 3e f7 19 3d 3e
       0.24993469 -0.21842624 0.27755335 0.18466936
000300 b7 3f a6 3e ba 93 6b 3d 89 5e f9 bd 33 c7 6d 3e
       0.32470486 0.05751393 -0.12176234 0.2322052
000310 21 17 83 3d 03 3e 6b 3e f0 30 86 be ff ae b7 bd
       0.06400896 0.22972874 -0.2620921 -0.08968925
000320 42 f2 27 3d f2 51 6d 3d 75 b1 92 3d 82 6f 1b bd
       0.04100252 0.057939477 0.071627535 -0.03794814
000330 c3 d3 79 be 43 1f a0 3d 77 36 9a bc 85 9c 84 3d
       -0.24397187 0.07818463 -0.018824799 0.06475166
000340 ac d6 6e be a9 72 12 3e ab 5c 6d 3e 1e 9d ef bc
       -0.23324078 0.14301552 0.23179881 -0.029249724
000350 d4 c7 40 3e 3d 48 13 3e 9b ed a7 3c e1 f6 5b be
       0.18826228 0.14383025 0.020499041 -0.21480896
000360 8b fc 8b be 74 8b 6f be e1 04 95 3e a8 73 99 3d
       -0.27341112 -0.23393041 0.29105285 0.07492763
000370 52 92 18 3e 3e 40 8e 3d 2f 75 25 3e 38 64 b6 be
       0.14899567 0.06945847 0.16157983 -0.35623336
000380 da 58 e4 bd 45 ed 19 be 04 49 c3 3d bf 75 79 3e
       -0.111497596 -0.15031917 0.09535411 0.24361323
000390 c5 51 e4 3d a2 a1 4c 3d ec 2b 5f be 70 e6 83 3d
       0.11148409 0.049958833 -0.21794099 0.06440437
0003a0 e6 e6 50 be 7e 17 4e bd 99 09 24 bc 04 fe 0d 3c
       -0.20400581 -0.050315373 -0.010012054 0.008666519
0003b0 e8 0b 0c 3e c4 b3 33 3d 8c 70 c8 bc a6 cf 93 3e
       0.13676417 0.04387261 -0.024467729 0.2886936
0003c0 5b de 39 3e d1 bb 4d 3d df 96 e5 bd 26 12 48 3e
       0.18151228 0.050227944 -0.11210417 0.19538173
0003d0 bc 11 b5 be c2 17 14 3e 0c 1b 55 3e 8b 06 13 be
       -0.35365093 0.14462188 0.20811099 -0.14357965
0003e0 9f 6b 1c be c3 33 8b 3d 23 6a 96 3e 54 5a 42 3e
       -0.15275429 0.06796982 0.2937785 0.1897977
0003f0 ef c9 3e 3e 75 f5 ea bd ae a9 de bd 5b 5d 14 bd
       0.18631719 -0.114725985 -0.108722076 -0.036221843

layers.0.bias f4 [70]
000000 23 a3 71 be 0a cf 5a 3c 3e 9b 83 be fd a2 6a be
       -0.23597388 0.013355026 -0.25704378 -0.22913738
000010 e3 97 48 be 2e 04 30 be 33 2c 79 be 3b 86 06 be
       -0.1958919 -0.17189094 -0.24333267 -0.13137142
000020 e6 57 5e bd 2b 2b 8c 3e 8a 3a 30 bd dc 84 6b 3d
       -0.054283045 0.27376685 -0.043024577 0.05749975
000030 c2 8b 9b 3e 7f dd e3 bd 43 6f 20 bd 8e 5f bd bd
       0.30380064 -0.111262314 -0.039168607 -0.09246741
000040 f3 8f 7c bd de 18 15 be d8 ce eb 3b 45 50 69 be
       -0.06166072 -0.14560267 0.0071962886 -0.22784527
000050 ae a6 08 bd d5 13 a2 3c 68 ee 6f 3e be 2d 36 3e
       -0.033362083 0.019784847 0.23430789 0.17790887
000060 f4 a5 15 bd 39 8f 28 3d 79 4a 70 be b1 9b ce bd
       -0.03653522 0.041152213 -0.23465909 -0.100882895
000070 14 5c 5b be 66 50 36 be b1 4a 01 3e fe c7 7d be
       -0.21421844 -0.17804107 0.12626149 -0.24783322
000080 fa 99 2a bd c4 e2 f0 bc 61 5a f4 bd e2 f9 99 be
       -0.04165075 -0.029405005 -0.11931301 -0.30073458
000090 81 f4 93 be 2f 1c 92 bd c0 84 c2 bd 30 1a 9e bd
       -0.2889748 -0.07134282 -0.09497976 -0.077198386
0000a0 f5 08 81 3e 13 6d 44 bc 8a d3 bc 3c 02 1f 74 bc
       0.25202146 -0.011988896 0.023050088 -0.014899971
0000b0 4a 86 61 3e 5b 43 a7 bd a0 f5 05 3e 26 a0 69 be
       0.22023883 -0.08167144 0.1308198 -0.22814998
0000c0 75 4d c4 3d 59 35 60 3e 61 e0 7e be b0 cb 64 3e
       0.09585086 0.2189535 -0.24890281 0.22343326
0000d0 87 f4 15 bd 99 cc c9 bc 1c 36 20 be 38 f9 bc bd
       -0.036610153 -0.024633693 -0.15645641 -0.09227222
0000e0 aa 76 52 be de 82 5a be 46 e7 04 3d 1b d3 cc bd
       -0.20553079 -0.21338984 0.032447122 -0.10001203
0000f0 44 a7 c7 3d a1 04 25 3e 68 9a 15 be e1 7b 98 be
       0.097487 0.16115047 -0.14609683 -0.29782012
000100 12 c5 ed bd 4f d8 8a 3e ce dc 12 be 0f e8 19 3e
       -0.11609854 0.27118155 -0.14342043 0.1502993
000110 90 f5 20 3d e4 c2 6e be
       0.039296687 -0.23316532

layers.1.weight f4 [50, 70]
000000 5e 86 8e 3d 5e ea cb bd 20 b1 6d 3d 96 de 1b 3d
       0.06959222 -0.09956811 0.058030248 0.03805407
000010 17 d9 ca bc 38 2e 85 bd 53 d2 37 3b 66 61 55 3d
       -0.02476172 -0.06502956 0.0028048947 0.05209484
000020 2e f3 f1 bc 5a 34 ea bd 09 a1 e4 bd ef 5b 19 3e
       -0.029534902 -0.114357665 -0.111635275 0.14976476
000030 08 1d ff 3c 77 6c 58 3d e0 84 96 bd a0 17 54 bd
       0.031141773 0.052837815 -0.07349563 -0.051780343
000040 ed a9 8c bb fd ed 40 3d da de 4b bd c9 c0 a8 bd
       -0.0042927177 0.047101963 -0.049773075 -0.08239896
000050 d3 03 1e 3d cd d8 49 3c f5 35 0a 3d c5 7d a9 3d
       0.038577866 0.012319756 0.033742864 0.08275942
000060 17 ed da bd 46 b4 d1 bb 6b bd 12 3c d1 66 1d 3e
       -0.106897525 -0.006399664 0.008956294 0.15371253
000070 ed d1 54 bc 94 2d b3 bd 67 aa c9 bd 88 e0 cf 3d
       -0.012989503 -0.08748928 -0.09846955 0.10150248
000080 c4 35 18 bd 35 3b 73 3d bb 74 a1 3d 51 41 c3 bd
       -0.03716065 0.059382636 0.07883593 -0.095339425
000090 ec 3b 3b bb 57 2f cd bb e7 60 8d 3d 62 7a 14 bd
       -0.0028569652 -0.006261747 0.06903248 -0.036249526
0000a0 43 4a dc bc 47 3b 16 3e e6 34 90 3d ae d3 9c 3d
       -0.02689088 0.1467105 0.070413396 0.07657562
0000b0 c0 68 8a bd 46 4d 74 bd 0a 7d 9e bc 54 61 9f 3d
       -0.06758261 -0.059644006 -0.019346733 0.07782236
0000c0 04 75 f7 3c 69 15 72 bd 0f b1 98 3b eb 64 b2 3c
       0.030207165 -0.05910245 0.004659779 0.021776637
0000d0 11 90 9b bd 1e 98 90 bd c9 fc f1 3d 71 c5 54 bc
       -0.07595838 -0.07060264 0.11815793 -0.012986527
0000e0 cd 78 24 bd 5d 35 c3 3d ad d9 ac bc a4 03 b8 3d
       -0.040154267 0.095316626 -0.02109989 0.089850694
0000f0 7d 44 89 bd fb c6 5b 3d d8 05 3c 3b 00 22 07 3d
       -0.06702516 0.05365656 0.0028690007 0.03299141
000100 55 82 8a 3d 4f 2e 77 3d 4e 9d e6 3c 01 c9 94 3c
       0.0676314 0.060346898 0.02815118 0.018162252
000110 2b a5 c3 3d 5f ae c7 3d ba ca a0 3d 70 70 01 bd
       0.09552988 0.097500555 0.07851167 -0.03160137
000120 23 15 0a be 92 90 ce 3d 75 0e 42 3c 83 06 27 3d
       -0.13484626 0.10086168 0.011844267 0.040777694
000130 7a 6c aa 3d 4b a6 96 bc 5c 89 7c bd 75 9e 97 bd
       0.083214715 -0.018389842 -0.061654434 -0.0740327
000140 ac d9 1b be a9 bc 34 3d 5b 06 48 bd e0 2f ca bd
       -0.15219754 0.044125233 -0.048834186 -0.09872413
000150 7e 09 b1 bd e0 a1 d3 bd 96 98 f7 bd 30 33 81 bc
       -0.086443886 -0.103336096 -0.1208965 -0.015771478
000160 4b af ff 3b 81 63 29 bd 46 2b 4a 3c fc a1 1d bd
       0.007802879 -0.04135466 0.012339419 -0.03848456
000170 2e ea 45 bd 7d 79 03 3e 7d a0 df bc 9c a9 dd bd
       -0.048319034 0.12839313 -0.027298206 -0.10823366
000180 8e 34 ca bd 3c ee 6e 3d e5 1d 98 3d 42 31 cc bc
       -0.09873305 0.058332667 0.07427577 -0.024925832
000190 38 b1 f6 3d 60 36 bc bd dc 56 4a bd 9e a5 9b bd
       0.120455205 -0.09190059 -0.04939924 -0.07599948
0001a0 cb 70 6a 3d 29 5d e3 bd 53 7c fa bd 71 25 59 bc
       0.057236474 -0.11101753 -0.12230744 -0.013253556
0001b0 06 b5 b4 3d f3 83 6f 3d 62 1a 02 3c 6a a6 21 3e
       0.0882359 0.058475446 0.00794086 0.15786138
0001c0 52 d6 02 3e e6 19 2c 3c 84 60 cc 3c a1 c6 9a 3c
       0.12777069 0.010504222 0.024948366 0.018893542
0001d0 3f 97 ba bd 4b 72 85 3c e8 f6 c6 3d 27 de f1 3d
       -0.09110879 0.01628985 0.097150624 0.1180995
0001e0 ea 9c 11 3e 14 c7 9e bd b4 8f 4b bd 97 2e 12 3d
       0.14220014 -0.07752815 -0.049697593 0.035688963
0001f0 22 38 9f 3d a2 84 2f 3c a1 b1 8b bd 53 ac 13 3c
       0.07774378 0.0107127745 -0.068209894 0.009013253
000200 bc db 1d 3e a8 9e c9 3d 2e 53 ef bd 20 e5 ff 3d
       0.15415853 0.098447144 -0.11685787 0.12494874
000210 49 25 50 3d e1 76 66 3d 30 d7 19 3c db 79 c1 3d
       0.050816808 0.056265716 0.009389684 0.0944707
000220 16 42 7e bc 08 d7 e2 bd 16 5c bf 3b f2 14 47 bd
       -0.015518686 -0.1107617 0.005839835 -0.04860396
000230 fe 53 fe bd 09 7d e9 bd 05 08 4e 3d dd da a0 3d
       -0.12418364 -0.11400802 0.050300617 0.07854245
000240 4b 98 8e 3d 50 54 25 3d b6 98 a2 bd 10 8a a7 bd
       0.06962641 0.04036361 -0.079392835 -0.0818063
000250 9b 72 c3 3d b5 e4 32 bd b9 dc af bc 9e e6 77 3d
       0.09543344 -0.043675143 -0.021467553 0.060522668
000260 fe 09 b7 bd 21 a0 83 bc 20 f5 df bd 4a 0b 10 be
       -0.08937453 -0.016067566 -0.10935426 -0.14066806
000270 27 e1 0d bd ad 0a 92 bb 95 7c f4 bc a5 ed 9b bd
       -0.03463855 -0.004456839 -0.029844562 -0.076136865
000280 b9 01 55 bc b1 b9 91 bc 4a 13 bc bc 6f fc 8c bd
       -0.013000899 -0.01778874 -0.022958416 -0.068840854
000290 1a a1 43 3d fe 80 88 ba 24 70 37 3d 72 d4 f2 3d
       0.04776106 -0.0010414419 0.04478468 0.11856927
0002a0 86 11 c7 3b 5c 0d 6d 3d d7 7a 4b 3d 26 4d b9 3d
       0.006075087 0.05787407 0.049677696 0.09047918
0002b0 60 f6 db 39 02 9f ec 3c cf e0 00 bd 3a 76 14 3b
       0.000419545 0.028884415 -0.031464394 0.0022653476
0002c0 92 4d f2 3c c0 43 14 be 9c 30 ea 3d df aa 7c bc
       0.029578004 -0.1447897 0.11435053 -0.015421598
0002d0 6e b2 74 bd 9b 3f 24 bd 22 43 b8 3c 1c 4a 2f bd
       -0.059740476 -0.04009972 0.022492949 -0.042795286
0002e0 94 e1 b1 bc 05 c1 9c bd a9 3d 6f bc 3f 6c d0 3d
       -0.02171401 -0.07654003 -0.014602103 0.10176896
0002f0 58 c4 b7 3d 72 e9 9c 3d 1f 7c 60 bd 82 f7 04 3e
       0.089729965 0.07661714 -0.05480587 0.12985042
000300 0f 53 6b 3d a9 2c b2 bd ab 2a 08 3e 9e 50 d0 3d
       0.057452258 -0.086999245 0.13297527 0.101716265
000310 be c6 9e 3d 34 76 c9 3d b5 29 9d bd 30 b9 07 3e
       0.07752751 0.098369986 -0.076739706 0.13254237
000320 f5 6e aa 3d 0a 1e 94 3d 6f d1 24 3c c9 66 35 bc
       0.083219446 0.07232292 0.0100596985 -0.011071869
000330 29 7b 35 bd 9a 6d bb 3d d8 62 80 3d 53 fa f8 bc
       -0.044306908 0.09151764 0.06268853 -0.030392801
000340 c0 3d 86 3d 29 53 8b bb db 47 9a 3c bf 82 10 bc
       0.06554747 -0.004251857 0.018833091 -0.008820235
000350 40 c6 aa 3d 4b fd 83 bd e3 fa e9 3d 02 72 98 3d
       0.083385944 -0.06444796 0.11424806 0.0744362
000360 18 bf 32 bd d3 30 b0 3d 09 90 9e 3d a3 ca ba bc
       -0.043639272 0.086030625 0.07742316 -0.022801703
000370 4d bb 75 3c b0 26 a1 bd 53 c5 30 3c 06 df df 3d
       0.014998269 -0.07868707 0.010789233 0.1093121
000380 7e 95 48 bd a9 c5 16 3d 11 b2 02 bd bf 0c ac bd
       -0.04897069 0.036809597 -0.0319081 -0.084008686
000390 99 6c 15 3d 01 ea 13 3e 6b d9 ce 3d cd 64 55 3d
       0.03648052 0.14444734 0.10100063 0.052098084
0003a0 54 a4 d1 3d f2 6b ae bd a2 5e f6 bc 30 9a 4e bd
       0.10236421 -0.08516683 -0.030074421 -0.050440013
0003b0 75 d3 ce bc 60 83 c0 bd bf 95 04 be a0 77 b6 3d
       -0.025247315 -0.09400058 -0.12947749 0.089095354
0003c0 dc 85 91 3d aa d7 a7 3c c6 06 83 3d 6c f6 82 bd
       0.0710561 0.020488579 0.06397776 -0.063946575
0003d0 ff fa 77 3d 93 09 89 3d 2f 6b 9c bd b4 b7 b6 bd
       0.060542103 0.06691279 -0.07637631 -0.08921757
0003e0 e3 1e 1b bd a8 eb cc bc 78 0a 12 3e 3e 30 bd 3c
       -0.037871253 -0.025014713 0.14261806 0.023094293
0003f0 5c 78 d3 bd 6d f1 e7 bd 2b 4b 6a 3d 87 46 3d bd
       -0.10325691 -0.11325345 0.057200592 -0.04620984

layers.1.bias f4 [50]
000000 41 42 e5 3d fa 35 b0 bd a4 d6 ad 3d 2c c6 78 3d
       0.111942776 -0.08604045 0.08488205 0.060735866
000010 6f 51 7d bc 3d 30 85 bd 96 ca 91 3d da 90 cf 3d
       -0.01546131 -0.06503341 0.07118718 0.1013505
000020 6f 57 54 3d bf 77 90 3d bf 9c cf 3d 6b 86 55 bd
       0.051841196 0.0705409 0.10137319 -0.052130144
000030 9a e2 c2 bd bb e2 00 3e 3b 03 8d bd f6 5d 68 3d
       -0.09515877 0.12586491 -0.06885382 0.056730233
000040 d6 4b 82 bd f0 cb a7 3d a2 1b 08 bd bf 38 ef 3d
       -0.06362121 0.08193195 -0.033229478 0.11680745
000050 01 df 3b bd 14 6e f2 3d 13 49 05 3e 67 01 d8 3d
       -0.04586697 0.11837402 0.13016157 0.105471425
000060 e9 f7 2a bd 07 2b 7f bd 24 f5 c5 bd 4a 46 17 3d
       -0.04174033 -0.062296893 -0.096658975 0.036932267
000070 85 2a 02 bd a6 09 a4 3d a0 bc b9 bc f5 f2 9f 3d
       -0.03177883 0.08009653 -0.022672951 0.07810012
000080 10 81 af bb bb 21 d7 bb ff 78 0a 3e 10 d5 4f bc
       -0.0053559616 -0.0065653003 0.13522719 -0.012685075
000090 97 33 14 bc 84 8a 7d 3d 39 0d 73 3d f6 eb 55 bd
       -0.009045503 0.061899677 0.059338782 -0.052226983
0000a0 fb 5c b6 bd a5 d1 2d bd 96 ee 56 3d 30 c6 48 3d
       -0.08904453 -0.04243626 0.052473627 0.04901713
0000b0 80 ca 4a 3d 2d e5 75 3d 85 fc 32 bd 4e b0 3b bd
       0.049509525 0.060033012 -0.043697853 -0.045822434
0000c0 45 b0 b5 3d 60 e8 28 3d
       0.08871511 0.041237235

layers.2.weight f4 [90, 50]
000000 d6 d1 73 bd 04 27 fe bd 7b f3 0d be 57 10 bf 3d
       -0.059526287 -0.124097854 -0.13862412 0.093292885
000010 71 d8 5d bd 75 e9 18 be f5 31 14 bd ce 3e ad bc
       -0.054161493 -0.14932807 -0.036180455 -0.021148112
000020 81 75 85 bd c0 47 90 3d 82 50 23 3c 6e 29 ec bb
       -0.06516553 0.07044935 0.009967925 -0.0072070872
000030 cb 57 1a be 3a 12 d0 bc df bc 03 be 73 b4 10 3d
       -0.15072553 -0.025399316 -0.12865017 0.03532834
000040 e4 b2 87 bd 33 a0 d9 bb f1 2e 97 bc bf 19 6b bd
       -0.066259176 -0.0066414117 -0.018455 -0.0573976
000050 3a 28 a6 bd 5c 3a 31 3e db 99 a4 bd 3a 70 02 3e
       -0.08113141 0.17307419 -0.08037158 0.12738124
000060 c8 97 30 bd 3d 26 e1 3d 78 d6 98 3d 2f ba 82 3d
       -0.0431135 0.109936215 0.07462782 0.06383168
000070 21 a7 a0 3d 97 a9 6d 3d c8 6d c5 bd 86 2f 45 bd
       0.07844377 0.05802306 -0.0964008 -0.048141025
000080 29 86 e6 bd 5e 53 c9 3d db 89 a4 3d e6 ab 9b 3d
       -0.11256058 0.09830354 0.08034106 0.076011464
000090 e2 5e 2e bd 6a 10 11 bd 18 de fc 3d ff e0 bf 3c
       -0.042570956 -0.035416044 0.123470485 0.023422716
0000a0 4c fd cd 3d a3 d5 84 bd 2c 55 60 bd eb 04 1b 3e
       0.10058078 -0.064860605 -0.054768726 0.15138595
0000b0 cb 06 63 bd 02 72 d9 3d ea 49 bf bc 0c 6a ca bd
       -0.0554264 0.106174484 -0.023350675 -0.09883508
0000c0 d9 7f e8 bd 8b aa b6 bc 24 59 2a bd 4a 08 8e bc
       -0.1135251 -0.022298118 -0.041588917 -0.017337937
0000d0 b8 d7 ed 3d 57 77 de 3d ec e0 28 bd dc b8 ac bc
       0.11613411 0.10862606 -0.041230127 -0.021084242
0000e0 3a a7 a8 bd c4 df 90 3d 79 78 21 bd 86 ea 11 be
       -0.08235021 0.0707393 -0.039421532 -0.1424962
0000f0 c9 0b b1 bd 7e 05 15 3d 8b 17 c1 bc af cd a3 bd
       -0.08644826 0.03638219 -0.023570796 -0.079982154
000100 b1 81 0b 3d a6 2f 02 3e cf f2 3b bd 5b b6 1d 3d
       0.03405923 0.12713489 -0.045885857 0.038503986
000110 10 f3 ae 3d a2 27 09 bd 3b 8e 7f 3d c7 86 e1 bc
       0.08542454 -0.033485062 0.0623915 -0.027530087
000120 3d 3d f5 3b b5 b5 fc 3d 2a 80 f3 bc ef de 35 3d
       0.007484107 0.12339345 -0.0297242 0.04440206
000130 23 cd 87 3d 2b e3 f6 3d 6e 6b 6c 3d b9 ff 3a 3d
       0.066309236 0.120550476 0.05771964 0.045654032
000140 b1 4b 3c bd 3e 77 97 3d 27 8a 2a bd 95 ae e6 3d
       -0.045970622 0.073957905 -0.04163566 0.11263768
000150 9a 2f d7 3d 84 0e 0b bd d8 d9 1d be 25 5a a1 bc
       0.10507126 -0.03394939 -0.15415132 -0.019696305
000160 48 68 2d 3d fe aa c4 bd 86 e7 81 bc fc 9e 30 be
       0.04233578 -0.09602927 -0.01585747 -0.17248148
000170 50 2c 1e be 12 2c 5b 3d da c3 68 bd 39 1a ff 3c
       -0.15446591 0.053508826 -0.056827404 0.031140434
000180 5b 51 ad bd d7 c5 0d 3e 8e 46 67 3c 17 20 ba 3d
       -0.08462783 0.13845001 0.014115943 0.09088152
000190 fc 1c 70 bd a5 62 13 bd 25 ad 33 3e 84 d5 3c bd
       -0.05862139 -0.035982747 0.17546518 -0.046102062
0001a0 33 ed 88 bd b9 28 a4 bd b0 1b b8 bc af 2b 6c bd
       -0.06685867 -0.0801558 -0.02247414 -0.057658847
0001b0 3e 4d 79 3d 51 cf f9 bd 54 1d a7 3c 84 81 97 3b
       0.06086468 -0.121977456 0.020399727 0.0046235938
0001c0 e9 c0 8f 3d 69 bc a5 bc 80 20 a5 b9 08 dc 2c be
       0.070192166 -0.020231443 -0.00031495467 -0.1688081
0001d0 ec 1e 10 3e 01 52 c2 3c ff 05 9f bd c8 20 23 3d
       0.14074296 0.023720743 -0.077648155 0.039826185
0001e0 0a ec c0 3d 04 ad 17 be 3b d7 a6 3d 0a 1a f6 bd
       0.09420021 -0.14812094 0.08146521 -0.12016685
0001f0 dd 80 c8 3c 16 0c b7 3d ce ef 0e 3e 11 63 a5 3d
       0.02447551 0.08937852 0.13958666 0.08075536
000200 42 5d fc bc d1 e1 db 3d f4 0c 12 bc 2e 98 a0 3d
       -0.030806188 0.107364304 -0.008914221 0.07841526
000210 7b 86 ad bd 6b c3 45 bd a5 46 b4 3d 40 63 df bd
       -0.08472916 -0.04828207 0.08802537 -0.10907602
000220 a7 ba e2 bc 5c c7 10 bd 6b 8a 8b bd 34 37 f3 bd
       -0.027676893 -0.035346374 -0.068135105 -0.118757635
000230 c1 c2 eb 3d d8 00 eb 3b 4c f4 86 bc ce e9 af 3d
       0.11511756 0.0071717314 -0.016473912 0.085895166
000240 9e 9e 4b 3c cf 73 40 3d 00 bf 1d bd f4 3b cb bd
       0.012427954 0.046985444 -0.03851223 -0.099235445
000250 59 27 33 bd fb 0a 7b 3d a1 76 7c 3c 29 e4 13 be
       -0.043738697 0.06128977 0.015409143 -0.14442505
000260 06 a8 13 be 76 55 ba 3d e6 7c 00 be 20 ce df bc
       -0.14419565 0.09098332 -0.12547645 -0.027319968
000270 12 b0 a1 3d 6f a2 a8 3b 6b 3f 26 3d 63 da 6c bc
       0.07894911 0.0051463167 0.040587824 -0.014456364
000280 b3 a2 00 be 25 9a 59 bd b9 d5 c9 3d 2e b7 05 3e
       -0.12562065 -0.05312552 0.098552175 0.13058159
000290 e6 9e 9e bc c6 b2 4f 3d c9 b7 1a 3e 64 72 cb 3d
       -0.019362878 0.0507076 0.15109171 0.09933928
0002a0 be ab 04 be 11 cc 0a 3e 83 1e 70 ba 59 7b d3 3d
       -0.1295614 0.13554408 -0.000915982 0.10326261
0002b0 78 1a b3 bd 67 4e d2 3d d0 4b 6b ba 76 c9 98 3d
       -0.08745283 0.1026886 -0.00089758355 0.074603006
0002c0 ce 16 c7 bc 60 1c a4 3d 35 ec 1c 3e b6 5f d5 bd
       -0.024302866 0.080132246 0.15324481 -0.10418646
0002d0 8d 63 6f 3d f6 c1 87 bb 45 0f ea bd 66 57 c2 3c
       0.05844455 -0.004142995 -0.11428694 0.023723315
0002e0 f7 d1 01 3e fa 2e 0d be 30 6e 81 bd 30 a7 38 3d
       0.12677751 -0.13787451 -0.06319845 0.045081317
0002f0 8c d0 33 3d 07 08 26 3e 38 db 11 be d6 2a 2a bd
       0.043900058 0.16214 -0.14243782 -0.041544758
000300 3a 68 3d be 8a 0d 20 be 05 86 b3 3d 9d 5a b3 3d
       -0.1849679 -0.15630165 0.087657966 0.087575175
000310 f2 34 28 3e ba f9 a3 bd 1f 82 fa 3d 53 88 24 be
       0.16426447 -0.08006616 0.1223185 -0.16067629
000320 16 9c d3 3d e2 a8 ce bd d5 90 85 bd 08 b8 4d 3d
       0.103325054 -0.100908056 -0.06521765 0.050224334
000330 2b 36 8f 3d 14 56 9d 3d 20 a0 cb 3d 1d a9 c7 3d
       0.069927536 0.07682434 0.09942651 0.09749053
000340 72 2d 1a 3d dd dc ca 3d 64 3f 45 3d 6c cc c4 bd
       0.037640996 0.099054076 0.048156157 -0.09609303
000350 b9 a2 51 bb 74 60 3f ba 15 94 71 bd 84 c9 b6 3d
       -0.003198786 -0.00073004444 -0.058979113 0.08925155
000360 18 52 10 3c f2 41 dc bd c5 e4 0d 3d 69 06 3b 3e
       0.008808635 -0.107547656 0.034642 0.18264164
000370 14 c5 f6 3d 73 c7 9d 3c fa 59 e5 bb 64 42 ec 3d
       0.120493084 0.019260144 -0.0069992514 0.115361005
000380 85 6c 8b bd 34 23 23 3d fd 1f 30 bc 74 9d 8c bd
       -0.06807808 0.039828494 -0.010749814 -0.06865969
000390 0b c0 29 3e b1 73 4a bd bf c3 1e bd 3e a3 fc 3c
       0.16577165 -0.04942674 -0.038760897 0.030839559
0003a0 64 20 d4 ba 07 fc 91 bd 14 a0 1c 3c 92 8a ae 3d
       -0.001618397 -0.071281485 0.00955965 0.08522524
0003b0 43 75 b7 bd d2 ef d9 bc 5b 93 83 3d 25 cf b2 3d
       -0.08957913 -0.026603613 0.0642459 0.08730916
0003c0 23 66 a1 3d fb 89 19 3e c9 4e d2 3d 51 e3 b2 bd
       0.07880809 0.14994042 0.10268933 -0.087347634
0003d0 bc c6 0e be 26 e5 e3 3c e6 09 22 3e 23 e1 a7 3d
       -0.13942999 0.027819227 0.15824088 0.08197238
0003e0 33 9d df bc ca cc 15 3e 71 c9 dc 3d 50 b8 49 bd
       -0.027296638 0.14628902 0.107806094 -0.04924804
0003f0 e6 a1 a4 3d c8 da 28 be 1c 35 a3 3d bd 62 0d bc
       0.08038692 -0.16489708 0.07969114 -0.008629498

layers.2.bias f4 [90]
000000 ca d3 6a 3d 05 88 ec 3d a5 ab f9 bd 9c c1 bc bd
       0.057330884 0.11549381 -0.12190942 -0.092166156
000010 3e 00 8a 3d 09 ec 59 3d 6c 05 05 3d 9c 48 1b be
       0.067383274 0.053203616 0.032475874 -0.15164417
000020 a2 27 49 3d 22 4c 8e 3d fc 81 de bd 4e 83 c9 3d
       0.049110062 0.06948115 -0.10864636 0.098394975
000030 a0 5e 97 3c b3 1d 67 bc e3 f1 e6 bd 2d fe 74 3d
       0.018477738 -0.014106202 -0.11276605 0.059812713
000040 e9 ab d0 3d 07 45 02 be af b5 c9 3d b3 1d 19 be
       0.10189039 -0.12721644 0.098491065 -0.14952736
000050 c9 17 cf 3d 55 02 51 bd 68 29 de bc 94 d7 15 be
       0.101119585 -0.051027615 -0.027119353 -0.14633018
000060 c8 d3 bf bd 2e 72 bd bb 0d 43 0d 3d 87 7b a1 bc
       -0.09366566 -0.0057814335 0.034487773 -0.019712223
000070 07 9f f2 3d ea 5b 48 3d 1d 9b e7 bc 99 4e 75 bc
       0.11846738 0.04891578 -0.028272206 -0.014972352
000080 89 17 6d 3d a2 aa 87 3d 78 7b bf 3d d0 36 d5 bd
       0.057883773 0.066243425 0.09349722 -0.10410845
000090 80 06 03 3e 55 2c f3 3d 4d ad 3e bd a6 3b a4 3d
       0.12795448 0.1187369 -0.04655199 0.080191895
0000a0 30 26 b5 3d 71 91 9b bd 4e 7f 47 3d ae c0 ec 3d
       0.08845174 -0.075961 0.04870539 0.11560188
0000b0 7a f8 e8 bd dc 1f 15 3e dc 54 b1 3d f6 3f 61 bc
       -0.11375518 0.14562935 0.08658764 -0.01374816
0000c0 86 c6 17 be 6d cd 9e 3d cc 5c f3 bd e6 21 fd bc
       -0.14821824 0.077540256 -0.11882934 -0.030899953
0000d0 04 4c e7 bd 8e 1c c2 bd 78 61 cb bd f8 c9 a6 bd
       -0.11293796 -0.094781026 -0.099307 -0.08143991
0000e0 53 7f 1c bd b2 4c dd 3d 69 61 01 3e e8 b7 76 3d
       -0.038207363 0.10805644 0.12634815 0.06023398
0000f0 12 de 69 ba ad 15 84 bd ee 69 c2 bc 9b dd c2 bc
       -0.00089213357 -0.06449447 -0.023732152 -0.02378731
000100 c9 13 28 3d 0e 27 85 3d 86 e6 77 3d 74 c7 60 bd
       0.041034494 0.0650159 0.06052258 -0.054877713
000110 8f 7d fd 3d ca 1e 19 be 71 41 38 3c ba b8 03 3e
       0.12377464 -0.14953151 0.011246071 0.12863436
000120 3e d5 09 bc d6 d1 da 3d 22 75 8c bb 21 8c 51 3d
       -0.008412657 0.10684554 -0.0042864243 0.051159028
000130 46 3f fe 3d 3a 0a e8 bd 60 1e 7a bd 86 a1 08 bd
       0.12414412 -0.113300756 -0.061064124 -0.033357166
000140 c0 b7 a2 bd e4 ad 04 3e 79 91 7e bd 35 ad a7 3c
       -0.07945204 0.12956959 -0.062150452 0.020468334
000150 09 31 96 3c 02 37 70 bd 28 f8 13 be dd 74 48 3c
       0.018333929 -0.05864621 -0.14450133 0.012234894
000160 b0 d1 08 3e 19 46 e0 3b
       0.1336124 0.006844294

layers.3.weight f4 [5, 90]
000000 35 c0 82 3d ec dd e2 3d 18 04 fa 3d b2 1c ab 3d
       0.06384317 0.110774845 0.12207812 0.083550826
000010 93 9b bc bd d5 b3 ef bd e6 65 f8 3d 13 26 c6 3d
       -0.09209361 -0.11704222 0.121288106 0.09675231
000020 eb 2d f0 bd 5a 84 61 bc c0 15 eb 3d ce 12 18 3e
       -0.11727508 -0.013764465 0.11478758 0.14850923
000030 53 9f f2 bd ba e3 83 3d 52 b4 0c 3e 80 3d e2 bc
       -0.11846795 0.0643992 0.13740662 -0.027617216
000040 c8 be 49 3c a5 b7 30 3d f5 52 d4 bd 14 65 7e 3d
       0.012313552 0.043143887 -0.10367385 0.062108114
000050 0c c0 91 bd 0a 21 be bd 46 0f 05 be 43 65 ba 3d
       -0.07116708 -0.092836455 -0.12994108 0.091013454
000060 6f 8e 1f 3d 2f f5 ef 3d fe 4b 00 bc db 35 b8 3a
       0.038954195 0.11716687 -0.007830618 0.0014054136
000070 57 32 01 bc 69 c7 33 3d 2c fd f0 bd 4a e0 be 3d
       -0.007885537 0.043891344 -0.11767039 0.093201235
000080 16 a2 f6 bd 5d 1a 1a be 21 c6 65 bd 00 df bf 3d
       -0.12042634 -0.1504912 -0.056097154 0.09368706
000090 e0 78 03 be 4b 69 2d 3d a8 38 cf 3c 87 a1 a5 3d
       -0.12839079 0.042336743 0.02529557 0.080874495
0000a0 98 b9 63 3c f1 e6 e2 3d 1e a9 b4 3d 0f 61 d5 3b
       0.0138992295 0.11079205 0.08821319 0.0065118144
0000b0 eb 06 a6 3d 88 8f 08 be 8a 7b a8 bd f6 77 21 be
       0.08106788 -0.13336003 -0.08226688 -0.15768418
0000c0 9c 72 f2 3d 7e e3 b8 3c cd 2a e8 ba e0 30 08 3e
       0.11838266 0.022569414 -0.0017712951 0.13299894
0000d0 36 ac ff 3a 59 85 86 bc f8 fd 0d 3e 36 46 df 3c
       0.0019506279 -0.016421007 0.13866413 0.027255159
0000e0 22 74 0f 3d 56 f0 2d bc d1 65 2f bd a8 43 9c bd
       0.035022862 -0.010616383 -0.04282171 -0.07630092
0000f0 63 53 78 3c 03 3a f8 3d d1 e6 9f 3c bb 46 94 3c
       0.0151566 0.1212044 0.019519242 0.018100133
000100 7c 71 b0 3d e5 c5 a8 bc ae 92 b5 3c 72 5e 8e 3d
       0.086153954 -0.020602176 0.022164669 0.06951608
000110 30 c4 e8 bd 44 91 05 3d 5c e9 86 3b 89 6f 76 bb
       -0.11365545 0.03260924 0.004117174 -0.0037603101
000120 97 41 fd bd 5e 6a b5 bc 56 4b 97 3d 3b 9f 06 3e
       -0.12366026 -0.022145446 0.07387416 0.13146679
000130 8e 36 a0 bc a3 36 c7 3d c4 de 0a 3e 17 e2 ee bd
       -0.019557264 0.09727218 0.13561541 -0.11664217
000140 18 ac e7 bd 32 cc 0c 3d bc 65 de bb d8 4b 2a be
       -0.11312121 0.034374423 -0.00678703 -0.16630495
000150 49 94 34 bd 26 12 09 be 4c 7b 09 3e 4d 7a 17 be
       -0.04408673 -0.1338583 0.1342594 -0.14792748
000160 a7 3e 80 bb 5a ca 8b 3d ee 4d a9 3d 74 83 d6 bb
       -0.0039137187 0.06825705 0.08266817 -0.006546432
000170 c3 5b e2 3c a0 4a 40 bd 10 0e 63 3c 0d 62 54 3d
       0.027631646 -0.046946168 0.013858333 0.05185132
000180 1d ac 63 3c 02 7f db bd e1 02 68 3d 34 d1 5b bd
       0.0138960155 -0.10717584 0.05664337 -0.05366631
000190 1b 90 f5 3d 0a 93 43 3d 40 ff 20 be f5 91 9c bd
       0.119903766 0.04774765 -0.1572237 -0.076450266
0001a0 75 f3 10 3e 52 89 9e 3c 12 75 4b b9 68 1b 17 3d
       0.14155371 0.019352589 -0.000194032 0.03689137
0001b0 a8 b2 0f 3d 75 ef ec bd ba 65 e5 bd ad 8b e8 bd
       0.03508249 -0.1156911 -0.112010434 -0.11354766
0001c0 29 79 1a 3d f4 49 a8 3d 01 a9 55 3d 48 bf 45 bd
       0.037713204 0.082172304 0.052163128 -0.048278123
0001d0 eb a3 65 3d 68 d3 ea bd 97 69 01 3d af a3 e9 3c
       0.056064527 -0.11466104 0.03159484 0.028520433
0001e0 48 31 01 be 04 a4 b4 bd 36 60 c9 3c aa bb 17 be
       -0.12616456 -0.08820346 0.02458201 -0.14817682
0001f0 3e ea c8 bd af 1a 9c bd a9 60 ef bd 2e b7 e3 bd
       -0.09810303 -0.07622277 -0.11688358 -0.11118923
000200 93 d9 f0 3d f8 bf cf bd 56 4e 98 bd 17 e7 c7 3d
       0.11760249 -0.10144037 -0.074368164 0.09760874
000210 56 91 6f 3d 87 d3 15 3e 88 19 fb bd cc bf db 3c
       0.058488213 0.14631473 -0.12260729 0.026824854
000220 2a 4c 9c bd d4 f5 e5 bd 0b 4e 0b 3e 78 a5 1c bd
       -0.07631715 -0.112285286 0.1360399 -0.03824374
000230 23 36 98 bc 95 65 90 3d b5 9a 0c 3d 2d c8 86 bd
       -0.018580502 0.07050625 0.034327228 -0.06581149
000240 30 cc ee 3d 75 44 28 3d b4 8f 84 3d 32 a5 53 bc
       0.116600394 0.04108091 0.06472722 -0.012917804
000250 ae 6d 45 bd 5e 84 6f 3d 0e ce c5 3c 18 b3 bf bd
       -0.0482003 0.058475845 0.024146106 -0.09360331
000260 79 59 03 3e b3 f3 3d 3c 6f 0e 10 bd 31 93 16 be
       0.128271 0.011593747 -0.035170015 -0.14704587
000270 ce 6a d4 bd 86 14 d0 3c bb 81 06 be e5 90 46 bd
       -0.10371934 0.025400411 -0.13135426 -0.048478026
000280 69 7e e5 bd 9d 21 36 bd 7a 4c 2e 3c f3 48 b2 3c
       -0.112057514 -0.04446565 0.010638351 0.0217633
000290 d0 93 68 3d 2d cc b6 3c 71 da 46 3d 33 2a 86 bd
       0.05678159 0.022314155 0.048548166 -0.065510176
0002a0 2a 8c 13 3e a3 06 16 be 09 78 bb bd 71 6c fd bc
       0.14408937 -0.14650969 -0.09153754 -0.030935498
0002b0 96 97 82 3c f6 16 4c bd 29 d2 0a be 6d 12 16 be
       0.015941422 -0.049826585 -0.13556732 -0.14655466
0002c0 35 df eb 3c 8e af ce bd 51 88 09 be 63 40 4e 3d
       0.028792957 -0.10092078 -0.13430907 0.050354373
0002d0 98 ff cd 3d 64 03 66 3d 10 94 df bd d1 5e 12 3e
       0.10058516 0.056155577 -0.109169126 0.14293982
0002e0 cd 7d 6b 3d 8e 92 c4 3d e7 84 0c be 19 02 31 bd
       0.05749302 0.095982656 -0.13722573 -0.04321489
0002f0 c5 e2 2d bc a9 35 da 3d 05 f5 96 3d 2f 6a 88 3d
       -0.010613148 0.10654766 0.073709525 0.06660878
000300 6b e5 05 3e 58 89 e1 3b 42 a3 d0 3d 57 64 84 3c
       0.13075797 0.0068828277 0.10187389 0.016161127
000310 a7 aa bb 3d 2b 7e 81 bc 56 f1 ca bd 3d ba 59 3c
       0.09163409 -0.015807232 -0.099093124 0.013289032
000320 1c a5 16 3e 34 3e 1c bc 59 c5 b5 bd 01 3c 5c bd
       0.14711422 -0.009536315 -0.08875532 -0.05376816
000330 a4 73 02 3b cc 4f a2 bd 6a 6b 27 3d b7 b9 7d 3d
       0.0019905353 -0.07925376 0.040873922 0.06194469
000340 4c 0f 33 3d 96 32 c7 bc f3 0a 97 3d cd a8 71 bd
       0.04371576 -0.024316113 0.07375135 -0.05899887
000350 31 1d bb bd 0c 2d 5b 3d 7c 05 c3 3c 1b 87 5a 3d
       -0.09136427 0.053509757 0.023806326 0.053351503
000360 3c 48 b5 bd b6 22 e7 bd ad ef 60 bc bb 8e 0f 3d
       -0.08851668 -0.112859175 -0.013729018 0.035048228
000370 11 8f e1 bd 19 33 b5 bd db 3b f4 3d 51 4a 8b 3d
       -0.11013616 -0.08847637 0.11925479 0.06801284
000380 da 1e 0f be 16 09 ed bd 2e 6f e6 3d 21 47 cf 3d
       -0.13976613 -0.11573999 0.112516746 0.10120989
000390 72 cd f5 bc 4c 06 15 bd ad 39 8f bd 7e 94 aa 3b
       -0.03000519 -0.03638296 -0.06993423 0.00520569
0003a0 a2 23 36 3d 41 e2 d8 bd 56 8e fc bd a3 c7 b4 bd
       0.044467576 -0.105900295 -0.12331836 -0.0882714
0003b0 e5 40 bb bc f5 b1 f0 3d 38 49 3b bd 3c 52 c4 3d
       -0.022858093 0.117526926 -0.045724124 0.095859975
0003c0 1a d7 dd bd 9f cc a6 bd e6 d3 49 bd 3c 8b bc 3d
       -0.10832043 -0.08144497 -0.049274348 0.09206244
0003d0 08 85 25 bd 24 3e cf bd 37 f3 cd bd 6a e6 bd bd
       -0.04041007 -0.10119274 -0.10056155 -0.092724636
0003e0 1a b0 82 bd 53 bd 8c bd b0 dd b2 bd 5a 7f c9 bc
       -0.06381245 -0.06872048 -0.0873369 -0.024596859
0003f0 a7 0e 80 bd 42 c8 8d bd 25 bf 39 bd 19 84 db bd
       -0.06252795 -0.06922962 -0.045348305 -0.10718555

layers.3.bias f4 [5]
000000 8a 4b bf bd 18 cc 36 3d 5f 81 c3 3d 06 6f 02 3e
       -0.0934058 0.044628233 0.0954616 0.12737665
000010 1d 3f 62 bc
       -0.013808993
