irony/models/model_42.pt (torch_old, 58143 bytes, 8 tensors)

layers.0.weight f4 [70, 10]
000000 1d ee a4 be 46 cf 3f be 47 02 8c 3d b0 3c 50 be
       -0.32212916 -0.18731412 0.06836372 -0.2033565
000010 70 e5 d1 3d 72 41 c1 bd 86 d6 36 be 91 cc 3d 3d
       0.1024884 -0.09436311 -0.17855272 0.046337668
000020 ca fa 8e 3c be cb 59 be 5a 2a 1f be a5 74 ff bd
       0.01745357 -0.21269128 -0.155435 -0.1247342
000030 fd 0c 7d be a0 22 4c be 47 a1 3c 3e 18 70 6c be
       -0.24711986 -0.19935083 0.18420897 -0.23089635
000040 30 40 07 3e 4a 00 85 be 71 9a 7f be cc 37 8b be
       0.1320808 -0.25976783 -0.24961258 -0.27191007
000050 c9 3a 52 be 5d dc 6f 3d 68 c5 2a be 92 3b 81 3e
       -0.20530237 0.058559764 -0.16676867 0.2524076
000060 82 51 99 3e 05 fd 25 3e 85 6d a8 3d d2 c3 ea bd
       0.29944998 0.162098 0.08224014 -0.11463131
000070 9a 9d f1 bd 38 c9 15 3e 47 81 57 bd 54 8c 17 3c
       -0.11797638 0.1462754 -0.052613523 0.009249765
000080 7f 76 58 bd 9f 8e d6 bd cb 98 52 be 40 95 2e be
       -0.05284738 -0.104764216 -0.20566098 -0.17049122
000090 84 2b 5e be 7b 58 52 3c ae f7 9a be 65 37 33 3e
       -0.21696287 0.012838478 -0.3026709 0.175016
0000a0 6a 06 01 3e 56 47 18 3b f2 a3 16 be 72 dd 6a be
       0.12600103 0.002323588 -0.14710978 -0.22936037
0000b0 64 d9 b0 3e 48 a2 66 3e 1d f7 31 be 9c 3d 99 be
       0.34540856 0.22522843 -0.17379422 -0.29929817
0000c0 3d a7 26 be c6 41 62 3e 2b 07 23 be 19 80 db bd
       -0.16274734 0.22095403 -0.15920703 -0.10717792
0000d0 cb d1 63 3e 4d b7 91 3e e6 2d 59 3e b4 df 97 3c
       0.22247998 0.2846016 0.21208915 0.018539287
0000e0 74 63 25 be 05 54 ad 3d 2e 2c 8a 3e 27 3d 9f 3d
       -0.1615122 0.08463291 0.2698683 0.07775336
0000f0 79 f2 de bd d5 72 37 3e c0 b5 b2 bd 7a c4 81 bd
       -0.10886092 0.17914899 -0.08726072 -0.06336303
000100 26 a4 a8 3d 91 90 84 be ce 98 a4 3d 8d 7e 04 3e
       0.08234434 -0.25891545 0.08036958 0.129389
000110 b9 36 7b 3e b2 89 61 3d 02 d1 0c 3e c8 76 93 3b
       0.24532594 0.055062957 0.13751605 0.004500244
000120 cb ee 1d 3e f8 91 13 3e 44 72 aa be ed c8 7e 3e
       0.15423124 0.14411151 -0.33290303 0.24881335
000130 26 e5 de 3d ae 28 39 be 3f 55 3f bc 65 2e 32 bd
       0.1088355 -0.18081924 -0.011678039 -0.043501277
000140 c3 7b ca 3e 80 10 22 bc 97 13 a8 be 95 db 26 3e
       0.39547548 -0.009891629 -0.32827446 0.16294701
000150 b9 cb 2a 3e 13 b0 07 3d c3 df ad bb c6 ab 84 be
       0.16679277 0.0331269 -0.0053062155 -0.25912303
000160 57 0f 61 bd d9 d9 cb 3b 6b d7 e4 3d bd 4a 95 be
       -0.05494627 0.006221038 0.111739 -0.29158583
000170 23 a5 f2 bd 27 98 a3 bc 77 6e c0 3e c3 22 a5 bd
       -0.118479036 -0.019970013 0.37584278 -0.08063271
000180 d9 be c3 bd e3 d2 38 be 30 e6 3d be 0f e1 af 3e
       -0.09557886 -0.18049197 -0.18544841 0.34351394
000190 9c b9 1c be 2f ec 2b be 50 f2 55 be 1c 46 e3 bc
       -0.1530518 -0.16789316 -0.20893216 -0.027743392
0001a0 09 b5 02 be 13 8d 48 be 8e aa d6 bc 77 9d 84 3e
       -0.12764372 -0.19585066 -0.026204374 0.25901386
0001b0 47 f5 d8 3c 32 f4 95 bd 57 5d 4f 3d 22 21 bd be
       0.026484145 -0.07321967 0.050626125 -0.3693934
0001c0 48 98 72 be 98 8c 38 3e 90 44 03 be b1 e5 68 3e
       -0.23690903 0.18022382 -0.12819123 0.2274387
0001d0 28 26 e6 3d e6 e8 5a be 10 81 2e 3e c9 9d 53 3e
       0.112377465 -0.21377906 0.17041421 0.20665659
0001e0 7a 93 03 bc f1 7b 61 3e d3 e5 1f 3e eb 05 35 be
       -0.008030767 0.22019936 0.15615015 -0.17678039
0001f0 83 7a 28 3e 6d 1f 3e 3c d3 39 88 3d a1 86 08 3e
       0.16452985 0.011604172 0.06651654 0.13332607
000200 51 8f 93 be 60 06 76 bb a6 2b 69 bd de 4c c8 3d
       -0.2882028 -0.003754042 -0.056926392 0.09780286
000210 3a 2b 3f be 84 ca 80 be fc 9b 43 be 87 c1 35 3e
       -0.18668833 -0.25154507 -0.19102472 0.17749606
000220 b9 69 26 be 99 57 18 be e8 7c 67 be 03 12 c5 bd
       -0.16251267 -0.14877166 -0.22606242 -0.09622576
000230 20 a3 44 3e f0 f0 be 3e 15 13 8d bd 36 58 b0 be
       0.19202852 0.37293196 -0.06888405 -0.344423
000240 c0 8d be 3d 1d 80 80 be 9a 16 4d be b4 44 79 3d
       0.093043804 -0.25097743 -0.20028153 0.060856536
000250 b4 0b 70 be f9 22 e3 bd 42 60 ae 3e 6a c7 39 be
       -0.23441964 -0.11090655 0.34057814 -0.18142477
000260 8b e2 56 3e 86 32 05 3e e4 45 20 be da b4 f2 bd
       0.20984857 0.13007554 -0.15651661 -0.11850901
000270 bf 7c e2 3d 9a 42 53 be ca 41 63 be d4 54 87 be
       0.1105895 -0.20630875 -0.22193065 -0.26431906
000280 0d 1c aa 3d 8e 29 80 be db b9 62 be 17 b7 4a 3e
       0.083061315 -0.25031704 -0.2214121 0.19796406
000290 05 51 27 be 29 d9 12 be 34 8d 68 be f3 36 39 bd
       -0.163395 -0.14340653 -0.22710115 -0.04521842
0002a0 df 38 c7 bc 38 b7 07 3e 34 4f d2 bd 38 ee 5e be
       -0.02431911 0.13253486 -0.10269013 -0.2177056
0002b0 0f fc 04 be 66 fc 8c 3d 54 38 af 3e 5e e9 3f be
       -0.12986778 0.06884079 0.34222662 -0.18741366
0002c0 ff e1 6f be 47 86 a3 3d f1 1f 2f 3e 1d 96 0e 3e
       -0.23426054 0.07984596 0.17102028 0.13924451
0002d0 ff c8 87 3e cb a1 ba 3e a5 ff 30 3e cf 7f d1 3d
       0.26520535 0.36451563 0.1728502 0.10229456
0002e0 92 5e a5 bc 40 7b 7c be f6 20 12 be 52 fe d4 bd
       -0.020186696 -0.24656391 -0.14270386 -0.1040007
0002f0 22 14 2e be 72 b0 f5 bd cb 8e 27 be 82 0b c9 3d
       -0.16999868 -0.11996545 -0.16363065 0.09816648
000300 f0 53 3c be 6a ec 57 3e 9c 9a b8 be 15 84 9f bd
       -0.18391395 0.21086279 -0.36055458 -0.077888645
000310 52 e5 33 be a8 1d 0a bd 10 33 24 be 98 bf 00 be
       -0.17567948 -0.03371969 -0.16035104 -0.12573087
000320 96 e8 ae be 6b 9b c4 be e7 7b 86 be 22 15 0d be
       -0.34161824 -0.38399825 -0.26266405 -0.13777593
000330 f6 32 83 3e 5b c2 f2 3d a1 6f 86 be f3 a5 5a 3d
       0.25624818 0.118534766 -0.2625704 0.053380918
000340 db 88 17 bc 5e e0 4c 3d 54 d3 33 be a4 5f 2f 3e
       -0.0092489375 0.05001866 -0.17561084 0.17126328
000350 4d 25 87 3e 7e 75 04 3e e4 a9 2a be 3f 36 99 3e
       0.26395646 0.12935445 -0.1666637 0.299242
000360 71 23 07 3d f6 98 31 3e af db 8f 3e 50 5d 39 be
       0.032992784 0.17343506 0.28097293 -0.18102002
000370 40 5c 3c 3c 55 f4 f6 3d d3 b4 2e 3e 6f 6c 1a 3d
       0.0114966035 0.120583214 0.17061166 0.037701067
000380 6a c4 32 3e bc 6f bb 3d 88 ec 3b 3d ce fc c6 bd
       0.17457739 0.09152171 0.04587987 -0.097161874
000390 b7 15 f1 bd 43 9e d2 bd 5b 9f e8 bd a9 ad b5 3d
       -0.1177172 -0.10284092 -0.1135852 0.08871014
0003a0 9f 21 e4 3c 9c 8b d2 3e 53 f2 8c 3b 28 b0 88 be
       0.027848063 0.41122139 0.0043013482 -0.26696897
0003b0 7d e1 27 3e 70 79 9d 3e b2 d6 5e 3e 78 e8 e8 bc
       0.1639461 0.30756712 0.21761587 -0.028431162
0003c0 02 07 c9 be d6 97 50 bd 28 08 5e be 12 bf fe 3d
       -0.3926316 -0.050926052 -0.21682799 0.124387875
0003d0 c0 50 8f 3e ac 73 d8 bc 05 90 b7 3d 9e b5 a3 bb
       0.27991295 -0.026422344 0.089630164 -0.0049960157
0003e0 c6 fa c6 3d 65 51 52 3d d5 cd 1f be ef cf 4a bd
       0.097158 0.051347155 -0.15605862 -0.049514707
0003f0 21 38 68 3e 8a a5 82 3e 7b 6e 95 bd 89 97 64 be
       0.22677661 0.2551692 -0.07296463 -0.22323431

layers.0.bias f4 [70]
000000 eb 05 1e 3e c4 a3 78 be db 90 32 3e 34 55 84 be
       0.15431945 -0.24281222 0.1743807 -0.25846255
000010 05 c0 18 3d c0 c4 07 be 4b bb 7c be fd 7b 0b ba
       0.0372925 -0.13258648 -0.24680822 -0.0005320905
000020 03 a2 2a be 6a f1 7b be 1c 3d 6d be 5c e5 3d 3c
       -0.16663365 -0.24603811 -0.23167843 0.011590328
000030 a3 32 7b 3e 69 e8 1a be 57 3a 44 3e c8 c8 14 3e
       0.24531035 -0.1512772 0.1916288 0.14529717
000040 17 47 6e be d6 c8 02 be 35 0b db 3d c0 d2 0b 3e
       -0.23269306 -0.12771925 0.10695497 0.13654613
000050 6b f4 23 3e 61 d3 46 be 10 4f 94 3e ca 65 4b be
       0.16011207 -0.19416572 0.2896657 -0.19863048
000060 71 a5 16 bc 8b 01 fa bd 12 fa c4 3a d3 b0 ed bd
       -0.009194718 -0.122073255 0.001502814 -0.11605992
000070 a2 81 87 3e af 0a a0 3b 0b a3 af 3d c8 6b 27 be
       0.2646609 0.004884086 0.0857602 -0.16349709
000080 d1 3b 66 be 12 90 cd bd 65 0f 86 3e da a9 0b be
       -0.22483756 -0.10037245 0.2618362 -0.13639012
000090 86 4c 66 3d 5d 98 e9 3d 39 f6 a9 3d 6f f8 21 be
       0.056225322 0.11406014 0.08298916 -0.15817426
0000a0 28 3d 46 be e9 c6 5e be 01 f5 91 3d 6f 65 47 bd
       -0.19359267 -0.21755566 0.07126809 -0.04868072
0000b0 1e e7 c7 3d d4 37 29 be 97 ea bc bd 73 04 74 be
       0.09760879 -0.16525203 -0.09224432 -0.23829822
0000c0 8d 62 21 be b0 6b 0d be db 1f 83 3e c6 e0 5c be
       -0.1576025 -0.13810611 0.2561024 -0.2157012
0000d0 36 a8 30 bd c2 da 38 be cb 2b d0 3d 31 27 aa 3d
       -0.04312917 -0.180522 0.10164603 0.083082564
0000e0 cb 72 55 bd 95 20 10 3e 85 d1 3f 3e 16 db 18 3e
       -0.05211143 0.14074929 0.18732269 0.14927325
0000f0 33 da 31 be 1e c0 00 3e cf ae 3c bd 54 80 e6 3c
       -0.17368393 0.12573287 -0.046065148 0.028137363
000100 06 4f 16 3e 3d 42 7e 3e b9 04 be bb 1a 9e d6 bc
       0.14678583 0.24829955 -0.005798903 -0.026198436
000110 a2 30 0b 3e a2 e2 5c bd
       0.1359277 -0.05392707

layers.1.weight f4 [80, 70]
000000 2b c3 c4 bd ea 0f ba bd 1f a0 58 3c e4 8c d6 bd
       -0.09607538 -0.090850666 0.01322177 -0.104760915
000010 66 68 02 be 4e bb 0f 3d 2a 98 d3 bd 99 4b fa 3c
       -0.12735137 0.035090737 -0.10331757 0.030553626
000020 f3 57 10 bd de eb f3 bd 35 a7 a2 3d 3d 5d 37 bd
       -0.035240125 -0.119102225 0.079420485 -0.044766653
000030 45 4f 9a 3d 0d a4 df bd e4 bb df bc 79 db 04 3e
       0.07534651 -0.10919962 -0.027311273 0.12974347
000040 89 eb 74 bc f4 9f 26 bd a5 ad 07 3c 9c 54 5e 3d
       -0.014948734 -0.040679887 0.008281146 0.05427991
000050 fd af 3b 3d a0 d4 a2 3d b3 64 85 bd f3 85 d8 3d
       0.045822132 0.07950711 -0.065133475 0.10572424
000060 31 e3 82 3d e7 87 64 3d 37 70 91 bb a4 e3 22 3e
       0.063909896 0.05579367 -0.004438426 0.1590715
000070 94 ad 96 bd 1f d7 8a 3d 88 2a 1b be 66 97 75 bd
       -0.07357326 0.06779312 -0.15152943 -0.059958838
000080 cb 21 d4 bd 06 3f 04 3e e0 64 14 3d 9f b7 33 3b
       -0.10358008 0.12914667 0.036229014 0.002742268
000090 33 ca 4b 3d 88 ae 1b 3e a6 bb 91 3b e9 bb ba 3d
       0.04975338 0.15203297 0.0044474183 0.09117872
0000a0 9e c1 76 3c 5c 8d 1d bd f0 58 0f be 54 29 c3 3d
       0.01506081 -0.03846489 -0.1399877 0.09529367
0000b0 7f 07 58 bd 68 3e 22 3d 58 f7 4d bd 0e 43 6c 3d
       -0.052741524 0.039610296 -0.050284714 0.057681136
0000c0 8c 39 32 3c 28 bf 10 be 1a 8b ef 3c 0f 0c ad bd
       0.010877978 -0.1413542 0.029241133 -0.084495656
0000d0 3a d4 a1 3d 88 a9 26 3d e5 aa db bc 6c 0f d4 bd
       0.07901807 0.04068902 -0.026814887 -0.10354504
0000e0 61 4a a9 bd 3a cc 9d 3d 34 58 a0 bc f3 ee 41 bd
       -0.0826614 0.07704969 -0.019573309 -0.04734702
0000f0 d8 48 70 3d 7b 8b 9a 3d f3 90 2c bd c2 ef c8 3c
       0.05866322 0.07546135 -0.04213042 0.024528388
000100 e0 87 5d 3c 81 4c 23 3d a5 c6 aa 3d 91 3f 3b 3d
       0.013521165 0.03986788 0.0833867 0.04571492
000110 dd 01 13 3e c6 60 fc 3c 8f 70 5f bd b6 85 15 bd
       0.1435618 0.030807864 -0.054550704 -0.03650447
000120 4b 71 e9 3b c3 4c 8d 3d b9 68 f0 3d 1a c1 0f be
       0.0071241013 0.06899407 0.11738724 -0.14038506
000130 e8 f0 a8 3d 2e 80 e7 3c 3f fe a6 3d f4 d2 ba bd
       0.08249074 0.028259363 0.08153962 -0.09122267
000140 da 20 88 bb d8 cc 79 3d 44 64 4b 3d 95 65 de 3c
       -0.004154307 0.06098637 0.049656168 0.027148047
000150 e6 08 d8 3d 1a db 62 3d be 84 6c 3d 60 4d ff 3c
       0.10548572 0.055384733 0.05774378 0.031164825
000160 a2 47 f3 3d e6 b3 03 be d2 9e cb bd 16 8e d1 bd
       0.11878897 -0.12861595 -0.09942402 -0.10232179
000170 36 c9 9e 3d 0e 8d cc bd 18 3b a7 bb 2d f8 ea 3c
       0.07753222 -0.099878415 -0.00510348 0.028682793
000180 51 61 03 bd 02 32 3a be 55 3c 62 bd da 0f 2d 3d
       -0.03207523 -0.18183139 -0.05523332 0.042251445
000190 85 b8 21 bc 3a fb e0 bd 74 36 97 3b 1b 49 33 bd
       -0.009870653 -0.10985418 0.0046146456 -0.04377089
0001a0 bc 8f e3 bd 52 7d 03 be c6 5a 9a 3d 61 a0 6b bd
       -0.111113995 -0.12840775 0.07536845 -0.057525996
0001b0 bd c2 b2 3d 2a bf c5 3d 88 30 dd bd 50 8a 4d 3d
       0.0872855 0.09655602 -0.10800272 0.050180733
0001c0 f0 04 da bd 5b a4 f3 bd 3e 4a 28 be 8e 87 fb bd
       -0.10645473 -0.11896583 -0.16434571 -0.122817144
0001d0 74 b4 25 ba 4d 52 10 3e eb 29 b8 3c 98 f3 23 bc
       -0.000632114 0.14093895 0.022480926 -0.010006808
0001e0 96 f8 21 bd 19 b4 ac bd df 56 e7 3c 19 20 b3 3b
       -0.03954371 -0.084327884 0.028239666 0.005466473
0001f0 3c 54 4a bc f2 1b 61 3c 88 eb ac bc 78 4a 18 bd
       -0.012349185 0.013739573 -0.021108404 -0.037180394
000200 70 56 76 3d e2 f1 c9 3d a1 13 db 3b e1 21 10 3d
       0.060141027 0.098605886 0.0066856896 0.03518856
000210 6b d2 17 3e 9c 9c bd bd 2d f1 87 3d 83 85 38 bc
       0.14826362 -0.092583865 0.066377975 -0.0112623
000220 b7 42 2a be 6a c6 ba bc 3a b6 7d 3d b7 e6 10 bd
       -0.16627012 -0.02279969 0.061941363 -0.035376277
000230 0a c6 8b 3d 0c 66 f9 bd e2 ae d5 bd 80 e9 ca bd
       0.06824882 -0.12177667 -0.10433747 -0.09907818
000240 41 b5 47 bd 71 fb a8 bd d4 69 44 3c c5 b9 04 3e
       -0.04875684 -0.08251084 0.011988122 0.1296149
000250 8d f7 72 bd 88 f9 88 bc 60 7f 28 3d fd 11 b5 bd
       -0.059318114 -0.016720548 0.0411371 -0.088413216
000260 1c e1 bf ba fd 8e 38 3c ac a9 e2 3d 0f a2 45 bd
       -0.0014639231 0.01126456 0.110675186 -0.048250254
000270 90 da 4e bd 4d 6f bb bd 76 87 8b 3d f9 07 8b bd
       -0.050501406 -0.09152088 0.068129465 -0.0678863
000280 13 08 2a 3c 51 3f 38 3d db 4a 81 bd 62 4e 94 3c
       0.010377902 0.04498226 -0.06313106 0.018103782
000290 62 23 a6 bd c1 65 17 3d 77 8b 49 3d 24 d1 d3 bd
       -0.081122175 0.036962274 0.04920527 -0.10342625
0002a0 0a e0 8c 3d 04 ce 99 3d 0e 65 8e bd 25 74 77 3d
       0.068786696 0.075099975 -0.069528684 0.0604135
0002b0 a5 a6 d5 bd b3 27 e6 bd 88 18 b4 bd 11 40 ca bd
       -0.104321755 -0.11238041 -0.087937415 -0.09875501
0002c0 c4 a7 a2 3c f8 dc f4 3c da d0 67 3d 20 52 be bb
       0.019855388 0.029890522 0.05659566 -0.00580813
0002d0 d9 9d 99 bd 4b a0 42 3d c7 d0 d8 bc 99 2b 2c be
       -0.0750081 0.04751615 -0.02646674 -0.16813506
0002e0 ec 94 d9 bd c8 78 e4 3d 8f 8f fc bd 81 56 24 3d
       -0.10624108 0.1115585 -0.12332069 0.04012156
0002f0 ec 35 fa bd 2c aa cc bc 54 a4 f0 bd 85 c6 0e bc
       -0.12217316 -0.024983488 -0.11750093 -0.008714323
000300 af 2f 53 3d 7d 5b f3 3d 3c f7 bc 3c 0a ef 3f bd
       0.051559146 0.118826844 0.02306711 -0.046858825
000310 56 a1 94 3d a3 90 a0 3d af 78 9e 3d 1f b6 f6 3d
       0.07257335 0.07840087 0.07737862 0.120464556
000320 b5 27 b3 3d 76 01 66 3d 1c 14 65 bd 6a 21 ac bc
       0.08747808 0.056153737 -0.05592738 -0.021012027
000330 87 c5 a2 3d 17 8f f1 3d 13 3b aa bd 15 af ed bb
       0.079478316 0.1179487 -0.08312049 -0.0072535374
000340 41 0a ba 3d 60 ea 8f bd 15 e8 18 3e 9f a3 da bd
       0.09083987 -0.07027125 0.14932282 -0.106757395
000350 69 0a bf 3d 67 f7 bb bd b1 1a dc bb 0e 61 d1 3d
       0.093281575 -0.091780476 -0.006717049 0.1022359
000360 ce 51 a6 bb 7e ff 8e 3b 34 47 b5 bd af 08 70 3d
       -0.00507567 0.004363953 -0.088514715 0.05860203
000370 d5 4d 6d 3c 01 74 8d 3d d8 23 60 bd 61 f4 8e 3d
       0.014483889 0.069068916 -0.054721683 0.06980205
000380 80 c1 3c 3d f5 37 96 bd c7 3e fa bd e4 43 1e 3c
       0.046082973 -0.07334892 -0.12219005 0.009659741
000390 ab 6b 48 3d a9 f6 cd 3c 23 20 fe 3d 56 32 1a 3e
       0.048930805 0.02514203 0.12408473 0.15058264
0003a0 57 b2 6d 3d c6 9f 6b 3d b3 3a 6d bd 8a 66 28 3d
       0.058031406 0.05752542 -0.057917308 0.041113414
0003b0 0e 9a a6 bd ef a7 1d 3e f2 21 c3 bd c0 df c8 3c
       -0.08134852 0.15396093 -0.09527959 0.024520755
0003c0 fc bd ed bd e3 e0 e8 bd 61 35 fc bd 61 3d 49 3c
       -0.11608502 -0.11371019 -0.12314869 0.0122827
0003d0 bf e8 38 3e 8e 07 94 3d c9 2a cd 3d c7 9e 33 bd
       0.18057536 0.072280034 0.10017926 -0.043852594
0003e0 db ed 02 3e 9c 03 39 3d 8a 0f 91 3d df 46 89 bd
       0.12786047 0.045169458 0.07083042 -0.06702971
0003f0 f7 f8 a6 bd 90 23 90 3d f9 32 18 3e fd 4a 33 3d
       -0.08152955 0.07038033 0.14863195 0.043772686

layers.1.bias f4 [80]
000000 f0 17 aa bc 48 30 5b 3c 62 19 8f 3d f8 f0 61 bd
       -0.020763367 0.01337821 0.06987263 -0.055161446
000010 2d 2f e5 3d e2 d4 94 3d 84 93 f3 3d 4d 35 9b bc
       0.11190639 0.07267167 0.11893371 -0.018946314
000020 34 ab a3 bd cb 5c 55 3d 58 55 7d 3c d1 d8 8f bd
       -0.07991639 0.052090447 0.015462242 -0.07023776
000030 13 de 0e 3c eb 7e 78 3c 79 54 94 3c 75 05 c1 3c
       0.008719939 0.015166978 0.018106686 0.023562172
000040 44 4e ef bc 04 bb 1a 3d 13 d2 ec 3d a4 24 77 3d
       -0.029212125 0.03777601 0.11563506 0.060337678
000050 72 4a a9 bd 1f 51 93 bd f2 1d 03 bd f6 35 ce 3d
       -0.082661524 -0.07193207 -0.03201098 0.10068886
000060 bd ff c6 bb 65 f9 09 3d de db ae 3d e8 e0 a0 bd
       -0.006072967 0.033685107 0.0853803 -0.078553975
000070 fb e9 66 3d ab 27 3d 3d bb 96 71 bc ce b4 80 bd
       0.056375485 0.04618041 -0.01474541 -0.06284486
000080 10 67 57 bd 01 3e 2d 3d 53 c9 f0 3d c0 2a 37 bd
       -0.052588522 0.04229546 0.117571495 -0.044718504
000090 7f 18 c7 3d 07 f3 23 3c 47 04 d2 3d ad 8f 06 bd
       0.09721469 0.010006673 0.10254722 -0.032851864
0000a0 3b 68 7e bd 9b f8 2f bd 62 4f bd bc 15 8e 89 bd
       -0.06211112 -0.042961698 -0.023109142 -0.06716553
0000b0 03 89 f1 bc 95 6c d1 bc b6 c4 88 bb 53 31 e4 3c
       -0.029484278 -0.025564471 -0.0041738404 0.02785555
0000c0 24 45 9c bb 92 16 9b bd d0 1a 92 bd dd 56 f5 3b
       -0.0047689844 -0.07572664 -0.0713402 0.0074871616
0000d0 fc aa a4 3d 78 b7 a2 ba 1c ac ca 3d 9a a7 c5 3d
       0.08040425 -0.0012414297 0.098961085 0.09651108
0000e0 9f 74 f5 3d d3 d2 44 bd 6a e1 59 3d 2b 73 99 bd
       0.11985134 -0.04805262 0.053193487 -0.0749267
0000f0 30 c4 8c bd 7f 3c be bd 48 05 3b bd 38 10 a6 bd
       -0.06873357 -0.092888825 -0.045659333 -0.08108562
000100 5d f2 0f 3e ad 5c 6b 3d 73 9d 04 3c 6c d8 8b 3d
       0.14057298 0.05746143 0.008094179 0.068283886
000110 cc 93 1b 3c f3 90 47 bd 23 04 9e 3d 5c 85 18 bd
       0.009495687 -0.04872222 0.07715633 -0.037236556
000120 ab 6a 90 bd 52 74 90 3d a9 1b af bd 5c 6f d6 3d
       -0.07051595 0.07053436 -0.08550198 0.10470459
000130 23 3c d6 3d 11 06 8d 3c 10 89 03 ba 1e e5 d9 bc
       0.10460689 0.017214807 -0.00050176773 -0.02659851

layers.2.weight f4 [90, 80]
000000 9d ac bd 3d de d4 77 bd 8d d7 ae 3d 20 f1 e4 3d
       0.09261439 -0.06050574 0.08537207 0.111788034
000010 03 47 9a bd c2 5a ba bd e9 74 23 3d ec 39 f4 3c
       -0.07533076 -0.09099342 0.039906416 0.029812776
000020 d9 88 b0 bd d5 77 55 bd 59 f1 84 bd df 4f 53 3d
       -0.086198516 -0.052116234 -0.06491346 0.051589843
000030 e6 28 f5 bd df 21 f3 bb 84 10 18 3e c9 bc be bc
       -0.119706914 -0.0074198092 0.1485005 -0.02328338
000040 53 10 67 3c 22 5c c8 3d 41 4c a3 3a 92 14 d0 bd
       0.014103013 0.09783198 0.0012458639 -0.101601735
000050 53 7f bd 3c f2 75 1c 3d 89 12 e3 bd 37 5e cd 3c
       0.023132002 0.03819842 -0.1108752 0.02506934
000060 f7 f6 9d 3d 39 7a e1 bc 10 a3 00 3d 5a fa ca 3d
       0.077131204 -0.0275241 0.03140551 0.09911032
000070 78 be 63 3d 1c 0d 03 be 80 62 f0 3c 86 c0 0f bc
       0.055601567 -0.1279797 0.029343843 -0.0087739285
000080 76 b3 f9 3c 99 c1 f1 bd 15 eb 0a be f4 eb e6 bc
       0.030481081 -0.11804504 -0.13566239 -0.028188683
000090 30 aa 87 bc e9 2b 28 3d 40 e0 e6 3c 7c 17 bf bd
       -0.016560644 0.0410575 0.028183103 -0.09330651
0000a0 f8 23 a5 3d 35 90 b1 3d 63 a5 a0 bc 26 5e d0 3d
       0.08063501 0.086700834 -0.019610113 0.101742074
0000b0 60 2e 0a 3d cf 7c c5 bb dc 03 33 bd f2 3a 88 3d
       0.033735633 -0.0060268412 -0.043704852 0.06651868
0000c0 bd be 8f 3c b1 97 b8 bd ca 49 03 3d e4 a0 55 3d
       0.017547006 -0.09013308 0.032052793 0.05215539
0000d0 92 e3 64 3b f7 47 da 3d 3d 0e c8 3c b3 e4 d5 bd
       0.0034925682 0.106582575 0.024420852 -0.104440115
0000e0 bf 6f 6f 3d a4 90 93 3d f8 21 44 3d 3d e6 86 bd
       0.05845618 0.072053224 0.047883958 -0.06586883
0000f0 67 bf 3c 3d 08 ce db bc 5b 83 b0 3d b3 6a 60 bd
       0.046080973 -0.026831642 0.08618804 -0.054789256
000100 a4 3c d5 bd d3 3c 4b 3d be 18 e7 3c e3 51 49 3c
       -0.10411957 0.049618553 0.02821004 0.01228759
000110 ca f5 6d 3d f9 dd 14 bc 15 ae 33 3d 47 1c b8 bd
       0.05809573 -0.0090861255 0.04386719 -0.089897685
000120 31 6f 28 bd 1d a3 63 bd 6a 4b 79 3d 27 62 fe 3d
       -0.041121665 -0.05557548 0.060862936 0.12421065
000130 8d 5e a2 bd 33 c5 6e 3c 01 96 92 bc 9a 9c 00 be
       -0.079281904 0.014573383 -0.017893793 -0.12559739
000140 8d a5 b2 bc f9 aa b0 3b cc 4d a1 bd 7f 10 86 3b
       -0.021807456 0.0053914753 -0.07876167 0.004091322
000150 87 57 65 3d e2 9b 53 3d b0 fa c9 3c 87 07 05 3e
       0.055991676 0.051662333 0.02465567 0.12991153
000160 40 c0 28 3d ed 84 b0 bc af 3a 00 bc 61 4b fe 3c
       0.04119897 -0.021547759 -0.007826491 0.031041803
000170 64 10 0c be 37 c9 68 3d 19 cc 11 3e 04 f4 a7 3c
       -0.13678128 0.05683252 0.14238013 0.020502098
000180 3a f3 f3 3d 0c 37 1e bd 69 e2 82 3d 32 25 b3 bd
       0.11911626 -0.038626716 0.063908406 -0.08747329
000190 db bf 41 bd 69 56 0d be 90 47 17 bc 4d 2d 63 3d
       -0.04730211 -0.13802494 -0.00923337 0.055463124
0001a0 f3 a7 01 3e 1c 4d 27 3d 88 bf 45 bd 2c c5 0a 3e
       0.12661724 0.04084502 -0.04827836 0.13551778
0001b0 64 10 92 bb 9e 46 c1 3d 91 8c cf 3b 89 9d cb 3d
       -0.0044575203 0.09437297 0.0063338955 0.09942157
0001c0 54 7b 9f bd 67 30 25 be f8 5a 17 be 24 bf 52 3d
       -0.07787195 -0.16131745 -0.14780796 0.051451817
0001d0 71 8f d7 bd 3e 4d 32 3d be 2e a8 bd 72 f2 aa bc
       -0.10525406 0.043530695 -0.0821204 -0.02086756
0001e0 29 83 4f bc dc 37 6d 3d 7c 0e e5 bd 33 12 20 3d
       -0.012665548 0.0579146 -0.11184403 0.039079856
0001f0 36 b0 eb bc 57 60 ca bd 0c 18 bf bd 6d 82 12 3e
       -0.028770547 -0.098816566 -0.093307585 0.14307566
000200 f2 4d 76 bd ce c9 9c 3c 20 58 bb bd b6 28 15 3e
       -0.06013293 0.019139197 -0.09147668 0.14566311
000210 40 a6 8c bd 6d 41 60 bd 2e 5f 83 bc 51 07 58 3d
       -0.06867647 -0.054749895 -0.016036596 0.052741352
000220 3e bb 93 bd 3d af 4a 3d ee 3e 07 3e e4 08 0c 3e
       -0.07213448 0.049483526 0.132076 0.13675267
000230 fd bb dc 3c 5d 73 38 3d 93 39 59 bd e6 bc 30 3d
       0.026945109 0.045031894 -0.053033423 0.043148898
000240 36 1a b9 bd a2 49 e6 bd 63 51 07 bd 57 b6 d0 3c
       -0.090382025 -0.11244513 -0.0330366 0.025477571
000250 51 0b b0 3c 8a d7 a0 3d 3d 0f fe 3d 1c dc 5b 3d
       0.021489771 0.07853611 0.1240525 0.05367671
000260 69 d2 1c bd 41 1e b9 bd e9 0b 93 3d bf a8 dd 3d
       -0.0382866 -0.090389736 0.07180006 0.108232014
000270 15 c8 9b 3d 44 b7 a3 3c a9 38 55 bd 8a df 96 bd
       0.07606522 0.019984849 -0.05205599 -0.073668554
000280 31 49 47 bd 54 f0 c8 3d 5d 96 ca 3d 2f 90 9d 3d
       -0.048653785 0.09811464 0.09891961 0.076935165
000290 7a c3 8e 3b 66 86 87 bd 0f 1c 83 3d 0b 8b ef 3d
       0.0043567987 -0.06617431 0.06401836 0.11696442
0002a0 40 d2 aa 3c 22 b4 f9 bd a5 7f a0 3d aa 37 b6 bc
       0.020852208 -0.12192561 0.07836846 -0.02224334
0002b0 58 0a 0a be 7e ae 65 3d 21 9d 83 3d 46 63 64 3d
       -0.13480508 0.05607461 0.06426454 0.055758737
0002c0 89 34 ef bc 7f 31 e1 3c e1 29 45 3d f2 98 73 3d
       -0.029199855 0.027489422 0.048135642 0.059472032
0002d0 fe 6c 64 bc 2f 74 ce bd 60 95 24 bc 8c 85 64 bd
       -0.013942001 -0.10080754 -0.010045379 -0.055791423
0002e0 55 59 b0 3d 4d c7 a8 3c 78 49 5d 3c 2e 82 cf 3d
       0.08610789 0.020602847 0.013506286 0.10132252
0002f0 8b 34 f6 ba f1 09 be bd 8b 7a dd 3d 22 22 5f bd
       -0.001878397 -0.0927924 0.10814389 -0.05447591
000300 d2 d9 bb 3c 72 ce de bc 06 69 d7 3d da 89 d1 bd
       0.022931013 -0.02719805 0.105180785 -0.10231371
000310 ad 45 f0 bd 86 a8 f6 bb ca e7 48 3b ab f5 9b 3c
       -0.117320396 -0.007527414 0.0030655735 0.019038042
000320 b6 78 e1 3c 94 c1 82 bd 52 af 1e be 44 ce 0e 3e
       0.02752338 -0.06384578 -0.15496567 0.13945872
000330 03 b3 cc bd 97 ec 57 3d 18 5c b8 bc 28 f4 2f 3d
       -0.09995081 0.052715864 -0.022504851 0.042957455
000340 bd cc 4b bd 5e 74 cc bd 47 e3 4e 3c 10 b6 b2 bb
       -0.0497558 -0.09983133 0.012627429 -0.0054538324
000350 a4 5f da bd 73 5e 26 bd 6d 52 fc 3d 8e 39 00 be
       -0.10662773 -0.040617418 0.12320409 -0.12521955
000360 91 29 8b bb 49 b2 44 3d ed 31 06 bd 12 a9 8e bd
       -0.0042468985 0.04802159 -0.032762457 -0.06965841
000370 11 04 c7 bc 8e c9 b6 3c de 6d a5 bd b1 ed 9d 3d
       -0.024293931 0.022312906 -0.08077596 0.07711352
000380 9e a2 eb 3d 82 fc 1c bd ed 3b f8 bd 49 b2 94 bd
       0.11505626 -0.038326748 -0.12120805 -0.07260568
000390 63 88 a0 bd 90 19 ac bb 77 66 a1 3d 54 94 94 bd
       -0.07838514 -0.0052520707 0.07880872 -0.07254854
0003a0 71 f2 90 3d 03 77 0e bd 32 d3 ab 3d 30 f8 b9 3d
       0.07077492 -0.034781467 0.08389892 0.09080541
0003b0 3d c3 e8 3d 61 7a 13 3e cf 3b 94 bd 97 d7 bc bc
       0.11365364 0.14402153 -0.0723797 -0.02305202
0003c0 77 30 ed 3b d8 5a 3a 3d b9 ef dc bd 0e 1a a3 bd
       0.0072384435 0.04549679 -0.10787911 -0.07963954
0003d0 8d 3c 02 be af a9 bf 3d 2d 80 ed bd 16 36 b5 bd
       -0.12718411 0.093585365 -0.11596713 -0.08848207
0003e0 23 cc 47 bd 89 1b a6 bd 11 4b bb bd b3 89 b3 3c
       -0.048778664 -0.08110721 -0.09145177 0.021916246
0003f0 7c 28 69 bd eb ae c8 3c 36 02 4a 3d 4b 70 7e ba
       -0.056923375 0.02449747 0.049318515 -0.0009706064

layers.2.bias f4 [90]
000000 ff 45 a8 3d d6 07 a1 3d 24 76 c0 bd 96 32 71 bd
       0.08216476 0.07862823 -0.093975335 -0.058886133
000010 50 fa 11 bd 67 4c be bd be f2 7e bd dd 13 d9 bd
       -0.035639107 -0.09291916 -0.062243216 -0.10599492
000020 60 3a 08 3d d5 95 9d bd 32 ed 88 bd 8c 35 3c 3d
       0.033258796 -0.07694594 -0.066858664 0.045949504
000030 6e 9b 54 3d aa 4c d8 bc f4 11 f1 3b 2b 6d 15 bd
       0.05190604 -0.026403744 0.0073568765 -0.036481064
000040 9f b3 cd 3d 0b 6d e9 bd 27 e5 ca bd 34 8d 78 bd
       0.10044026 -0.113977514 -0.099069886 -0.060681537
000050 e6 d5 d7 bc 32 d1 7f bc bc fa 9a bd af d3 8b bd
       -0.026347112 -0.015613841 -0.07567355 -0.06827485
000060 82 cb aa bd 12 0c 34 3d 01 2e 99 3c e8 16 1c bd
       -0.08339597 0.043956824 0.018698694 -0.038107783
000070 a5 da 2a bd 12 fd a3 bd c4 52 99 3b f0 19 38 bd
       -0.041712422 -0.08007254 0.004679056 -0.04494661
000080 bd d4 77 3c 2f ca 96 bd 8b dd 36 3d 6a 7a d4 bd
       0.015126404 -0.07362782 0.044644874 -0.10374911
000090 91 fc df bd db f9 91 3c c4 c5 d1 bd 87 af d9 3d
       -0.10936845 0.017819336 -0.10242799 0.10629182
0000a0 db 53 8a 3d e0 93 07 bd 86 0a 42 3d d8 12 7d bd
       0.067542754 -0.03310001 0.047373317 -0.06178555
0000b0 d2 9d 8a 3d c0 cb d3 3d 62 f2 c0 3d 57 22 32 bd
       0.06768383 0.103415966 0.09421231 -0.04348978
0000c0 4f 59 3e bd 33 d5 dd bd 3c b0 8f bd 69 20 8b bd
       -0.04647189 -0.1083168 -0.07016036 -0.06793291
0000d0 bf 58 cd bd f1 a8 ab bd 3f 4e b9 3c 68 67 9e bd
       -0.100266926 -0.083818324 0.022620318 -0.07734567
0000e0 bf ac c3 bd e7 02 8e bd 96 77 d7 bd a3 7d 4e bb
       -0.09554433 -0.06934147 -0.10520856 -0.003150799
0000f0 da 25 62 3d e4 d9 44 3d 14 9f a0 bd 1d 73 07 3a
       0.05521188 0.04805936 -0.07842842 0.00051669945
000100 68 96 46 3d d4 e7 96 3a 2c 9e bf 3d 81 62 75 3d
       0.048483282 0.0011513182 0.09356341 0.059908394
000110 49 f9 da bd 74 01 bf 3c dd a0 5c bd 29 b4 43 3d
       -0.106920786 0.023316123 -0.05386435 0.047779236
000120 c6 93 ce 3d c7 7a 87 bd 5f 44 47 3d 9e 05 5f 3c
       0.10086779 -0.06615215 0.048649188 0.013612179
000130 2a 78 dc bd d5 5d 13 bc bc 16 39 3d 57 8c eb bc
       -0.10765107 -0.008994539 0.045187697 -0.028753443
000140 f1 2b 4c bd f0 4b cf bd 17 f8 7f bd e0 8d 3a bd
       -0.049846593 -0.10121906 -0.062492456 -0.04554546
000150 e3 eb a9 3d 15 ce 15 3c 30 07 6e 3d f9 44 bc 3d
       0.08296945 0.009143372 0.058112323 0.09192843
000160 3b e8 c8 bd d5 10 97 bb
       -0.098099194 -0.004610161

layers.3.weight f4 [5, 90]
000000 05 2b 55 bd 11 ce b9 bd dc 4e 7b 3d f8 5e 0a 3e
       -0.05204298 -0.09072507 0.061354503 0.1351279
000010 92 88 ea bc 9f 7a 7f bd a4 04 13 be d1 25 9e 3d
       -0.028629575 -0.0623728 -0.14357239 0.07722057
000020 5e ad e0 3d 39 cd ca bd d6 37 ff 3d 6b 9d ad 3d
       0.10970567 -0.09902424 0.12461822 0.08477291
000030 da 63 ce bd e6 46 81 bc 7d 05 19 3e 58 eb ea 3d
       -0.10077639 -0.015780877 0.149435 0.114706695
000040 45 70 07 3e 02 7b bc bd e5 4e 04 3e e8 0c fd bd
       0.13226421 -0.092031494 0.12920721 -0.12355977
000050 c3 52 82 3d a1 f5 88 bc db 50 a1 3d ad 95 13 be
       0.06363442 -0.016718687 0.0787675 -0.14412566
000060 64 3a 26 3d 57 01 ee 3c 5b 08 c5 3d 66 fd b6 3d
       0.04058303 0.029053373 0.09620734 0.08935051
000070 2d 65 0f be 22 8a c5 bc 9d 99 ce bd b9 46 9e 3d
       -0.14003439 -0.024113718 -0.10087893 0.07728333
000080 ce 25 bf bd af ca 10 3e db 9c ac 3d c5 4d 1c bd
       -0.093333825 0.14139818 0.08428355 -0.038160104
000090 54 53 49 3d 27 46 fc bc ce 89 0a 3d 60 0d 68 bd
       0.049151734 -0.03079517 0.033822827 -0.05665338
0000a0 bf 1c 22 3d 02 76 81 bd 19 6b a4 bd 5d 55 3a 3c
       0.039578196 -0.06321336 -0.0802824 0.011372891
0000b0 f8 8f e2 bc a1 53 a8 3c 0a aa ca bd 91 b8 1c be
       -0.02765654 0.02054769 -0.098957136 -0.15304781
0000c0 1a dc ad 3d 73 84 cc bd fe b5 37 3d 1a e2 20 be
       0.08489247 -0.099862 0.044851296 -0.15711251
0000d0 49 da 7c 3b 3d 20 0c 3e 76 9d 0e bd 7a 64 e7 3d
       0.0038582257 0.13684173 -0.034818135 0.11298461
0000e0 db 99 09 be 2b 4a bf bd 78 47 da 3c 20 32 90 bd
       -0.13437597 -0.09340318 0.026645407 -0.070408106
0000f0 ec 64 b6 3d f9 19 5d bd 22 22 ff 3d b2 69 bc 3d
       0.08905968 -0.053979848 0.12457682 0.09199847
000100 09 9c 57 bd 23 1b 72 bd 36 c0 b5 bd da 23 83 bd
       -0.05263904 -0.05910791 -0.08874552 -0.064033225
000110 8d 6a c1 3d 33 56 5b 3d bb a3 3c 3d 1d b9 d8 bc
       0.09444151 0.053549003 0.046054583 -0.026455456
000120 a2 78 b9 3d 05 a1 75 3d e4 aa 25 3e 4b 1d 1b 3e
       0.09056212 0.059968013 0.16178471 0.15147893
000130 9a 06 b0 3d 2e e7 fa bb 2d bc b9 bd d3 7a bd 3d
       0.08595009 -0.0076569533 -0.09069095 0.092519425
000140 d6 3f c0 3d 62 ef e9 bd a5 2f b8 3c 2e c0 4f 3d
       0.09387176 -0.11422612 0.022483656 0.050720386
000150 b6 2b cc 3d 40 43 0a 3c 0c 51 d0 bd a6 f1 21 3c
       0.09969275 0.008438885 -0.101717085 0.009884274
000160 71 f1 84 bc b7 d9 c6 3d 30 49 0a bd 28 8a e5 3d
       -0.01622841 0.097094946 -0.033761203 0.11207992
000170 11 a7 f0 3b 95 69 c5 bb 0c 2b cc bc 69 81 98 bc
       0.0073441346 -0.0060245492 -0.02492287 -0.018616395
000180 a3 88 63 bc 65 be 8d 3d c9 ec bc 3d 7a 04 c7 3c
       -0.013887557 0.069210805 0.09224851 0.024294127
000190 7f f2 b5 bd ae 31 09 3e ba 4f e0 bc ab 19 66 bd
       -0.08884143 0.13397858 -0.027381767 -0.056176823
0001a0 68 d1 fd 3d e1 4b 12 3e 3f d4 23 3d 42 85 a9 bc
       0.12393457 0.14286758 0.039997336 -0.020693425
0001b0 5d b1 22 bd 04 f5 04 3d 6e c5 0a 3c d5 8d fb bd
       -0.039719928 0.032460228 0.0084699225 -0.12282912
0001c0 34 2f 20 3a 77 d5 d3 bd 4a 5d 10 3e 8d 33 0f bd
       0.00061105494 -0.103434496 0.14098087 -0.034961272
0001d0 a3 cd 8b bd 41 97 ce bc 2c b5 a8 bd 2b e0 89 bd
       -0.068263315 -0.025218608 -0.08237681 -0.0673221
0001e0 16 57 7e bd c2 da 1c bd 62 c8 c3 bd af 41 ab 3d
       -0.06209477 -0.03829456 -0.09559704 0.083621375
0001f0 ab db c1 bd 02 be 01 be dd 3d 9d 3a 9c 8f 4c bd
       -0.094657265 -0.12670138 0.0011996586 -0.049941644
000200 e4 19 a0 3d b3 35 b1 bd 86 ab d0 3d ed 08 f3 3c
       0.07817438 -0.086528204 0.101889655 0.029667342
000210 d4 24 61 bc a1 58 cf 3d 91 76 34 bd ca 15 83 3d
       -0.013741691 0.101243265 -0.044058386 0.0640064
000220 d3 3c 82 bd 23 0b ad bd 23 da 4d 3c ef b5 65 bd
       -0.063592575 -0.0844939 0.012564215 -0.05608171
000230 71 d9 f4 3d 8f d9 99 bd b2 53 e3 3c e8 21 db 3d
       0.11955536 -0.07512199 0.02774987 0.106998265
000240 dd 9c b4 3d 12 52 0d bd 7b 82 54 3d ca f0 13 3d
       0.08818982 -0.034502096 0.05188225 0.036118306
000250 5f 86 ac bd 74 eb a1 bd aa b2 58 bc 5e 95 b4 3c
       -0.08424067 -0.07906237 -0.013226191 0.02204388
000260 ae 7b a5 bd e2 a1 62 bc 32 b4 06 3d de a8 56 3d
       -0.08080231 -0.013832541 0.03288669 0.052407138
000270 78 c4 a3 bd 57 1e 18 3d b1 f9 79 3d 4c 13 d1 bd
       -0.07996458 0.03713831 0.06102914 -0.10208759
000280 a1 8c cb 3c 18 0d 0a bd c0 6b b5 3d e1 e9 87 3d
       0.02484733 -0.033703893 0.08858442 0.06636406
000290 f7 e9 80 3d 2c b4 60 3d da a3 ff 3d 9c 7b 8b 3d
       0.06294625 0.054859325 0.12482424 0.06810686
0002a0 e1 d5 1b be 43 5a 8d 3d f5 82 ac 3c 22 4b bd 3d
       -0.15218307 0.06901982 0.021058539 0.09242846
0002b0 87 88 01 be 18 bc db 3d 54 bd 1d bd aa 01 1d 3d
       -0.12649737 0.107292354 -0.038510635 0.038331665
0002c0 4f d6 db 3d 16 34 b8 3d 27 90 d0 3d 7b ce aa 3d
       0.107342355 0.089943096 0.10183745 0.08340164
0002d0 3f cd ca bc d4 e6 99 3d bb 70 eb 3d af 5d f4 3c
       -0.024756072 0.0751473 0.11496111 0.029829828
0002e0 0e 55 ca bc 32 dd 28 3b f7 ad 18 3e c2 f7 03 3e
       -0.02469876 0.0025766608 0.14910112 0.12887481
0002f0 b2 59 3c bd 95 9b 4a bd a3 17 3c bc 4f b1 af bd
       -0.045983978 -0.04946478 -0.011480245 -0.08578741
000300 8b 96 1c 3e 14 0a 70 bd 66 55 55 3d 9a 1b 10 3e
       0.15291803 -0.05860336 0.052083395 0.14073029
000310 23 8f 08 be ea 25 80 bc bd 26 f8 bd 96 56 25 bd
       -0.13335852 -0.015643079 -0.12116764 -0.040365778
000320 d8 9c c4 3d 9d d1 b6 bd 52 fd 08 be 69 c9 92 bc
       0.09600228 -0.08926699 -0.13377884 -0.017918305
000330 d3 5d dd 3d 97 37 ef 3d a4 ae 1c 3e 95 64 f1 bc
       0.10808911 0.11680525 0.15300995 -0.029466907
000340 07 00 b3 3d 24 14 72 3d 1e 37 86 3d b2 de cb 3d
       0.087402396 0.05910124 0.065534815 0.09954585
000350 4c 9d 10 be 72 5f 26 3b 75 e0 08 bd cf bd f8 3c
       -0.14122504 0.002538648 -0.033417184 0.030363945
000360 4b 7e 55 bc 9b 7a 13 3d 60 eb c4 bc 1b a3 cd bd
       -0.013030599 0.036005598 -0.024038017 -0.100408755
000370 f6 90 e1 3c 1a 63 9e 3d 68 43 fd 3d 96 9c cc bd
       0.027534943 0.07733746 0.12366372 -0.09990804
000380 23 ad db bc e7 cc a0 bd e0 62 67 bd b1 34 ae 3d
       -0.026815956 -0.07851582 -0.05649078 0.08506144
000390 74 f2 db bd 37 e4 a4 3c 23 c1 01 3e 26 d4 94 3d
       -0.10739604 0.020128353 0.12671332 0.072670266
0003a0 ec 4e 4c bd 20 6b b0 3d 9a 5c 39 bc 42 58 bb bd
       -0.049879953 0.086141825 -0.011313582 -0.09147693
0003b0 f8 14 c1 3d 18 ac 1a 3e 64 82 92 3c c8 e2 5b bd
       0.094278276 0.15104711 0.01788444 -0.053683072
0003c0 23 4b 6f bd b5 4d 8a bd e2 2f c6 bd eb 2d 07 3e
       -0.058421265 -0.06753103 -0.09677102 0.1320111
0003d0 0e 6f de 3c f0 64 d9 bd 27 12 bd bd 17 48 43 bd
       0.027152564 -0.106149554 -0.09231978 -0.047676172
0003e0 71 b3 84 3d 0a 46 a4 3c ce fe 09 bc c1 3b d0 3d
       0.06479538 0.020052928 -0.008422567 0.10167647
0003f0 85 b2 c0 3d 7c b0 be bd 15 b0 38 bd 1c 92 97 bd
       0.0940905 -0.093110055 -0.0450898 -0.07400915

layers.3.bias f4 [5]
000000 05 4c 9e b9 4d 36 1f bd 19 79 87 3c 3a 1d 29 3d
       -0.00030192747 -0.038870145 0.016537236 0.04128764
000010 14 ad b6 3d
       0.08919731
