irony/models/model_35.pt (torch_old, 58143 bytes, 8 tensors)

layers.0.weight f4 [70, 10]
00000000: 31ec 05be 42d4 1cbe 650f 9ebe 2a34 a53e
00000010: c499 5e3e f125 08bd 90b7 823d 5b07 25bd
00000020: 4c43 763e 04ef 4a3e fe7c b0bd fceb e0be
00000030: 318d 8d3e 3916 70be 74af 5c3e 28bf cfbb
00000040: 9a7c cdbd 6e69 753e 2cf0 3bbe efd5 d93b
00000050: f401 edbd 7c82 283e 741f 803e 6724 5d3e
00000060: 4883 5abe fae7 0f3d 234d 2b3e 6a06 093e
00000070: 8ebc 283d 1abc 2dbe 4b5a b23e daa4 6fbc
00000080: b207 b3bd 4e1b 533e cd49 83be 7f41 e83d
00000090: de4a 50bd 6f2c ce3c 9ad5 5a3c 6f91 75bd
000000a0: 4904 c9bc ec46 0e3d 2158 fc3e be3f 6f3e
000000b0: 3351 f8bc 33b7 0abe e54c 2dbe a440 143d
000000c0: 53a8 203c 27c3 cebd d5d4 a1be 7d9b 5d3e
000000d0: b26d db3e 3c1f 0fbf ca79 863e 5756 75bd
000000e0: 7500 2c3e 1fc0 7f3d e87a 00bd 52db 653c
000000f0: 2f90 633e 4aee 563c bfcf 5e3d 652b 84be
00000100: ee8a 87be 7127 d13d 42d9 b13d 1081 093e
00000110: a534 10be 3694 d8bd 8c0e 2e3e 865e 27be
00000120: e8f2 b2be 572c 933e 5f19 b7be 1627 523e
00000130: 938b 11be 38ed 17bd cc0f ea3d c8af f5bc
00000140: eb28 ad3e eb59 273d 1b1d edbe f8bd b53e
00000150: 24ed 85be f1f2 5a3d eca7 0abe 787d 1cbd
00000160: 289a 743e 741b 173d 5eb9 75bd b7cc 3d3e
00000170: 1926 42be c9a0 0ebe 773d 9d3e 7964 9aba
00000180: e0bf 423e d4c5 10bd 41a5 a03b 303d 123e
00000190: fa9d 7bbe bea0 93be 6243 6cbe bdf1 923e
000001a0: 16d0 273e e8a4 b5bd 00ae 19be 48eb 24be
000001b0: 677a c93d 73ba c63d cef0 e03e 693b 14be
000001c0: 0f3e a6be 94b1 993d 8fd0 633e c967 0c3e
000001d0: a072 88bd 82df 36bd 2975 0bbe 630e 943d
000001e0: 4a74 4c3e 01c0 983e dc83 793e 7818 99be
000001f0: f270 8dbe 9bc0 fc3b aa5f 683d 8ffd a23d
00000200: a8df 07be 3bb4 08be 105d 353e ffe7 683d
00000210: 14c7 793e acf5 c33d a989 35be b8cf a1bc
00000220: 6181 2e3d d9ee 913d 4e7a 423d 699f 40be
00000230: 6723 523d 4f1b 663c 963c cabe 1584 b4be
00000240: b224 853d 8570 81bd 84a4 07be 29f1 80be
00000250: 4113 3abe 2ba2 c9bd ccb9 1a3e c3fa 783e
00000260: 901a aa3d b16e bebe 15b7 9cbe 352f bb3d
00000270: 901d ec3d b7d5 fe3d ec9a 1ebe 958e 0fbe
00000280: 4507 903d 4b35 733e 0551 0cbe d918 30be
00000290: 6475 93be 619e 053d 09ee 1c3e 0c4f 1dbc
000002a0: ece6 4a3d c448 103d 76e9 ffbd efb6 a9be
000002b0: 2afa dc3d ee22 b03e a49c 32be fc56 1dbc
000002c0: cfe0 1ebe 4a60 5c3d a331 823d b8d1 bebd
000002d0: e548 bf3e 9525 babd a2e2 09bd d6cd d1be
000002e0: ab50 883e b1a6 66bc bcff 6abd dbf9 edbd
000002f0: 42a0 23be 2f36 e73b f064 c5be 709e 06be
00000300: dc48 c3be 9215 7c3e a007 033e ced3 62be
00000310: 19e7 4fbe 05b3 49be ba00 0e3c f7a9 df3c
00000320: 5550 8fbe 4adb c7be f694 56be fad0 103e
00000330: 8f06 b13d 7551 c5bb c439 f1bd efce 3abe
00000340: 9d44 4e3e 47a1 b43d 1328 f3bd f9ca d1be
00000350: 73e9 983d 3a21 f73d 495a 2a3e 3f47 a5bd
00000360: b36a d8bd d41c b33d 25df 26be 6d4f 893c
00000370: 9c2f 8d3e f6d7 0cbd 1d9c 18bf d7ee 263e
00000380: 2b53 dcbd 50e7 c73d 3844 08be 785a 1abe
00000390: 6617 19bd 8c0e 52bd a847 473e 0858 873e
000003a0: 09f8 5c3e 8126 2ebe 3731 31be f5db 403c
000003b0: 79fa 063d b39a 5f3d a242 4fbe 974b 1abe
000003c0: 19b4 74be a6a9 adbe 6237 08be b67a 013e
000003d0: f9f4 063e 824f 09be bd14 91bd 5af0 fcbd
000003e0: 1433 2a3e 828c dd3d ed05 c13b e18b c4bd
000003f0: 8d9b 4cbe f87d 783e d4f4 9f3e 724a c1bb
-0.13078381 -0.15315345 -0.3087112 0.3226636 0.21738344 -0.03323931 0.06382668 -0.040290218
0.24049109 0.1981774 -0.0861759 -0.43930042 0.27646783 -0.23445977 0.21551305 -0.0063399263
-0.100335315 0.23966 -0.18353337 0.0066478173 -0.11572638 0.16456026 0.25023997 0.21595918
-0.21339142 0.03513334 0.16728644 0.13381353 0.041195445 -0.16966286 0.34834513 -0.014626706
-0.08741702 0.20615885 -0.25642243 0.113406174 -0.05085265 0.025167672 0.013356591 -0.05995315
-0.024538176 0.034735605 0.49285987 0.2336416 -0.030312156 -0.13546447 -0.16923864 0.03619446
0.009805757 -0.10095816 -0.3160769 0.21641345 0.42857128 -0.55907035 0.26264793 -0.059896793
0.1679705 0.06243908 -0.031367213 0.014029341 0.2222297 0.013118336 0.05439734 -0.25814357
-0.26473182 0.10212601 0.08684017 0.1342814 -0.14082582 -0.10575144 0.16997737 -0.16344652
-0.34950948 0.28744766 -0.35761544 0.20522723 -0.142134 -0.037091464 0.11428794 -0.029991046
0.3382028 0.040857237 -0.46311268 0.35496497 -0.26157486 0.053454343 -0.1354062 -0.038205594
0.23886931 0.036891416 -0.059991233 0.18535124 -0.18959846 -0.13928522 0.30710956 -0.0011779211
0.19018507 -0.035344914 0.0049025123 0.14281154 -0.24571982 -0.28833574 -0.2307258 0.28700057
0.16387972 -0.08869344 -0.15007782 -0.16105378 0.098377995 0.09703531 0.4393372 -0.14475788
-0.32469222 0.075045735 0.22247528 0.13711466 -0.06662488 -0.044646747 -0.13618912 0.072293065
0.19966236 0.29833987 0.24366707 -0.2990148 -0.27625233 0.00771339 0.056731857 0.07958519
-0.13268912 -0.13350002 0.17711282 0.056861874 0.24392349 0.095683426 -0.17728294 -0.019752368
0.042603854 0.07125635 0.04747992 -0.1881081 0.051303294 0.014044597 -0.39499348 -0.3525702
0.0650114 -0.063202895 -0.13246351 -0.2518399 -0.18171407 -0.09845384 0.15109938 0.24314408
0.08305848 -0.37193826 -0.3060843 0.091398634 0.11529076 0.124431066 -0.15488786 -0.14019234
0.070326366 0.23750798 -0.13702781 -0.17196979 -0.288005 0.032621745 0.15325178 -0.009601366
0.04953663 0.035225645 -0.12495701 -0.3314738 0.107899025 0.3440165 -0.17442566 -0.009603258
-0.15515445 0.053802766 0.06357124 -0.093173444 0.37360302 -0.090891995 -0.0336634 -0.40977353
0.26624045 -0.014077828 -0.057372794 -0.11619922 -0.15979102 0.0070560197 -0.38553572 -0.13146377
-0.38141525 0.24617603 0.12795877 -0.2215111 -0.20303 -0.19697197 0.008667165 0.027302725
-0.27990976 -0.39034492 -0.20955262 0.14142218 0.08643829 -0.0060216733 -0.11778596 -0.18243001
0.20143361 0.08819824 -0.11872878 -0.40975168 0.07466402 0.12066884 0.16636004 -0.0807023
-0.10567226 0.08745733 -0.1629606 0.016761506 0.27575386 -0.034385644 -0.5961321 0.16302048
-0.107580505 0.09760916 -0.13307273 -0.15073574 -0.03737583 -0.051283404 0.19460928 0.2643435
0.21578993 -0.17006876 -0.1730393 0.011771192 0.032953713 0.054590892 -0.20240262 -0.15067898
-0.23896827 -0.33918494 -0.13302377 0.12644467 0.13179387 -0.13409236 -0.07084034 -0.12350531
0.16621047 0.10817815 0.005890599 -0.09596992 -0.19981213 0.24266803 0.31241477 -0.005898767

layers.0.bias f4 [70]
00000000: dee8 51be 2497 f53c b6a4 f5bc 1251 b0bd
00000010: 6a58 f1bd cf58 a1bd 45d1 db3d a699 633d
00000020: bc86 eabb 94a5 d3bd 5849 943d 6023 91bb
00000030: e8b5 da3c a0b2 53bd 9598 813e 013d 363e
00000040: 93d4 563c 026f 6a3c f056 e8bd d2d3 1f3e
00000050: dccc 1c3d 5a99 803d 8509 c13d 24c3 fbbc
00000060: e355 a93d 69cc 68bc 6d43 543d 33c7 04be
00000070: eaa8 023e b3bf 073d a4d6 1abe c9a1 58be
00000080: 3f6e 603d 2b56 1bbe 2218 20be c38b dabd
00000090: b759 a93d 5140 083d f850 31be da05 113e
000000a0: 7705 1bbe c865 c3bd 7b0f b53d b7f8 aa3c
000000b0: 9dda 1b3e 4edf 5d3e 9f33 bfbd 56c8 2bbe
000000c0: c409 acbd b330 55be a903 03bd d012 b33d
000000d0: 5a63 ce3d f014 cbbd ac1e 283d 89b2 d13d
000000e0: c1a5 13be 1842 7ebd 68b6 6f3c 5519 e13d
000000f0: 5bc6 0f3d c466 0c3e c21a acba 12ed f33d
00000100: 5892 e0bd 4ad4 1bbd 6b6f 033e c8a3 5c3d
00000110: 5f88 d53d 7cf1 87bd
-0.20498988 0.029979296 -0.029985767 -0.08609213 -0.11784442 -0.07878267 0.10733274 0.055566452
-0.007157175 -0.10334316 0.07240552 -0.004429266 0.026698068 -0.051684022 0.25311723 0.17796709
0.013112205 0.014308693 -0.11344707 0.15608147 0.038281307 0.062792495 0.09425644 -0.030732699
0.08268335 -0.014208891 0.051822115 -0.12966613 0.12759748 0.033141803 -0.15120941 -0.21155466
0.05479264 -0.15169589 -0.15634206 -0.10671189 0.08269065 0.033264462 -0.17316043 0.14162388
-0.15138803 -0.095408976 0.08840843 0.02087055 0.15220113 0.21667215 -0.09336018 -0.16775641
-0.084003 -0.20819359 -0.031985912 0.087438226 0.100775436 -0.09916103 0.041044876 0.10239131
-0.14418699 -0.06207475 0.014630891 0.1099116 0.035101276 0.13711077 -0.0013130533 0.11910452
-0.10965413 -0.03804425 0.12835471 0.05386713 0.10426401 -0.06637856

layers.1.weight f4 [80, 70]
00000000: 42f2 febc 2982 43bd d56f 18be d79d 003e
00000010: 7612 85bc 8b12 4fbd a736 56bd 716f 01bc
00000020: a4b2 273d 7c88 a3bd ae9c 5c3d 6a56 643e
00000030: f815 cfbd c0b9 3dbe dae9 603d a92a 3abd
00000040: 5d5b 37bc 6302 223d 6f08 823e 4e62 1a3d
00000050: 78c5 1db9 d4d8 1dbd 83eb 833d 8253 6bbd
00000060: 3525 933c 91c2 e83c 30ae 1c3d 8e9a 9ebd
00000070: f28c f23d d55f 543d 41ef 413d de5f f0bc
00000080: 8d44 ab3e 0d57 573e 2123 03be bb20 0c3d
00000090: a231 6f3d 631b 2ebe fc05 41bd cba2 b33d
000000a0: 35ff 7c3d 77ad 123b da1a a3bc 01c0 2fbc
000000b0: bbf4 853b 2274 bcbd 3104 c6bb e0d3 503e
000000c0: e340 8d3e dacc 6abe bca1 4abd 3278 7a3d
000000d0: 32c1 0c3d 7f1a aa3c d5ec 883e 6d73 fc3d
000000e0: 279e 89bd 1795 a63e f6fe a63d c0c6 b2bd
000000f0: 2d56 78be ee94 7fba aff5 32be 418e 4abe
00000100: ef2d d73d 0863 f93c f3a5 553d b180 60bd
00000110: 6dd6 b13c 0a02 c63b 2cf6 413e 17d9 18be
00000120: 5755 11be d640 d53d 54d5 febd 64b6 57bd
00000130: 2a51 00be 0597 ec3d 1eb4 ce3d d67e 2c3c
00000140: 163b d83c 28a7 a33d 38f8 c0bc 5606 58bd
00000150: 21b6 003e 2aa7 10be d06c 97bc 5b87 8e3d
00000160: 945f 443a d042 353e 6fb9 8e3e eaef 09be
00000170: 2b3a b83d ab8f aebd 6fb1 a53d 56a7 443e
00000180: b1a8 893d 2b73 66bd f615 513d d367 d3bd
00000190: f736 93bd 1a17 003d 5047 e23d f7eb b43d
000001a0: 9641 d03d d000 0abd 4732 643c ceab f3bc
000001b0: 86ff 35be 7501 58be 5dfc b1bd c722 1b3e
000001c0: 051a 033d 6a4b b13d d902 54bd 5cdb 813d
000001d0: 7557 01bd 9584 143d 4601 193d 08d6 f5bd
000001e0: 0cb1 16bd 66b8 3bbd 37fa 233d 232e 94bd
000001f0: d150 5f3d 1f46 0e3d 0d39 d8bd d382 883d
00000200: bbf0 453d 69ec 5ebd 5e6d 9bbd 2dca d1bd
00000210: cd79 263d d69e 713c 2e13 503e 79ca 1b3c
00000220: a920 84bd 6acd 79bd 16c1 3a3d 5c63 0e3e
00000230: 82bd 993d f414 863d c8eb 353d 43f5 1b3d
00000240: f01b c8bd 4cd0 7fbd 8669 88bd 5a83 d23c
00000250: 224c 003e c25c 00be 8128 db3c 0a9e b03d
00000260: 18c3 1bbe 2dce b43c 4936 85bd b4cd 103c
00000270: 5f81 00be 9057 2f3e 7da0 1dbe a237 2cbd
00000280: 99de 763d 811d 0f3e 0266 453e 626a bebd
00000290: 460e 033d 8d27 593c d2cb 683e a34c 1b3e
000002a0: e693 95bc 6828 68bd e82a 55be 463b 543d
000002b0: be86 3dbd 279d 4c3d 9ced c33b 0617 70bd
000002c0: 4d5c 703d cb96 e73c 8471 093e 74cc b4bc
000002d0: 92e8 77be e2c5 173c 1c2e d73d 9a80 973d
000002e0: 34e6 c5bd cc60 e73d 16eb f83d e0fa 3e3c
000002f0: 149e 3dbd 18ce 70be 1c6f d9bd ec70 833d
00000300: 3724 023e 143e 6dbe 8574 413c 3f77 e7bd
00000310: c832 0d3d 3c49 8a3c 6823 eebd 10cd 743e
00000320: 7289 c13d b4c3 723d d845 17be b9ab 3f3e
00000330: 8848 83bd 3b3e 133c ecb7 9dbd 31fc e4bd
00000340: 114f 67be 24a5 30bc 2b10 013e 0453 4dbd
00000350: 2918 d9bd 7f3e b93d cfa4 2ebd aa75 dfbd
00000360: e473 53bd afef cf3c ac77 eabc 7da8 c93c
00000370: 06e7 4fbd 5b47 553d ac40 f1bc 3916 3fbe
00000380: a7fa 513e a537 833d 64b2 92bc 7f21 bfbd
00000390: a2ed 3f3e 7c62 503d 08b5 44bd 3e40 b83c
000003a0: a258 7f3d 8ba6 2e3b ad2c 673d 7891 4a3d
000003b0: 8dd1 073e 7666 293d 9e53 873e e6bb ce3d
000003c0: a884 ee3c 815a f2bd b2ed 783e 66ca 193e
000003d0: ad05 153d 6123 1abe 25c0 f13d 148c 0abe
000003e0: 0b66 d13c 37c6 e7bc 8537 583e 5314 b1bd
000003f0: bbec 0e3e 075d 893c 25c8 81bd 54cc 88bd
-0.031121377 -0.047731552 -0.1488641 0.12560211 -0.016244154 -0.050554793 -0.052298214 -0.007900105
0.04094185 -0.07985017 0.05386036 0.2229859 -0.10111612 -0.18527889 0.05491052 -0.04545084
-0.011191216 0.039553057 0.2539706 0.037691407 -0.0001504625 -0.03853686 0.06441405 -0.057452686
0.017962078 0.028413089 0.038252056 -0.07744323 0.118432894 0.051849205 0.04734731 -0.029342588
0.33450738 0.21029301 -0.1280637 0.0342109 0.058396943 -0.17002635 -0.047124848 0.08771285
0.061766822 0.0022381225 -0.019910265 -0.01072693 0.004088012 -0.09201838 -0.00604298 0.20393324
0.27588567 -0.22929707 -0.04947065 0.061149783 0.034363933 0.020764587 0.26743189 0.12326703
-0.06719618 0.32535622 0.08154099 -0.08729315 -0.24251623 -0.000974967 -0.17476533 -0.19780828
0.10506808 0.03044273 0.052160215 -0.05481023 0.021708691 0.0060427235 0.18941563 -0.14926563
-0.14192711 0.10412757 -0.12443033 -0.052664176 -0.12530962 0.11552242 0.100929484 0.010528287
0.026395362 0.07990867 -0.02355586 -0.052740417 0.12569477 -0.14126268 -0.018484503 0.06959411
0.0007491049 0.17701268 0.2787585 -0.13470426 0.0899547 -0.08523496 0.080904834 0.19204459
0.067216285 -0.056262176 0.051046334 -0.10322537 -0.07188218 0.03127203 0.11048758 0.08834069
0.101687595 -0.03369218 0.013928003 -0.029745009 -0.17773256 -0.21094306 -0.086907126 0.15149985
0.032007236 0.08656962 -0.05176053 0.063406676 -0.031577546 0.036259253 0.03735473 -0.12003714
-0.03678994 -0.045830153 0.040033545 -0.072353624 0.054520432 0.03473484 -0.105577566 0.06665578
0.04832528 -0.054424677 -0.075892195 -0.1024364 0.040643502 0.014747342 0.20319816 0.009508722
-0.06451542 -0.060986914 0.045594297 0.1390509 0.07506849 0.06546965 0.04441431 0.038075697
-0.09770954 -0.062454507 -0.06660752 0.025697399 0.12529042 -0.12535384 0.026752712 0.086238936
-0.15211141 0.022070969 -0.06504495 0.008838106 -0.12549351 0.17123246 -0.15393253 -0.042045243
0.06027088 0.13976099 0.19277194 -0.09297635 0.031996034 0.013254059 0.22734001 0.15165953
-0.018259 -0.05667916 -0.20817149 0.05181434 -0.04627108 0.04995456 0.005979253 -0.058615707
0.058681775 0.028270146 0.13422209 -0.022070147 -0.24209812 0.0092634875 0.105068415 0.07397576
-0.096630484 0.112977594 0.12154214 0.011656493 -0.046293333 -0.23516119 -0.106168956 0.064180225
0.12709127 -0.23168212 0.011807566 -0.11302041 0.034472257 0.016880624 -0.11627847 0.2390635
0.09450044 0.05926867 -0.14772737 0.1871785 -0.064103186 0.008987005 -0.07701096 -0.11180914
-0.22588755 -0.01078156 0.12603824 -0.050127998 -0.10600311 0.09045123 -0.042637642 -0.109111145
-0.051624194 0.025382845 -0.028621517 0.024616474 -0.05075743 0.052070003 -0.029449783 -0.18660821
0.20505773 0.06407098 -0.017907329 -0.09332561 0.18742993 0.050875172 -0.048024207 0.02249157
0.062340386 0.002664956 0.05643909 0.049455136 0.13263531 0.04135748 0.26430982 0.100944325
0.02911599 -0.118336685 0.24309424 0.15018615 0.036382366 -0.15052558 0.11804227 -0.13529998
0.025561353 -0.028292758 0.21114929 -0.08646455 0.13957493 0.016767992 -0.06337003 -0.066795975

layers.1.bias f4 [80]
00000000: 732a 9abc ec28 99bd bb69 013d f012 913b
00000010: 16d2 1a3e 0077 c53c 5b34 a13d 7494 f33d
00000020: dced db3c 0a97 143c 8a7d f03d f90a c13d
00000030: 4e3d 893d 26ff 72bd 2d51 023e ccd4 18be
00000040: 9db1 443b b603 c33d b5e9 94bd 883e 323e
00000050: fd83 0b3e 6863 1b3e 2775 f7bc 54cb 24bc
00000060: 205c 7e3d 83c2 a83d cc4f 703c 8241 903d
00000070: 0ca6 b53d 2a83 46bd 958a 8b3d 805c 4c3c
00000080: e619 9b3d ce4b 79bc e841 d33d 1f5e 6dbd
00000090: 0e9a 5fbc 864b c13d cda3 163d b815 1b3d
000000a0: bad6 de3d fe9f fc3d 799b 643c 76e3 d23d
000000b0: 29da dc3c 67e8 773d 017f 333d cd86 09bd
000000c0: a4ae a83d 8a5d bc3d 8b72 7c3d e54a 043e
000000d0: dbf8 a13c 7bda f5bc 0ef6 aa3d fa40 973c
000000e0: f2ec 0bbc c71a fb3b be58 993d 5fc8 fd3d
000000f0: 1f97 013d 3ed1 313d 527c 10bd 59da 9c3c
00000100: ff30 f1bd 0ee3 d83d 27c4 efbc 98e8 d1bd
00000110: 8dbe b63d 7f85 21bd 5175 a0bc faf2 03bd
00000120: c9a3 253e 5f33 bc3d cc7f 09bd 87fa ee3c
00000130: d55a 2bbd b124 b43d 40ab da3b 42fb acbc
-0.01881907 -0.07478508 0.031594973 0.0044273064 0.15119204 0.024104595 0.07871314 0.118935496
0.026846819 0.009069214 0.11742695 0.09425921 0.06701146 -0.05932536 0.12726279 -0.14924926
0.0030013092 0.09522192 -0.072711386 0.17406666 0.13624568 0.15174639 -0.03020723 -0.010058243
0.062099576 0.08240225 0.014667463 0.070437446 0.088695616 -0.04846493 0.06813542 0.012473226
0.07573299 -0.015215827 0.10315305 -0.05795109 -0.013647569 0.09438233 0.036777306 0.03786251
0.108807996 0.123352036 0.013953083 0.10297291 0.026959496 0.06052437 0.043822292 -0.03357582
0.08236435 0.09197529 0.061632674 0.12919195 0.019771984 -0.030011406 0.083477125 0.0184636
-0.008540379 0.007663104 0.07487629 0.123917334 0.03163826 0.04341244 -0.03527481 0.019147085
-0.117769234 0.10590182 -0.029268337 -0.10249442 0.089230634 -0.039433952 -0.01958719 -0.032214142
0.1617576 0.09189486 -0.033569142 0.029172195 -0.04183467 0.08796061 0.0066732466 -0.021115903

layers.2.weight f4 [90, 80]
00000000: 4373 233d 8a50 913d adb8 a0bd ce7f 68bc
00000010: 3115 573c 0ae1 b2bc 4848 bd3d 1158 6abd
00000020: 341a 2ebc 8ca9 803d 8084 ab38 d294 103c
00000030: fc24 e53c 6082 95bd 64fa 80bd 3e0f 0fbd
00000040: 57cc c33b 8d38 08bc 5311 0ebc 1133 753d
00000050: f352 c33c 6d31 88bb 6af5 7f3d d9aa cd3c
00000060: be02 a3bd 9bd2 873d 530e 813c a523 41bc
00000070: 5dab a33d 7637 883b b6d3 8dbc e6f2 46bc
00000080: 2f5d 09be b670 103d 9750 513c 8b71 cbbc
00000090: e814 e3bb 10b1 e5bc 8d73 20bd b20d a63c
000000a0: b65c c6bd 9b4b f3bd e252 3e3e e939 99bc
000000b0: cba4 4d3a 49b3 f03c 367c 01bd a4c2 343d
000000c0: b8ee f4bc 9ab8 883d 6ae7 79bb e0d2 e1bb
000000d0: 73b1 03be c030 cc3d cd6e 77bc 065c 793c
000000e0: f4ac 093d 0ad9 8d3d c0c0 5dbd 7483 0a3e
000000f0: ff13 883d f741 0ebe 7eec a5bc 243e 463d
00000100: 087e 073d 54b2 c73c 99a1 d6bc c4cd e63c
00000110: d40c 143d cf34 503d 81cf 983d 38fa 633b
00000120: 8354 e6bc 289f 323d b128 93bc 31af 07bd
00000130: caea 77bd b5d8 edbc 7ca9 b73c 48b9 6f3d
00000140: fa67 123d 5357 403c 89c7 bc3c 967f 263c
00000150: 15d5 aebb 6574 303c db29 d3bc c30c b03c
00000160: 7df9 363c 7611 e2bb 4a16 ba3a ff64 64bb
00000170: 2ce1 cbbc 8f0c 1d3d 8ddf cd3b 9cf5 11bd
00000180: ba16 903c 9b80 153d 815c 1bbd 981c a7bc
00000190: 2ae3 a3bc 4d41 553d 83fb 15bd 29a9 b83a
000001a0: e32b 563c fa5c f0bc 7469 fe3c 4e5b 26bd
000001b0: cfed a6bc 7f1b 9d3c 4fb3 c5bc bf81 05bd
000001c0: 0dab c23c 98c1 92bc 4a4e 843c fbf5 fe3c
000001d0: 24b0 6a3c 66b6 cf3c eff8 8b3c 0327 53bd
000001e0: 6d08 083d cc27 c93c de82 f3bc a7bf b63a
000001f0: 4da7 453c aefc 9ebc 7bc7 133b adf3 0e3c
00000200: 6607 d03c cc53 5b3c 6767 053d 14c5 89bc
00000210: c6ee a03b cce7 3ebc 9730 45bb 64b1 463d
00000220: 0735 663b 63eb 233d 79ff e33c f34a 43ba
00000230: 642c 703b cf70 5e3c 5d9d 48ba f137 3cbc
00000240: 7274 04ba d103 8ebb 54d9 003d 04cb 3bbc
00000250: e01a f4bc e272 7cbc 6410 913c 9f5a 74bb
00000260: 6347 af3c 2a14 aeba 5985 a53c e081 15bd
00000270: fcc9 b03c 9c56 bdbb f1fc b9bb 6748 173d
00000280: a1c6 5abd 4fb5 a6ba d051 033d 2d7d 1ebd
00000290: e897 d43d 9f87 1abd b5f4 81bd 61ab 8fbc
000002a0: 314c b63c 6b89 fd3c c654 80bd 8aed 813d
000002b0: e80d 893d 1c90 3ebd 6846 323d 7aa9 a6bd
000002c0: b8d2 9b3d 4b64 afbd 537a 153e 7d62 913d
000002d0: 00ea 3ebb 49ef a5bd f7e2 903d 4c7c e4b9
000002e0: bdd1 83bd f848 853d 66d7 8e3d 4802 3b3e
000002f0: be4b 5abd 0b6d 0abe ac5e afbd 2053 a0bc
00000300: 03af 263d 1f5f 3b3d 6c86 fd3b f8c3 63bd
00000310: 9fce 6d3d f5b5 1c3c 266b 9cbc 59cd 893d
00000320: 369a 3e3c c3f8 8dbd 5828 2ebc 461a 1c3e
00000330: d765 c5bd 634d 18bd c544 3f3d 596d d7bd
00000340: 6deb 65bd 9d5d 02bd 5ae7 4abb c9d1 34bd
00000350: 31e7 3a3d cc40 5f3d 3b2e 4fbd 94a4 053d
00000360: 7dad 823d c262 8c3c d809 dd3d ea38 89bd
00000370: f2e6 3bbd 48ae 033d 231d c43b 09d0 a33d
00000380: 9121 01be 4b53 843d 0ec4 78bd 9c7a 9bbd
00000390: a8cd 523c 06f3 563d 8b62 4dbd 347d 303d
000003a0: 14b6 a13c 9080 ae3c 787c e1bd ceef 003d
000003b0: 0ac3 913d b638 473d 40c6 0dbd fb48 5c3d
000003c0: 0873 b8bc 35ed 2bbc 66ab bbbc e581 26bc
000003d0: 07e7 1dbe 8d16 8d3b b53d eb3d d468 1a3e
000003e0: 0965 84bd 868b 403d 1cde ce3d d1b2 bf3c
000003f0: ca20 b93c 06a6 1c3e dd40 78bc 12d1 5b3d
0.039904844 0.0709544 -0.07847724 -0.014190627 0.013127611 -0.021835823 0.09242302 -0.057212893
-0.0106263645 0.062823385 8.1785955e-05 0.008824544 0.027971737 -0.07300258 -0.06297758 -0.034926645
0.005975287 -0.008314264 -0.008671123 0.059863154 0.023843264 -0.0041562826 0.062489904 0.02510588
-0.079595074 0.06631967 0.0157539 -0.0117882835 0.07991669 0.004157002 -0.017312866 -0.012142872
-0.13414453 0.03526374 0.012775562 -0.024834415 -0.0069299825 -0.028038532 -0.039172698 0.020270202
-0.09685652 -0.11879655 0.18586305 -0.018704372 0.00078446855 0.029382365 -0.031612597 0.044130936
-0.029898986 0.06675835 -0.0038132318 -0.0068915933 -0.1286066 0.09970236 -0.015102101 0.015219694
0.033612207 0.069261625 -0.0541389 0.13526708 0.06644439 -0.13892351 -0.02025437 0.048399106
0.033079177 0.024377026 -0.026200103 0.028174289 0.036145046 0.050831612 0.07461453 0.0034786593
-0.02811647 0.043608814 -0.01796374 -0.03312606 -0.060526647 -0.029033998 0.022419684 0.058526307
0.03574369 0.01173957 0.023044365 0.010162255 -0.00533546 0.010769938 -0.025776794 0.02149046
0.011167881 -0.006899054 0.0014197316 -0.0034850237 -0.024887644 0.038342055 0.006282753 -0.035634622
0.017588962 0.0364996 -0.037930015 -0.020399377 -0.020005781 0.05206423 -0.036616813 0.00140885
0.013071987 -0.02934121 0.031056143 -0.04061442 -0.020377068 0.01917815 -0.024133353 -0.03259444
0.023763204 -0.017914578 0.016150612 0.031123152 0.014324222 0.025355529 0.017086474 -0.051550876
0.03321116 0.02455511 -0.029725488 0.0013942615 0.012063813 -0.019407596 0.002254932 0.008725089
0.025394153 0.013386678 0.032569315 -0.016817607 0.0049112765 -0.011651944 -0.0030088776 0.048509017
0.0035126822 0.040019404 0.02783178 -0.0007449828 0.0036647553 0.0135767 -0.00076528435 -0.011487947
-0.0005052752 -0.004333951 0.03145726 -0.011461977 -0.029797971 -0.01540825 0.017708011 -0.003728546
0.021396345 -0.0013281156 0.020205187 -0.03650081 0.021580689 -0.005778147 -0.005675905 0.036934283
-0.053412084 -0.0012718829 0.032060444 -0.038693596 0.10380536 -0.037726995 -0.06345502 -0.017537775
0.022253128 0.030949315 -0.06266169 0.06344135 0.066921055 -0.046524152 0.043524176 -0.08137794
0.07608551 -0.08564051 0.14597444 0.07098863 -0.0029131174 -0.08102281 0.0707454 -0.00043580157
-0.06436489 0.06508058 0.06974678 0.18262589 -0.05329489 -0.13518159 -0.08562979 -0.019570887
0.040694248 0.04574501 0.0077369716 -0.055606812 0.058058377 0.009564866 -0.019094061 0.0672862
0.011633446 -0.06932213 -0.010629736 0.15244398 -0.09638565 -0.037183177 0.046696443 -0.10518903
-0.056132723 -0.031827558 -0.003096065 -0.04414538 0.045630638 0.054505154 -0.0505812 0.032627657
0.063807465 0.017136935 0.10792893 -0.067003086 -0.045874543 0.03214863 0.0059849187 0.07998664
-0.12610461 0.064611994 -0.060733847 -0.07591745 0.012866415 0.05247786 -0.050142806 0.043088153
0.019740142 0.021301538 -0.11010069 0.031478696 0.07117279 0.04863807 -0.034612894 0.053780537
-0.022515789 -0.010493566 -0.022908878 -0.010162805 -0.15420161 0.004305667 0.11486379 0.15079051
-0.064645834 0.04700806 0.10100958 0.023400696 0.022598643 0.15297708 -0.015152183 0.05366618

layers.2.bias f4 [90]
00000000: cfba dcbc b059 aebd 0f00 fcbb 472f 6cbe
00000010: 0855 ff3c 3716 143e 53e9 5c3b fbf2 e2bc
00000020: 8a85 77bd c9c9 ea3d b2c1 673c c881 c4bd
00000030: 5f9c 70bd e8a2 82bb c60d 66bc 4c62 d23c
00000040: bd1d 923c 3f35 07be e019 3e3e fc4a 1b3e
00000050: c021 81be e883 e7bc 8133 2bbd 7c10 73bc
00000060: 1227 b93a 0f76 6eba 37c6 1e3d cb91 b73c
00000070: c373 a9bc f04d 3f39 118e f5bc 6c5b 4ebc
00000080: e9fd 1ebd abff 603d c2cb 33bd 72e4 3cba
00000090: 1f20 073d 590c 0cbd 3e0e 543c 1a0e 60bc
000000a0: 3534 11bc 9ed3 30bb 3674 653d a17c aebc
000000b0: 5a9e c6bd 12f1 72be ab5d 023d 485d 233d
000000c0: 9b45 20bd c8bc 9e3d 1ee8 ed3c dd41 0cbd
000000d0: e236 533e f653 23be 9f42 52bc 7434 64bc
000000e0: 9818 973c 06b2 4d3a 8793 9abe 765c 163d
000000f0: 4155 8abb 3b5d 2dbc 89ee 6dbd a3bc 623d
00000100: 7e18 ccbc 2954 e63c d0a6 b9bc c430 b2bc
00000110: 0567 96bc aebc ad3d a20e 993d 0660 9f3c
00000120: c440 a33d 0ba3 2abd beda c7bc b26c 80ba
00000130: df65 563c 5d96 c23c b5f0 923c 7f0d 283d
00000140: 1716 583c ea94 bb3c 67b1 22be cb95 513d
00000150: 2069 85bd 1696 4d3b 9dba a23b 54fa 60bc
00000160: 2f4e a63d 2add 74b9
-0.026944546 -0.085132 -0.0076904367 -0.2306491 0.031168476 0.144616 0.0033708408 -0.027703753
-0.060430087 0.11464269 0.014145302 -0.09595066 -0.058742877 -0.003986705 -0.01404137 0.025681637
0.017836446 -0.13203906 0.18564558 0.15165323 -0.25221062 -0.02826114 -0.041797165 -0.014835473
0.0014126024 -0.00090965716 0.03876325 0.022408387 -0.020685082 0.00018244213 -0.02997497 -0.012595039
-0.038816366 0.054931324 -0.04389549 -0.0007205672 0.032989617 -0.034191463 0.012942849 -0.013675237
-0.008862545 -0.0026981602 0.05601903 -0.021299662 -0.09698172 -0.23724774 0.03182761 0.03988388
-0.03912888 0.07750851 0.029041346 -0.0342425 0.20626405 -0.15949997 -0.0128332665 -0.013928521
0.018444344 0.0007846657 -0.3019068 0.03670927 -0.004221589 -0.01058131 -0.058088813 0.05535568
-0.024914023 0.028116303 -0.02266255 -0.021751769 -0.01835967 0.084832534 0.07473494 0.019454967
0.079713374 -0.041659396 -0.024396297 -0.0009798019 0.013085811 0.02375334 0.017937044 0.041028496
0.01318886 0.022898156 -0.15887986 0.051168244 -0.06514192 0.0031369976 0.0049660937 -0.013731558
0.08120381 -0.00023352043

layers.3.weight f4 [5, 90]
00000000: e3f2 14bc 104a 5abb adcc 8bbd 3e4b cd3d
00000010: 3183 e3bc d90b 82bb ed6e aabc 6508 ff3c
00000020: 3770 d7bc d7f7 093c 41c1 dbbc bbbf 55bc
00000030: cacc a33c 4277 8cbc 5e52 22bc a1d3 dc3b
00000040: 6fcd 17bd 0923 b63c d986 323c b109 d5bb
00000050: 16fe 2f3c 2ad4 de3c a36c ef3c d368 58bc
00000060: e0f7 8c3c 3a40 ccbc acb3 833c 1eda ff3c
00000070: dc8e 753e 5530 d03c 01b6 553d 3559 47bc
00000080: 0a4e 053c a484 a3bc e180 9cbc b290 b1bc
00000090: 6ce0 64bb 2106 2fbc 0f0f 043d 0143 3d3d
000000a0: 64ef 83be 65a5 9ebc 29cd 1f3d e074 87bc
000000b0: 4c99 a9bb ec37 0a3e 82a1 003c fb3b 1f3d
000000c0: 6a22 08bc 7cb8 6bbc ee14 dbbc 5e97 873d
000000d0: e5dd 5cbd b6e2 963d d881 003d 4929 80bd
000000e0: e57f 2ebc 6eb1 12bd e61d f93d 42c9 343d
000000f0: 86db 21bc 19d5 033d ab21 1bbd 711d 933d
00000100: 97ce 373d 6d9d d13c 7e37 ef3b cad0 47bd
00000110: 70ac 77b9 3182 8bbc 271c 0e3d f9d8 b0bd
00000120: b024 aa3c c8e4 7b3d 86ae 4dbd 1955 d13c
00000130: 04c4 a03c 07c6 b93b cb2d 113d 9876 fdbb
00000140: 1fb6 be3b a5e7 1f3c 56ea 1d3d 8e96 0fbd
00000150: cb2a ef3b 1676 343c 68c2 ee3c 6733 133d
00000160: 67f5 83bc c254 39bc 3a2a 81bc 1540 53bc
00000170: 2541 14bd 175d 493d cf77 a6bc b00e be3b
00000180: e890 a3bc f1a7 e63c 16ac b3bc 87b8 46be
00000190: 3509 94bc d9c7 bebc d2b3 96bb 0172 dbbc
000001a0: d649 283c 0c2e 9dbb af62 efbc c11d 063d
000001b0: c1ca 883c 7953 aebb f152 e93b 265d d23c
000001c0: 027f ca39 53a0 34bc fdce ed3c 4388 06bd
000001d0: 3d74 923c f047 db3c b56c a5bc 260e 4e3c
000001e0: c561 8c3c 9f09 74bc 6d28 273c 2afe a4bc
000001f0: e6f0 9cbb 97ab 9dbc 9aed 803c 7ed5 abbc
00000200: 8f12 b23c 048b 75bc bf1e 81bd 9dd0 c43b
00000210: fcd6 203d 512e bcbc b1ce bb3a 6c7c f43d
00000220: 6790 b23b 7138 1c3d 18ba 933b 73b1 7ebc
00000230: a03a 29bc 8335 9d3c 5196 13bd 8ceb e33d
00000240: d06c 123d abe4 5abd ce6b 84bc cba7 a0bc
00000250: 89b3 173e b5b8 133d f69d d0bc 897a d63c
00000260: 473d 0f3d c257 5fbd d8ce 1f3d da6e ff3c
00000270: 4848 053c 23dc 73bc 385e 93bc 3abc c2bc
00000280: c1a9 173d a9c5 8bbd df7a b93c 54ad 233a
00000290: 1510 54bd c979 8a3d da48 d53c 3fcb 533b
000002a0: 12ff aaba e8bc 353d 1a6f 403c 69a3 603d
000002b0: db8d 153e 5765 80bc d9c1 f33b c959 703b
000002c0: 8a22 153d be3a 673c 4d26 c1bd ae6b 97bc
000002d0: 1b91 b13b 2cda 93bc 57f9 3e3d 7eed f6bb
000002e0: f553 203d 201a 1eb8 4ba5 54bd 18e8 e73c
000002f0: 7686 dbbc 6a4d 523e 1900 d23c 36df 4abc
00000300: 71fc 973c 2a65 1abd 6041 07bd c012 113c
00000310: 9150 16bd 13e4 9c3d 11b4 c03c 2c20 f8bb
00000320: e76f 9a3c 5961 1d3d 6c05 bf3a 7cae 26bc
00000330: 7e09 e03c eea0 2c3c b6a3 033d f144 f83c
00000340: d25f 00be 09ff f5bc 287d 7f3c d084 55bc
00000350: 5405 033c d59c 4fbb 6e0a bcb9 23c2 96bc
00000360: 3b2a 3c3c e566 53bd 29ca b13c 51d9 5bbd
00000370: 778f 213e 0b61 073c 924e 353d 84af 0dbd
00000380: 0aa0 ef3b 83c5 233e 8381 003b b413 333d
00000390: 9758 0fbd 942a d1bc 4c05 76bc 849e 003c
000003a0: fa3f 3fbd db12 36bd 8715 e53c a7b3 82bd
000003b0: 97ed 8cbc 13e4 1c3c 86a7 2a3e d88f 723d
000003c0: 4f49 0dbd 79f9 a9bb 338f ee3c 1677 bdbc
000003d0: 0e61 083d 82c9 933c c2ac 7abc 9318 90bd
000003e0: 05f6 5abb ba85 2fbd e509 493d 0802 7ebc
000003f0: cc4c e43c e7c3 923d fad3 71bd 69e9 fc3b
-0.009091112 -0.0033308305 -0.06826148 0.10024117 -0.027772518 -0.0039686975 -0.020804847 0.031131933
-0.026298625 0.008420906 -0.02682555 -0.0130462 0.019995112 -0.01714671 -0.009907333 0.0067390953
-0.03706115 0.022233503 0.010896408 -0.0065013994 0.010741731 0.027200777 0.029226607 -0.013208586
0.01720804 -0.02493297 0.016076885 0.031231936 0.23980278 0.025413672 0.052175526 -0.012167265
0.008136282 -0.019960709 -0.019104423 -0.021675441 -0.0034923805 -0.010682614 0.032240923 0.046206478
-0.25768578 -0.019365976 0.039014015 -0.016535223 -0.005175745 0.13497895 0.007851006 0.03887556
-0.008308986 -0.014387246 -0.026743378 0.06620668 -0.053922553 0.073674604 0.03137383 -0.062578745
-0.01065061 -0.03581374 0.12163906 0.044137247 -0.009878999 0.032185648 -0.037873905 0.0718335
0.044874754 0.025587762 0.0073003164 -0.0487831 -0.00023619994 -0.017029854 0.034694817 -0.08635134
0.020769447 0.06149748 -0.050215267 0.025553273 0.019624718 0.0056693587 0.035444062 -0.0077350847
0.0058200504 0.009759818 0.03855356 -0.03505569 0.0072988025 0.011014482 0.029145434 0.035937693
-0.016108228 -0.011311712 -0.015767206 -0.012893696 -0.03619494 0.049161043 -0.020320801 0.0058000907
-0.019966558 0.028156253 -0.021932643 -0.19406329 -0.018070797 -0.023288654 -0.004599073 -0.02678776
0.01027151 -0.004796749 -0.02922186 0.03274322 0.016698243 -0.0053200093 0.007120483 0.025679182
0.0003862307 -0.011024552 0.029029364 -0.032844793 0.017877692 0.0267677 -0.020193437 0.012576615
0.017136464 -0.014894872 0.010202509 -0.020140726 -0.0047894595 -0.01924686 0.015738297 -0.020975824
0.021737365 -0.014986757 -0.063046925 0.006006314 0.039267525 -0.022971304 0.0014328567 0.11937794
0.005449343 0.038139764 0.004508268 -0.015545237 -0.010328919 0.019190555 -0.036032025 0.111289114
0.035748303 -0.05344073 -0.016164687 -0.01961126 0.14814581 0.036064822 -0.025465947 0.026181476
0.034970548 -0.05452705 0.03901562 0.031180788 0.008134909 -0.014884028 -0.017989263 -0.023771394
0.037027124 -0.0682481 0.022641597 0.00062437844 -0.05177315 0.0676151 0.026035715 0.003231719
-0.0013045988 0.04436961 0.011745239 0.05484334 0.14604895 -0.015673323 0.00743888 0.003667461
0.036409892 0.014113126 -0.094311334 -0.018483963 0.0054189092 -0.018048368 0.046624508 -0.0075356355
0.039142568 -3.7694466e-05 -0.05191545 0.028308913 -0.026797514 0.20537344 0.025634812 -0.012382319
0.01855299 -0.037694134 -0.03302133 0.008854568 -0.036697928 0.07660689 0.023523362 -0.0075721946
0.018852187 0.038422916 0.0014573759 -0.010173436 0.027348276 0.0105364155 0.03213855 0.030306311
-0.12536553 -0.030028837 0.015593804 -0.013032153 0.007996876 -0.0031679173 -0.00035865925 -0.018403118
0.011484678 -0.0516118 0.021702843 -0.053674046 0.15777384 0.008262883 0.044264384 -0.034591213
0.0073127793 0.15993313 0.0019608445 0.043719962 -0.034996595 -0.025532998 -0.015015911 0.007850293
-0.046691872 -0.044451576 0.027964367 -0.06381922 -0.017203135 0.0095758615 0.16665468 0.05921921
-0.03449374 -0.00518721 0.029121017 -0.023128074 0.033295684 0.018040422 -0.015299978 -0.07035937
-0.00334108 -0.04285214 0.0490817 -0.015503414 0.02786865 0.07166272 -0.059040047 0.0077182543

layers.3.bias f4 [5]
00000000: 318f 0abe 4233 afbc b8e5 83bd 3fdb 3a3e
00000010: 2f26 413e
-0.13531186 -0.021386746 -0.064403 0.18247698 0.18862222
