irony/models/model_19.pt (torch_old, 13324 bytes, 6 tensors)

layers.0.weight f4 [70, 10]
00000000: 8746 1abe fe69 f63d d1c5 013f e11b 3f3e
00000010: 7f21 72be b28c 56be d27f f7bd 6dd3 553c
00000020: 4f9d c6bd 8465 bebd 05b8 0abf 04a1 26bd
00000030: de32 7f3e a7cf 003e f212 493e a869 7dbe
00000040: bbd0 05be 2ea0 f6bc c6e9 153e 6c8f 53bd
00000050: cfbe c73e a1bf a0bd bbe0 dfbe 39cb 82be
00000060: c90a 6d3e a5eb e73d 4451 9dbd dfd7 15be
00000070: 2c7c 0b3c 8de6 2f3e cb8b 7c3e 18ed 91be
00000080: e9b8 f0be a71c a73c 84e1 a33e 5bad b8bd
00000090: 62a2 07be 8194 82be b720 89bd 0f3f 513e
000000a0: e1cc a6be 475e 61be 28e5 c7be e3d3 ce3d
000000b0: 7a10 893e 50fe 31be c636 cabd 2fa3 91be
000000c0: de85 2a3e 4ca1 263e 750f 2cbe bf8a d1be
000000d0: cfb4 d03c 97de 713e 60ec bebd cb43 2c3e
000000e0: f58d 12be 50ba 413e e78a 703e 2683 353e
000000f0: a24b 48be 6220 d8bd 5236 783d 37c7 ad3e
00000100: aaa6 c7bc e2c0 693d 9b6b 40be 789f b43d
00000110: 50fa 1f3e 4b00 2abe c703 983e 038f 4f3e
00000120: 9e41 98bd fc53 8dbe 30b7 aebe 1647 97bd
00000130: 7c52 a93c 2404 e8bd b96f b7be adf2 77be
00000140: 3996 6cbe 9df9 e6be 960c ccbe 7eec 813d
00000150: ba78 553e fa4e 1d3d 5613 41be 6637 30bd
00000160: 848f bf3d f72f 243e 1800 46be bd6b c03e
00000170: d4ad cdbc b56d 6c3e 536e babe 76d9 a0be
00000180: 7652 cebc 627a dfbd 0d0b 9fbc 2660 9dbe
00000190: 497c 5ebe 3287 d23d 1d42 fd3e 141e c63e
000001a0: bb59 483e aa30 57be 70ed 04be 1e44 263e
000001b0: c837 a23d 71c9 26be 8c1f 76be 5dbd 9dbd
000001c0: 883b 9a3e 84c8 bf3c 05aa 9abe 20a5 2ebe
000001d0: 633e 46be 17b5 873d bc1c 6ebd 4aee 78be
000001e0: f34f 1d3e e6ac 503e 1d1a 60be 5cff e9be
000001f0: 256e b33e cf45 6bbd a8a7 d23d 44f8 94be
00000200: 4ae7 93be 08b9 983c 3f95 653e 6ad5 453e
00000210: 4b51 cbbd 56e9 2fbd 1e69 c43e c7fb 783e
00000220: 7126 8d3d 462d 6ebe 6760 983d 7754 933e
00000230: ac9c f83e b0e1 6e3e 5e3d c23d 1a6f eebe
00000240: 1828 6c3d dfe7 debd 42e8 463c f241 5dbe
00000250: aaf4 863c e9c0 3abe 826f ed3e 7884 9e3d
00000260: d8a0 76be ed3d 88be cef6 3dbe 2d90 5a3d
00000270: a0f7 f13c 925e bc3d 03e4 c23d 2210 373d
00000280: 8182 af3d d9f1 863e 9c2e d1be 4090 10be
00000290: aaf2 c53d fd82 0cbe 3d65 eb3c bece a0be
000002a0: 9578 753c d0ce 0cbb ef52 c53e 305d bebc
000002b0: a57f f8be b5b7 cabd b3eb 653e 65a4 06bd
000002c0: b533 39be c973 67be 2382 43be 9a63 023d
000002d0: 89aa 72be 49aa b93e f0af 873e 002d 7e3e
000002e0: d1e8 98be 1495 243e 5e54 513e be5c 32be
000002f0: 057a 243e 482f cabc db7e f8be 3fad ebbe
00000300: a156 05bd 775c 3e3e 7509 453e d091 22be
00000310: 8603 003d 5f50 463e acb1 763e d236 753e
00000320: 966b e43e ee97 4bbc 4f46 c1be 00b0 7d3d
00000330: 5114 89bd 8a9f a33e 0bab 703e 573b 18be
00000340: 89bd 373e 030f c6bd f73d 3c3e c582 f03c
00000350: b077 a0bd c0b0 da3c ee31 30bd 4107 613e
00000360: 3e20 7dbd dfb7 953e 79fc 53be 1e52 49be
00000370: e467 253e 9bd1 363e 3c1b 703e b3ac 43be
00000380: da0d babe 752d 5f3e c101 813e fa7d 403e
00000390: 322f 373d df75 1abe 4e36 2dbe 257e 02bf
000003a0: 0894 53be 80ec e1bd 29ee 213e d51d bb3d
000003b0: d9ab adbe 6813 8fbe e03b 2bbe 7c1f cf3c
000003c0: acae 86be 5b14 f63c a91c c73e 9f57 c3bc
000003d0: 97e9 adbe 19b5 d3bd 7f55 9d3e ed8c ae3e
000003e0: 5761 933e 5ae7 123e 9756 f13e 6381 cc3e
000003f0: a738 bc3e da02 f3be 4e76 41be 7259 9dbd
-0.15065967 0.12031935 0.5069247 0.18662979 -0.2364559 -0.20952109 -0.12084927 0.013050896
-0.09697973 -0.09296706 -0.5418704 -0.0406809 0.24921748 0.12579213 0.19636133 -0.24747336
-0.13067906 -0.030105677 0.14639959 -0.05165045 0.39012763 -0.0784905 -0.43726143 -0.25545672
0.23148645 0.113242425 -0.07681516 -0.1463313 0.008513492 0.17177792 0.24662702 -0.285012
-0.47016075 0.020399405 0.32007992 -0.0901744 -0.13245538 -0.25503924 -0.06695693 0.20434211
-0.32578185 -0.2200862 -0.3904202 0.10099008 0.26770383 -0.17382169 -0.098737285 -0.28444812
0.16652629 0.16272467 -0.16802771 -0.40926167 0.025476841 0.23620068 -0.09322429 0.16822736
-0.14311965 0.18918729 0.23490487 0.1772581 -0.19560102 -0.105530515 0.06059868 0.3394105
-0.024371464 0.057068713 -0.18791048 0.08819479 0.1562283 -0.16601674 0.29690382 0.20269398
-0.074343905 -0.27603137 -0.34124136 -0.073866054 0.020669214 -0.11328915 -0.35827425 -0.24213667
-0.2310418 -0.45112315 -0.39853352 0.063439354 0.20846835 0.038405396 -0.18855032 -0.043021582
0.09353545 0.16033922 -0.19335973 0.37582198 -0.025107302 0.23088725 -0.36412296 -0.3141591
-0.025185805 -0.109120145 -0.01941445 -0.30737418 -0.21727099 0.10279693 0.49464503 0.38694823
0.1956548 -0.21014658 -0.129812 0.16236922 0.07920796 -0.16287781 -0.24035472 -0.07702134
0.30123544 0.023411043 -0.3020784 -0.17055178 -0.19359736 0.06626337 -0.058132872 -0.2430965
0.1536253 0.20378456 -0.21884961 -0.45702636 0.3504497 -0.05743962 0.10285884 -0.29095662
-0.28887397 0.018642917 0.22420214 0.19319692 -0.09927615 -0.042947136 0.38361448 0.24314795
0.06892098 -0.23259458 0.07440262 0.2877538 0.4855703 0.2332828 0.09484361 -0.4656914
0.057655424 -0.1088407 0.0121403355 -0.21607187 0.016474087 -0.18237652 0.46374136 0.0774011
-0.24084795 -0.26609746 -0.1855118 0.053360153 0.029537022 0.09197725 0.09516146 0.04469312
0.085698135 0.2635639 -0.40855873 -0.14117527 0.09665425 -0.13721843 0.028734798 -0.31407732
0.014982362 -0.0021485575 0.38539836 -0.023237795 -0.48534885 -0.098983206 0.22453193 -0.032871623
-0.18086131 -0.22602762 -0.19092612 0.03183327 -0.23697866 0.3626273 0.26501417 0.24821854
-0.29865125 0.16072494 0.2044234 -0.17418191 0.16062172 -0.024680749 -0.48534283 -0.46030614
-0.03255332 0.1858996 0.19241889 -0.15875936 0.03125336 0.19366597 0.24091214 0.23946694
0.44613332 -0.01242636 -0.37748954 0.061935425 -0.06693328 0.31957656 0.23502748 -0.14866386
0.17943396 -0.09670832 0.18383013 0.02935923 -0.078353286 0.02669561 -0.043016367 0.21975423
-0.061798327 0.29241845 -0.2070178 -0.19660231 0.16152912 0.17853396 0.23447889 -0.19108848
-0.36338693 0.21794684 0.2519665 0.18798056 0.044722743 -0.15084027 -0.16915247 -0.5097373
-0.20661938 -0.11031437 0.15813507 0.091365494 -0.33920172 -0.27944493 -0.16722059 0.025283568
-0.2630514 0.030039003 0.38889053 -0.023845492 -0.33967277 -0.10337276 0.3072929 0.34091893
0.28785202 0.14346066 0.47136375 0.39942464 0.36761972 -0.47463113 -0.18892786 -0.07683076

layers.0.bias f4 [70]
00000000: 1354 03bd 2236 b53d 225a 123d 1d38 503d
00000010: 3ade cb3d 9973 50bd 8aac a2bc cecc 723e
00000020: 7fa3 ba3d c6f1 5b3e cf2c e3bd a174 423e
00000030: 34b7 e43d 55a2 75be 5750 9f3d e289 143c
00000040: 5d86 493e 0369 113e f620 9bbd 20b3 2dbc
00000050: 5446 42be 3714 2bbe 6fd8 9fbc 2129 4d3e
00000060: 2215 edbd 8e2b 103e 5db3 cdbd abeb a5bd
00000070: effb 12be 998b 67be 6a54 6e3e f243 51bd
00000080: 480b 2abe 447b d23c ab04 de3d 7fa2 9f3d
00000090: 83cd a3bd 7344 003e c286 5ebd 9824 12bd
000000a0: 1879 09bd 8540 48be 67d2 623d eea1 46bd
000000b0: 4e05 4a3e 9f2d 11be 04c8 13be c9b1 e8bb
000000c0: 9981 b43d 58f4 543e a2ca 36bd 2a2d 8e3d
000000d0: 78ca 6e3d 0dd9 a9bd 932b c63d ddaf d8bd
000000e0: a109 963d 4a9e a53c ddc1 1f3e bc00 773d
000000f0: 124d 903d 3daf 903d f261 59bc e4ec 1abe
00000100: 8031 223e 7982 dbbc 19c0 973d 04fc babd
00000110: 4e4b 573c 9f43 cd3d
-0.0320626 0.08848216 0.03573049 0.050834764 0.09954496 -0.050891493 -0.019857664 0.2371094
0.09113216 0.21478948 -0.11092531 0.18989803 0.11167756 -0.23987706 0.077789955 0.009066077
0.19680162 0.14200215 -0.07574646 -0.010601789 -0.1897214 -0.1670693 -0.019512383 0.2003522
-0.115762964 0.14079115 -0.100439765 -0.08101591 -0.14353918 -0.22611846 0.23274389 -0.05109019
-0.16605866 0.025693543 0.10840734 0.077946655 -0.079981826 0.12526111 -0.054327734 -0.03567943
-0.03356275 -0.19555862 0.055376437 -0.048494272 0.19728586 -0.1417756 -0.14431769 -0.0071012718
0.08813781 0.20796335 -0.04462684 0.06942208 0.058298558 -0.08293352 0.0967628 -0.10580418
0.07326055 0.02021708 0.15601297 0.060303435 0.0704595 0.07064674 -0.013267981 -0.15129429
0.15839195 -0.026795613 0.074096866 -0.091300994 0.013140513 0.10022663

layers.1.weight f4 [30, 70]
00000000: 789e 9ebb a2b3 d23d ffc1 643d 110b 013e
00000010: 83f0 6f3e 9346 d33d 46d7 d33c e62f 97bd
00000020: f263 a13d 72e5 043d bc12 dd3d 6fcc 98bd
00000030: 89c8 d33c 1cd6 4bb9 06f6 a6bc baee 1dbe
00000040: f3ca 503d f7db 2fbd 6436 a8bc dfa8 e03d
00000050: 1e7f 34bd 8682 73bd e6bf 59be 7b36 07bd
00000060: 9920 0d3d ad56 80be 39c8 9bbd 1019 60bd
00000070: 63de acbd 1aa1 ec3d 0689 85bd d612 363e
00000080: 58cb 123e 40fb 8c3d 5878 b13d 12a1 3abd
00000090: f894 c6bd c5f1 46be 486b 92bc 2471 a43d
000000a0: de1d 823d 7439 29bd 2a86 a83d 4dc1 92bd
000000b0: b62b 273e d2ab a7bd 79a5 c03c 1ea1 37bd
000000c0: 327f 14be 5538 3e3c ec86 1c3c 4a41 64be
000000d0: b581 5b3d bb2d 0bbe 5eed eb3c 724d 8a3d
000000e0: 38b8 febd 35ed c53b 2c42 463c 63c0 debd
000000f0: d2c4 3e3d cd29 31be 7a7f ee3d 0441 fd3d
00000100: 0625 2b3e ea89 7fbd 8b6c 973c f8f9 7c3c
00000110: 1382 d4bd 93cd 4f3e 8548 70bc 5a63 c03d
00000120: d8f7 afbd ce4c 84bc 9eab 34be 1a52 0a3d
00000130: f439 c23c a0d4 05bd 55de 213d 671b 02be
00000140: ba46 1f3e 35e1 153e 9589 683d a9a8 1bbe
00000150: 7595 e7bd fff9 4dbe 507f 97be 809e 12be
00000160: 027d 2bbe 50bc 843d c2e6 16be 2fa2 e63c
00000170: 8391 823d 0419 e93b 7288 123d 9a9d 2c3e
00000180: 4bf7 6abe 92bb 60bb 19c8 8b3d bf3f 613d
00000190: 6b81 203c aef2 133c 0393 07bd 87ee 60be
000001a0: 8481 17be 644a 9fbd cfbb f1bc f701 823d
000001b0: de77 11be 9321 3a3e 1018 0bbe 96c7 143e
000001c0: 6555 8d3d faa0 1abb 8da3 2bbe 0f51 fb3c
000001d0: 8fbc 6cbd 1b24 213e 4589 97bc 7e5b 103e
000001e0: 504a 1cbe 5585 bb3d a811 47bd 11a6 153d
000001f0: 2427 a43a cc33 11bd f6ef 1d3d a3bd f9bb
00000200: 0550 f43d deca a93d 288f 04bb b7f6 e9bd
00000210: e06d c03d c318 d2bd 477c c5bd 6bbe 2e3d
00000220: 779c 4c3d d16e 323e 655d df3d f631 84bd
00000230: 29bb cebd 1d14 23be 0d76 853d 177f 82bc
00000240: 0bd4 5639 72c7 94bd 6d41 21be f11d 4f3e
00000250: ebd8 55be fb83 683d cf31 65be e8e6 febd
00000260: 0b9c 4f3e f1ff 26bd 5fd2 903d 3a4d cc3c
00000270: ff8b 443e f928 db3d 6370 dc3b d49c 69be
00000280: 3400 533d 73f5 363b 6a54 033e 95b2 16be
00000290: 9e95 12bb df0e a83d b212 2b3e 1636 e7bd
000002a0: 5386 bebc d3dd 03be 76d9 533d 743b 92bd
000002b0: b29b 91bd 66e7 04bc 6c17 01be 083c afbc
000002c0: 6730 103e 8843 873d 397c 253e 5829 1bbe
000002d0: 6eee 193e 0db8 ef3c 65a0 083d 0b63 113e
000002e0: 14cf 133c 8a49 543d ab38 a93d 7823 f7bd
000002f0: c88d c23d 7bec 17be 80db 393d 7872 5b3d
00000300: 109f 0cbe b59e 31bd 64aa 043e c3d6 703c
00000310: cf4e 8b3d 737d babc 1ea0 53bd 87ff 163d
00000320: fa4d 923c 0167 dd3d 68e3 7e3d b6e2 aebd
00000330: b82d 0c3e 36fa 10bd 443c 7a3d c9c5 52bd
00000340: 9670 dd3d 29ec f8bd c7a2 0fbd 119c 1f3e
00000350: 1746 ecbd d8bd 433c e5c8 e13d 816b 683d
00000360: 8f22 2a3e 8755 c8bd 1c1c a43d c25e 43bd
00000370: cf74 293e 2057 a53d dc7e 6bbd cdf7 cfbd
00000380: c43e 62be d4d5 39bd aab0 363c c276 213d
00000390: 1d93 44bd a2f8 1d3e 03fc 3abe 53c7 ac3d
000003a0: 6d5c 77bd 247a 003c e3df 803d 0cee 03be
000003b0: f1f2 3dbd 3728 0ebd 17cf bfbd 7845 103e
000003c0: 7fec 28bc bcfa ce3d 330d 88ba 3029 2ebc
000003d0: 5837 713d d442 9d3c 0f64 15be 2801 c8bd
000003e0: 9474 06be 3af5 033e 4abf 21be 61c6 5cbc
000003f0: ba0e 32be c93a 4e3d bc84 403b f90d 48be
-0.0048406683 0.102881685 0.05584907 0.12601878 0.23431592 0.10316195 0.025859486 -0.07382183
0.07880391 0.03244538 0.10794589 -0.074608676 0.025852459 -0.0001943935 -0.020380985 -0.15423098
0.050974797 -0.042934384 -0.020533748 0.109697096 -0.04406654 -0.05945065 -0.2126461 -0.03301094
0.034454916 -0.25066128 -0.07606549 -0.0547114 -0.084408544 0.11554165 -0.06520276 0.17780623
0.14335382 0.0688386 0.08665532 -0.045563765 -0.09696382 -0.19428165 -0.017873421 0.08029392
0.06353353 -0.041314557 0.08228715 -0.071657754 0.16325268 -0.08187069 0.023516404 -0.044831388
-0.14501646 0.01161011 0.009553652 -0.22290531 0.053590495 -0.13591664 0.028799709 0.06753053
-0.12437481 0.00604024 0.012100738 -0.108765386 0.04657442 -0.17301102 0.11645408 0.12365916
0.16713342 -0.062387384 0.018484375 0.015440457 -0.10376372 0.20293264 -0.0146657275 0.0939395
-0.08592194 -0.016149905 -0.17643592 0.033769704 0.023709275 -0.032673478 0.039518673 -0.12705766
0.15554324 0.14636691 0.056771833 -0.15201057 -0.113078035 -0.20114897 -0.2958932 -0.14318275
-0.16746905 0.0648123 -0.14736465 0.028153507 0.063754104 0.007113578 0.035774656 0.16856995
-0.22945897 -0.0034291488 0.06825275 0.054992434 0.009796481 0.009030027 -0.033099186 -0.21965991
-0.147955 -0.07777861 -0.0295085 0.06348031 -0.14205882 0.1817687 -0.13583398 0.14529261
0.06901053 -0.0023594485 -0.16761608 0.0306783 -0.05779701 0.1573643 -0.018498072 0.14097401
-0.15262723 0.091562904 -0.048600823 0.036535326 0.0012523872 -0.035449788 0.038558923 -0.0076214834
0.11929325 0.08290647 -0.002022693 -0.1142401 0.09395957 -0.10258629 -0.09642845 0.042662065
0.049953904 0.17425086 0.109064855 -0.06454842 -0.10094292 -0.15925641 0.06516657 -0.015929742
0.00020487623 -0.07264604 -0.15747614 0.20226265 -0.20883529 0.05676649 -0.22382282 -0.124463856
0.2027437 -0.04077143 0.07071375 0.024939168 0.1919403 0.10701174 0.0067272647 -0.22813731
0.051513866 0.0027917295 0.1282517 -0.14716561 -0.002236701 0.082059614 0.1670635 -0.11289613
-0.02325741 -0.12877588 0.05172106 -0.07140246 -0.07109775 -0.00811181 -0.12606591 -0.02139093
0.14080964 0.066046774 0.16160668 -0.1515249 0.1503236 0.029262567 0.03335609 0.14197938
0.009021539 0.051827945 0.08262762 -0.12067312 0.09499699 -0.14836304 0.045375347 0.053575963
-0.13732553 -0.043364245 0.12955624 0.014699641 0.06802141 -0.022764897 -0.05166637 0.036864784
0.017859448 0.10810662 0.06222859 -0.085393354 0.13689315 -0.03539487 0.06109263 -0.051458154
0.1081249 -0.12154419 -0.035067346 0.15586878 -0.11536806 0.011947118 0.11024646 0.05674315
0.16614746 -0.09781938 0.08013174 -0.04769779 0.16548465 0.080732584 -0.05749403 -0.10154686
-0.22094256 -0.045369938 0.011150518 0.039419897 -0.04799186 0.15426877 -0.18260197 0.084364556
-0.06039088 0.007841621 0.06292703 -0.12883776 -0.046374265 -0.03470632 -0.09365671 0.14089
-0.010310291 0.101064175 -0.001037991 -0.010629937 0.05889067 0.019196905 -0.1458895 -0.097658455
-0.13130409 0.12886515 -0.15795627 -0.013475032 -0.1738843 0.05034903 0.002937599 -0.1953658

layers.1.bias f4 [30]
00000000: bf78 8c3c 740a 7bbd 3fc7 cbbd 9aee e23d
00000010: b7cf 8fbc c732 ee3d d50f 763d 6d10 6f3d
00000020: b349 663c 3d92 273d bd9a 62bd 66cf 173e
00000030: a2e7 973d a5e7 413d 5407 23bd 0d68 a23a
00000040: e9fa 833d edf7 ad3d fd25 1abd 69ed 493d
00000050: d300 ed3d e34c 9dbd 9867 5f3b 39ba 513d
00000060: 480a 173d 3d15 cd3c bf5f f83d daa3 873d
00000070: 5663 2b3d 58eb 003d
0.01714742 -0.061289266 -0.099501126 0.11080666 -0.0175551 0.11630779 0.060073692 0.058365274
0.014055657 0.040910948 -0.05532335 0.1482521 0.07417227 0.047340054 -0.03980191 0.0012390629
0.06444342 0.08494554 -0.037633885 0.049298678 0.11572423 -0.076806806 0.0034088846 0.051202986
0.03687504 0.025034541 0.12127637 0.06623049 0.04184278 0.03147444

layers.2.weight f4 [5, 30]
00000000: 1e8d 65be 448f 5dbe 5465 293e 6340 95be
00000010: 7b4d 803e 2c47 44be c885 7d3e 1d10 6dbe
00000020: 241c 413e 3c23 92be 895f febd af0d bd3d
00000030: 5f83 123e 07c1 a3bd 99f6 51be 2d37 90be
00000040: 7e72 5cbe 79ee 79be dd79 673e 1c31 81be
00000050: 910c a1be 65c4 373e 70a2 e2bc 1b8f 84be
00000060: adeb 613d 5107 91be e5f9 1dbd ecb8 483e
00000070: faa3 67be ce67 3d3e 5922 22be ee9e b7bd
00000080: f180 283e 6946 aabe 7340 393e e230 253e
00000090: 5f3f 813e 17ae 0fbe 7bed bd3d 727e c83c
000000a0: d484 b1bd 97ac c63d 431f 0a3e 5fd4 67be
000000b0: 087a fabd 0595 c73d 90b6 3f3b d6ba ccbc
000000c0: 226c 6abd ce57 96be 6db3 98be fe54 313e
000000d0: 7fec 78bd 8307 563d 27a2 6abe 5de7 8fbe
000000e0: ad02 16be aba7 383e a37d 5dbe e6b5 a23d
000000f0: ffc1 9dbd 02ec 963e 5618 f1bd 2528 963d
00000100: 01f0 84be 440e 203e 9579 263e 51f0 523e
00000110: eb93 183e 013c 073e 0cfd 4abe ee7f 57ba
00000120: ea0c d93d 64d3 213e 9af3 04be d6d9 4e3e
00000130: 6e02 053e c308 52bd 2b99 86be a388 8abd
00000140: ad24 c8bd ffa0 0fbd 1a08 5ebd 27c6 493e
00000150: 207f 96be 6fad 903c fad9 3dbd 93f0 0c3e
00000160: 4558 3bbe 00fd 80be 3f77 143e 9335 75bc
00000170: 1c02 85be 4b26 fc3d 7828 35be 943b 093e
00000180: 4447 74bd 9dc8 4e3e a47d 19be d00f 0f3e
00000190: c0de dcbd f086 a7bd bcd6 97bd ba58 563e
000001a0: 39b6 a0bc 749b 163e 8297 e93d 5309 413e
000001b0: 1777 bdbd 4623 b73d 4f78 013e bfcc 43be
000001c0: e1ac 84bd 6e34 2a3e 86e4 2ebe 63aa 563e
000001d0: bc58 333e d96e 9abd f596 2d3e 397c 69be
000001e0: 7989 2c3e df28 5e3d 6286 82be 5d9e bd3d
000001f0: 8f3b 523e 5a0f 84be 4649 19be 5010 dabd
00000200: d881 d3be a62e 47be 5834 593e f34e aabe
00000210: 455b a3be edc5 dfbd 3c1e 2a3e 9974 73be
00000220: 81a4 ffbd 418a 5c3e 86de 703e 10ac 9f3d
00000230: 31e7 0c3e df28 a3be 1ee7 823e 0813 74be
00000240: d739 db3d 3be8 3d3e f907 713e ce19 96be
00000250: 708b 563e e97e 103e
-0.22417113 -0.21636683 0.1654256 -0.29150686 0.25059113 -0.19167775 0.24758065 -0.23150678
0.18858391 -0.28542507 -0.12420566 0.092311256 0.14307927 -0.079958014 -0.20504226 -0.28167096
-0.2152805 -0.24407376 0.22605081 -0.2523278 -0.314549 0.17946012 -0.027665347 -0.2589043
0.0551564 -0.28325894 -0.038568396 0.19601792 -0.22621146 0.1849663 -0.15833415 -0.0896586
0.16455437 -0.33256844 0.18090992 0.16131929 0.2524366 -0.14031254 0.092738114 0.024474356
-0.08667913 0.09700888 0.13488488 -0.22639607 -0.12230307 0.0974522 0.0029253103 -0.024991434
-0.05723203 -0.29363865 -0.2982439 0.17317578 -0.060772415 0.052253257 -0.22913419 -0.28106204
-0.14649458 0.1803271 -0.21629958 0.079448506 -0.077030174 0.29476935 -0.1177222 0.07331876
-0.25964358 0.15630442 0.16257317 0.20599486 0.14900176 0.13206483 -0.19823092 -0.0008220662
0.10598166 0.15803295 -0.12983552 0.20200285 0.12989208 -0.051277887 -0.26288733 -0.06764343
-0.0977262 -0.035065647 -0.054206945 0.19704495 -0.29393864 0.017660825 -0.046350457 0.13763647
-0.18295391 -0.25193024 0.14498614 -0.014966386 -0.25978172 0.12311991 -0.17691219 0.13401634
-0.059638277 0.20193715 -0.14989334 0.13970876 -0.10784674 -0.08180034 -0.07414004 0.20932284
-0.01961814 0.14707738 0.11405851 0.18851213 -0.0925123 0.08942275 0.1264355 -0.19121073
-0.064782865 0.16621563 -0.17079362 0.20963435 0.17514318 -0.07540674 0.16952117 -0.22801293
0.16849317 0.054238196 -0.2549315 0.09258721 0.20530532 -0.25792962 -0.14969358 -0.106476426
-0.4131 -0.19451389 0.21211374 -0.33263358 -0.3190557 -0.10926423 0.16613096 -0.23774947
-0.124825485 0.21537115 0.23522386 0.0779649 0.13760068 -0.3186712 0.25566953 -0.23835385
0.107043914 0.1854562 0.23538198 -0.29316562 0.20951629 0.14110912

layers.2.bias f4 [5]
00000000: 5eb7 1fbe 7e1f 11bd 07ae 36be f259 25bd
00000010: 2738 3d3e
-0.15597293 -0.035430424 -0.17839824 -0.04036898 0.18478452
