irony/models/model_40.pt (torch_old, 38823 bytes, 8 tensors)

layers.0.weight f4 [70, 10]
000000 1d 50 d0 be f0 d5 9b 3d aa f1 d8 3e c2 91 3d 3e
       -0.40686122 0.07609165 0.42371875 0.18512633
000010 02 5c a3 be cb af 5d 3c d1 f7 ea 3d 0f 64 6f 3e
       -0.31906134 0.013530682 0.114730485 0.23378013
000020 a3 d1 9b 3d d9 a1 27 be f0 b2 68 be 88 17 81 3e
       0.076083444 -0.16370334 -0.22724509 0.25213265
000030 93 3a c8 3e 66 6e 3f be 7e 1d ad be 30 fd a5 3d
       0.3910719 -0.18694457 -0.33811563 0.08104932
000040 38 0a 09 3e b0 eb 71 3e 18 ed d6 bd 66 d6 48 bd
       0.13382804 0.23625064 -0.10494441 -0.04903259
000050 9a b1 c0 3e 1f a3 2a 3d b0 c2 6c be 57 d6 9b be
       0.376355 0.04165947 -0.23121142 -0.30436966
000060 58 02 9c 3e f4 0a a3 3e 23 4a 98 bd dd 86 03 be
       0.30470538 0.31844294 -0.074360155 -0.12844415
000070 35 20 a4 bd 69 61 18 3e 5f ba 74 be 5f 9c 23 be
       -0.080139555 0.14880909 -0.2389922 -0.1597762
000080 be 99 1e 3f 93 88 40 3d c2 1e a3 be fb 69 aa bd
       0.6195334 0.047005247 -0.31859404 -0.083209954
000090 b9 bf 5d bd d8 f7 87 3d aa c1 e0 bc 9a a5 66 be
       -0.05413792 0.06639069 -0.027436096 -0.2252411
0000a0 68 6d 0e 3f d7 87 bd bc 11 de 17 bd 02 4c 9f be
       0.5563569 -0.023136063 -0.037077013 -0.31112677
0000b0 df 36 94 be fd a4 b0 3e 7c 3f 80 3d bf 4d e4 3c
       -0.28948113 0.34500876 0.06262109 0.027869103
0000c0 85 55 a0 3c 26 00 01 3d a5 a8 eb 3e 08 d3 ce 3b
       0.019572029 0.031494282 0.46027103 0.006311778
0000d0 ea 36 ea bd 03 79 70 be ff e9 af be 25 66 9d 3e
       -0.11436255 -0.23483662 -0.34358212 0.30741993
0000e0 4f 72 de bc bd 6b 91 b9 49 01 30 3d bd f0 77 3d
       -0.027154116 -0.00027736826 0.042969976 0.06053232
0000f0 65 59 98 bc f6 1c f6 bc c1 25 41 bd bb 4c ff bd
       -0.018597314 -0.030043107 -0.047155146 -0.12465807
000100 69 6b 9e bd c7 a1 2a be 69 34 17 bb 6c 19 15 3b
       -0.077353306 -0.16663276 -0.002307201 0.0022750748
000110 ba 1e e1 bb 1f 94 79 bd ae d1 42 be 68 e3 a1 be
       -0.006870118 -0.060932275 -0.19025299 -0.3161881
000120 33 86 97 be 63 04 89 3e 21 46 62 3e 0e 2b 92 bd
       -0.29594573 0.2676116 0.22097065 -0.07137118
000130 52 7c 2f be 28 1d 6b be 7d 27 4c 3e 8d 00 0d 3e
       -0.17137268 -0.22960341 0.19936939 0.13769741
000140 9c a2 aa 3e f4 fa 0a 3d 9d 2e 9b bd 81 7b 5c bf
       0.33327186 0.033930734 -0.0757725 -0.8612595
000150 cc 57 8b 3e 49 b5 af 3d 6c 70 07 3e f1 f5 95 bd
       0.2721542 0.08579499 0.1322648 -0.073223
000160 63 fb 39 3a 10 35 11 3e 10 0e 55 3e bd 78 a3 3e
       0.00070946495 0.14180398 0.20806146 0.31928053
000170 5f 78 ba 3c 12 3e 58 be 32 19 7b be 4c 6b 8f 3d
       0.022762476 -0.21117428 -0.2452133 0.07002887
000180 54 10 43 3e 78 12 bb bd 5c 7c 69 3c cd db 4e 3d
       0.19049197 -0.09134382 0.014250841 0.050502587
000190 f8 02 46 3e dc fc 34 3e f1 92 92 be 43 45 06 bf
       0.1933707 0.17674583 -0.28627732 -0.52449435
0001a0 cf be 23 be a1 0c 3a 3e e7 c6 27 3d 08 2a c2 bd
       -0.15990756 0.1816888 0.040961172 -0.09480673
0001b0 12 6b 24 3d 01 10 3d 3e 08 48 d9 be 4f 8d 25 3e
       0.040141173 0.18463136 -0.42437768 0.16167186
0001c0 8d 86 c6 3e 0c e9 a8 3d 22 6c 9b be 86 cc 10 be
       0.3877453 0.08247575 -0.30355936 -0.1414052
0001d0 0c 08 33 3d 50 c7 87 3d 1c 1b 95 3d 51 e6 d3 bd
       0.043708846 0.06629813 0.07280561 -0.10346664
0001e0 79 e7 fc be 56 d6 ae bd b1 7c b4 3e f5 1d 94 3d
       -0.4939535 -0.08536975 0.35251382 0.07232276
0001f0 79 0d d7 be dd 96 ae 3b 85 c7 e3 3d 07 da 25 3e
       -0.42002466 0.005328043 0.1112204 0.16196452
000200 c2 7a 1f 3e d4 72 9a bc 64 0c 62 be 8b d4 b1 be
       0.15574172 -0.018853582 -0.22075039 -0.3473247
000210 9f b1 85 be 29 dd d0 bd 8a 12 b0 3e 29 f8 d1 3d
       -0.26112077 -0.10198433 0.34389144 0.10252411
000220 d6 4f cd bd 0f 36 8b bd 21 15 02 3e 1c 90 e5 3e
       -0.10024993 -0.0679742 0.12703373 0.4483651
000230 c1 53 2a be b6 ee 74 be 05 61 d0 bd 52 7e 07 3f
       -0.16633512 -0.23919186 -0.10174755 0.52927125
000240 06 6a 40 be a3 22 a2 bb 3b 59 5a bc a1 ae c2 3d
       -0.18790445 -0.0049479767 -0.013326938 0.09505964
000250 ff 06 1b 3e 09 9a 31 bd 64 78 3c 16 04 9c 29 98
       0.15139388 -0.04335979 1.5224508e-25 -2.1921506e-24
000260 b2 4c a3 97 ab 59 c5 98 c1 41 36 a5 60 23 01 95
       -1.0552989e-24 -5.1013848e-24 -1.5808262e-16 -2.607925e-26
000270 8d 69 bb a9 e6 08 12 98 93 41 f4 18 47 7f f0 98
       -8.3227784e-14 -1.887455e-24 6.3138735e-24 -6.2167063e-24
000280 8e f5 10 bb 64 bd 54 ba 37 90 9c ba 19 27 b7 ba
       -0.0022119018 -0.00081153796 -0.0011944835 -0.0013973444
000290 20 4c 57 bc e4 6d 28 bb 38 66 1d b9 cc ac c9 3c
       -0.013140708 -0.0025700266 -0.00015010766 0.024618529
0002a0 e4 37 b5 b7 38 47 c4 b9 13 12 b2 3e 95 d1 1a 3e
       -2.1602908e-05 -0.00037437095 0.34779415 0.15119012
0002b0 cb cd 11 be 84 08 07 bf 11 5e c5 3e f2 ed 72 3e
       -0.1423866 -0.5274737 0.3854833 0.23723581
0002c0 1c 3f 14 bd c0 30 93 3c f6 0e 44 3d 08 10 80 3e
       -0.036193 0.017967582 0.04786583 0.2501223
0002d0 30 3f 42 3e d8 a6 04 bd 77 87 fc be be 29 03 bf
       0.18969417 -0.032385677 -0.493221 -0.5123557
0002e0 e9 43 c2 be 96 1d b6 3d 79 04 7c 3e b0 93 97 3c
       -0.37942436 0.08892362 0.24611081 0.01850304
0002f0 2b 3c 52 3d 7e 31 30 be 81 06 bc be ac b2 be 3e
       0.051326912 -0.1720638 -0.36723712 0.3724569
000300 50 eb ef 3e 87 88 aa 3d 42 fd 72 be a6 42 5a bd
       0.46859217 0.08326822 -0.23729423 -0.053286217
000310 87 3c 56 3d 20 e8 f1 3d 61 6a 8f bc d9 8c b4 bd
       0.052303817 0.118118525 -0.01750678 -0.08815927
000320 0d fc 87 3e 8a b8 8e 3e dc fb 65 be a3 d7 ae be
       0.26559487 0.27875167 -0.22459358 -0.34148893
000330 ce 43 70 be 8d 55 2d 3d 86 a7 2c 3e c8 9a 3e 3d
       -0.23463365 0.042317916 0.1686078 0.04653433
000340 f0 dc e0 3c 0f 97 37 bc e4 80 f3 3d ed 35 83 3e
       0.027449101 -0.011205449 0.11889818 0.2562708
000350 b7 a6 57 3e cd 9e 86 be 2e 57 a0 be 5e af e2 3d
       0.2105969 -0.2629303 -0.31316513 0.11068605
000360 08 e8 cc 3d c1 f9 3b 3e 57 17 40 be f6 dd 6d bd
       0.10005194 0.18356992 -0.18758903 -0.058073007
000370 e3 e4 dc 3e 81 aa 76 3e 67 5c 6c 3e 43 56 8e be
       0.43143377 0.2408848 0.23082124 -0.27800187
000380 67 51 47 be 00 bd 20 3e 28 38 00 3e 37 ae dd bc
       -0.19464646 0.15697098 0.12521422 -0.027060611
000390 74 6c ea bd dd 92 c5 bd 90 2f 6e 3e 99 70 bf 3e
       -0.11446467 -0.096471526 0.23260331 0.37390593
0003a0 8d 4b 12 bd 9a f1 c6 be b4 b2 94 3e d5 df 9c bd
       -0.035716582 -0.38856202 0.2904259 -0.0765988
0003b0 91 49 82 3e 9d 2b bf bd bf d2 b6 bd 6b 2a 4d 3e
       0.25446752 -0.093344904 -0.089269154 0.20035712
0003c0 53 a5 c2 be 6a 11 b1 3e 84 42 af 3e 0f 0f 8e be
       -0.38016757 0.34583598 0.34230435 -0.27745864
0003d0 4c 9a b8 be a9 ba c9 3d 85 81 93 3e 5b 5f a4 3e
       -0.3605522 0.09850056 0.28809753 0.32104
0003e0 36 65 78 bb f6 fa c3 3a ff ad 83 be 2a a8 8b be
       -0.0037902123 0.0014952112 -0.25718686 -0.27276736
0003f0 8b b0 07 3f ef ba 00 bd 60 53 ae 3e 5a 64 22 3d
       0.5300376 -0.031428274 0.34047985 0.039646484

layers.0.bias f4 [70]
000000 84 a9 c3 bd cd 51 df bd d4 ae 81 be 96 84 9a 3d
       -0.09553817 -0.10904274 -0.25328696 0.0754482
000010 8b 5d 1b be 54 58 ea bd cf 79 47 be 0a 73 4d bd
       -0.15172403 -0.114426285 -0.1948006 -0.050158538
000020 ab a8 bd bd bd c3 0e bd df 48 f5 3b a9 ba 10 3d
       -0.092606865 -0.03485464 0.0074854936 0.035334263
000030 45 b3 d4 3d 2f a5 7b be f4 5d 26 bd f1 e4 7e aa
       0.103857554 -0.24574731 -0.040616944 -2.2639162e-13
000040 82 09 74 bd 8b fa 8f be 8d d3 d6 3d 8c a9 9d bd
       -0.05957938 -0.28120837 0.10489569 -0.07698354
000050 e7 eb a6 bd d0 4c 48 3d ba bc 77 bd ba f0 76 be
       -0.081504636 0.04890138 -0.060482718 -0.24115267
000060 4f a8 8a bd 33 09 41 be f6 fc 03 3d 14 5d 57 be
       -0.067703836 -0.18851165 0.032223664 -0.210316
000070 41 a5 1e 3e e3 5f 3e 3c 4e 84 05 bb 65 ed df 3c
       0.15492727 0.011619541 -0.002037305 0.027334878
000080 8c 7b 03 be 70 c7 7e bd 9e 17 68 be e8 b0 f7 3d
       -0.12840098 -0.062201917 -0.22665259 0.12094289
000090 6f 36 93 bb db d6 83 3d 59 89 3c be cf a0 01 bd
       -0.004492573 0.06437465 -0.18411769 -0.0316475
0000a0 20 b1 b0 3d cf 45 17 be 92 23 11 be 3d c1 64 be
       0.08627534 -0.14772724 -0.14173725 -0.2233934
0000b0 af db 3b 3c e4 5e 5b be 93 69 2f bc ca d6 12 3d
       0.011465951 -0.21422917 -0.010706323 0.03584937
0000c0 be 6e b1 3d 22 70 48 be be 63 0b bd 96 45 f3 bc
       0.086637005 -0.19574025 -0.03403067 -0.029696267
0000d0 dc 45 65 3d 10 23 01 be 6c 14 1b be f5 f2 cc bc
       0.055974826 -0.12611032 -0.15144509 -0.025018195
0000e0 51 ff 0b bb c0 72 7a be d3 32 84 bd 67 14 04 be
       -0.0021361897 -0.24457836 -0.064550065 -0.12898408
0000f0 af 87 0f be c7 8e 3e be f1 01 dc bc b9 b2 d7 3c
       -0.14016603 -0.18609153 -0.026856394 0.026330339
000100 cf 1d 4e bd c9 d0 fc bc 2a 8c 3c be 39 d3 98 bd
       -0.050321396 -0.030861275 -0.18412843 -0.074621625
000110 0e f0 8b 3d a0 32 4f be
       0.06832896 -0.20234156

layers.1.weight f4 [50, 70]
000000 f5 c5 9f 3e 46 2c fe 3d 81 d5 13 be b5 c0 33 3e
       0.31205717 0.12410788 -0.14436914 0.1755398
000010 cd da 61 3d 26 cb 0b be 27 a4 71 ba 66 bb 56 bc
       0.055140305 -0.13651714 -0.0009217881 -0.013106203
000020 39 4c 8d bd 0f 45 61 bd 10 d6 be bc 14 27 9e 3e
       -0.06899304 -0.0549975 -0.023295432 0.3088919
000030 4c 8f c6 3e 85 19 10 be ea 91 f5 3b 91 36 80 17
       0.38781202 -0.14072235 0.007494201 8.285581e-25
000040 3b ff 89 31 68 9c 03 be b8 42 e9 bc 0f 38 7b 3e
       4.016241e-09 -0.12852633 -0.028474197 0.24533103
000050 c3 9b 8e bd 3d 1f 01 3d 53 28 d6 3d 5c 61 5d 3a
       -0.06963303 0.03152393 0.1045691 0.00084449886
000060 ca 8f 94 3e 68 e2 d2 3c 8d b0 d8 bc cc 99 15 be
       0.29015952 0.025742725 -0.026451373 -0.1460945
000070 63 de 45 bd 72 c9 78 3d 6a cf 8a 3e fb e9 85 3e
       -0.048307788 0.06073899 0.2711137 0.26155075
000080 bc aa 2e 3d d6 38 46 3d a9 c5 92 3d 15 ba 88 bd
       0.042643294 0.048394047 0.07166607 -0.06676117
000090 25 33 93 3e 68 59 20 be d8 0a 83 bd 53 a7 98 bb
       0.28749958 -0.15659106 -0.06398553 -0.0046586185
0000a0 25 65 08 be f0 ae 9d bd 27 a3 7e 3d f8 d1 45 be
       -0.13319834 -0.07699382 0.062167313 -0.19318378
0000b0 b5 9b 30 3e 21 15 ef bd 98 a8 ee bd 8f 8b 2b 3e
       0.17246898 -0.11673952 -0.116532505 0.16752456
0000c0 8f 73 f7 3d 17 5c 52 bd b2 7a 61 3d a8 03 8a bc
       0.12082588 -0.051357355 0.055048652 -0.016847447
0000d0 aa 14 8c 3d 30 fe 5d 3d 5d db eb bd cb 9e ba 3c
       0.06839879 0.05419749 -0.115164496 0.022780797
0000e0 d6 f3 93 3e e2 9b 33 3e f0 d1 91 3c 61 d3 45 3d
       0.2889697 0.17539933 0.017800301 0.04829729
0000f0 5b 87 94 bd 29 ba 1c 3e 89 90 68 bd 36 36 22 be
       -0.072523795 0.1530539 -0.056778464 -0.15840992
000100 61 f4 ee 3c 58 d8 6d ba d5 ba 8b 3d eb a9 0c 3e
       0.029169263 -0.000907307 0.06822745 0.13736694
000110 29 e6 08 be 2c 99 49 3d 47 92 0b 3e 4d 6a 80 3e
       -0.13369049 0.04921834 0.13630019 0.250811
000120 2e 6e 26 be b0 ca 13 3e 6b 62 01 bd 51 3a 92 bd
       -0.16252968 0.14432788 -0.031588 -0.07140029
000130 94 68 34 bb cd 38 5a 3d 0f ac 73 bd a6 8e 29 3e
       -0.0027528154 0.053276826 -0.05949026 0.16558322
000140 be 81 93 bd bc c0 9a 3e 8e 5a 38 3e f0 57 40 be
       -0.07202481 0.3022517 0.18003294 -0.18783545
000150 4c a9 3b bc 28 ae 40 17 56 95 be b2 ad 6e 24 be
       -0.011453938 6.225836e-25 -2.2186821e-08 -0.16057844
000160 f3 a9 53 3d 12 1a 79 3e c9 53 a2 3d e7 be 25 3d
       0.051675748 0.24326351 0.07926137 0.04046526
000170 1f 7a c0 3c c3 fb d9 bc 17 4a 2c 3e a4 d1 9a bd
       0.023495732 -0.026609307 0.16825138 -0.07559517
000180 e2 d2 a7 bd 35 f5 c3 bd c8 d3 f7 bd 8e 18 74 bb
       -0.081945196 -0.09568254 -0.12100941 -0.003724608
000190 25 f3 8e 3e 4b 52 94 3e 93 ef e6 3c 9c fb a5 3d
       0.2791988 0.28969035 0.02819041 0.08104631
0001a0 70 59 c9 3c ba 05 66 3d 68 41 18 3e c7 15 44 be
       0.02457878 0.056157805 0.148687 -0.19148932
0001b0 bb ec 51 bd 26 bc d9 3d a1 0f 86 bc 00 9b 9b 3b
       -0.051251154 0.106315896 -0.016364874 0.004748702
0001c0 0f ec 8d 3d 08 25 34 bc cc c9 53 3e 58 3b 01 be
       0.0692979 -0.010995157 0.20682448 -0.12620294
0001d0 37 f1 84 bd 0b 21 5a 3d 81 4d d4 3d e6 9f f7 bd
       -0.064913206 0.05325417 0.10366345 -0.12091045
0001e0 b9 84 46 3d 1d 09 02 3d 80 25 3f bd 5e ea 64 3d
       0.048466418 0.031746972 -0.046666622 0.055887572
0001f0 fb 31 c0 bc 0e 39 b8 3a 62 cc a1 3e d0 8f 6d 3d
       -0.023461333 0.001405509 0.31601244 0.05799848
000200 6d fd 5e bd 57 b9 2d bd 05 d1 b0 bc 3b 5d 14 ba
       -0.054440904 -0.042413082 -0.021584043 -0.00056596444
000210 17 cb 51 be 81 73 12 be ee de 90 bc 78 8c 29 3c
       -0.20487629 -0.14301874 -0.017684426 0.010348432
000220 a3 69 40 3e ce c5 8b 3d d8 c1 85 3d da 62 d1 bd
       0.18790297 0.068248376 0.065311134 -0.102239326
000230 09 f5 2d 3d 05 21 12 3d c6 24 08 be 65 44 12 3e
       0.04247001 0.03567602 -0.13295278 0.14283903
000240 e2 a4 06 3c 0a 71 3d bc 44 99 53 3b 83 fa 68 3c
       0.008218022 -0.011562595 0.0032287398 0.014219883
000250 c4 77 71 be 29 71 0a be ca 6f 0a be 0a 80 ca 3d
       -0.23580843 -0.1351973 -0.13519207 0.09887703
000260 b3 1b d5 3d b8 39 96 bd d5 e9 46 3e c0 59 5c 94
       0.10405674 -0.07335228 0.19425137 -1.11248616e-26
000270 3d 76 d3 35 2c 07 08 be 4f 12 da bc 19 ae 01 3d
       1.5755137e-06 -0.13283986 -0.026620058 0.031660173
000280 3e 2a 2c bc 9d aa c1 bc 81 70 5d bc 5a 06 0e be
       -0.010508118 -0.023640925 -0.013515593 -0.1386961
000290 72 6d 0e 3e 7b 49 ac 3d 3a 24 0d be 20 0e 74 be
       0.13908938 0.08412453 -0.1378335 -0.23833513
0002a0 54 1f 3c bc 8f 97 47 3d 8f 92 80 bd de 3b 78 3d
       -0.011482079 0.048728522 -0.06277954 0.06060397
0002b0 22 98 bc 3d 58 99 a5 3d 3a 67 8d 3e 81 09 90 bd
       0.092087045 0.080858886 0.27617818 -0.07033063
0002c0 b5 3f 24 3e c1 8d 5a be bd cc 48 bd f4 37 20 3e
       0.16039927 -0.21343137 -0.04902338 0.15646344
0002d0 47 73 07 bd 07 8c 22 be b0 65 3d 3c 1e 1b 05 bd
       -0.03306892 -0.15873729 0.011559889 -0.032496564
0002e0 f8 e1 bd ba 50 41 7b be 0e a7 55 3d 18 0f 78 3e
       -0.00144869 -0.24536633 0.05216127 0.24224508
0002f0 04 3f ed bd 8c bd 82 3d 9c 39 cc 3d 78 5b f4 3c
       -0.11584285 0.063838094 0.099719256 0.029828772
000300 1a 2e 81 3d d1 26 d2 bd 68 49 88 3c 3b 83 ba 3d
       0.06307621 -0.1026131 0.016636565 0.091070615
000310 c0 fe 3e bc 4e 9b bf 3d 2d 82 39 bd 20 16 46 bd
       -0.011657417 0.09355794 -0.04529016 -0.048360944
000320 87 aa 5f 3d 2c e9 27 3d de 4f 20 3d b5 b4 48 be
       0.054605987 0.040993854 0.039138667 -0.19600184
000330 b0 3d 0e be cb fc 04 3d d9 a3 49 3e 6a 84 3a 3e
       -0.1389072 0.032467645 0.19691409 0.18214574
000340 e8 93 6c be d1 5b b9 bd f5 79 b5 3c 78 e9 4a 3e
       -0.23103297 -0.09050716 0.02215288 0.19815624
000350 3c ee 8d be 8e 4f 1b 3e e6 a7 01 be 97 95 85 bd
       -0.2772082 0.15167066 -0.12661704 -0.065226726
000360 93 12 34 bb 0c bf 9c bd 77 d1 51 3d e7 d7 9c bd
       -0.0027476891 -0.07653627 0.051225152 -0.076583676
000370 43 8f 9a bb 9b 23 b7 3d 88 57 dc 3d ea da b2 bd
       -0.004716785 0.08942338 0.10758883 -0.08733161
000380 3c c9 6e be 42 fa 39 17 6d c6 98 37 a4 f2 37 bd
       -0.23318952 6.0092594e-25 1.8212211e-05 -0.044909135
000390 95 d7 0a bc 5f f4 1f 3e dc fa 7b bd 2a 56 e1 3d
       -0.00847425 0.15620564 -0.061518535 0.110027626
0003a0 9a af 40 bd 20 91 0b 3e 0d fe 77 3e 80 fe ac 3e
       -0.047042467 0.1362958 0.24218006 0.33787918
0003b0 a4 45 70 3d 80 a3 85 be f6 0c 8f 3d 99 2e f4 3c
       0.058660164 -0.26101303 0.06984894 0.029807376
0003c0 d4 91 a0 39 9e 71 70 be 88 12 5b bd f6 27 2f be
       0.0003062623 -0.23480842 -0.05348447 -0.17105088
0003d0 1d 93 c9 bd 2d ba c8 bd d3 b4 7e bd 0a 0f 95 3b
       -0.09842513 -0.09801135 -0.062184166 0.004548912
0003e0 90 1f bb 3e f4 90 e8 bc b1 7f 45 3e 0b b5 55 3d
       0.36547518 -0.028389432 0.19286992 0.05217461
0003f0 dc 74 72 bd 7e b1 f7 bb 89 fd bd bc 46 bb 1e be
       -0.059193477 -0.0075590005 -0.023192184 -0.15501127

layers.1.bias f4 [50]
000000 08 51 12 bd dd db 07 bd 7e dc 1c ba 0a b8 0a bb
       -0.03572181 -0.033168662 -0.00059837836 -0.0021166825
000010 7d c6 c6 3d 56 a0 24 bd 1a f6 8b bd ea ba 2c bd
       0.097058274 -0.04019197 -0.068340495 -0.042170443
000020 b5 d7 b6 3b 1c df 12 3d c0 2d 50 bd 08 06 97 bd
       0.0055799135 0.035857305 -0.05082488 -0.07374197
000030 7c 66 8f bc 01 dd c6 bd e1 a6 33 3d df 36 f6 bc
       -0.017504923 -0.09710122 0.04386032 -0.030055461
000040 e0 de bf bb 5a ce a0 bd 83 df c5 3d 9f 5d 0a bd
       -0.005855426 -0.078518584 0.09661772 -0.03378069
000050 d6 41 bb 3d cc 0a b3 3d 37 16 20 bd ed 14 1e bd
       0.091434166 0.08742294 -0.039083686 -0.038594175
000060 90 79 8f 3d 88 1d 2f 3d a8 b3 3b bd 38 d7 82 3d
       0.07005608 0.042752773 -0.04582563 0.06388706
000070 2a db 96 bd 1f c6 e9 bc ed 35 45 3d ef b7 a2 3c
       -0.07366021 -0.028536854 0.04814713 0.019863097
000080 b9 13 e4 bc 09 b0 20 3d 8f 21 14 3d 8d 8d d9 3c
       -0.027841436 0.03923038 0.036164816 0.026556754
000090 e1 62 6f bd a1 60 80 bd e5 62 69 3d c4 36 93 3d
       -0.058443908 -0.062684305 0.05697908 0.0718818
0000a0 4a d2 b2 3d 88 b2 34 3d 88 45 2e bd 41 09 38 3c
       0.08731516 0.044115573 -0.04254678 0.011232675
0000b0 5c 11 3f bd ef 83 0d bd 02 e2 44 bd 06 03 f8 bc
       -0.046647415 -0.03454965 -0.0480671 -0.03027488
0000c0 e5 96 1e 3d 32 7c a9 3d
       0.038718123 0.082756415

layers.2.weight f4 [90, 50]
000000 09 98 23 3d c7 a6 d5 3d ef 9a 43 be d1 ee 46 be
       0.039939914 0.10432201 -0.19102071 -0.19427039
000010 68 43 9c ba 08 4d 26 3d 77 66 6f 3e 31 d1 d9 3e
       -0.0011921944 0.040600806 0.23378931 0.42542413
000020 f1 ea 85 bd c6 ef 4a be a8 76 d0 3e db 57 ff 3d
       -0.06538952 -0.19818029 0.40715528 0.12467929
000030 31 e7 10 3e 66 3e 02 3e 95 97 1f be 23 3b ba 3b
       0.14150693 0.12719116 -0.15585168 0.005683319
000040 31 5c 3d 3e ae 6e 9c bb 33 43 2a be 1d 03 1c 3d
       0.184922 -0.0047739362 -0.16627197 0.038088907
000050 d4 0a b4 bd f7 c0 9e be 02 92 75 3e 96 d8 29 bb
       -0.08791128 -0.31006595 0.23981479 -0.0025916449
000060 d6 5d 8d bd 7d ad 52 3e ab 3c ee 3d 40 3c 53 be
       -0.069026634 0.20573993 0.11632665 -0.20628452
000070 e1 4d 4b 3d 90 7c a1 3e 90 7c 4a be 17 81 f1 3d
       0.049634818 0.31540346 -0.1977408 0.117922
000080 bc 7e a3 3c 9b 06 c9 3b 50 70 6a be 10 fe d1 bd
       0.019957893 0.0061348206 -0.22894406 -0.10253537
000090 2a 53 ac 3c 1f f2 d1 3e cb a4 41 bd f6 89 d5 bc
       0.02103575 0.41005036 -0.0472763 -0.026066761
0000a0 bd e8 af be 62 1d 38 be 9c eb b2 3e b4 f7 a6 3d
       -0.34357253 -0.17979959 0.3494538 0.08152714
0000b0 fc b6 d4 3d 86 20 be 3e 6d 85 4f 3e d8 62 95 bb
       0.10386464 0.37134188 0.20265742 -0.0045589022
0000c0 d6 5f c7 bd 84 6a 5a be d6 0c ea ba 7c ce 6a 3d
       -0.09735076 -0.21329695 -0.0017856609 0.057325825
0000d0 b7 5a 7b bd bb a1 62 bd 1c d3 89 3d ee 22 b4 bd
       -0.06136581 -0.05533002 0.06729719 -0.08795725
0000e0 75 73 40 3d 4b 30 07 3e 70 63 3c 3b 9e df 72 bd
       0.04698511 0.13202016 0.0028745793 -0.05929529
0000f0 2e c7 0a 3e c1 8b 18 bd 1b c2 31 bd 93 f0 a4 bd
       0.13552544 -0.037242655 -0.043398004 -0.080536984
000100 e6 53 6e 3d e9 dc bc bd 91 b8 31 3d 9a 69 c7 3d
       0.05818548 -0.09221823 0.043388907 0.09736939
000110 3d 57 a7 3c 07 c2 19 be 01 14 ec 3d cc 21 bd bd
       0.02042734 -0.15015422 0.11527253 -0.09234962
000120 fc 87 4b bd 4e 25 74 3d 32 01 af bd 7a a6 ef 3d
       -0.04969023 0.05960589 -0.0854515 0.11701675
000130 bd 29 df bd 4b 49 e8 bd bd 21 8b bd ad 4f c1 3d
       -0.10896633 -0.113421045 -0.067935444 0.09439025
000140 d5 2f dd 3d a9 cb cb 3c fc c5 ef 3c ac f6 ad bd
       0.10800139 0.024877386 0.029269211 -0.084943146
000150 0d c5 47 bd b5 ee c2 3d ea 46 2e 3c 51 53 bf 3d
       -0.048771907 0.09518186 0.010637024 0.09342063
000160 a2 5f 14 bd 08 88 57 3d 14 20 b2 bd 47 96 fd 3c
       -0.036224015 0.052619964 -0.08697525 0.030955447
000170 9a 97 c1 3d 0b 50 cd 3c a6 82 f4 bd ce 03 b6 3d
       0.09452744 0.025062582 -0.11938982 0.088874444
000180 d9 f8 31 3d e4 df 33 bd 2c a4 f8 3d 42 b2 be 3c
       0.04345021 -0.04391469 0.12140688 0.02327836
000190 00 c0 30 bc 4e e1 9f 3c 57 5f 0e 3a 53 9e 6f bb
       -0.010787964 0.019516613 0.0005431077 -0.0036562874
0001a0 a8 1a bb bb 0e 96 03 3d 8a af 50 bc 9c 98 8e 3c
       -0.005709965 0.032125525 -0.012737164 0.017406754
0001b0 26 d3 ba 3b 0e d6 95 3b 23 60 4f 3c 1b dd 40 3c
       0.0057014404 0.0045726364 0.012657198 0.011771466
0001c0 55 3d 06 bc e9 4b 8e 3d 4a 94 83 bc 9c a1 18 bd
       -0.008193334 0.069480725 -0.01606192 -0.037263498
0001d0 1a 72 3b 3d 43 b1 79 3c 87 63 0c 3d 8b 7f 8d 3c
       0.045763113 0.015240016 0.034274604 0.017272731
0001e0 07 91 d4 3c 8a e3 ac 3c 8e 3a ab bc db a3 0f 3d
       0.02594806 0.021104593 -0.020901944 0.035068374
0001f0 28 18 87 bc 7c e6 7a bd 36 8c 9a bc 4a 8d 89 3b
       -0.01649101 -0.061254963 -0.018865686 0.004197751
000200 ea b8 f5 3a 60 11 4d 3c 2f 59 39 bb d3 d1 c7 3c
       0.0018747125 0.01251635 -0.0028281917 0.024392044
000210 a2 fc 9f bc e6 af 97 bc 27 95 8c 3c d1 6c 4c 3c
       -0.019529644 -0.018516492 0.017160965 0.012477116
000220 12 8e 9b bb 78 79 0f 3a 61 e5 b5 bc b7 2c d2 3c
       -0.0047471607 0.00054731173 -0.022204103 0.025656087
000230 9d 92 97 3c 6e 00 7c 3c b6 90 05 3c 8d 8b 43 bd
       0.018502528 0.015380962 0.008152178 -0.047740508
000240 3d 51 8b 3c 39 a7 67 3c f0 07 c5 bc 73 f9 56 bc
       0.01700651 0.01413899 -0.024051636 -0.013120997
000250 4d bf 70 3c a7 75 88 bc 5d 60 a8 bb d6 c7 82 3b
       0.014694047 -0.016657664 -0.0051384405 0.0039911075
000260 9b 5f e5 ba 25 6e 63 bc ee e2 07 bb de 27 b8 3c
       -0.0017499806 -0.013881241 -0.0020734626 0.022479948
000270 a0 0b 03 39 2a 79 89 3b 12 fc 6e 3c 68 c4 b6 3c
       0.00012497464 0.004195352 0.014586465 0.02231045
000280 66 7a 65 bc f2 6a 7d bc 24 8b 21 3c 92 c2 63 3c
       -0.014006233 -0.015467392 0.009859834 0.01390137
000290 84 23 b1 ba 86 98 33 3c 24 7f be 3c db ed f3 bc
       -0.0013514613 0.010961657 0.023253985 -0.029776504
0002a0 39 54 80 3c d7 0c 23 3d 88 ba 19 bc 6a a5 24 bc
       0.01566516 0.039807167 -0.009382851 -0.010049203
0002b0 b3 7b 16 3d 03 a2 4f 3c 8a be b4 3b 9f 63 1a bc
       0.036739063 0.012672904 0.005515878 -0.009423166
0002c0 3e 3e b0 3c f3 77 b9 3c 19 99 e7 3b 53 42 ce 3a
       0.021514054 0.022640204 0.007067811 0.0015736319
0002d0 d2 de c2 3c 22 d4 c4 3a b8 ab 93 3c c4 8f 88 3b
       0.02378789 0.0015016834 0.018026218 0.004167529
0002e0 54 c1 c4 bb 62 bc 7b bc 47 e6 9e bc 4f 1d 2d bc
       -0.006004492 -0.015364738 -0.019396914 -0.01056607
0002f0 67 ea d7 bc f3 fa 94 bc fa 8b 15 3c fc 5c 4d 3c
       -0.026356889 -0.018186068 0.009127611 0.012534376
000300 cf a6 10 bd ae 71 6a b8 8b cb 13 bc 68 84 0d bd
       -0.03531533 -5.589582e-05 -0.009020696 -0.0345501
000310 1a cc 86 bc 5e 0c 9d 3a 16 e2 01 3c 28 b1 28 bb
       -0.016454745 0.0011981835 0.007927438 -0.002574036
000320 84 14 32 bd 5f 16 7b bd f0 bc 0c be 56 ff c3 bc
       -0.043476596 -0.06130063 -0.13743949 -0.023925465
000330 21 78 44 bd 66 b5 2f 3d dd 70 02 3e 23 52 0d 3e
       -0.047966126 0.042897604 0.12738366 0.13800864
000340 11 29 83 bd 66 da 18 be cf 0a 85 3d bc f2 74 3d
       -0.06404317 -0.14927062 0.06496202 0.059801802
000350 47 1e 48 bd 4c 58 fc 3c 91 bc 02 be 1f 0d 2a 3d
       -0.048857 0.030803822 -0.12767245 0.04151642
000360 68 18 1b 3e 4f 27 e6 3b 7d cc 11 be a4 ee 65 3d
       0.15146029 0.007023729 -0.14238162 0.05613579
000370 eb b0 18 be 00 52 ba bd 6c 00 85 3d 3f af fd 3b
       -0.14911239 -0.090976715 0.06494221 0.007741838
000380 78 6f 6a 3b 1c e7 0e 3e 2f 37 fd 3d 1d 6c a3 bd
       0.0035772007 0.13955349 0.12364041 -0.07979605
000390 9a 8f a8 3d 8e 47 f1 3d e0 39 05 be 57 66 15 3e
       0.08230515 0.11781226 -0.13010359 0.14589821
0003a0 81 03 c9 bc 2f b8 58 bd 3c 10 02 be 04 60 d0 bd
       -0.024537804 -0.052910026 -0.12701505 -0.101745635
0003b0 ef 5a 28 bd 6d 4a c1 3d 30 4a 8a bb 2c a8 6e bd
       -0.041102346 0.09438024 -0.0042202696 -0.05826585
0003c0 c5 c7 11 be a0 5e fc bc 05 4d 1d 3e d1 6c 59 3d
       -0.14236362 -0.03080684 0.15361412 0.05308229
0003d0 a7 eb f6 3d a7 3f ff 3d ff 10 1d bd cb 50 89 bd
       0.12056666 0.124633126 -0.038346287 -0.06704863
0003e0 ae 30 fd bd d9 18 89 3c 8b 92 02 bc c0 54 69 bc
       -0.123628005 0.016735481 -0.007969509 -0.014241397
0003f0 86 1f 04 bd 4c 0d 2e 3e 84 74 75 3d b6 63 12 3d
       -0.032256626 0.1699726 0.05992557 0.035739623

layers.2.bias f4 [90]
000000 18 50 44 be 40 4d 1c 3e 97 07 fd bb 00 bd 3f bd
       -0.19171178 0.15263844 -0.007721852 -0.046811104
000010 75 99 00 be f0 7b 57 bd 70 5d 58 be 64 e1 56 be
       -0.12558539 -0.05260843 -0.21129394 -0.20984417
000020 67 3b 85 3d f1 ff 96 bc d8 d8 1e be c7 cf 4f 3e
       0.06505471 -0.01843259 -0.15512407 0.20294105
000030 2c 52 1b be 57 6c 57 be d6 35 a5 3c f0 f7 69 3d
       -0.15168065 -0.21037422 0.020167273 0.057121217
000040 ab 31 25 bc 4d 7b 7c bc de 6d 85 3b 84 15 33 bc
       -0.010082643 -0.015410257 0.004071935 -0.010930423
000050 52 fa 21 3d 1b 01 9b be 9a f1 b3 3c 44 84 2b 3c
       0.039545365 -0.3027428 0.02196579 0.010468546
000060 73 98 6b bc 36 3a ed 3d 6e f3 29 3d be 9c 04 bc
       -0.014379608 0.115833685 0.04149192 -0.008094011
000070 63 46 02 bd 12 a4 73 bd 12 e9 13 3b 64 8a 8a bd
       -0.031805407 -0.05948264 0.002256934 -0.06764677
000080 36 5f f6 3c bf 92 11 3b 8f 35 17 ba 9e de 51 bd
       0.030074697 0.0022212712 -0.0005768174 -0.051237695
000090 0d 92 27 3c b0 48 25 bb 36 a5 8a bd d4 43 07 3c
       0.010227692 -0.0025220327 -0.06769793 0.008255918
0000a0 6e 9d 2a 3c 14 e9 86 3d cd 4c 2a bd 97 26 27 3b
       0.010413511 0.06587425 -0.04157715 0.002550518
0000b0 14 13 af 3b f9 68 c1 3b 4f f5 84 3d 7c 56 d0 3d
       0.0053428505 0.0059024063 0.064921014 0.101727456
0000c0 1f ff 8b bb a3 a8 24 3d ec 53 df 3c 1d f3 b9 bc
       -0.004272356 0.040199887 0.027261697 -0.022698933
0000d0 54 5a 04 3e ad a1 97 3d da 52 00 3c 0a e9 1a be
       0.12925082 0.07403884 0.007832253 -0.1512796
0000e0 f9 7e d6 bd 8d 8e 84 bd c6 18 f8 bc a3 fd 13 3c
       -0.10473437 -0.06472502 -0.03028525 0.00903264
0000f0 c7 95 73 3c ab 55 4e 3e 39 e7 18 bd b2 ef 78 be
       0.014867253 0.20149867 -0.037329886 -0.24310187
000100 54 3f b1 3d 56 f9 1b 3b 27 4e be 3d a0 26 e2 3d
       0.08654657 0.002379974 0.0929225 0.110425234
000110 f4 a8 2e 3d 08 6c 37 bc eb cb 79 bc 6d eb 58 be
       0.042641595 -0.01119519 -0.015246372 -0.21183558
000120 40 b0 8f 3d f9 08 63 be 75 fe 84 3b ee 2c 57 3d
       0.07016039 -0.22171392 0.004058654 0.052533083
000130 58 3d 30 bd 15 3c 88 3d df 85 47 bd 6d 7e fa 3b
       -0.043027252 0.06652085 -0.048711654 0.0076444657
000140 43 db 85 be f5 f6 1f 3d 00 49 da 3b 94 55 91 3d
       -0.26143846 0.039053876 0.0066615343 0.07096401
000150 f1 31 85 bb 8e 36 1c bb 5c d8 32 bd 86 b5 5a bd
       -0.0040647914 -0.0023836228 -0.043663368 -0.05339577
000160 9a f3 38 be be f9 0b bd
       -0.18061677 -0.03417372

layers.3.weight f4 [5, 90]
000000 1b 9c 48 3e fa c6 8b bc 17 47 7f bd 23 7b 5d bc
       0.195908 -0.017062653 -0.062323656 -0.013518128
000010 33 16 44 3d 3d a2 20 3c a4 db 12 3e 68 df 14 3e
       0.047872733 0.009804306 0.14341599 0.14538348
000020 e3 5b 9b bd 18 40 7a bc 2d 4b ca 3c 51 23 3e bd
       -0.075858854 -0.01527407 0.02469405 -0.0464204
000030 3d 49 85 3d dd 79 c8 3d 3a 58 71 3c 1a 0e 73 bb
       0.0650811 0.097888686 0.0147305075 -0.0037087263
000040 fb 1f 10 bd a1 54 2c bc 98 1f 20 bd 27 12 a1 ba
       -0.03518675 -0.010518224 -0.03909263 -0.0012288735
000050 f3 c2 32 bc 2e 4b f6 3d 5c 86 66 3d 9c 88 dd bc
       -0.010910737 0.12026058 0.05628048 -0.02704268
000060 bf e2 03 3d 77 68 fe bb 54 4c 69 3c 5b 90 9b bc
       0.032198664 -0.007763918 0.014239389 -0.018989732
000070 21 f9 8e bc f4 88 8b be d2 36 9f bc d1 0d 46 bc
       -0.017452778 -0.27252924 -0.01943532 -0.012088255
000080 ea b5 05 3c a4 43 2c bc ce 9b 14 3d 97 15 35 bd
       0.0081610475 -0.010514174 0.0362814 -0.044210043
000090 19 09 2f 3d 3d 93 cb 3c 8f 35 fc 3c 82 57 47 ba
       0.042733286 0.024850482 0.030787257 -0.0007604287
0000a0 46 f1 3e 3c bb c9 50 bc 8a f5 9c bc 8c 64 92 3b
       0.011654204 -0.012743409 -0.01916005 0.0044675525
0000b0 34 c7 2c bc 38 b2 f7 bc cf c8 fc bb 82 90 5b bc
       -0.010545541 -0.030236349 -0.007714368 -0.013401153
0000c0 12 0a 09 3c bb 3c 8c 3c fe 18 1b bc 00 65 c4 36
       0.008364217 0.017118802 -0.009466408 5.853013e-06
0000d0 6a a8 cf bc 55 dc 09 bb 06 5a 8f bc c8 ce 8c 3d
       -0.02534886 -0.002103587 -0.017498981 0.06875378
0000e0 7f e0 1f 3d 91 a3 83 3d 7c da 1c 3b b6 04 9f 3c
       0.039032456 0.06427682 0.0023933938 0.019411426
0000f0 9f a9 db bc 8b 27 19 bc 7e c5 0f bd 4c 3a d6 3d
       -0.02681428 -0.009347807 -0.035100453 0.10460338
000100 a3 6c ed bb 1a 1e f0 bc 20 16 28 bd b5 10 71 bd
       -0.0072456165 -0.029311229 -0.041036725 -0.058853824
000110 b4 0f a9 bb 88 92 e0 3c 8d 2b b0 3c 6f a6 bc 3d
       -0.0051593427 0.027413622 0.021505142 0.09211432
000120 79 6c ad bc 24 84 36 3e 9c 1f 9b 3c 27 cb db 3c
       -0.021169888 0.17823845 0.018935971 0.026830269
000130 6a 24 11 3d 91 c4 a1 bc e3 86 bd bb 82 ce 0d 3a
       0.035435118 -0.01974705 -0.005783902 0.0005409495
000140 af 03 a1 3d d2 d6 ae bc eb 7d bd bb 2a 1c bf 3a
       0.07862031 -0.021342669 -0.005782833 0.0014580537
000150 1c eb 8f 3d b3 7b a3 3c f2 f6 cf 3a 59 e4 f5 3b
       0.070272654 0.019956445 0.0015866442 0.007504028
000160 3b b9 81 3d e9 96 6c bd d1 3c 5b 3e 35 c3 98 3c
       0.06334158 -0.057761107 0.21409918 0.01864777
000170 3d 0b 4e bd 71 03 5d bc cc 8e 54 3d b6 3e 19 bb
       -0.050303686 -0.01348959 0.051893994 -0.0023383326
000180 7c 38 13 3e 49 e2 3d 3e d2 fe a0 bc e7 c4 d3 bb
       0.14377016 0.18543352 -0.019652758 -0.0064626816
000190 20 e3 35 3c 0e 1f d3 bd e9 8b 9b 3d ea 6e be 3d
       0.011101514 -0.103086576 0.07595045 0.09298499
0001a0 44 cc b6 3c 37 f2 c3 bb 6c 56 09 bd 36 70 36 bd
       0.022314198 -0.005979802 -0.033529684 -0.044540606
0001b0 2d 6c 7e bc c6 88 7d bc 3f c5 e6 3c e2 5a 95 3c
       -0.015528721 -0.015474504 0.028170226 0.018231813
0001c0 de a7 25 3c 24 ce 05 bd 10 f9 93 3c 8c 35 28 ba
       0.010110823 -0.032667294 0.018063098 -0.00064166705
0001d0 2c 8d 2c 3b c5 2a c3 bc bc 5f 59 bc 18 a1 04 3e
       0.0026329262 -0.023824105 -0.013267454 0.12952077
0001e0 4e 40 32 bc 25 53 1d bc 10 5d cb bb ef 49 af 3a
       -0.010879589 -0.009602343 -0.0062061623 0.0013373474
0001f0 63 26 86 3c d4 f0 3f bd 58 af 1c 3d 57 d3 0a 3d
       0.016375726 -0.04686053 0.03825316 0.033892956
000200 7e 1e e7 bc d6 69 57 bc 2a bb a1 3b c8 05 a0 3a
       -0.028212782 -0.013147792 0.004935642 0.0012208754
000210 1f 74 0d bc 90 7c cc bc fb f4 a9 bd f1 db e5 bc
       -0.008633642 -0.02496174 -0.082986794 -0.028058978
000220 f1 8e 42 3b 5a 40 6e 3c c8 56 c7 3c cf 19 63 3c
       0.002968725 0.01454171 0.024333373 0.013861134
000230 3e 8c 1e 3c f0 26 f3 b9 fa b4 d8 bd fc 44 9a bc
       0.009676991 -0.00046377582 -0.105813935 -0.018831722
000240 dd f7 a6 3b 7d e8 ab ba 92 82 9e 3c 77 fb 79 3d
       0.0050954656 -0.0013115552 0.01934937 0.06103083
000250 c4 07 e0 bc 27 ad e3 3c 54 7f 97 3c dc c1 78 3c
       -0.027347453 0.027792526 0.018493332 0.015182938
000260 43 1d d4 bc 09 33 a4 3d 15 53 93 3c f4 52 f8 bb
       -0.02589286 0.08017547 0.017983953 -0.007578248
000270 e4 25 0c bd c5 df 7c bd 43 f3 f5 3a 7a 8a 0a 3d
       -0.034215823 -0.06173684 0.0018764514 0.033823468
000280 4f 62 7a 3c a9 f2 9a 3d ff 40 99 3d 54 6d 58 3d
       0.015282228 0.07565815 0.074831 0.05283864
000290 9d 39 d7 3c b6 cb 6f 3c e1 38 79 3d d2 04 9f bc
       0.02627259 0.014635971 0.06084526 -0.019411478
0002a0 98 2a b2 ba 84 a6 80 3c cb 15 a8 3d 52 18 6a bc
       -0.0013593016 0.0157044 0.08207282 -0.014288025
0002b0 f3 d7 d0 3c bb e7 08 3c d1 23 f1 3c d3 0a 35 bc
       0.025493598 0.00835603 0.029436024 -0.011049944
0002c0 1a e4 02 3c e7 8b 43 bc 80 c3 c6 3d 6a 68 23 bd
       0.007988954 -0.011935211 0.097052574 -0.0398945
0002d0 98 12 d5 bd 1f be 88 bd c4 9e 88 bd 8a ee 37 bc
       -0.10403937 -0.06676888 -0.06670907 -0.011226306
0002e0 7d 69 5a bd 5f 39 1e 3d 9e fa 86 3d ad 00 a9 3c
       -0.053323258 0.038628932 0.0659077 0.020630205
0002f0 54 d8 33 bc 9c b3 2e bc c1 df d2 3c 8e 62 a7 bc
       -0.01097687 -0.010662939 0.02574146 -0.020432737
000300 73 08 f2 3d 23 4c 97 3d 32 97 58 bc 08 cc 67 bc
       0.11818018 0.07387569 -0.0132196415 -0.014147766
000310 b1 fa 10 bd ab aa 23 bd a4 88 a2 3c 77 b2 55 bc
       -0.035395328 -0.039957684 0.019840546 -0.013043038
000320 80 3c b8 ba f2 b7 c1 3d 3f c8 fd 3c ee b6 64 bd
       -0.0014056116 0.09458913 0.030979274 -0.055838518
000330 51 f0 89 3c 6a dd 94 bc de e4 d7 3b 55 c6 ae bc
       0.016838225 -0.018171985 0.0065885624 -0.021334806
000340 55 31 0b bc c9 47 52 3e d2 48 e3 bc fd 01 c7 bc
       -0.008495648 0.20535196 -0.027744684 -0.02429294
000350 37 e7 9e bc 26 8d 20 bc 7b b4 82 3c d0 dd 40 bd
       -0.019397361 -0.009799277 0.0159552 -0.047086537
000360 7a fe 3b 3d ab 81 ab bc fd 3d 23 bd d8 e4 f1 bb
       0.045896985 -0.020935854 -0.03985404 -0.0073820166
000370 0f 63 ac bb 19 19 6d bc ba 71 82 bb 35 c4 07 bc
       -0.005260832 -0.014471316 -0.0039808424 -0.0082865255
000380 96 f4 c7 bb c3 4b 94 bc ae 45 72 3b b4 23 45 be
       -0.006102155 -0.018102532 0.0036967802 -0.19251901
000390 3c cc 37 3b 58 1c b7 3c 79 14 91 bb 51 9f 3e bc
       0.0028045317 0.022352383 -0.0044274894 -0.011634664
0003a0 0e da 43 be af a9 9a 3b a5 1f 04 3c 61 4f 65 3d
       -0.1912615 0.004719935 0.008064185 0.055983905
0003b0 b4 4f 49 3d 90 da 8d 3c 2a 92 ab bc 18 4e b4 3c
       0.049148276 0.017316133 -0.02094372 0.022009894
0003c0 a8 3c 97 bb 67 37 7e bc 5a 9a f4 bc d9 a3 f5 3c
       -0.004615385 -0.015516139 -0.029858757 0.029985355
0003d0 b5 5f ff bb d9 e0 35 bd cc a8 ef bc 1a 6f 70 bd
       -0.0077933916 -0.044403885 -0.029255293 -0.058699705
0003e0 b2 69 ff 3a e3 c0 2c 3d 0f 20 ed 3b b6 8f 38 3d
       0.0019486456 0.04217614 0.0072364877 0.04505893
0003f0 a9 e7 c6 bd 58 84 41 3d 0a 33 36 3c 6d 49 e3 3c
       -0.097121544 0.047245353 0.011120567 0.027744973

layers.3.bias f4 [5]
000000 20 1c 04 be 3e 26 91 3c a1 27 07 3c 61 3d ee 3d
       -0.12901354 0.01771843 0.008249194 0.11632801
000010 06 fd e7 3d
       0.11327557
