irony/models/model_26.pt (torch_old, 38823 bytes, 8 tensors)

layers.0.weight f4 [70, 10]
000000 0f ab bf be 69 99 c5 be 19 ee 66 be 97 ca b5 3d
       -0.37435195 -0.38593605 -0.22551765 0.088765316
000010 00 a4 64 3e bd 2f 6d bd dd a8 a6 bd c6 8c ff bd
       0.22328186 -0.057906855 -0.08137677 -0.12478022
000020 c7 d7 db 3d 04 6d 48 3e 50 72 96 bd d9 ae 66 be
       0.10734516 0.19572836 -0.07346022 -0.22527637
000030 db fd b5 be 9b a1 db be 44 57 0a 3e 83 40 52 3d
       -0.3554524 -0.42896733 0.13509852 0.051331054
000040 56 c8 98 bb 59 3e 84 3d e3 89 5f 3c 28 52 1a 3e
       -0.004662554 0.06457204 0.013643715 0.15070403
000050 28 89 89 be b5 c1 a4 be 06 05 44 be 6d f7 17 3d
       -0.26862454 -0.32179037 -0.19142541 0.037101198
000060 52 49 29 bd bf b6 c0 3d d2 a8 fb 3d 5a 34 b5 81
       -0.04132969 0.09409856 0.12288059 -6.656402e-38
000070 6c 0d 8d 3e b8 75 9e 9a 43 f6 7e be b5 6d 99 be
       0.27549303 -6.5537453e-23 -0.24898629 -0.29966512
000080 2f db 98 3e 6f 53 e1 3d 36 fb 82 be 02 d4 01 3d
       0.29854724 0.11002242 -0.25582284 0.031696327
000090 55 68 1b 3d 7d da 6c 3e 89 ea 65 3e 06 fe 2b bd
       0.037941296 0.23130222 0.2245275 -0.041990303
0000a0 df 1b b6 be 47 59 a7 3d 86 28 88 be 46 f8 48 3e
       -0.3556814 0.08171325 -0.26593417 0.19625959
0000b0 51 1d 51 3e bc eb ae 3d e0 76 08 3d d8 a5 a2 3d
       0.2042134 0.085410565 0.033316493 0.079417884
0000c0 ff df 91 3e 82 b6 49 3e 63 41 92 3e 0b 7b b1 3e
       0.28491208 0.19698527 0.2856551 0.34664187
0000d0 4d 90 87 3e 78 6f 45 be fe 66 3e be 25 f1 eb bd
       0.2647728 -0.19280803 -0.18593976 -0.11520604
0000e0 3e 93 63 bc 06 6d 72 3c df 6c 74 be 5d fd 94 be
       -0.013890086 0.014796501 -0.23869656 -0.2909955
0000f0 e7 37 bf be 73 c6 8a be d5 04 ea 3d 0a 9a 39 3e
       -0.37347338 -0.2710453 0.11426703 0.18125167
000100 0b 89 87 be 18 0f 18 be bf 7f 08 be 73 81 a0 3d
       -0.26471743 -0.14849508 -0.13329981 0.078371905
000110 58 0a 81 3d 71 75 2b be 55 68 22 3d 11 fd 7e be
       0.06300801 -0.16744019 0.03965028 -0.24901225
000120 e3 a4 92 be 40 bc 9b be 9f aa 29 3e c1 33 33 3e
       -0.28641424 -0.3041706 0.16568993 0.17500211
000130 90 49 db bc ce 04 67 3b 63 83 e9 bd 80 3e 2a 3e
       -0.026768476 0.0035250667 -0.11402013 0.16625404
000140 20 52 79 3e c9 7c b4 3d 17 90 e0 be 67 c8 ec be
       0.24347734 0.088128634 -0.43859932 -0.46246645
000150 24 86 31 3e 44 9f 24 3d 30 7b dd bd c8 17 75 be
       0.17336327 0.04019095 -0.10814512 -0.23934853
000160 b0 1e 59 be 61 6c 24 bd 81 65 5f be 10 a7 74 be
       -0.21203113 -0.04014242 -0.21816064 -0.23891854
000170 54 f9 9d be 1f 5f 22 be 2f d1 d0 3d 84 d0 2a 81
       -0.30854285 -0.15856598 0.101961486 -3.137367e-38
000180 3f 8e 1c 81 f8 70 46 3e a2 ce 72 00 f8 0f c5 3e
       -2.875473e-38 0.19379032 1.0543372e-38 0.38488746
000190 c2 3d b8 3e bc a0 fa bd e3 d2 a3 be 7c a2 ff be
       0.35984617 -0.12237689 -0.3199683 -0.49928653
0001a0 0f 76 29 3e e6 49 37 3e 23 0b fa 3c 00 91 dc bc
       0.16548942 0.17899284 0.030522889 -0.02692461
0001b0 f6 ae 3a bd 5e 87 dd 3d 73 1c 96 3d 2d bb b7 bd
       -0.045577012 0.10816835 0.07329645 -0.08971248
0001c0 1b 38 c6 be 57 3d c3 bd ad dc 7c 3e 76 82 2f 3c
       -0.3871468 -0.09533184 0.24693556 0.010712257
0001d0 a4 5e 08 be 81 68 5f be 20 6d 37 be 5b a2 42 3d
       -0.13317353 -0.21817209 -0.17912722 0.047518115
0001e0 3f a0 4e be aa 09 3e 3e b1 37 bb 3e 65 f5 9c 3d
       -0.20178317 0.18558374 0.36565927 0.07663993
0001f0 1d c3 90 be e1 66 1b bd d6 f5 b4 3d 0d f1 df 3d
       -0.2827386 -0.03793991 0.08835952 0.10934649
000200 e0 8b a7 3c 7c c0 b3 bd c7 9b 1e 3e cb 3d 22 3e
       0.02045244 -0.08776948 0.15489112 0.15843885
000210 a5 75 ce bd f1 a2 82 be 73 25 c8 be 02 e5 24 3e
       -0.10081033 -0.2551494 -0.3909107 0.16102985
000220 4c 69 fa 3c 17 14 2b be 11 d0 c3 bd 27 68 89 bd
       0.030567788 -0.16706882 -0.0956117 -0.067093186
000230 16 01 95 25 ea 56 a5 25 22 c2 aa 24 1d 7b 7d a7
       2.5848116e-16 2.8681833e-16 7.405462e-17 -3.5177543e-15
000240 a0 fa 8e a7 da 66 61 21 55 a8 2f a2 6d 6f cd 21
       -3.9684646e-15 7.636909e-19 -2.3806037e-18 1.3920834e-18
000250 27 23 b1 a8 ff 44 94 a2 ad 0e 84 3e 2c 73 2b be
       -1.9666192e-14 -4.0188533e-18 0.25792447 -0.16743153
000260 63 97 72 be 03 59 04 bf cd 43 ff bd f6 0d 19 3c
       -0.23690562 -0.5169832 -0.12464104 0.009341707
000270 8a 2f df 3d 32 23 31 be 7c e0 1e bd 42 05 48 3d
       0.10897739 -0.17298582 -0.038788304 0.04883314
000280 fd eb 98 3c e1 67 14 3e 6c 29 3a be cd 45 c9 be
       0.018667215 0.14492752 -0.18179864 -0.39311066
000290 53 28 00 3e 58 26 fa bd eb 61 4a 3e cf 4d f8 bd
       0.12515382 -0.12214345 0.19763915 -0.12124216
0002a0 73 26 53 bc 78 52 5d bd 44 68 1e 01 f5 3c be 01
       -0.012887585 -0.054033726 2.9094824e-38 6.9882446e-38
0002b0 84 f6 b8 80 be 71 22 81 92 ab 7a 81 8b c5 14 80
       -1.6986164e-38 -2.9836307e-38 -4.6040844e-38 -1.907575e-39
0002c0 38 ae 86 81 87 e7 b3 81 6a 8a cb 00 73 73 6c 9a
       -4.947382e-38 -6.608644e-38 1.869226e-38 -4.8896915e-23
0002d0 a2 54 36 bc 7e 56 9f 3e 68 f1 12 3f de 5f 35 3d
       -0.0111285765 0.31120676 0.57399607 0.04428088
0002e0 35 b9 3f bd bf a7 4f be 65 5b 80 bc c2 11 89 bd
       -0.046807487 -0.20278834 -0.01566858 -0.0669284
0002f0 eb 39 c2 bd 8f c3 6a be bd a8 ae bc 3e c7 86 3e
       -0.09483703 -0.22926162 -0.021320695 0.26323885
000300 a5 55 ad 3e 55 26 a4 3d 32 91 c3 be 4b 52 67 be
       0.33854404 0.08015124 -0.38196713 -0.22589986
000310 05 b2 00 3e 17 3c 2b be 36 ec 82 bc fc 63 2a be
       0.12567909 -0.16722141 -0.015981775 -0.16639704
000320 57 d4 98 3b 05 80 a8 bd 81 f5 71 bd a9 c8 86 be
       0.0046639848 -0.08227543 -0.05907202 -0.26324967
000330 ea 70 6e 3e 0d 45 63 8d fa 28 1e 81 4c 8f af 81
       0.23285261 -7.0032892e-31 -2.9049416e-38 -6.449047e-38
000340 78 aa 8f 3e d3 21 9c 01 cf 5f 71 be 67 e3 ad be
       0.28059745 5.7353885e-38 -0.23571704 -0.33962557
000350 77 4e 38 be 95 2b d6 3e 1b 32 3f be 4e 07 ff 3d
       -0.17998682 0.41830125 -0.18671457 0.12452565
000360 cb a6 61 3d 94 37 9d 3d 57 b6 de 3d 2a 90 01 bc
       0.055090707 0.07676616 0.10874622 -0.007907907
000370 5a 7d 6d 3d cf 72 3e 3e 18 e5 f7 3e 19 fe 8b 3d
       0.057980873 0.18598484 0.48416972 0.06835575
000380 f7 16 0c be aa 73 ac 3c 80 2e bf 3d 17 d7 0f 3e
       -0.13680635 0.021051247 0.09335041 0.14046894
000390 4a ca 2d 3e b7 d9 e2 bd 67 ef 26 3e 50 95 7c 3e
       0.16971698 -0.11076682 0.16302262 0.24666333
0003a0 02 ce db ba 71 7d 44 3e 66 8b ac be 17 46 13 3e
       -0.0016769769 0.19188477 -0.33700103 0.14382206
0003b0 c1 3c 8c bd 95 a9 55 3e 78 6b 53 3e 50 02 96 bd
       -0.068475254 0.20865472 0.20646465 -0.0732466
0003c0 01 04 39 be 00 c9 14 be 59 14 2a be 06 36 3e be
       -0.18067934 -0.145298 -0.16609325 -0.18575296
0003d0 2e d5 ab 3e 40 11 58 bd df fa 31 bd a9 c7 07 be
       0.3356108 -0.052750826 -0.04345214 -0.13259758
0003e0 27 ca 0d bd 86 dd 77 3e 7c b1 41 3c 6e 8c cd 3e
       -0.034616616 0.24205598 0.011822101 0.40146202
0003f0 cf 3d e3 bb 17 95 89 be 82 a1 bb 3e 75 13 f8 bc
       -0.0069348584 -0.2687156 0.36646658 -0.030282715

layers.0.bias f4 [70]
000000 a8 90 b9 3d e6 f0 4c 3d 84 04 61 bb 13 40 ad bc
       0.09060794 0.050034426 -0.0034334967 -0.021148717
000010 b4 46 13 be 1a 2e df 3d 94 f9 15 3e 39 1e 8c 3d
       -0.1438244 0.10897465 0.14645988 0.06841702
000020 92 ee 30 3e 1c 0d 2a be 88 b3 10 3b de 39 b1 3d
       0.17278507 -0.16606563 0.0022079665 0.086536154
000030 1b 8c 2b bd a8 92 15 3e 3e 1d 85 a8 9d 2b 5e 3e
       -0.04188166 0.14606726 -1.4778648e-14 0.21696325
000040 90 1a 99 3d 54 2b 1b 99 f2 fe f1 bb 88 f5 b9 3d
       0.074757695 -8.022062e-24 -0.007385128 0.090800345
000050 f0 aa 81 be 3f fc 70 3d 5e c0 90 bd e4 e5 5b 3c
       -0.25325727 0.05883431 -0.07067941 0.013421509
000060 9a 89 e1 bd 81 1d 07 be 58 63 cb bd 70 fb d2 3d
       -0.110125735 -0.13194849 -0.09931058 0.10301864
000070 24 d3 30 3e 52 0f 16 be 8f 2b 2e be 92 36 08 3e
       0.17268044 -0.14654282 -0.17008804 0.13302067
000080 25 e1 17 3d cb cc 06 3e cc e5 b8 3c df 4f a7 bd
       0.03707995 0.1316406 0.022570513 -0.08169531
000090 d0 39 7f be 48 00 d9 ba 94 a6 85 bc 29 7e 76 3c
       -0.24924397 -0.001655587 -0.016314782 0.015044727
0000a0 06 b0 d9 bc aa f6 75 be aa 46 71 bc ae 9c e6 bd
       -0.026573192 -0.24019876 -0.01472632 -0.11260353
0000b0 8c 8c 3a be 98 1b 9d 3d ca c6 3a 3d cc b1 38 3e
       -0.18217677 0.07671279 0.045599736 0.18036574
0000c0 eb ae 0a 3e a5 24 ea 3d e1 45 d1 bd 35 70 7a bd
       0.13543288 0.11432771 -0.102184065 -0.061142165
0000d0 0c 30 f5 3d 5c ce 09 bc eb 34 8e bd 40 a6 cb 3c
       0.11972055 -0.008411016 -0.06943687 0.024859548
0000e0 cd 6d 18 3e d4 10 25 bd 7e 93 38 be 75 ec ef bd
       0.14885636 -0.04029925 -0.18025014 -0.117150225
0000f0 21 35 ec 06 48 77 63 3e 52 39 5e 3e 01 07 3d be
       8.88514e-35 0.22213471 0.21701553 -0.18459703
000100 50 f1 9c bc d7 29 3b 88 d6 50 b0 bc a2 05 fa 91
       -0.019158036 -5.632245e-34 -0.02152292 -3.9446517e-28
000110 5b e4 40 be c1 e9 f5 3d
       -0.1883711 0.12007476

layers.1.weight f4 [50, 70]
000000 6a ed 7a bd 4a df 9f 3c 3c 4d aa bc d1 72 f4 3c
       -0.061261572 0.019515652 -0.020788781 0.029839905
000010 22 45 f2 bd 49 98 27 3d 29 17 97 bd 59 ce b3 3d
       -0.11829592 0.040916715 -0.07377464 0.08779592
000020 d3 56 ee 3c 41 ce df bd 61 cb 28 bd c4 aa 3e 3d
       0.029094135 -0.10928012 -0.041209582 0.046549574
000030 a9 3c 88 bd 8c e7 9a 3d 74 08 25 a5 e3 95 76 3c
       -0.06652195 0.07563695 -1.4314333e-16 0.015050384
000040 06 bb 82 bc e3 81 b3 01 a8 9b b1 bd 72 2e 71 3d
       -0.01595832 6.5940594e-38 -0.08672267 0.058882184
000050 31 e3 82 bc ed ba 0f 3d 90 67 3b 3d df 7e a1 3d
       -0.015977474 0.035090376 0.04575306 0.07885527
000060 e2 f3 bc bd 26 5e 6b bd fe 4f df bc b6 c6 cb bd
       -0.092262045 -0.057462834 -0.027259823 -0.099500105
000070 18 38 2e be da b7 0e be b6 55 86 3c 31 f8 70 3d
       -0.17013586 -0.13937321 0.016398292 0.058830444
000080 5f a2 99 3d 34 f5 54 bd 82 c0 0d 3e 13 a1 d0 3c
       0.07501673 -0.051991656 0.13842967 0.025467431
000090 61 55 4f 3d 0e a9 14 01 72 b7 6e bc 76 ba 06 be
       0.050618533 2.7304598e-38 -0.014570104 -0.13157067
0000a0 98 ab b3 bd e5 38 91 3d 5a b8 3a be c7 11 72 bd
       -0.08772963 0.0709093 -0.18234387 -0.059098985
0000b0 0c 0e 94 bc 5a 0c 97 bd d6 08 0e 3e 82 da 22 3d
       -0.018073104 -0.07375403 0.13870558 0.039759167
0000c0 14 c6 9e 3d 7f ee 01 3b 96 0d 41 3d ea 44 15 3e
       0.07752624 0.0019825993 0.047132097 0.1457707
0000d0 7b 4e 9e bd 3d 0f b0 bd 44 bd fd 3d d8 92 9b bc
       -0.07729813 -0.085966565 0.12389615 -0.018990919
0000e0 21 34 97 bd 47 8a c7 bd 08 84 7d 3d fd 1a 03 be
       -0.0738299 -0.09743171 0.061893493 -0.12803264
0000f0 b6 a2 0c 81 15 2c 08 3d 8c b7 a5 bd ff 52 5e bd
       -2.5830678e-38 0.033245165 -0.080916494 -0.05427837
000100 1a 9f a9 bd 34 77 8b 06 e4 03 e4 bd a3 12 38 80
       -0.08282299 5.246114e-35 -0.111335546 -5.149473e-39
000110 8a 40 27 3d ba 9b d3 3d de 1f db 3d 1a 83 f0 3c
       0.040833034 0.10332437 0.106994376 0.02935939
000120 d0 1f 22 3d ec 83 eb 3d a4 86 57 bb 1a 81 a2 3b
       0.03958112 0.114997715 -0.0032886649 0.0049592378
000130 8a 5a aa 3d 19 db 13 3d fa 52 d4 bd c2 09 ea 3d
       0.0831805 0.03609762 -0.10367389 0.114276424
000140 ac c9 4e bb 4a 1b 31 bd f7 4c 1e bc 81 c0 92 bd
       -0.0031553311 -0.043238916 -0.009661905 -0.071656235
000150 61 4d 5a 24 57 aa 91 bd d6 3d d5 bd d8 d7 17 00
       4.7336757e-17 -0.07112568 -0.10412185 2.189647e-39
000160 d2 c1 60 bd ec bf 8e 3b 86 5c 8f 3d 3f 86 22 3e
       -0.05487234 0.004356375 0.07000069 0.15871523
000170 8a 5c 25 ba d8 12 9b 3c 73 1b 76 3d 0f b9 b2 bd
       -0.000630804 0.018929884 0.06008477 -0.087267034
000180 d7 41 36 3e f8 8d 10 3d 06 f6 52 3e 33 02 14 3d
       0.17798553 0.035291642 0.20601663 0.03613491
000190 70 cc 8e bd 82 aa 3b bb 65 65 82 bd 85 15 de 3d
       -0.06972587 -0.0028635566 -0.06366996 0.10843948
0001a0 56 bc bf bd 02 83 4f 3d bc 0e 1b 3d cc 5f 0c 80
       -0.09362094 0.05066205 0.03785585 -1.136391e-39
0001b0 d9 fb cf 3d e5 f7 9f 3d 5a fe c7 3b 94 18 62 bd
       0.10155458 0.07810954 0.006103319 -0.05519922
0001c0 11 16 33 3e 8d 4c 89 bd 14 b2 ba bd 8c 7a 21 3e
       0.17488886 -0.06704054 -0.09115997 0.15769404
0001d0 a1 67 42 bd 0a ca 41 bd 38 2c 50 3d 68 88 8a 3b
       -0.04746211 -0.04731182 0.05082342 0.0042276867
0001e0 71 f2 50 3c 6c 89 38 be 69 39 1b 3e 99 ee 93 3d
       0.012753115 -0.18021172 0.15158619 0.07223243
0001f0 bc 12 a1 bd ad 6e 1b 3d 5a be 1b bb aa 7f 0c 3d
       -0.078649014 0.037947346 -0.0023764581 0.034301437
000200 bf 9c d4 bd 24 46 e2 3c 8d 5c e0 80 c6 af 75 3d
       -0.103814594 0.027621336 -2.0604352e-38 0.059982084
000210 36 02 8c 3d 01 11 38 3e ce 9f c9 3d 88 1a 5f 87
       0.06836359 0.17975236 0.098449335 -1.6784452e-34
000220 92 b7 8f 3d 84 4c 1b 81 ee 02 82 3d d7 89 40 3d
       0.07017435 -2.85239e-38 0.06348215 0.047006454
000230 2f 50 d4 bc 38 a8 94 3d 97 5e 9d 3b 5b 84 26 be
       -0.02591714 0.07258648 0.0048025358 -0.16261427
000240 a3 ac 8d bd f3 68 96 3a 52 27 f8 bd 97 bb eb 3c
       -0.069176935 0.0011475369 -0.12116875 0.028775973
000250 9c 55 32 3e 1a 0d 97 3d d7 8f 51 3d 73 ef b9 3d
       0.1741547 0.07375546 0.051162567 0.090788744
000260 a5 72 dd bc a7 cd 3d bd cf e3 12 27 44 65 1e 3e
       -0.027032206 -0.046338703 2.0385065e-15 0.15468317
000270 63 3c 0b 3e 52 37 22 81 5a 57 59 b9 f6 a8 c0 bb
       0.13597254 -2.979439e-38 -0.00020727274 -0.0058795167
000280 96 45 5a bd a0 84 03 be 21 3d 3b ba 9b a6 02 3d
       -0.05328902 -0.12843561 -0.0007142593 0.03189717
000290 ed 2d 30 3d 5c a4 a6 3d 04 3f b4 bc 5f bb 41 bc
       0.04301255 0.08136818 -0.022002704 -0.011824458
0002a0 15 df 08 be 21 dd 02 be 61 f3 65 bd 80 55 07 3e
       -0.13366349 -0.12779666 -0.056140307 0.1321621
0002b0 78 06 1d 3d be 40 2d bc 38 58 29 3e 18 65 35 bc
       0.038336247 -0.010574518 0.16537559 -0.011071466
0002c0 81 7e f6 3d c2 9c 22 01 92 0f c2 bd 8f 05 51 bc
       0.120358475 2.986717e-38 -0.09475626 -0.012757673
0002d0 b6 39 99 bb a1 c3 0d 3e 46 5a 2c bd d7 7d f4 3d
       -0.004676069 0.13844158 -0.04207828 0.119380645
0002e0 3a 76 5a 3e 9a a8 e3 bd 23 9a 67 bc 8f 70 7b bd
       0.21334162 -0.111161426 -0.01413587 -0.06138664
0002f0 4c df 1d 3c 18 78 c3 bd 0b f5 e0 3c 78 64 a2 3d
       0.009635758 -0.095443904 0.027460596 0.07929319
000300 fd 7f 11 3d a5 88 16 be f9 99 81 3d 38 ac be 3c
       0.03552245 -0.14700563 0.06328196 0.02327548
000310 11 0d d0 bb 55 38 8b 3d db 31 21 3e fe 5e 66 bc
       -0.006349214 0.06797854 0.15741675 -0.014060734
000320 81 01 d4 80 4c 87 54 3d 19 fe b3 3d 29 6d 14 be
       -1.9469665e-38 0.05188684 0.087887 -0.14494766
000330 e6 29 26 ba df 2c 39 07 50 d1 de 3b 4d 15 25 81
       -0.0006338641 1.393104e-34 0.0067998543 -3.0320996e-38
000340 f3 92 a9 bd b2 ea 78 3d 96 d4 5b 3d 54 33 cd 3c
       -0.082799815 0.060770698 0.053669535 0.02504889
000350 af 11 da 3d 79 74 a1 bc ee 9a f5 3d af 84 ca bd
       0.10647904 -0.019708859 0.11992441 -0.09888589
000360 06 02 81 3d 34 6c 26 3d 35 30 c1 bd 1e 28 14 3e
       0.06299214 0.040630534 -0.09433023 0.14468428
000370 b4 ef ac bc 4c 12 43 bd 33 25 0e be 20 e5 8f bd
       -0.021110393 -0.04762487 -0.13881378 -0.07026124
000380 28 38 a4 25 3c da 7b bc 9e ae 9b bd 40 f0 88 01
       2.8487518e-16 -0.015371855 -0.07601665 5.030325e-38
000390 c2 cd f5 bd e6 e6 8a bd ea fc 72 3d bf 3c 11 3d
       -0.12002136 -0.06782322 0.05932323 0.035458323
0003a0 65 b0 a8 3c 1c 1d 6c bc d9 e7 ee bb 32 16 1e bd
       0.020591924 -0.014411237 -0.007290822 -0.038595386
0003b0 4d 5e 2a 3d ca a8 73 bc f3 71 15 3e 05 72 1f bb
       0.04159384 -0.014871785 0.1459425 -0.0024329436
0003c0 15 97 a8 bd 49 75 a0 3d 09 75 19 be e2 7d 56 bd
       -0.082319416 0.0783487 -0.14986052 -0.052366145
0003d0 11 5d 1d be 9a 66 bf bd cb 7e 4a bd e8 0e 1d 01
       -0.15367533 -0.093457416 -0.049437325 2.884704e-38
0003e0 46 ed 39 bd a3 44 48 3d e9 0d 03 bd 52 6e 23 bd
       -0.045392297 0.048893582 -0.031995688 -0.03990013
0003f0 d1 b2 ce 3d 43 88 37 bd d0 0c ae 3c 59 e4 29 3d
       0.100927 -0.044807684 0.021246344 0.041477535

layers.1.bias f4 [50]
000000 33 b8 f6 bc 8d f3 4f bd 50 f6 2c 3c a0 44 f5 3c
       -0.03011713 -0.050769377 0.010556772 0.02993995
000010 23 fc 5f 3d 11 46 a8 bd 23 8e 31 bd 05 d9 f4 3a
       0.054683816 -0.08216489 -0.043348443 0.00186804
000020 56 fa d1 39 92 6b af bb 44 3e 73 3d 6f 95 2b bd
       0.000400501 -0.0053533996 0.059385553 -0.041890558
000030 96 77 71 bd 04 da 2a 3d 90 78 4a bb d7 9d 40 bd
       -0.058951937 0.041711822 -0.0030894615 -0.047025528
000040 6a 62 31 bd b7 10 03 3d 8b 33 1d bd c8 81 b9 bb
       -0.043306746 0.031998362 -0.038379233 -0.005661223
000050 8e 7c 56 3d 47 82 42 3c ab 1e 42 3c b7 50 06 bd
       0.05236488 0.011871881 0.011848132 -0.03279182
000060 2e 6b cc 3c 21 3e 56 3d 11 7f 26 bd 17 79 f6 b9
       0.024953451 0.052305344 -0.040648524 -0.00047010995
000070 d2 48 8a ba dd 19 7b bd 9f 53 c7 b9 b4 4c 58 bd
       -0.0010550267 -0.061303962 -0.0003801854 -0.052807525
000080 b5 ad 64 3d 74 66 5c bc bc 4f 97 3d 50 6c 27 bd
       0.055829722 -0.013452161 0.07388255 -0.04087478
000090 bf a2 02 bc 77 f9 90 bd 09 94 56 bd 66 57 ee 3c
       -0.007973372 -0.07078832 -0.05238727 0.02909441
0000a0 36 6b 4a 3d ee c8 4e bd e6 73 61 bd 76 20 89 3c
       0.04941865 -0.05048459 -0.05504217 0.016739111
0000b0 98 5b 78 3d 16 26 3b bb f6 f1 c8 bc 79 09 c8 3d
       0.060634226 -0.0028556637 -0.024529438 0.09767432
0000c0 6a 83 35 bd a7 f6 08 3d
       -0.04431478 0.03343835

layers.2.weight f4 [90, 50]
000000 9b 8b 49 bd fe 61 f5 3d f5 25 54 3d c6 d5 fa 3d
       -0.049205404 0.11981581 0.05179401 0.12247805
000010 fe 31 d1 ba d7 12 00 3c 7a 8b 02 be 19 93 0c 3e
       -0.0015960333 0.007816992 -0.12748519 0.13727988
000020 a7 0c 35 bd e7 97 fc bd 56 f9 5f 3d 1f 70 1d 3e
       -0.04420152 -0.123336606 0.054681145 0.15374802
000030 ca f6 6b bd 67 5a b4 bd 41 a0 9a 3d f9 87 a0 3c
       -0.057608403 -0.088063054 0.07550097 0.019596087
000040 6d 60 58 3d 09 87 b3 bd 8b 5e 30 bd 13 42 0b 3d
       0.052826334 -0.0876599 -0.043058913 0.03399856
000050 2e 98 98 bd 00 36 0c bd 8e af ec bd 40 be 4e bd
       -0.07450901 -0.034231186 -0.11556922 -0.050474405
000060 26 d8 05 bd 2f 96 49 3d dd e7 80 3d af b9 b4 3d
       -0.03267684 0.04921549 0.062942244 0.08824479
000070 94 a7 10 be 42 23 d5 bd 3c 21 96 bd 04 ef bb 3d
       -0.14126426 -0.104071155 -0.07330558 0.09176448
000080 dc a1 85 bc 2b 26 5c 3d 8b 43 8b 3d 89 2d db 3d
       -0.016312532 0.053747337 0.06799992 0.107020445
000090 4c 67 5d bd dc 95 91 bb 94 9a f5 3d 9f f6 f0 3c
       -0.05405359 -0.0044429135 0.11992374 0.029414473
0000a0 1e 5b 68 bd 0a 13 7a 3c 7b 6d d8 bd 90 ad 81 bd
       -0.05672752 0.015263328 -0.10567757 -0.063319325
0000b0 3a 00 a1 3b 4e ea dc bd 86 03 96 bd 04 13 c0 3d
       0.004913357 -0.107868776 -0.07324891 0.09378627
0000c0 25 68 3a be 94 d4 e2 bd 69 24 f1 bd 88 bd 4b 3e
       -0.1820379 -0.11075702 -0.11774523 0.19896519
0000d0 dd 86 2a bb 80 f4 52 3d 82 a8 19 be 20 27 e8 3d
       -0.0026020326 0.051502705 -0.15005687 0.113355875
0000e0 30 cf b1 bd fc aa ce 3d ae 40 06 be 98 e3 92 bd
       -0.08682096 0.100912064 -0.13110611 -0.07172316
0000f0 2a 56 14 3e ed bb dc 3d ff f5 53 3d 0d 05 78 3d
       0.14485994 0.107780315 0.051748272 0.06055169
000100 a2 49 2a bd 9c 06 0a be 5c 2c bf 3c 67 67 05 3e
       -0.041574128 -0.13479084 0.023336582 0.13027726
000110 27 7b 10 3d cf 26 56 bd 80 e6 55 bd d4 b7 24 bd
       0.035273697 -0.052283105 -0.052221775 -0.040214375
000120 5a 56 43 bd 72 82 bb bc 54 cf 27 bc 4f 12 53 3d
       -0.047689773 -0.02288935 -0.010242302 0.051531132
000130 79 37 d7 3d 0d a4 0c bd e9 0a 15 be 81 6c b1 ba
       0.105086274 -0.03433614 -0.14554943 -0.0013536365
000140 28 27 02 3e 8b 0e 27 be 1f 71 c5 3c 4e 72 85 3d
       0.1271025 -0.16314141 0.024101792 0.065159425
000150 08 7b ea 3a c6 e2 ce bd fd 21 c2 bc 5d 41 a0 3d
       0.0017889449 -0.10101847 -0.023697848 0.07824967
000160 0e 88 be bc 6c 10 97 bd 68 4e 2a be 8b ef 2c 3e
       -0.023258235 -0.07376179 -0.16631472 0.16888253
000170 8f dd 03 3e 1c 49 94 bd ae 70 84 bd 7e ba 9d 3d
       0.12877487 -0.07240507 -0.064668044 0.07701586
000180 f6 91 48 bc f0 71 03 3c eb 17 b5 3c fd 68 85 3d
       -0.012241831 0.00802277 0.022106132 0.065141656
000190 cb 1c dc 3c b2 b9 86 bd 31 7c 4c 3d db 34 05 3e
       0.026869198 -0.06578387 0.049923126 0.13008444
0001a0 4f ac 27 bd 2a 4d 52 3d 32 05 e9 bc 74 8e 22 3c
       -0.04093581 0.05134312 -0.02844486 0.009921659
0001b0 46 30 27 be b5 6a b8 bd 1a 25 36 3e 5f 6d 09 3e
       -0.16327009 -0.09004728 0.1778759 0.13420628
0001c0 02 c0 92 bc 54 40 85 3c 1a 1e d6 3d fe 91 00 be
       -0.017913822 0.016266026 0.1045496 -0.12555692
0001d0 37 ae 6f 3d 0b 65 97 bd f2 7d a2 3d bd 49 6a bc
       0.058515754 -0.07392319 0.079341784 -0.014299807
0001e0 4c 29 bf bd aa 7d d0 3d d0 e5 99 3d b0 df 77 3d
       -0.09334049 0.101802185 0.075145364 0.06051606
0001f0 dc 19 00 3e 08 7f 84 bb 95 dd 38 bd 8e 7d d4 3d
       0.12509865 -0.0040434636 -0.045133192 0.1037551
000200 2c 2a a8 bd 0c 4e 42 bd 31 32 f8 3d 48 f3 41 3d
       -0.08211169 -0.047437713 0.12118948 0.04735115
000210 9d 4f 0b 3c 44 3f 17 3c a2 32 8c bb 3d ca 50 3c
       0.008502868 0.009231392 -0.004278497 0.01274353
000220 f9 64 00 be 02 16 d8 3d 5c 62 b5 3c 01 ca 0c 3e
       -0.12538518 0.10551073 0.022141628 0.13748933
000230 63 b8 60 bd 5c 97 86 bd c1 2b de 3d bd ad de bd
       -0.054863345 -0.06571838 0.10848189 -0.10872982
000240 01 47 11 bd 4d 85 35 bc 31 16 16 bd 69 d0 af bd
       -0.035468105 -0.011079145 -0.036642257 -0.08584673
000250 03 72 76 3d 28 af f2 bd bd 1a 7b 3d 2c 7a 66 bd
       0.060167324 -0.11849815 0.061304796 -0.056268856
000260 51 7c 04 bd bb f0 6a 3d 11 05 41 3e 0e 54 06 bd
       -0.03234512 0.057358485 0.18849589 -0.032795005
000270 b7 0f 3c 3d 84 a6 c3 3c d6 4d 45 3d b1 8d 92 bd
       0.045913424 0.023883112 0.048169933 -0.07155932
000280 b8 ed fd bc a0 9f fa ba c9 e0 96 bd 9f 10 18 3d
       -0.030997142 -0.0019121058 -0.07367093 0.037125226
000290 20 ce 69 3b 07 22 2b 3e 50 c7 a1 3d 0b 6a 21 3d
       0.0035675839 0.16712199 0.07899344 0.03940777
0002a0 ad 75 d0 3d 1b 2a 0d be 41 c9 ac 3d e9 31 3a be
       0.10178695 -0.13785593 0.08436824 -0.18183102
0002b0 97 3b cb 3d e0 5e c7 bc 8e 38 b0 3d 7d 16 11 bd
       0.09923475 -0.024337232 0.08604537 -0.035421837
0002c0 58 54 80 bd ac cf 95 bc 5b 58 2f 3e 5b 3c 4f bd
       -0.06266087 -0.018287502 0.17123549 -0.05059467
0002d0 68 9a c2 bd d6 4d a4 3d 16 b1 c2 3c 82 5b 84 3d
       -0.09502107 0.080226585 0.023766082 0.06462766
0002e0 bd cc 0d bb fb 0a 97 bd f8 a3 01 3d b7 fa e4 bd
       -0.0021636926 -0.07375141 0.031650513 -0.111806326
0002f0 e8 1a 27 3d 5c 87 04 3d 02 21 1d 3d ee 89 3e bc
       0.040797144 0.03235565 0.038361557 -0.011629565
000300 62 58 a4 bd 1e c3 c2 3d d3 e2 0d 3e f8 8f 30 3e
       -0.0802467 0.09509872 0.13856058 0.1724242
000310 67 99 e5 3d 3b d1 84 3d f1 d9 09 3e 60 69 dd bd
       0.112109 0.0648522 0.13462044 -0.10811114
000320 b8 04 53 bd d0 51 69 3d 6a d8 36 bd a6 ea 9f 3d
       -0.051518172 0.056962788 -0.044639982 0.078084275
000330 99 b1 15 3e 96 ce d3 3d 88 84 c2 bd 1d ae fb bd
       0.1461853 0.103421375 -0.094979346 -0.12289069
000340 fc db e8 bd 00 53 76 bb f4 90 1c 3b 5f 7a aa 3d
       -0.11370084 -0.0037586093 0.002389011 0.08324122
000350 b5 6f 82 3d 4c 2f 0d bd ef 53 c4 3c e7 ac d6 3d
       0.06368963 -0.034468934 0.023965804 0.10482197
000360 a3 d6 ed bd 54 2f 5a bd d5 56 18 3e 23 c8 1b 3e
       -0.11613204 -0.053267792 0.14876874 0.15213065
000370 b0 ea 9d 3c 21 66 f2 ba 21 08 37 be ea 19 18 3c
       0.019276947 -0.0018493572 -0.17874195 0.009283522
000380 e0 63 dd bd 92 f9 7c 3d e9 b5 f4 3d 24 b6 7d bd
       -0.10810065 0.061761446 0.11948759 -0.06194128
000390 18 eb e8 3c d7 17 1e be 9a 28 95 bd f0 91 70 3d
       0.028432414 -0.15438782 -0.07283135 0.058732927
0003a0 24 57 07 bc 9b 8e 4c bc 4f 6d a6 3d 1f 3e a4 bb
       -0.008260522 -0.012485172 0.08126318 -0.005012288
0003b0 e2 62 07 3e 9d a4 d2 bc 15 43 d0 b8 10 35 97 3d
       0.13221315 -0.02571326 -9.930708e-05 0.07383168
0003c0 98 60 14 3d e8 38 4f bc e3 51 f3 bd e3 ae 00 be
       0.03622493 -0.012647845 -0.11880853 -0.12566714
0003d0 3e ba 66 bd 49 b8 cc bc 79 15 91 bd 1e d7 6d bc
       -0.05632996 -0.024990218 -0.07084174 -0.01451662
0003e0 60 1c 14 be cb e3 9a 3d 4a 3b e8 3c bd 22 d4 3d
       -0.14463949 0.07562979 0.028348584 0.10358188
0003f0 ee e9 11 3d cf 67 0b bd af 12 b5 3d 01 5f a7 3d
       0.035623483 -0.034034546 0.08841454 0.081724174

layers.2.bias f4 [90]
000000 e0 4c 0a bd 7c 23 06 3e eb 16 51 3e da 2f 73 3c
       -0.03376472 0.13099474 0.20418899 0.014842952
000010 1b 45 d6 bd 87 ee a3 bd c0 3a 09 be 8e 52 f4 3d
       -0.104623996 -0.0800448 -0.13401318 0.119298086
000020 4c b7 ff bd 56 38 dc bd 2c 78 c6 3c 25 69 e9 bd
       -0.12486133 -0.10752933 0.024227224 -0.11397008
000030 ca 3a 84 bb 66 ea 3c 3d c2 7a 9a 3d b9 75 11 3b
       -0.0040353285 0.046121977 0.075429454 0.0022195412
000040 c7 53 80 3d 95 a8 63 3c 12 2c ef bd f9 fe 53 3c
       0.06265979 0.013895174 -0.116783276 0.012939208
000050 4a 9a 1f 3e 17 11 0f 3c d3 5c 31 be 59 fc ad 3c
       0.155862 0.008732102 -0.17320566 0.021238493
000060 cc 91 af bd 10 dd 0c 3d 99 94 03 be 97 59 a6 bd
       -0.085727304 0.03439051 -0.12849654 -0.08122557
000070 9e 10 dd 3d b5 28 33 bc d5 fd cf bd ab 05 f3 3d
       0.10794185 -0.010934998 -0.101558365 0.118663155
000080 b0 86 bd bd 8f 17 01 bd 56 e5 ad bc 2b 35 cb bd
       -0.09254205 -0.031516608 -0.02122752 -0.0992225
000090 55 d3 03 3e ab 59 aa 3c 6c f5 8a 3d 76 06 c8 3d
       0.12873586 0.02079471 0.06785092 0.09766857
0000a0 74 75 b0 bc e1 ff 84 3d 02 8b 83 bc 73 24 19 3d
       -0.021540381 0.064941175 -0.016057495 0.037388276
0000b0 88 36 c6 bd 64 e1 52 3d c4 ab 9f bc 62 db e8 3d
       -0.0967837 0.05148448 -0.019491084 0.11369969
0000c0 76 9b 1d be da 4f 15 3e f4 f1 03 3e 22 0c 0b be
       -0.15391335 0.14581242 0.12885267 -0.13578847
0000d0 4e de 87 bd ab 45 bf 3b 83 11 ad 3d a7 4e 20 be
       -0.06634198 0.0058371625 0.08450606 -0.15655003
0000e0 1b 46 24 be 66 a3 86 bd ec f0 be bc be c3 b4 3d
       -0.16042368 -0.065741345 -0.02330824 0.08826397
0000f0 3f cf f0 bd 66 66 5f bd 88 82 bf 3d 8d 1f 10 bd
       -0.11758279 -0.054541014 0.09351069 -0.03518634
000100 fe 05 c1 bd 49 c9 81 bd fd 95 98 bc 04 4c 7e 3d
       -0.09424971 -0.0633722 -0.018626207 0.062084213
000110 a0 38 8e bc a2 84 5b 3d 0f 3b ce bc 97 b7 a9 bd
       -0.017360985 0.053593285 -0.025174646 -0.0828697
000120 6c c2 b0 3c bb 04 b7 bc 45 4f e7 bc 55 00 d7 3c
       0.021577083 -0.022341123 -0.02823604 0.026245276
000130 5b be 81 bc 55 e0 2f be 6a 2d 8b bc 74 ae 09 3d
       -0.015837839 -0.1717542 -0.016989429 0.033613637
000140 b9 4d a1 bd 94 dd 4d bd 00 b2 97 3d 8c ae 89 bd
       -0.078761525 -0.05026014 0.07406998 -0.06722745
000150 be 40 e6 bd 87 8c c6 3d ab e9 0d bc 78 7d 77 3d
       -0.11242817 0.09694772 -0.008661668 0.06042239
000160 d8 b0 d7 3d c4 5e 17 3e
       0.10531777 0.14782244

layers.3.weight f4 [5, 90]
000000 c7 cb 30 3d 72 c3 0a bd ec 80 1b be 14 23 6e bd
       0.043163087 -0.033877797 -0.15185899 -0.05813892
000010 b2 26 1f 3e 17 01 cd bd 72 b7 69 3d 3d c7 a0 bd
       0.15542105 -0.100099735 0.057059713 -0.07850502
000020 ed 74 0b 3e 34 07 3f 3e 22 91 9d bd 77 7a 4b 3d
       0.13618822 0.18655092 -0.076936975 0.04967734
000030 a6 c7 b8 ba ed 4d d2 3d 7f 46 47 3d cc f5 7a bd
       -0.0014097586 0.102687694 0.048651215 -0.061269566
000040 0a 06 7c bc 8d 92 e8 3d 9b 9c 93 3d cd 4e 01 3d
       -0.015382299 0.11356077 0.072076045 0.03156929
000050 98 bf 5d 3c 55 2d fa bd 32 86 b8 3d ae 02 33 bd
       0.013534449 -0.12215678 0.09009971 -0.043703727
000060 ad 68 06 be 10 7e bb bd 74 d4 a6 3d 29 ba a0 3d
       -0.13125868 -0.09154904 0.08145991 0.07848007
000070 a0 f7 cf bd 0a 10 d2 bd 87 3b 1a 3e ea dc 23 3e
       -0.101546526 -0.102569655 0.1506177 0.16002241
000080 3b 93 21 3d 39 83 b2 bd d3 26 12 bd 01 23 eb bd
       0.03944705 -0.08716435 -0.035681557 -0.11481286
000090 20 03 89 bd d1 09 f7 3d b8 28 b6 bd 5b 5a 0a be
       -0.06690049 0.12062419 -0.08894485 -0.1351103
0000a0 fb 1f d8 bc 1b c3 36 bd d4 95 2e bd 8a dd c6 3d
       -0.026382437 -0.04461966 -0.042623356 0.09710224
0000b0 01 9a be 3c 97 bb 05 bd e1 8c a4 3d 8f 38 0c be
       0.023266794 -0.032649603 0.08034683 -0.1369345
0000c0 14 db 02 be 68 82 ae bd 98 19 b0 3d 4f 1f 02 3d
       -0.12778884 -0.08520967 0.085986316 0.03176814
0000d0 ca 9a fe bd 55 b0 c1 bc e5 b4 2b be 85 15 37 3c
       -0.124318674 -0.023643652 -0.16768225 0.011174564
0000e0 5b ed 91 3d 33 75 13 3e 07 d1 f3 bc de e7 a1 bd
       0.0712535 0.14400177 -0.029762758 -0.07905553
0000f0 83 55 28 3e a9 2f 28 3e d4 2a e5 3d db 07 f6 3d
       0.1643887 0.16424431 0.111898094 0.12013217
000100 69 fb eb 3d 5f 8f c5 3d 21 39 d0 bc 84 8b af 3d
       0.11522562 0.096464865 -0.025417866 0.08571532
000110 fc c2 04 3e 23 a7 dc bc 9b 43 9e 3d 2a ee e9 bc
       0.12965006 -0.026935166 0.077277385 -0.028555948
000120 d1 81 33 3d 09 29 d2 ba 20 98 8c 3d 6a d4 16 be
       0.043824974 -0.0016033958 0.06864953 -0.14729467
000130 93 5c 16 3d 99 62 04 3e ec 27 f4 3d c6 e3 a3 bd
       0.03670938 0.12928237 0.11921677 -0.08002429
000140 62 2b ff 3d 56 38 1f be d7 f3 3f 3d 60 e8 ef bd
       0.124594465 -0.15548834 0.046863403 -0.11714244
000150 6a f7 1d 3d 38 1b e4 bc ff 8e d8 bd 8d 10 cd 3d
       0.03856603 -0.02784501 -0.10574149 0.100129224
000160 51 29 85 bc e2 b8 23 be d5 50 08 be 66 58 23 be
       -0.016255053 -0.15988496 -0.13312085 -0.1595169
000170 34 e4 b2 bd 2a 94 0a 3e d6 68 c1 bd 8e 56 43 3d
       -0.087349325 0.13533083 -0.09443824 0.047689967
000180 64 77 32 3e 0a b5 5d bd b4 04 73 3d e6 d6 d7 3c
       0.17428356 -0.05412773 0.059330657 0.026347589
000190 c3 44 f8 3d d4 51 0a 3d 75 1b e0 3c 45 5f 83 bc
       0.1212249 0.033769444 0.027356843 -0.016036639
0001a0 b4 8e 92 3d 2e 7f 00 3b 89 2a 0a be bd b8 ef 3d
       0.07156125 0.0019607055 -0.13492788 0.11705158
0001b0 5c c3 1c 3d 85 2b 08 3e cf f3 1f be 15 a3 d8 3d
       0.038272247 0.13297851 -0.1562035 0.105779804
0001c0 51 17 a1 3d f0 d6 10 bd 10 f6 96 bd fb fe 89 bc
       0.078657754 -0.03536123 -0.073711514 -0.016845217
0001d0 c9 8a 60 3d 2f fb c2 3d f0 b4 e5 bd 5b 72 34 3d
       0.054819856 0.09520566 -0.11216152 0.04405437
0001e0 7e 01 2b bb 95 0c c4 3d 51 99 f5 3d 95 6d a1 bd
       -0.0026093419 0.09572712 0.119921334 -0.07882229
0001f0 bc 5c f2 3d f5 5f d6 3c 5a ef b2 bd ac 8e e2 3c
       0.11834094 0.026168803 -0.08737059 0.027655922
000200 e9 0d e2 bd 3d 8d 35 3d 59 0c 0b bc dc d0 66 bd
       -0.110378094 0.04432415 -0.008486831 -0.056351528
000210 d0 42 3f 3d 45 b8 54 3d 0b 1a 90 39 08 80 17 3e
       0.046694577 0.051933546 0.00027485224 0.14794934
000220 52 fe ee bd 11 7a 57 bd 25 fd 04 bd 72 2a 17 be
       -0.116696015 -0.052606646 -0.03246798 -0.14762285
000230 c1 90 d3 bd 31 0f b8 3d 5f 82 c2 bd 46 01 c2 3b
       -0.10330344 0.089872725 -0.094975226 0.005920562
000240 9d d5 19 3e a8 f0 15 3e 18 55 c5 bd 14 a1 e4 3d
       0.15022893 0.14642584 -0.09635371 0.11163536
000250 58 7c 58 bc 53 8f c7 3b da d2 38 3d 02 39 c9 3d
       -0.01321324 0.0060900836 0.04512296 0.098253265
000260 af b0 37 3d c2 d4 47 3d fa c0 f4 3d 5c 81 b1 bd
       0.044846233 0.048786886 0.1195087 -0.086672515
000270 89 7a b0 3d bf 90 cc bd 9a cf 9e bd 0a db 1c 3d
       0.08617122 -0.099885456 -0.077544406 0.03829483
000280 d6 18 9c bd 48 7c c8 bd d9 45 eb bd 2c 83 02 be
       -0.076219246 -0.0978933 -0.11487932 -0.1274535
000290 df 7c f3 3d 24 91 6c 3d 3f 00 1f 3d 62 2d 1e 3e
       0.11889052 0.057755604 0.038818594 0.15447
0002a0 d8 9d d5 bd 8c 5d b4 3d 0b 2c 61 3d 95 20 81 3d
       -0.10430497 0.08806905 0.054973643 0.06305043
0002b0 89 db 12 3e 38 e5 86 3b 1e 66 d1 bc 6a 23 a3 3c
       0.14341559 0.0041166805 -0.025561389 0.019914348
0002c0 8a 6c 70 bc 15 cc 80 3d 30 b8 ba 3d b6 6e ee bc
       -0.014674315 0.062889256 0.09117162 -0.029105525
0002d0 59 1d fc bd 31 33 a4 3d 74 ab bd bd 58 ad 5c 3d
       -0.12310285 0.080175765 -0.09261218 0.05387625
0002e0 01 4f a1 bd 2a 63 89 bd e6 7f 07 bd bf ab 92 bc
       -0.07876397 -0.06708367 -0.033080958 -0.01790416
0002f0 17 34 2e bd 37 38 be bd 81 15 aa 3d 3e 68 8c bd
       -0.042530145 -0.09288066 0.08304883 -0.0685582
000300 66 20 8e 3d 8e 38 74 3d ec 4f 35 3e ed 08 66 bd
       0.06939773 0.059624247 0.17706269 -0.056160856
000310 b3 33 f1 bd 27 67 57 3d 15 40 34 bd 2f c5 1f be
       -0.11777439 0.052588608 -0.044006426 -0.15602563
000320 f4 93 50 3d d4 35 9c bd f7 a1 87 bd ec db 50 bd
       0.05092235 -0.076274544 -0.06622689 -0.050990984
000330 1b ae 80 3d d3 8d b4 bd 5c d3 f1 bc 93 16 88 3d
       0.06283208 -0.08816113 -0.02951973 0.06644931
000340 65 e0 9b 3d 96 c2 d6 bd f3 aa 98 3d 9e de 2f bd
       0.07611159 -0.10486333 0.07454481 -0.042936914
000350 12 87 df 3d ba 10 bf bd 17 50 43 3c 37 c7 24 3e
       0.109144345 -0.09329362 0.01192095 0.1609162
000360 62 f5 40 bd e4 60 ea 3c e0 4d dc 3d 66 23 07 3d
       -0.047109015 0.028610654 0.10757041 0.032992743
000370 bb 69 10 3d ff a1 33 3a b7 e9 65 3d 52 ff 2f bd
       0.035257082 0.00068524474 0.05613109 -0.0429681
000380 4c 74 b1 bd 41 0d 51 3d 19 6a b0 bd 82 24 b5 3d
       -0.0866476 0.05103803 -0.086139865 0.08844854
000390 10 5d 38 3e a9 f8 0f bc a6 3b 1e be 08 f3 3a bc
       0.1800425 -0.008787313 -0.15452442 -0.011410482
0003a0 d3 d5 60 3d 8a d0 1b 3e 64 15 32 3d 56 f9 c4 3d
       0.05489142 0.1521627 0.04347743 0.096178696
0003b0 f1 54 08 3e 58 3e 17 3d 70 37 1d 3d e0 67 74 3c
       0.13313653 0.03692469 0.038382947 0.014917344
0003c0 6f fc 6d 3c c9 65 9e bd 95 70 27 be fe e1 b7 bd
       0.014525517 -0.07734258 -0.1635154 -0.089786515
0003d0 31 c4 1e 3e d1 d9 7b bd 23 d9 98 3d 8f 68 57 bd
       0.15504529 -0.061487023 0.074632905 -0.05258995
0003e0 51 2b a8 bd 1c 0c 88 bb a4 ad 07 be 87 8f 9f bd
       -0.08211387 -0.004151834 -0.13249832 -0.077910475
0003f0 a4 fb 8c bc 24 66 43 3e 5f ae 7e bd 9f 55 78 3d
       -0.017209835 0.19081932 -0.062178012 0.06062853

layers.3.bias f4 [5]
000000 92 3b 57 bd 58 ef 3c 3d 9c a3 f9 bd 0c f1 f0 bc
       -0.052547045 0.046126693 -0.12189409 -0.029411815
000010 db e0 8d bb
       -0.0043297834
