irony/models/model_14.pt (torch_old, 13324 bytes, 6 tensors)

layers.0.weight f4 [70, 10]
0.1518505 0.05899851 -0.28929305 -0.054809224 0.3866283 -0.26586798 0.02440202 -0.14368068
0.30453673 0.26767018 0.029980866 -0.11673879 -0.38495144 0.35392264 0.32711777 -0.2279395
-0.0028688486 -0.25568423 0.21499813 0.1085604 -0.061428294 0.1393617 0.2755662 -0.11724497
0.23154859 0.16307466 0.034773473 -0.016015537 -0.056280907 -0.031916253 -0.22428192 0.19204201
-0.39495578 -0.25314 0.40372252 0.113779455 -0.1253058 0.005114116 -0.09476961 0.052455336
0.12385377 0.04622925 0.3035618 -0.10414491 -0.34758452 -0.12380088 0.2824184 0.16404685
-0.05045584 0.04360624 -0.37942424 -0.05891385 0.14944665 0.44218457 -0.18503533 -0.33076352
-0.035959613 -0.09742594 0.15807079 -0.13801134 0.38628846 0.12010313 0.297301 -0.10405042
-0.21453778 -0.12501173 0.2004111 -0.2751232 -0.17133358 0.026773818 -0.069492824 -0.03003862
0.19786194 0.07594173 -0.3552405 -0.02816712 -0.023088275 0.20317106 -0.1538343 -0.07445238
-0.21060275 0.40541136 0.51032114 0.06968935 -0.06328917 -0.039881255 -0.16024224 0.2049341
0.046073053 -0.037152227 0.069483265 -0.11032631 0.038529556 0.04244959 -0.13533713 0.1055963
0.25170723 0.12182966 -0.062918805 0.0500697 -0.29171205 0.22418325 0.3350934 0.21549337
-0.42184722 -0.17109327 0.076096125 0.094387434 0.16009888 -0.24899343 -0.20311934 -0.17402346
-0.23532866 0.15723641 0.45717934 -0.025049316 0.12805016 -0.06398692 0.026106229 0.12698476
-0.41095728 -0.3239552 -0.08486267 0.03610116 -0.104774155 0.034469206 -0.15597022 0.10803791
-0.032589003 0.18729557 0.472089 -0.009099462 0.4578542 -0.17595246 -0.16329148 0.1686207
-0.11357785 0.14094645 -0.13611186 -0.17721073 0.31788358 0.019364445 0.05467219 0.16082637
-0.035982255 0.052847978 0.08967168 -0.27006298 0.286638 0.20015714 -0.32461184 0.21844044
-0.110073425 -0.2426128 0.14129344 -0.20644225 0.17159246 -0.04169134 -0.31022406 0.18871641
-0.06854271 -0.066961 -0.19958657 -0.32124132 0.2166685 0.26867464 -0.120773755 0.04411965
0.070553444 0.28376412 0.44135487 0.41190237 -0.20657885 -0.11835634 0.015345308 0.22065665
0.17659779 -0.029648669 0.1709284 0.23302035 0.025838153 0.3153657 -0.019201644 -0.08865573
-0.42823127 0.040056463 0.053381104 0.046998873 -0.30717888 -0.26931643 0.41647398 -0.07498436
-0.3297957 -0.47190532 0.078881435 -0.059104376 0.189706 -0.10174386 0.10506415 0.25419092
0.3241698 -0.054004382 -0.48065642 -0.28710085 -0.26904985 0.29556495 0.001301834 -0.1398409
-0.15498944 0.23404211 -0.42294538 -0.45637453 0.091198504 0.48829174 0.1671711 -0.33186954
-0.03959911 0.02640865 0.1738264 -0.08171961 0.38345116 0.3777189 -0.00023298523 -0.4242511
-0.049925745 0.19456223 0.25945216 -0.21427113 -0.03651646 -0.2107374 0.28370342 0.12011095
-0.37880212 -0.35288322 -0.09341307 -0.08811758 0.16895935 -0.2145689 -0.12680557 -0.12144747
-0.09197927 0.3421495 0.48517218 0.3080072 -0.36967495 0.11276437 0.07849483 0.3206652
0.17626776 0.13137732 -0.45298845 -0.28095642 -0.3638984 0.5325365 -0.09961893 0.07829376
00000000: b37e 1b3e 6ca8 713d 381e 94be a37f 60bd
00000010: 25f4 c53e d91f 88be bfe6 c73c 0721 13be
00000020: 3dec 9b3e 110c 893e 6f9a f53c bf14 efbd
00000030: 5b18 c5be 5935 b53e fb7b a73e f968 69be
00000040: 4b03 3cbb 0be9 82be 7828 5c3e ea54 de3d
00000050: 3c9c 7bbd d5b4 0e3e 0317 8d3e 211e f0bd
00000060: 131b 6d3e 0bfd 263e a16e 0e3d 0433 83bc
00000070: cf86 66bd 9eba 02bd 29aa 65be a9a6 443e
00000080: a537 cabe 919b 81be b8b4 ce3e 3405 e93d
00000090: 2a50 00be 5094 a73b 9216 c2bd 68db 563d
000000a0: 0ca7 fd3d e25a 3d3d 746c 9b3e ed49 d5bd
000000b0: 99f6 b1be 518b fdbd 2599 903e e6fb 273e
000000c0: c8aa 4ebd 759c 323d e543 c2be a64f 71bd
000000d0: 8b08 193e 0466 e23e e779 3dbe d659 a9be
000000e0: 634a 13bd 4087 c7bd 4fdd 213e d852 0dbe
000000f0: 9ac7 c53e a1f8 f53d d637 983e 6318 d5bd
00000100: cbaf 5bbe 1303 00be 9138 4d3e f3dc 8cbe
00000110: 1272 2fbe c454 db3c 4152 8ebd 8d13 f6bc
00000120: 529c 4a3e 5687 9b3d 15e2 b5be bbbe e6bc
00000130: 9f23 bdbc 130c 503e bd86 1dbe 7d7a 98bd
00000140: 3fa8 57be 1492 cf3e 68a4 023f 4ab9 8e3d
00000150: c19d 81bd 875a 23bd 8b16 24be 3fda 513e
00000160: 19b7 3c3d ef2c 18bd 3e4d 8e3d c3f2 e1bd
00000170: 2bd1 1d3d 9fdf 2d3d d195 0abe df42 d83d
00000180: c5df 803e d481 f93d 93db 80bd e315 4d3d
00000190: 485b 95be 4b90 653e 5d91 ab3e 4baa 5c3e
000001a0: 5cfc d7be 1333 2fbe 49d8 9b3d 334e c13d
000001b0: f6f0 233e 22f8 7ebe 84fe 4fbe 3533 32be
000001c0: fff9 70be 9502 213e 6913 ea3e 3934 cdbc
000001d0: 951f 033e 930b 83bd bbdc d53c 4b08 023e
000001e0: fe68 d2be 75dd a5be 7bcc adbd cfde 133d
000001f0: d593 d6bd 952f 0d3d a8b6 1fbe fb42 dd3d
00000200: 0c7c 05bd 69ca 3f3e a6b5 f13e e915 15bc
00000210: de6b ea3e e22c 34be e235 27be e8aa 2c3e
00000220: 819b e8bd 4454 103e e860 0bbe bb76 35be
00000230: a3c1 a23e 2fa2 9e3c f2ef 5f3d abaf 243e
00000240: 2162 13bd 1f77 583d c9a5 b73d b245 8abe
00000250: 37c2 923e fef5 4c3e 8633 a6be daae 5f3e
00000260: 2d6e e1bd 7d6f 78be 3aaf 103e 9965 53be
00000270: efb5 2f3e 8ac4 2abd b0d5 9ebe e03e 413e
00000280: 1f60 8cbd d922 89bd 6c60 4cbe be79 a4be
00000290: 59de 5d3e b98f 893e 3b58 f7bd ceb6 343d
000002a0: 537e 903d 8849 913e 44f9 e13e dee4 d23e
000002b0: 6889 53be cf64 f2bd e36a 7b3c d1f3 613e
000002c0: 0dd6 343e c4e1 f2bc db07 2f3e e39c 6e3e
000002d0: 89aa d33c 9d77 a13e c44c 9dbc 2391 b5bd
000002e0: 2141 dbbe 3f12 243d 25a6 5a3d e481 403d
000002f0: 8d46 9dbe d8e3 89be 143c d53e 6691 99bd
00000300: fbda a8be 939d f1be 978c a13d 6e17 72bd
00000310: 4a42 423e 165f d0bd e02b d73d 5025 823e
00000320: 96f9 a53e b333 5dbd 9918 f6be e2fe 92be
00000330: e7c0 89be 4a54 973e 4da2 aa3a 7432 0fbe
00000340: 8db5 1ebe bca8 6f3e 4c8c d8be eca9 e9be
00000350: 48c6 ba3d 6001 fa3e e72e 2b3e ceea a9be
00000360: ad32 22bd f456 d83c 8cff 313e 9c5c a7bd
00000370: b653 c43e 5f64 c13e 7f4d 74b9 7137 d9be
00000380: f07e 4cbd 523b 473e ead6 843e e469 5bbe
00000390: 4992 15bd 8ccb 57be 9341 913e bbfc f53d
000003a0: 5af2 c1be 1cad b4be 5a4f bfbd fd76 b4bd
000003b0: ae03 2d3e f3b7 5bbe 52d9 01be 73b9 f8bd
000003c0: a15f bcbd 382e af3e 7d68 f83e 1fb3 9d3e
000003d0: 0946 bdbe 02f1 e63d e6c1 a03d 3b2e a43e
000003e0: 897f 343e c787 063e 1aee e7be 85d9 8fbe
000003f0: e450 babe 5054 083f 0205 ccbd 7b58 a03d

layers.0.bias f4 [70]
0.030590672 0.040249906 0.19579393 -0.043423228 -0.009060472 0.11962453 -0.072258905 0.03429191
-0.11492242 0.021533182 0.13594769 -0.16366757 0.0496332 -0.07300157 -0.08653455 0.10818828
-0.091533646 -0.26117042 0.20214333 0.05466794 0.09255445 0.15247633 -0.14365533 0.18121275
-0.26501042 0.11921614 -0.016657157 0.22488736 0.058990534 -0.14119633 0.13784154 0.043102976
0.055770352 -0.11423986 0.041539136 -0.13533507 -0.121489845 0.15292338 -0.070928104 -0.014168716
-0.14567806 0.31383827 -0.2514362 0.20484409 -0.04351796 0.062242545 -0.24491982 -0.15234955
0.12150511 -0.06519584 0.1846581 0.100616194 -0.06513423 0.009656882 -0.1743927 -0.058060024
-0.16345002 -0.024073262 0.068052836 0.08060763 -0.1901084 0.0008018448 -0.088243224 -0.031620473
0.01859518 -0.103234015 0.08894676 0.28927532 -0.06960513 -0.11070703
00000000: 4a99 fa3c 16dd 243d 347e 483e 8edc 31bd
00000010: 6072 14bc b5fd f43d 7afc 93bd ac75 0c3d
00000020: 725c ebbd 5b66 b03c df35 0b3e 7998 27be
00000030: 2f4c 4b3d d981 95bd 0739 b1bd d191 dd3d
00000040: fe75 bbbd 21b8 85be a9fe 4e3e 7deb 5f3d
00000050: 308d bd3d c122 1c3e 621a 13be d68f 393e
00000060: 72af 87be 9727 f43d 9774 88bc df48 663e
00000070: 0fa0 713d c595 10be 5526 0d3e bf8c 303d
00000080: 746f 643d 96f6 e9bd f124 2a3d 4795 0abe
00000090: abcf f8bd f297 1c3e c142 91bd e723 68bc
000000a0: a12c 15be 69af a03e 3fbc 80be a6c2 513e
000000b0: e33f 32bd 0af2 7e3d 43cc 7abe 8501 1cbe
000000c0: acd7 f83d 6685 85bd 0317 3d3e dd0f ce3d
000000d0: 1865 85bd e637 1e3c 0094 32be 59d0 6dbd
000000e0: 715f 27be 4a35 c5bc 495f 8b3d 9d15 a53d
000000f0: c7ab 42be e532 523a ddb8 b4bd 7884 01bd
00000100: eb54 983c 5b6c d3bd b829 b63d e51b 943e
00000110: 228d 8ebd 5eba e2bd

layers.1.weight f4 [30, 70]
-0.02544025 0.11593412 -0.06766412 -0.07977794 -0.007212329 0.1084943 -0.08054354 0.061024446
0.031406205 0.043947645 0.019153342 0.039344046 0.06853923 -0.111947216 0.074861586 -0.17915957
-0.09785796 -0.07310997 0.031925086 -0.1251257 0.040902767 0.09604422 0.0025515666 -0.043505624
0.027952103 0.15877058 -0.0664745 -0.2745137 0.017934548 -0.013950434 0.1357371 0.21995498
-0.23493207 0.17305043 0.117487915 0.012854911 0.031819604 -0.013459061 -0.08114512 0.09595981
-0.2021092 0.01935682 0.09163948 -0.08104983 0.0841388 -0.110777974 -0.017316643 -0.008957116
0.10168461 -0.1622459 0.19328234 -0.00029267208 -0.086246066 -0.010985195 0.006434891 -0.13971311
-0.052402426 0.24066117 0.017349634 0.033253502 0.015619102 0.19428802 -0.008081314 -0.031045182
0.07790951 -0.10187151 -0.119001284 0.009409099 -0.0042960523 0.06684269 0.1247486 0.016708136
0.07399597 0.12208239 -0.18359639 -0.11084693 0.026624216 -0.15554075 -0.20666285 -0.012649934
-0.15704377 0.05008457 0.09571027 -0.114697464 -0.05922926 0.109384716 0.16757102 0.118230075
-0.08805558 0.16317429 -0.037711065 -0.0639059 0.07051076 0.06404785 -0.029233264 0.02375967
-0.09196045 0.045509823 0.13152589 0.055803895 0.09104419 0.13348879 0.04894052 -0.060287338
0.02820525 0.08079 -0.032415662 -0.123516224 0.052483823 -0.13086633 0.08265534 0.051141225
-0.08849415 0.048125163 -0.047913432 -0.018074017 -0.09849452 0.024297567 0.11659996 0.17308925
0.033984028 -0.02989409 -0.0017060814 -0.12293504 0.031537235 0.041612476 -0.021644408 0.065847985
-0.035198703 0.101487465 0.17971736 0.123357154 -0.01507311 0.1643232 -0.109542035 -0.021791372
0.14129427 0.058178384 -0.04833198 0.07182964 -0.01219291 -0.045648437 0.06679979 0.027813507
0.05945857 -0.014860507 0.019594675 -0.16602775 -0.09959502 0.08807491 -0.09875493 0.15210111
-0.034250084 -0.100344054 -0.08684577 0.1927533 0.084138565 -0.033108257 0.009799272 0.09779804
-0.07604628 -0.0015944737 0.02879832 0.002991623 -0.0808895 -0.17451951 0.051083665 0.09476881
-0.007954114 -0.02650439 0.0326393 -0.0021024854 -0.044291638 -0.021116216 -0.07713531 0.04488931
0.024592102 -0.08098221 0.10832942 -0.063823834 0.14348477 0.12854043 -0.023783265 0.047557786
-0.16045493 0.0769248 -0.0449021 0.042010926 -0.016463777 0.038206857 0.15038495 -0.13436557
0.038538493 -0.18695785 0.14869153 0.03150528 -0.10642244 -0.07991615 -0.0068858014 0.1419112
0.17194586 -0.035435602 0.052286178 0.00013919653 -0.107763395 0.0932474 0.10225382 -0.15438287
0.0015782956 -0.014135753 0.11495676 0.17254381 0.010857365 0.056296386 0.046170346 0.09461
-0.04707329 -0.035854667 -0.03662682 0.062566236 0.046342477 0.080705054 0.0098848 -0.108942494
0.08006568 0.05000657 0.03254518 -0.14718415 -0.14425974 -0.0459163 -0.024190284 0.120149806
-0.15435927 -0.17798893 -0.12984848 0.13901636 0.021137157 -0.087384336 0.16440502 -0.11432108
0.09560153 0.13939893 -0.05474481 0.1501484 -0.044116046 -0.16138819 0.04661054 -0.029273763
0.028778639 0.033661462 -0.25956857 0.09934336 0.035724558 0.12061719 -0.14511044 -0.12177433
00000000: 1268 d0bc de6e ed3d 7c93 8abd 9e62 a3bd
00000010: 6755 ecbb 4232 de3d 03f4 a4bd c5f4 793d
00000020: cba3 003d 7202 343d 78e7 9c3c 3927 213d
00000030: 4c5e 8c3d 9544 e5bd 0851 993d 9b75 37be
00000040: c169 c8bd aeba 95bd e1c3 023d f420 00be
00000050: a989 273d d5b2 c43d 2f38 273b f432 32bd
00000060: cffb e43c c194 223e c823 88bd 0f8d 8cbe
00000070: 79eb 923c 5c90 64bc abfe 0a3e e13b 613e
00000080: 0892 70be 2234 313e 819d f03d 689d 523c
00000090: 4655 023d 6583 5cbc 6a2f a6bd 9486 c43d
000000a0: b7f5 4ebe 3292 9e3c 7bad bb3d 74fd a5bd
000000b0: f750 ac3d 90df e2bd a2db 8dbc dec0 12bc
000000c0: 0540 d03d ca23 26be ceeb 453e c871 99b9
000000d0: c7a1 b0bd 3ffb 33bc c7db d23b f410 0fbe
000000e0: eda3 56bd e26f 763e d220 8e3c d334 083d
000000f0: 43e7 7f3c 70f3 463e 7d67 04bc 7752 febc
00000100: 058f 9f3d 03a2 d0bd f2b6 f3bd 9f28 1a3c
00000110: e6c5 8cbb d2e4 883d 327c ff3d 80df 883c
00000120: 338b 973d 5506 fa3d b100 3cbe b703 e3bd
00000130: 071b da3c 1346 1fbe 6d9f 53be ab41 4fbc
00000140: 15d0 20be 7a25 4d3d bf03 c43d 81e6 eabd
00000150: 619a 72bd 1805 e03d bd97 2b3e 9c22 f23d
00000160: 7c56 b4bd 2917 273e eb76 1abd 19e1 82bd
00000170: f267 903d 852b 833d 997a efbc a4a3 c23c
00000180: c355 bcbd 8268 3a3d b9ae 063e a092 643d
00000190: 6075 ba3d 49b1 083e db75 483d dbef 76bd
000001a0: b20e e73c 3a75 a53d 49c6 04bd 13f6 fcbd
000001b0: 47f9 563d d301 06be 3447 a93d 7679 513d
000001c0: 6c3c b5bd e41e 453d e040 44bd f60f 94bc
000001d0: 7fb7 c9bd b10b c73c f6cb ee3d 4f3e 313e
000001e0: d632 0b3d 73e4 f4bc 989e dfba 5ec5 fbbd
000001f0: 302d 013d d871 2a3d 9d4f b1bc 4fdb 863d
00000200: 842c 10bd a9d8 cf3d d407 383e ada2 fc3d
00000210: 35f5 76bc 5744 283e 9357 e0bd d283 b2bc
00000220: 72af 103e 754c 6e3d c1f7 45bd 6b1b 933d
00000230: c5c4 47bc dbf9 3abd 54ce 883d 27d9 e33c
00000240: d48a 733d 7c79 73bc 0385 a03c 2e03 2abe
00000250: 79f8 cbbd 9e60 b43d 0640 cabd 65c0 1b3e
00000260: d149 0cbd 2f81 cdbd 32dc b1bd 1f61 453e
00000270: d750 ac3d 869c 07bd 208d 203c 574a c83d
00000280: 27be 9bbd a9fd d0ba 74ea eb3c 1b0f 443b
00000290: 65a9 a5bd 3eb5 32be 1b3d 513d 2616 c23d
000002a0: f951 02bc bc1f d9bc c9b0 053d dac9 09bb
000002b0: 266b 35bd eafb acbc 1ef9 9dbd dadd 373d
000002c0: 6075 c93c 00da a5bd d1db dd3d 12b6 82bd
000002d0: aced 123e 1aa0 033e 1fd5 c2bc f4cb 423d
000002e0: 4c4e 24be c08a 9d3d 44eb 37bd a613 2c3d
000002f0: 0bdf 86bc cb7e 1c3d 83fe 193e 2197 09be
00000300: 8ada 1d3d e171 3fbe 9842 183e ae0b 013d
00000310: 02f4 d9bd 14ab a3bd 4aa2 e1bb 2b51 113e
00000320: 9312 303e ec24 11bd 082a 563d 49f5 1139
00000330: 0eb3 dcbd 7ef8 be3d 736a d13d 8b16 1ebe
00000340: d0de ce3a a599 67bc 736e eb3d 53af 303e
00000350: 17e3 313c 0a97 663d 1e1d 3d3d e3c2 c13d
00000360: eccf 40bd 58dc 12bd 0106 16bd ba22 803d
00000370: 9cd1 3d3d b148 a53d dbf3 213c 3e1d dfbd
00000380: 7af9 a33d b0d3 4c3d 184e 053d 71b7 16be
00000390: d3b8 13be bb12 3cbd b42a c6bc 1a11 f63d
000003a0: 5b10 1ebe bb42 36be 00f7 04be 4e5a 0e3e
000003b0: d527 ad3c 8ff6 b2bd ca59 283e 2c21 eabd
000003c0: bcca c33d 98be 0e3e 183c 60bd 81c0 193e
000003d0: 07b3 34bd f242 25be b2ea 3e3d 88cf efbc
000003e0: 2ec1 eb3c 9ae0 093d 2ce6 84be 8874 cb3d
000003f0: ea53 123d 2506 f73d d597 14be d264 f9bd

layers.1.bias f4 [30]
-0.081592366 0.033223856 0.09251594 0.10688313 0.06883921 0.07104399 0.044465065 -0.010092671
0.01628827 0.021011963 0.022993855 0.124897726 0.19711673 0.10261098 0.12947576 0.028149849
0.045977257 0.04827138 0.07120342 -0.003361776 0.06757014 0.051183723 -0.07400666 0.08923796
-0.017521756 -0.065094896 -0.011785867 0.06661104 0.023682004 0.16944219
00000000: e619 a7bd bd15 083d ff78 bd3d 8be5 da3d
00000010: 92fb 8c3d 837f 913d 0021 363d bb5b 25bc
00000020: fa6e 853c 4821 ac3c 9c5d bc3c 61ca ff3d
00000030: f8d8 493e b525 d23d 4b95 043e 839a e63c
00000040: a652 3c3d 36b8 453d 19d3 913d 3e51 5cbb
00000050: 3762 8a3d 06a6 513d ce90 97bd 64c2 b63d
00000060: c989 8fbc 7950 85bd 8219 41bc 5e6b 883d
00000070: c300 c23c 4182 2d3e

layers.2.weight f4 [5, 30]
-0.13072224 0.00047677185 -0.22339314 -0.3070313 -0.22081468 0.20287263 0.0015911572 0.06618991
0.16470557 -0.1382279 0.28356126 0.17627151 -0.2303993 -0.051072136 0.25119573 -0.1735305
-0.34473887 -0.08744029 0.07751183 0.24365324 -0.2267544 0.056857627 -0.21324666 0.13159259
-0.17473969 -0.23355314 0.2355989 -0.18947908 -0.08312406 0.20886461 -0.3846523 -0.08562539
0.044609323 -0.21709439 -0.18155853 0.18529488 -0.21817623 -0.20988017 0.047092706 -0.1548907
0.16319022 0.086183764 -0.11143444 -0.14795291 0.21122326 0.115412004 -0.14424342 -0.19284818
-0.06550689 0.1860118 -0.21698941 0.016943254 -0.13733378 0.12013447 0.11307147 0.087243
0.15612587 -0.2045744 -0.121012256 0.23425001 -0.02678866 -0.2391288 -0.25741678 -0.016386898
0.06796982 0.11772103 -0.30611578 -0.23744805 -0.21994188 0.1806705 -0.14459053 -0.24255066
0.09253367 -0.0639405 -0.022379594 0.10006935 0.09518085 -0.24248359 0.19753675 -0.034080636
-0.093086995 -0.06649132 -0.2357947 0.17740434 0.086018376 0.2506593 -0.078414895 -0.099089906
0.15332906 0.16326737 0.17751671 -0.057120994 -0.17260842 0.11895835 0.20988245 -0.14124194
-0.115382455 -0.04777514 -0.24025938 -0.20305325 -0.27731213 -0.16552305 0.1740247 0.017600698
0.06502902 -0.036345713 0.11585434 -0.043125086 0.004237788 -0.20557944 0.1771256 -0.3131596
-0.019171339 0.06994591 -0.04597003 0.26384175 -0.23786595 0.031640213 0.19696936 0.054041672
-0.03930179 0.19298771 0.13212143 0.1040504 0.22697274 -0.23117313 0.082703866 0.18742096
0.11064956 -0.07269886 0.038757157 0.13302764 0.16298917 0.24517497 -0.21179406 -0.28874472
0.0057118563 0.21773782 -0.24256887 -0.23114945 0.16654928 -0.30205348 0.16307856 -0.31177154
-0.305901 -0.001847946 -0.24751136 0.15047829 -0.12992328 -0.3230456
00000000: 0ddc 05be 3cf7 f939 2cc1 64be 3533 9dbe
00000010: 3e1d 62be d8bd 4f3e 608e d03a 938e 873d
00000020: 94a8 283e 9d8b 0dbe f12e 913e 8580 343e
00000030: cbed 6bbe 0431 51bd ba9c 803e fbb1 31be
00000040: 9d81 b0be e513 b3bd 86be 9e3d 3c80 793e
00000050: 4e32 68be 8be3 683d 555d 5abe 35c0 063e
00000060: f6ee 32be 8e28 6fbe d740 713e ce06 42be
00000070: f23c aabd 9be0 553e 25f1 c4be 5d5c afbd
00000080: 44b8 363d fe4d 5ebe 7bea 39be f1bd 3d3e
00000090: 9769 5fbe d4ea 56be 48e4 403d ab9b 1ebe
000000a0: 561b 273e 1d81 b03d bd37 e4bd f880 17be
000000b0: e94a 583e 215d ec3d 8cb4 13be fe79 45be
000000c0: 7a28 86bd e179 3e3e 7932 5ebe 94cc 8a3c
000000d0: 3aa1 0cbe 1009 f63d 0492 e73d 75ac b23d
000000e0: 76df 1f3e f47b 51be 46d5 f7bd 3cdf 6f3e
000000f0: e473 dbbc 2ede 74be 22cc 83be d13d 86bc
00000100: c333 8b3d b917 f13d 35bb 9cbe 9525 73be
00000110: 7238 61be b001 393e 8a0f 14be 335f 78be
00000120: 4b82 bd3d 3df3 82bd 6955 b7bc 29f1 cc3d
00000130: 2dee c23d 9e4d 78be 1347 4a3e 2398 0bbd
00000140: 65a4 bebd 9a2c 88bd 2a74 71be 7ca9 353e
00000150: 672a b03d 6a56 803e fd97 a0bd a6ef cabd
00000160: 4b02 1d3e 902f 273e f1c6 353e b4f7 69bd
00000170: 43c0 30be 6fa0 f33d 6deb 563e baa1 10be
00000180: a34d ecbd ddaf 43bd 8e06 76be 31ed 4fbe
00000190: dbfb 8dbe e07e 29be 8833 323e 572f 903c
000001a0: ef2d 853d 3edf 14bd 0a45 ed3d eea3 30bd
000001b0: 24dd 8a3b 6b83 52be 6a60 353e 7556 a0be
000001c0: 360d 9dbc cd3f 8f3d 124b 3cbd 4416 873e
000001d0: 2293 73be 2b99 013d 56b2 493e cd5a 5d3d
000001e0: eafa 20bd 929e 453e d74a 073e 6018 d53d
000001f0: 8b6b 683e a6b8 6cbe a560 a93d 48eb 3f3e
00000200: 3d9c e23d 24e3 94bd d3bf 1e3d 6638 083e
00000210: a2e6 263e 260f 7b3e 8be0 58be 59d6 93be
00000220: 862a bb3b aaf6 5e3e f963 78be 71b2 6cbe
00000230: e58b 2a3e c1a6 9abe 11fe 263e 85a0 9fbe
00000240: 0e9f 9cbe c736 f2ba 9e73 7dbe fb16 1a3e
00000250: 9c0a 05be 3c66 a5be

layers.2.bias f4 [5]
-0.34434566 -0.0845845 -0.020316465 0.1864905 0.04809204
00000000: 134e b0be a33a adbd b76e a6bc 5ef7 3e3e
00000010: 29fc 443d
