irony/models/model_46.pt (torch_old, 58143 bytes, 8 tensors)

layers.0.weight f4 [70, 10]
000000 20 58 e4 bc fe ff e1 3d 04 a7 60 be 77 0e 4e 3d
       -0.027874053 0.11035155 -0.21938711 0.050306763
000010 86 95 db bd 2d 2e 78 3e ea 9b a2 3e 9e 64 8d 3e
       -0.10721879 0.24236365 0.31759578 0.27615827
000020 ef 56 2d be cf fe 6e be f9 e3 80 3e e3 07 be be
       -0.16927694 -0.2333939 0.2517393 -0.37115392
000030 0d 15 c9 3b cf e8 9f 3e 68 b0 a4 3e 77 15 00 be
       0.0061365427 0.31232306 0.32165837 -0.12508188
000040 d7 ac 18 be 21 8a 79 be dc 58 8c bd db 0f 4f 3e
       -0.14909683 -0.24369098 -0.06852886 0.20220892
000050 a7 0a ff bd 36 66 99 3e c6 1c 13 3c 83 52 48 3e
       -0.12453204 0.29960793 0.008979028 0.19562726
000060 d1 21 6c bc 75 90 3b 3e be ab 49 3e 37 e2 d1 3d
       -0.014412359 0.18316825 0.1969442 0.10248225
000070 b5 12 99 3d 28 47 a2 be bb 23 8f be c7 7d 43 3e
       0.07474271 -0.31694913 -0.27956948 0.19090949
000080 50 c2 8a be 74 bc ba 3e 2d 56 b2 bc 35 3a b2 bd
       -0.27101374 0.36471903 -0.021769607 -0.08702508
000090 c0 cc a2 be ac f7 5a be d4 a7 a2 3d 29 6f f0 3d
       -0.31796837 -0.21383542 0.07942167 0.11739952
0000a0 2e 25 f2 bc 48 1a a1 3e 8e 95 be 3e c0 3c 35 bc
       -0.029558744 0.31465364 0.37223476 -0.011061847
0000b0 87 76 2d be 42 7f 6f be 57 4f 9e 3d da 49 6b 3e
       -0.16939746 -0.23388389 0.077299766 0.22977391
0000c0 1e 8a 3a 3d dd cf 3a 3d 50 1a 3d bd d0 56 88 3e
       0.045541875 0.04560839 -0.04616767 0.26628733
0000d0 be 59 ed 3d b7 10 b4 3d e6 d3 21 be 44 3c 0b 3e
       0.115893826 0.087922506 -0.15803489 0.13597208
0000e0 cd f6 2a 3e 4c 99 ea bd 4d 25 17 3e 68 55 6d 3e
       0.1669571 -0.1145502 0.14760323 0.23177111
0000f0 48 d3 a6 3e 91 58 d6 3d cd 8d 8b 3e aa 81 cd be
       0.3258307 0.104661115 0.27256623 -0.40137988
000100 37 ed eb bd 57 d5 4d 3e 03 34 03 3e 0e 46 07 3e
       -0.115198545 0.20100914 0.1281281 0.13210317
000110 a7 2a 42 be b6 52 11 be 6a 7c 9b be ae 7c a6 3e
       -0.18961583 -0.14191708 -0.30368358 0.32516998
000120 80 7e 98 3c c6 bf 45 3e 81 cb 9d 3c 72 af 96 bd
       0.018615007 0.19311437 0.019262077 -0.07357682
000130 15 75 85 3e ab 1c 77 3e 31 73 3a 3e 68 83 ae be
       0.2606589 0.2413203 0.18208005 -0.3408463
000140 c7 4b 1c 3e 94 69 63 3e dd 1c 09 be 39 57 9d be
       0.15263282 0.22208244 -0.13389917 -0.30730608
000150 12 3e 8b be b0 96 6d be 69 3e 68 3e e4 00 1a 3c
       -0.27195793 -0.23202014 0.22680058 0.009399626
000160 d9 3a b7 3d 61 fb 8a 3c cb f2 72 be 8e 8d 80 3e
       0.08946771 0.01696557 -0.2372543 0.25107998
000170 8d 77 96 3e b9 c3 55 3d 07 74 aa 3d 86 1f de bd
       0.29388085 0.05218861 0.08322912 -0.10845856
000180 b8 e1 ac 3c 40 50 73 3d 77 b2 04 3d b0 42 83 be
       0.021103725 0.059402704 0.03239676 -0.25636816
000190 ab 26 1d 3e ee 60 c0 3e e8 15 7b be 5b bc 0b be
       0.15346782 0.3757395 -0.24520075 -0.1364607
0001a0 05 84 01 3e b0 96 56 be 18 a7 9c 3e c5 a9 42 3e
       0.12648018 -0.2095592 0.30596232 0.19010074
0001b0 48 31 6e be 3d 14 02 3d 7f a2 a1 3e 21 43 46 3e
       -0.23260987 0.031757582 0.31569287 0.19361545
0001c0 9e 21 c9 bd 0d 59 7b be 58 54 04 3d 7e d9 aa 3e
       -0.09820865 -0.24545689 0.032307 0.33369058
0001d0 d5 3a 34 3e 34 7e ae bd c6 8b a5 bd 1d 4c 57 be
       0.17600568 -0.08520165 -0.080833 -0.21025129
0001e0 18 ec b2 3d f3 2e 47 be ce 74 2d 3e 41 b4 18 3e
       0.087364376 -0.19451503 0.16939089 0.14912511
0001f0 a6 fe 5b 3e 6a 49 46 3e 70 51 91 bd d0 2c 1e 3e
       0.2148386 0.19363943 -0.07095611 0.15446782
000200 3e c5 d2 bd 4f 22 94 3e 4f 85 e1 3e 42 15 fc bd
       -0.10291527 0.28932425 0.4404702 -0.12308742
000210 b7 7c bb bc c2 4f ad bd e7 46 85 3d 4d d3 95 3d
       -0.022886617 -0.08462478 0.06507664 0.07315693
000220 39 0c 84 3e aa 49 f4 3c c4 86 a6 3c 6f 18 a5 bd
       0.25790575 0.029820282 0.020327933 -0.08061301
000230 2f 2d 35 be 94 53 42 3e ef 58 d1 3e cb 06 b4 3e
       -0.17693017 0.18977195 0.40888163 0.35161433
000240 e8 52 86 be a5 57 57 bd 4b 25 cc 3d 72 cf 83 3e
       -0.26235127 -0.05257382 0.099680506 0.25744206
000250 85 78 da 3c fe 5d e3 bd 35 67 ab 3d 2d b5 9a 3e
       0.026668796 -0.11101912 0.083692946 0.3021635
000260 bf 8e 87 bd 7a 8f 03 3e 94 ee 38 be 5b dd 86 3e
       -0.066190235 0.128477 -0.1805976 0.26340756
000270 2c d1 46 3e 18 4e 29 3e ae 98 38 be 0e 14 a0 be
       0.1941573 0.16533697 -0.18026993 -0.312653
000280 ae 1c 3a 3d fd 5b 78 be 4e 0a c9 3d fd 6b 5f 3e
       0.045437507 -0.2425384 0.098164186 0.21818538
000290 89 a1 99 be 78 ff 17 be a8 34 55 3e d9 71 34 3e
       -0.30006054 -0.14843547 0.20820868 0.17621554
0002a0 d3 98 1b 3e 86 82 9a 3e 9f 6c 97 3d 70 76 d4 bc
       0.15195017 0.30177706 0.07393765 -0.025935382
0002b0 b6 01 16 3e a3 43 54 3e 6b b5 c7 3e 2a 52 2a 3d
       0.1464909 0.20728926 0.39005598 0.041582264
0002c0 d5 88 06 be 13 9b 0f be 84 57 60 be c4 5e 4e 3e
       -0.13138135 -0.14024 -0.21908385 0.20153338
0002d0 8d 87 c6 be fb 04 5a 3e fd 6d 39 bc 90 c9 64 3e
       -0.38775292 0.21290962 -0.011317727 0.22342515
0002e0 47 5e 92 3c d0 2c a6 be 3b c8 64 3c e9 b5 26 3e
       0.01786722 -0.32456064 0.013963754 0.1628033
0002f0 90 32 8b be 16 a8 48 3c 73 2f 04 be 12 af cb be
       -0.27187014 0.012247106 -0.12908725 -0.39782006
000300 24 b8 77 3e f9 e1 21 be 90 23 e9 bc 81 27 81 be
       0.24191338 -0.15808858 -0.02845934 -0.25225452
000310 6d 98 77 be 1f cc 7d 3e 6f 23 1c be de bf 2d 3e
       -0.2417924 0.24784897 -0.15247892 0.16967723
000320 90 ce 28 3e 36 f5 76 be 47 0b 8b 3e fc 00 8b 3e
       0.16485047 -0.24116978 0.2715704 0.2714919
000330 21 77 43 3c 3d 44 99 be 59 fb 0e be f1 ce ab 3d
       0.011930258 -0.29934874 -0.13963069 0.0838908
000340 68 ea 84 3c 16 aa e9 3c 45 89 c2 3d 5e 96 bf 3d
       0.016225055 0.028523486 0.09498838 0.09354852
000350 dc fe 81 be 35 48 37 be 51 1f 03 3e 23 df 0b bd
       -0.25389755 -0.17898639 0.12804915 -0.034148347
000360 4b c5 88 be 47 d2 1e be d0 90 ae be db 52 54 bd
       -0.26713023 -0.15509902 -0.34094858 -0.05183683
000370 f4 09 70 3e d9 08 76 be 39 09 8f 3e 52 77 8c be
       0.23441297 -0.24026813 0.27936724 -0.27434784
000380 33 16 1f 3e 55 39 57 be ee 34 3c 3e f4 d3 37 3e
       0.15535812 -0.21017964 0.18379566 0.17951947
000390 ad 87 00 3c d7 b8 28 be 2b 8d 9d 3e 44 77 e5 3d
       0.007844848 -0.16476761 0.30771765 0.11204389
0003a0 1a 02 bf be 46 eb d7 3d c0 d2 56 be 6a 09 61 3e
       -0.3730629 0.10542922 -0.20978832 0.21976247
0003b0 33 9d 47 3e 39 43 fe 3d 20 31 15 be 75 2b 2b be
       0.1949356 0.124151655 -0.14569521 -0.16715796
0003c0 8c ac 86 bd 97 4b 27 3e 3d 04 65 bb 5b 1b 20 bd
       -0.065758795 0.16337429 -0.0034945153 -0.03908859
0003d0 1d e9 92 3e 0e 8a 8a be 28 9c 9c 3b de 73 9a be
       0.28693476 -0.27058452 0.0047793575 -0.30166525
0003e0 7f fc 63 be 42 79 9d bd 85 6e db 3d ee fd bc be
       -0.22264288 -0.07689144 0.10714439 -0.36912483
0003f0 98 93 9a 3e ab 9b 5f bd 6c 07 77 be 7b 50 0b 3e
       0.3019073 -0.054591816 -0.24123925 0.1360492

layers.0.bias f4 [70]
000000 4d 4e 10 3e a8 7b 7c 3d a9 7f 62 be d6 61 5e 3e
       0.1409237 0.061641365 -0.22119011 0.21717009
000010 22 0c 50 be d2 39 29 3e da 11 c8 3d a9 62 cf 3d
       -0.20317128 0.16525963 0.0976903 0.1012624
000020 ac 58 08 be 76 ec e9 bd b5 e2 69 be 58 86 5e be
       -0.13315076 -0.114220545 -0.22840388 -0.21730936
000030 84 37 26 be b7 f0 d4 bc fe e0 1d be 6e 7f 66 3b
       -0.16232115 -0.025993688 -0.15417859 0.003517117
000040 85 4c 4c 3e a6 00 58 be 44 a0 64 3e 3b 44 28 3e
       0.19951065 -0.21093997 0.22326761 0.16432278
000050 38 08 27 3e b7 e6 5b 3e dd b2 41 bd ea 78 58 3e
       0.16311729 0.2147473 -0.047289718 0.21139875
000060 dd 7a dc 3d 01 ae f3 bd 07 41 96 bc e6 9b 83 be
       0.10765622 -0.11898423 -0.018341554 -0.2570488
000070 b0 07 cb 3d e9 15 56 3e e8 74 07 3e 0b 31 2c 3e
       0.09913576 0.20906796 0.1322819 0.16815583
000080 96 a3 5c be f3 59 db 3c 26 0b b5 3d 01 f8 80 3e
       -0.21546778 0.02677629 0.08840017 0.25189212
000090 5f 7c 15 bd 45 06 37 3e 47 16 df 3c de b7 e4 3d
       -0.036495563 0.17873485 0.027232302 0.111678824
0000a0 55 6a f4 bd 8f eb 48 be 87 58 55 3e fe 3f 65 3e
       -0.11934344 -0.19621108 0.20834552 0.22387692
0000b0 57 8f 0a 3e e9 66 8f bd 2e 13 19 3e 17 ba bf 3d
       0.13531242 -0.070020504 0.14948723 0.09361666
0000c0 cf fe 68 be 8d 33 0c 3e 11 53 63 3e 37 8f 0a be
       -0.22753452 0.1369154 0.22199656 -0.13531195
0000d0 a2 38 31 3e 35 6c c5 bd 47 41 2c bc 6b 4b a9 3d
       0.1730676 -0.096397795 -0.01051361 0.08266338
0000e0 81 3f 1f 3e 71 16 25 be cc 0d ac bb 5e 63 81 bd
       0.15551569 -0.16121842 -0.005250668 -0.06317781
0000f0 6a c5 c7 3c 8d 21 2e 3e 5a 9c 1d be 30 2a 2a 3c
       0.024386127 0.17004986 -0.15391675 0.010386035
000100 7a 2f 28 3d 6f f7 15 3e b3 51 79 3d 60 66 81 3d
       0.041060902 0.1464517 0.06086893 0.063183546
000110 ae 4f bf bd 78 48 d5 3d
       -0.093413696 0.10414213

layers.1.weight f4 [80, 70]
000000 2c e3 ba 3c d2 4b 31 bd 6d f8 0d be 88 5b b4 bd
       0.022813402 -0.0432852 -0.13864298 -0.08806521
000010 88 1e 89 3d 56 f8 08 3c 16 51 ec 3d a9 60 de 3c
       0.066952765 0.008359989 0.115389034 0.0271457
000020 11 82 17 3d ef 72 9a bd e5 2d c0 bd 39 2b c8 3d
       0.036989275 -0.07541453 -0.09383754 0.09773869
000030 91 7a 0a 3e 51 84 19 3e bb 3b 22 be c4 b6 09 3b
       0.13523318 0.14991881 -0.15843098 0.0021013478
000040 d8 56 a0 3d 3e 68 73 3c 38 4f 85 bd 78 99 82 bd
       0.07829064 0.014856396 -0.065092504 -0.06376928
000050 a2 73 de 3d ef aa 14 bb 6c 30 3a 3a 3a ba 08 3d
       0.10861899 -0.0022684892 0.00071025523 0.033380724
000060 98 38 fa bd 7a 1e 47 3e 03 89 8c bd 0a 28 6f 3d
       -0.12217826 0.1944522 -0.068620704 0.058387794
000070 8d 19 ba 3d 77 a1 f8 bb b8 33 3e 3c f8 5c 24 3d
       0.09086905 -0.0075876075 0.01160901 0.040127724
000080 f1 c8 9a 3d b0 07 8c 3d 0c c5 e5 bc 33 9a 5f bd
       0.07557858 0.06837404 -0.02804806 -0.054590415
000090 35 8f fe 3c 5c d3 e6 3d 53 63 43 3d b0 e6 4b bd
       0.031074146 0.11270782 0.047702145 -0.049780548
0000a0 9f d9 02 3d 17 3f d1 bc 93 d9 ab bb ad 6f 16 bd
       0.03194582 -0.025542779 -0.0052444427 -0.036727596
0000b0 d9 6b 01 3e 21 aa 17 bd 37 b8 28 3e ec cc aa bd
       0.12638797 -0.037027482 0.16476522 -0.08339867
0000c0 1c 9d 94 3d ae 74 9a 3c 3b 67 09 bd 64 26 c9 b8
       0.07256529 0.018854465 -0.033545714 -9.591578e-05
0000d0 a4 0e 82 bc 2e 3b c8 3d d7 04 89 3d 49 63 9b 3c
       -0.015876122 0.09776913 0.06690376 0.018968241
0000e0 2d fa 35 bd ba 85 6e bc 55 f0 e0 3d 11 73 4e bd
       -0.04442804 -0.01455825 0.1098334 -0.050402705
0000f0 af ec a7 bd 69 da 02 3d 5b 0b 93 3d 58 c0 9c bd
       -0.08199441 0.031946573 0.071799 -0.07653874
000100 b2 12 6e 3d 43 6d 80 bd e7 61 ef 3d 14 3b a1 bd
       0.058123298 -0.0627084 0.11688595 -0.078725964
000110 47 ab fd 3d d7 5b 9d bc 80 b6 b7 bc 07 e8 ee bb
       0.12386184 -0.019208832 -0.02242589 -0.0072908434
000120 a5 91 f3 bc cd b2 da 3d 75 fc 90 ba c7 52 3f 3d
       -0.029732535 0.10678635 -0.0011061566 0.046709802
000130 6d 85 9e bd 89 86 0d bd 58 bd 8d bd c6 81 03 be
       -0.07740293 -0.03455213 -0.0692088 -0.12842473
000140 f6 07 2c bd dc d8 16 bc 1a dc 34 3d dd a9 2a bc
       -0.04199978 -0.009206977 0.044155218 -0.010416475
000150 91 04 f2 3c 92 c9 22 3b 56 35 06 bd 11 3b dd 3b
       0.029543193 0.0024839384 -0.03276571 0.006751426
000160 b8 71 bf bd d3 7c 94 bd 98 7b 15 bd 20 58 f2 bd
       -0.09347862 -0.07250371 -0.03649482 -0.11833215
000170 ce d0 d5 bd 46 b3 e9 3d a4 ea 5f bc c0 97 30 3d
       -0.10440217 0.11411147 -0.0136667825 0.04311347
000180 15 bd 00 3e 4d 8f 4e bc f3 56 18 3e f1 ea 11 3d
       0.12572129 -0.012607408 0.14876918 0.03562445
000190 25 98 c9 3d f5 97 ae bb ce 25 81 bd 8c 07 66 3c
       0.098434724 -0.0053281733 -0.06306039 0.014039885
0001a0 b9 ac 0f 3e 7b 63 08 be aa 9a 89 3d 83 d1 2f bd
       0.14030732 -0.13319199 0.06718953 -0.042924415
0001b0 45 db 86 3d 98 ac 86 36 33 0c b4 bd 9f ea b1 3c
       0.06584791 4.0136038e-06 -0.08791389 0.021718321
0001c0 f3 da 3c bd 1e bc 3d 3d 82 12 9e bd c9 0c b3 3d
       -0.046107244 0.04632198 -0.07718374 0.08742673
0001d0 db 6e 41 3d fe d4 08 be 85 d6 11 be ed 71 a4 3b
       0.04722486 -0.133625 -0.14241989 0.005018464
0001e0 af 5b 4f bb 6e 25 9a 3c dd 5e b8 bd d8 59 00 3e
       -0.003164034 0.018816676 -0.09002469 0.12534273
0001f0 10 ae 15 3e 7c 47 b6 3a f7 64 56 3d ac b9 b3 bd
       0.14617181 0.0013906802 0.05234238 -0.087756485
000200 f3 81 dd bc 3b 8a c8 bd 44 fd e0 bd 35 c6 9b 3d
       -0.027039504 -0.0979199 -0.109858066 0.07606164
000210 75 08 03 be 5b ef 38 be 9b 97 60 bd 65 f5 b2 bd
       -0.12796195 -0.18060057 -0.054832082 -0.087382115
000220 f9 14 bd 3c 0a 52 1f be 31 bf 3e 3c bc 45 66 3d
       0.02308129 -0.15558639 0.011642263 0.056218848
000230 e2 2d ee bd f1 f3 77 3d 76 08 c0 bd f6 60 c6 bb
       -0.11629845 0.060535375 -0.09376614 -0.006054039
000240 57 a2 8f bd f8 e9 ed 3c b7 36 e5 bd 1e 92 51 3d
       -0.07013386 0.029042229 -0.11192077 0.05116474
000250 d6 8a 57 bd dc bf 28 bd 2a f4 09 3b d6 d9 06 3d
       -0.05262264 -0.041198596 0.0021050074 0.03292259
000260 9f b0 12 bd 55 60 84 bd 43 31 8d 3b 27 81 05 be
       -0.03581297 -0.064636864 0.004308851 -0.13037549
000270 db 63 12 bd 69 58 ef 3d 6a 4c d4 3d ef de 9b 3b
       -0.03573976 0.11686785 0.10366137 0.0047568004
000280 82 45 9f 3d b9 2d 0b bc e1 ec a3 bd c5 41 c5 3c
       0.077769294 -0.008494788 -0.080041654 0.024079213
000290 5c 74 0a 3e b2 ce 64 bd b6 96 e2 bd d0 24 b3 3c
       0.1352095 -0.055861183 -0.11063902 0.02186814
0002a0 50 dd 8f 3a 70 aa ac bd 72 6c af 3a ad 1e 3e bd
       0.001097599 -0.08430946 0.001338376 -0.046415973
0002b0 c2 0e 52 bb dc 6c 93 bc 25 20 6b bd 98 3c 9c bd
       -0.0032052253 -0.017996244 -0.057403702 -0.07628745
0002c0 0c a0 c5 bd 13 1d d8 bd 3b 8a b1 3d b2 d5 28 3d
       -0.09649667 -0.105524205 0.086689435 0.04121942
0002d0 bb 64 f4 bc 2c e3 65 3d 8e cf 85 3c be 0c 8f bd
       -0.029833188 0.05612485 0.016334321 -0.06984852
0002e0 16 3e d0 3c 56 33 5f 3d 30 14 6d 3d d9 05 14 3d
       0.02542023 0.054492317 0.05788058 0.03613839
0002f0 68 fa 87 bb 01 4d 81 bd 78 d1 12 be a1 09 89 bd
       -0.004149724 -0.063135155 -0.14337718 -0.0669129
000300 8b 75 16 bb 69 2c bc bd 8c 7e 03 be 70 fd a5 bd
       -0.0022958245 -0.09188158 -0.12841243 -0.0810498
000310 c4 43 a4 3c 15 17 97 3d 86 3c d8 bd 8d 16 a0 3c
       0.020051844 0.073774494 -0.10558419 0.019542003
000320 70 b4 10 3e 34 46 2e bc c1 3a aa bc d0 54 c2 3d
       0.14131331 -0.010636855 -0.02077997 0.09488833
000330 ca f2 ac 3c d8 ff 9a 3c f1 ab bb 3d 24 09 bb 3d
       0.021111865 0.018920824 0.091636546 0.09132603
000340 ac 4f d5 3d 8b 53 df 3c 5e 60 c9 3c 53 3a 99 bd
       0.10415587 0.027261516 0.024582084 -0.074818276
000350 99 9c d0 bd 4c 36 15 3e cf a5 8c 3b 2f 14 81 3d
       -0.10186119 0.14571494 0.004292227 0.06302678
000360 25 23 5f 3d 0d 9b 06 3b 77 52 17 bd 7b 45 38 bd
       0.054476876 0.0020539195 -0.03694388 -0.044988137
000370 91 bb a2 bd 59 b6 02 be 31 25 a4 3d 74 af 8b bd
       -0.07945932 -0.12764873 0.08014906 -0.068205744
000380 be 60 b2 bd c6 83 0e be 3a 15 de 3d a2 f9 38 bd
       -0.08709858 -0.13917455 0.108438924 -0.045159943
000390 58 de a2 3d 23 43 6f bd 1a 2a 9e 3d c0 44 fa bd
       0.07952565 -0.058413636 0.07722874 -0.12220144
0003a0 ec a7 95 bc cd 26 d5 bc 65 04 59 3d d0 f0 c8 bd
       -0.018268548 -0.026019478 0.052982707 -0.09811556
0003b0 b5 1c 31 bd f9 da 2c 3d b9 ac 5b bd 5d ac 6d 3d
       -0.043240268 0.042201016 -0.053631518 0.058025707
0003c0 9f e9 5e 3d 1f e4 ed bd e0 af b6 3d 17 3d b3 bc
       0.054422017 -0.11615776 0.08920264 -0.021879716
0003d0 0f ce d5 bb a0 81 71 bd b1 cf c5 3d 1b c5 5d bc
       -0.0065248082 -0.05896151 0.096587546 -0.013535763
0003e0 14 69 36 bd 8e ed 0e bd 46 71 74 3d 7f 9a d1 3d
       -0.044533804 -0.03489452 0.05967834 0.10234546
0003f0 73 53 e1 3d 2b 05 72 bd 9c 29 05 be 82 64 cf bd
       0.11002245 -0.05908696 -0.13004154 -0.10126592

layers.1.bias f4 [80]
000000 10 fd be 3c 81 54 04 3e 20 09 6b bb 01 d9 16 bc
       0.023314029 0.1292286 -0.0035863593 -0.009207011
000010 7c a4 0c bd 41 bc 26 3d f8 67 9f bd 31 5f 9d 3d
       -0.034336552 0.040706877 -0.07783502 0.07684172
000020 4c 77 ed 3c 47 fe 4b bd 7f 87 28 3d 3d 76 ac 3c
       0.02898755 -0.049803045 0.041144844 0.021052474
000030 e9 45 c4 3d 39 4c c9 bb ff 10 ff bc 90 c6 c0 ba
       0.09583647 -0.0061431197 -0.031136034 -0.0014707614
000040 56 38 c5 ba 3a 00 2a bd 2f fc 0f bc cc 16 da 3d
       -0.0015046697 -0.041504122 -0.008788153 0.106488794
000050 64 df df 3c 55 8f fb 3d 28 0c 06 bd c9 82 62 3d
       0.0273282 0.12283198 -0.032726437 0.055300508
000060 70 48 86 3d d0 ef 03 bc f3 75 7b bd df 3e 7c 3d
       0.06556785 -0.008052781 -0.061391782 0.061583396
000070 ef e9 38 3d c7 35 d6 3d 7c 89 92 bb 87 8a 3c 3d
       0.04514497 0.10459476 -0.004471956 0.046030547
000080 54 08 05 3e 5b d0 3d 3d ad ef 88 bd 3b 53 61 bc
       0.12991458 0.04634128 -0.066863395 -0.013752754
000090 0c 6e 20 3d 08 ca 7a 3d b6 de 9a 3d fa 83 25 bc
       0.03916745 0.06122783 0.0756201 -0.010102266
0000a0 bf 4d 05 3e 24 45 07 bd 66 4e 90 3d f5 35 f8 3c
       0.13017939 -0.033024922 0.07046203 0.030299166
0000b0 4f 29 86 3d 2f 83 f1 3c 07 6c e3 3c 90 14 09 bd
       0.06550848 0.029481499 0.027761472 -0.033466876
0000c0 39 f0 84 3d 14 85 01 bc e9 68 43 3d d6 b8 4e bd
       0.06491131 -0.007905263 0.047707472 -0.050469242
0000d0 e5 56 10 3d 50 f8 ba 3c b4 71 2f bd df 3c fd 3c
       0.03523912 0.022823483 -0.042833045 0.030912815
0000e0 4d be da 3d 8c ba 29 bd 67 00 c3 3d 28 4d bf 3c
       0.10680828 -0.04143767 0.09521561 0.02335222
0000f0 34 d4 dd 3d c4 6a 9c bd ea 66 0e 3d a8 82 f6 ba
       0.1083149 -0.076375514 0.034766115 -0.0018807249
000100 f3 7b 3c bd 92 18 cb 3a 94 85 16 bd 83 4f 72 bd
       -0.046016645 0.0015494993 -0.036748484 -0.05915786
000110 f2 42 1d bd 39 11 30 bd c6 bf 0a 3d c7 84 35 3d
       -0.038393922 -0.042985175 0.033874296 0.04431608
000120 b0 8e ab 3b 4d 4e 94 bd d0 4e 59 bc 72 97 79 3d
       0.0052355155 -0.07241497 -0.013263419 0.060935445
000130 cd 61 c2 3c 78 7c a4 3d 63 23 45 bd 72 01 41 bd
       0.023728276 0.08031553 -0.04812945 -0.04712052

layers.2.weight f4 [90, 80]
000000 90 10 df bb a1 7e 85 3d 65 4f 8b 3d 5e 26 89 3d
       -0.0068073943 0.06518293 0.06802253 0.06696771
000010 b5 6a 18 3c 10 3a 95 bd 8e 79 71 bd 21 d6 76 3c
       0.009302785 -0.07286465 -0.058953814 0.015065701
000020 29 18 0b bd b1 7c 32 bd 23 6a d5 3c 9e 1b 3c bd
       -0.033958588 -0.043575946 0.026051586 -0.045924775
000030 64 53 8e 3d 24 44 c9 3d 9e 43 8d 3b ec 5e 7a bd
       0.06949499 0.0982745 0.004311039 -0.06112568
000040 a6 56 88 bd fe 93 6d bd 81 00 c6 3c 11 15 ef 3c
       -0.06657152 -0.058002464 0.024170162 0.02918485
000050 d4 49 57 bc a6 4a a7 3d dc f4 c9 3d 3b da 67 ba
       -0.013140161 0.08168535 0.09861156 -0.00088444696
000060 85 dd 63 3d 59 57 c8 3c 8f c1 b4 bd d9 3d a7 3d
       0.05563118 0.024455713 -0.08825981 0.081660934
000070 42 70 19 3d 70 99 fe bd 23 1e a8 3d 65 f5 11 be
       0.037460573 -0.1243161 0.08208873 -0.14253767
000080 7d 71 84 bd e0 12 39 bd dc 3b 1a 3d 9a 8b a0 bd
       -0.06466959 -0.045184016 0.037654743 -0.07839127
000090 8d e1 c2 3d cd b4 85 bd 49 27 af 3c c6 e1 47 bc
       0.09515677 -0.06528626 0.021381037 -0.012199825
0000a0 15 f4 0b 3e 28 d2 0a 3c c7 6e e5 bd 33 d9 09 3d
       0.13667329 0.008472957 -0.1120277 0.033654403
0000b0 9c e7 78 bd 84 7a 51 bd 68 38 a3 bd ff d8 2f bd
       -0.060767755 -0.05114223 -0.07969743 -0.042931553
0000c0 74 7b ca 3d cf c1 87 3d 34 df 11 3d aa 3a db bd
       0.09886828 0.06628763 0.035613254 -0.10704549
0000d0 e4 19 8c bd f2 5a 3f bd 5f 02 ab bc 31 4e a9 bd
       -0.06840876 -0.04671759 -0.020875154 -0.08266867
0000e0 9d 7d 13 bd 0a be 55 3d e0 64 2f 3d f4 08 b2 3d
       -0.036008466 0.05218319 0.04282081 0.08693114
0000f0 fd 60 74 3b 25 64 4a bd 42 11 a2 bd 55 1c 02 3e
       0.0037289255 -0.04941191 -0.07913448 0.1270612
000100 6d ff 4e 3c 2b 53 9c 3d c4 9a fb bd 31 ae 65 bd
       0.01263414 0.076330505 -0.122853786 -0.056074325
000110 26 2a cc 3c 1e cd d2 bc f4 44 eb 3d fe 64 b9 bd
       0.024922442 -0.025732573 0.11487761 -0.09052466
000120 6a 52 21 bd bd 56 c4 bd 28 1b 3d 3c fc 15 91 bd
       -0.039385237 -0.095868565 0.011542119 -0.07084271
000130 cf 16 d7 bc 0c 06 b9 bd bc 48 22 bd 1c 26 a1 3d
       -0.026255993 -0.090343565 -0.039620146 0.07868597
000140 e2 d5 ac bb 86 a3 10 be 54 dd 2f 3d 52 ab af bd
       -0.0052745203 -0.14124879 0.042935684 -0.08577599
000150 3d 1a af bb 1f 8b b1 3d b8 48 2b bb 3e 4b 98 3b
       -0.005343704 0.08669113 -0.0026135873 0.0046476414
000160 93 3b e1 bc 34 21 d6 3c 2b 2b c9 3c e9 11 84 bd
       -0.027494228 0.02613888 0.024556717 -0.064487286
000170 a3 8f 0d 3e 07 ac 12 3e 59 7c f0 bc 68 0d 9c bd
       0.13824324 0.14323436 -0.029356169 -0.076197445
000180 ac 4e 86 bd 7a 22 fa 3c dd d7 87 3d 4b 7e cc bc
       -0.06557974 0.030534018 0.066329695 -0.024962565
000190 18 69 eb 3d fb 6e 1a 3c 94 46 25 bd 29 3f a7 bc
       0.114946544 0.009425874 -0.04035051 -0.02041586
0001a0 2a 25 f6 bd 00 72 d0 bd 11 76 55 bd cd bc bd 3d
       -0.12018807 -0.10177994 -0.05211455 0.092645265
0001b0 54 d6 c7 3c 61 7e b1 bc 21 bb a2 3d ec 2e 19 3c
       0.024394192 -0.021666707 0.07945848 0.009349566
0001c0 c6 5b e1 3c 19 8b 55 3d 5b f4 09 bd 32 81 6a bc
       0.027509581 0.052134607 -0.0336803 -0.014313029
0001d0 b3 fa d0 3d 1b 9b ed 3c 6e 36 95 3c d5 ea 7d bc
       0.10204067 0.029004624 0.01821443 -0.015497883
0001e0 4d 6a 11 3e c8 74 44 bd ca 4c 99 bc 25 d1 13 3e
       0.14200707 -0.047962934 -0.018713374 0.14435251
0001f0 8e c2 07 3e 68 c5 18 3d ae b5 2f 3d 4f 8d 64 bc
       0.1325781 0.037297636 0.042897873 -0.013949706
000200 76 86 a8 3d b2 16 a9 3c f0 36 d2 3d 13 45 a9 bd
       0.082287714 0.020640705 0.10264385 -0.08265128
000210 ba 0d 1f 3d c3 3d 45 bb f2 74 db 3d fc 5d 2c bb
       0.03883145 -0.0030096627 0.10715665 -0.0026301136
000220 fb d4 a5 bd 66 51 ad bc 8d db 76 3d 6a bf d5 ba
       -0.080972634 -0.021156978 0.060267974 -0.0016307656
000230 f7 97 0d be 06 33 35 bd 8c a0 d3 3d dc 2f 76 3d
       -0.13827501 -0.044238113 0.10333356 0.060104236
000240 c8 92 9d bc 91 9d 36 bc a2 54 b8 bc 1b 37 92 bb
       -0.01923503 -0.011145965 -0.022501294 -0.0044621355
000250 85 d8 f8 3d 84 8e 19 3e 96 79 33 3c bb b2 72 3d
       0.12150673 0.14995772 0.010954281 0.059252482
000260 c2 05 9c 3d e6 d4 b5 bd 9f d3 d7 3c 4f 33 fb bc
       0.07618286 -0.08878498 0.026346026 -0.030664114
000270 36 e0 66 3d c3 a0 a7 bd 86 42 de 3c bb 65 f4 3d
       0.056366168 -0.0818496 0.02713133 0.11933466
000280 b9 09 c6 3d ec b4 da bd 53 4b 83 3d cd a4 c5 bd
       0.09669823 -0.10679039 0.06410851 -0.09650574
000290 3e 16 8d bc aa 6f f6 3c ce e2 fd bd b3 fa 54 3d
       -0.01722252 0.030082542 -0.12396775 0.051996898
0002a0 95 b3 83 3d 60 0c 1f bb bd f5 d3 bd c5 e5 40 bd
       0.06430737 -0.002426885 -0.10349605 -0.047094125
0002b0 9c 07 36 3d d2 ac c7 3d 50 bd 9b bc 94 87 ba 3d
       0.04444085 0.0974976 -0.01901117 0.09107891
0002c0 6a 6b a3 bd c5 88 eb ba 89 64 c9 bd 52 9c b9 3d
       -0.07979472 -0.0017969838 -0.09833629 0.09063019
0002d0 e0 b4 ad 3d f8 f2 61 3c 1b 2b 4b bb 79 e7 13 bd
       0.08481765 0.013790838 -0.0031001035 -0.03610942
0002e0 63 92 f2 bd af dc 8b bd f6 40 91 bc 12 a2 4a bd
       -0.11844327 -0.068292014 -0.017731171 -0.04947097
0002f0 ca 53 7e 3c 40 4d bd 3b bc ea 07 3d 98 47 2d bc
       0.015522907 0.005777031 0.033182845 -0.010576151
000300 34 87 04 bd 13 34 95 bd 91 42 16 be a7 1b 4b bc
       -0.032355502 -0.07285323 -0.1467383 -0.01239673
000310 fe ab e3 3b e1 d2 25 3c 5d 51 f8 bc ae 93 16 3d
       0.0069479933 0.010121078 -0.030312235 0.036761932
000320 31 d6 82 3b 14 05 b3 bc 06 b2 9c 3d 75 2c e3 3c
       0.0039928188 -0.021853007 0.07651143 0.02773116
000330 7d 1d 40 bd 77 0c 6b bd 5a e3 bc 3b 84 f2 f2 bd
       -0.046903122 -0.057384934 0.005764407 -0.118626624
000340 4f b4 90 3c 99 1b d6 3c 26 07 42 3d 43 4e da bd
       0.017664103 0.026136206 0.0473701 -0.106594585
000350 e9 e2 76 3d a0 b6 05 3d e3 59 cc 3d cc 6d dc 3c
       0.060274992 0.032644868 0.09978082 0.026907824
000360 2d 6e d7 3d 25 ac 86 3d e9 4a f3 3d 99 49 da 3d
       0.10519061 0.06575803 0.11879522 0.10658569
000370 f6 7c 31 bd de c4 0e 3d fe 16 3e 3d 47 55 80 3d
       -0.043332063 0.034855716 0.046408646 0.06266265
000380 2c 70 76 3d 08 00 f1 bc ff b3 d6 bc de c5 b7 3d
       0.06016557 -0.02941896 -0.026208876 0.08973287
000390 59 cf b0 3d 43 0d 1f 3e a6 ae bc 3c 5f 57 49 3d
       0.086332984 0.15532403 0.023032498 0.04915559
0003a0 52 51 96 bd 4b d8 4f bd 2e 46 4e bd e7 bb d1 bc
       -0.07339729 -0.050743382 -0.050359897 -0.025602294
0003b0 bb 22 22 3d 1b ad d1 bc 5a 89 00 3e 23 ba a2 3d
       0.039583903 -0.025595238 0.12552395 0.07945659
0003c0 2f 8d 12 bd f2 92 4f bd c6 85 f3 bc 98 bc ac bd
       -0.035779174 -0.050677247 -0.029726874 -0.08434409
0003d0 ee 89 60 3d da b5 9a 3d 08 b3 24 bd 86 b0 8c bc
       0.05481904 0.07554217 -0.0402098 -0.017174017
0003e0 25 2f aa bd be f8 b7 bd e5 4d 70 bd a5 68 3b 3d
       -0.08309773 -0.08982991 -0.058668036 0.045754094
0003f0 b8 fb 42 3c 1c c3 5c 3d 56 9f b1 3d 12 36 42 bd
       0.011900835 0.05389701 0.08672969 -0.047414847

layers.2.bias f4 [90]
000000 20 4d 96 bc 22 e0 12 bd f4 9f 5f 3c 4e 24 92 3c
       -0.018347323 -0.03585828 0.013648976 0.017839577
000010 48 98 1e bd 5a 83 8b 3d 37 15 b6 3d 8c 16 4f bd
       -0.038719445 0.06812163 0.08890765 -0.05055861
000020 88 79 07 3d be 59 37 3d 5e 2e a8 3d 3e 7a 3f 3d
       0.033074886 0.04476332 0.08211969 0.04674744
000030 dc d4 bb bd 3b 63 c4 3d 16 f0 8a bd e9 18 b0 3d
       -0.09171459 0.09589239 -0.06784074 0.08598501
000040 e7 c0 88 3d 71 fc 7c bc 0b 3c d3 3d eb 86 29 3d
       0.06677418 -0.015441046 0.10314187 0.041388433
000050 dd ad 8e bd 0b 76 01 bd c7 ec 63 bc cb 61 9c bc
       -0.069667555 -0.031606715 -0.013911433 -0.0190896
000060 3f 98 89 3d 44 d9 79 bd 23 84 03 3d e2 00 76 3d
       0.06718492 -0.060998216 0.032108437 0.060059436
000070 48 46 04 3d 59 fe 47 bc 47 43 61 bd 05 9d ad bd
       0.032293588 -0.012206637 -0.0549958 -0.08477215
000080 92 7b af bb 0b 87 71 bd fc 42 cc 3d d5 eb 73 3d
       -0.005355307 -0.058966678 0.09973714 0.05955108
000090 ee 42 38 3d 76 cf c1 bd 77 37 be bd 56 18 c0 3c
       0.044985704 -0.09463398 -0.09287923 0.023449104
0000a0 e6 7e ed 3c 58 2a 4f 3d 22 66 a1 bc d8 66 90 bd
       0.028991174 0.05057749 -0.019702021 -0.07050866
0000b0 aa c3 b8 bd 96 d2 9a bd b3 ad fc 3c 8b db e7 3c
       -0.09021695 -0.07559697 0.030844545 0.028302928
0000c0 ba cb 82 3d 6f 71 34 3d a6 c0 55 bd 56 db ba 3d
       0.06386514 0.04405349 -0.052185677 0.09123866
0000d0 95 73 40 bd f4 2a f2 bc e3 50 46 3c 72 d8 be bb
       -0.046985228 -0.029561497 0.012104246 -0.005824142
0000e0 ff 74 9e 3d b0 b9 a6 3b b5 df 92 bc 16 fe d8 bd
       0.07737159 0.0050880536 -0.017928937 -0.10595338
0000f0 42 fc 45 3c 9e ba af bd 60 8f a7 3c bf 4f 55 bc
       0.012084069 -0.08580516 0.020454109 -0.013019501
000100 4b 7e a3 3c c5 5c e0 bd 19 b4 44 bc c3 60 90 bd
       0.019957682 -0.109551944 -0.012005829 -0.07049706
000110 eb 73 db 3d 08 dc bb bd 18 86 48 bd 08 7c 5c bc
       0.10715469 -0.09172827 -0.048956007 -0.013457306
000120 dc 66 a8 3d 25 c8 a1 3d f1 a3 be 3a f3 94 a9 bd
       0.08222744 0.07899503 0.0014544708 -0.08280363
000130 0b 0d 96 3d 13 0c 9b bd fc 8a 41 bc b8 d3 32 3d
       0.073267065 -0.07570662 -0.011812922 0.043658942
000140 01 de b6 3d 2c 58 8d bd d1 bf c5 3d 10 a2 89 bd
       0.08929063 -0.06901583 0.09655727 -0.06720364
000150 ab 1d 68 3d 83 5b 5e bd 83 86 42 bb 57 1b 6f 3d
       0.05666892 -0.05428649 -0.0029682226 0.058375683
000160 43 a9 86 3d 4d c2 ea bd
       0.06575253 -0.11462841

layers.3.weight f4 [5, 90]
000000 5e 18 2d bd 38 4a 02 3d 78 e0 86 3d 59 be bf bd
       -0.042259566 0.03180906 0.06585783 -0.09362478
000010 eb 22 4f bd f1 31 c3 bd b6 4d be bd c3 db 7b 3d
       -0.05057041 -0.0953101 -0.09292166 0.061488878
000020 5b fe e3 3d 87 11 3b 3d 56 69 ea bd 04 ec b2 3c
       0.11132499 0.045671012 -0.114458725 0.021841057
000030 81 16 dd 3d ae 95 ab 3d 61 11 e4 bd 55 0d cc bd
       0.10795308 0.083781585 -0.11136127 -0.099634804
000040 e0 f8 3a bd d2 d2 ce 3d af 34 15 3c f3 55 dc bd
       -0.045647502 0.100988045 0.009106799 -0.10758581
000050 0e 6e 2c bd 7d 08 2f bd f6 c9 fd bc eb 4a 42 3d
       -0.042097144 -0.042732704 -0.030980092 0.04743473
000060 09 8d 90 bd ce 2b a5 3d 54 23 d4 3d 45 07 c3 3d
       -0.0705815 0.08064996 0.10358301 0.09522871
000070 4e f0 ab 3d 33 a9 c8 bd 21 fb 9b 3d 70 60 4d 3d
       0.08395444 -0.09797897 0.076162584 0.050140798
000080 16 66 aa 3d 5d 07 03 be 7b ff c5 bd b8 f3 bf 3d
       0.083202526 -0.12795778 -0.0966787 0.093726575
000090 c6 7b ad bd 59 81 ad 3b 09 4c c0 bd 65 d5 b2 bd
       -0.084708735 0.0052949605 -0.093895026 -0.08732108
0000a0 61 80 19 bd 45 57 5b bd cc 20 51 bd dc c9 66 3d
       -0.037475947 -0.053550024 -0.05105667 0.05634485
0000b0 d3 3d 48 bd e5 2e 08 3c 95 73 cb bc 1d 14 4d bd
       -0.048887085 0.008311962 -0.024835387 -0.05006801
0000c0 95 a0 6b bd a7 e6 be 3d 0c 80 88 bd c9 13 56 bd
       -0.05752619 0.09321337 -0.06665048 -0.052264962
0000d0 f4 10 c2 bc 6d 6c e8 3c ad 4a 6d bc fa d6 10 3d
       -0.023689725 0.028372014 -0.014483136 0.035361268
0000e0 60 bb 69 bd 1a a5 02 bd 10 db 0a 3c 96 ca d8 3d
       -0.05706346 -0.031895734 0.00847508 0.10585515
0000f0 55 7e 47 bd 11 ac b3 3d 85 83 35 bd be 0f 9f 3c
       -0.048704464 0.087730534 -0.04431488 0.019416686
000100 72 9b ab bd 4e 54 12 bd d5 13 9f 3d 25 38 f7 bd
       -0.08379258 -0.03572493 0.077674545 -0.120712556
000110 54 4e d1 bd 3f f1 22 3b 53 ee fd 3c 69 2c 6c bd
       -0.10220018 0.0024863032 0.03099743 -0.05765954
000120 fa 9f 0d 3e 3a 86 cf bd bb e5 0d be 8a e6 ec 3d
       0.13830557 -0.101330236 -0.13857166 0.11567409
000130 4d 8f 67 bd 14 4a 02 be 99 7d f0 3d 53 ce aa 3d
       -0.056533147 -0.12723571 0.11742706 0.083401345
000140 5a 10 45 bd 97 46 e3 3d 1e 92 35 39 b1 6f 98 3c
       -0.048111297 0.11097448 0.00017315938 0.018607946
000150 48 06 39 3d 5a f7 8d 3d f0 ad e9 bd 59 9d ad bd
       0.045172006 0.06931944 -0.11410129 -0.08477277
000160 6f 4b 87 3d 2a b6 9a bd 9b 78 7b 3d 97 7d cd 3d
       0.06606185 -0.07554276 0.061394315 0.1003372
000170 43 8e 24 3d f1 4e 97 bd ad 0b c1 3d 88 ce 89 bd
       0.040174734 -0.07388104 0.09426055 -0.06728846
000180 f4 c8 8f 3c 63 cd d2 bb eb 60 3d bd 36 be 6d 3d
       0.017551877 -0.0064331754 -0.046235006 0.058042727
000190 2e cd 9d bd 47 5d f1 bd 96 01 71 3d b8 40 46 3d
       -0.077051505 -0.11785369 0.058839403 0.048401564
0001a0 48 16 bd 3d 0b c0 f7 bb 7d c6 d0 bd 65 f2 4c 3d
       0.092327654 -0.007560735 -0.10194109 0.050035853
0001b0 02 97 e7 3d b2 1a 84 3d 40 89 18 be 6f 54 2e 3d
       0.11308099 0.06450404 -0.14896107 0.04256099
0001c0 03 ce fe 3d d3 11 f4 3d 2a c2 0c 3e 46 b6 66 3d
       0.12441637 0.11917462 0.13745943 0.056326173
0001d0 67 ed d8 bd 6f 07 97 3d 7f a0 9e bd 20 84 3f 3c
       -0.10592156 0.07374465 -0.07745456 0.011689216
0001e0 4b 51 b1 bd 3f 69 95 bd 9b 3c e0 3d 77 11 18 3d
       -0.086580835 -0.07295465 0.109490596 0.03712603
0001f0 c0 8d a4 bc fd b6 d0 3c bb 5d 61 bd 25 de 9d 3d
       -0.020087123 0.02547788 -0.05502103 0.07708386
000200 6f 4c a1 3d b5 2e 50 3d 01 ba 25 3d ba 65 03 bb
       0.07875907 0.050825793 0.04046059 -0.0020049647
000210 25 20 ca bd b4 f2 ce 3d 30 7a da b7 34 b3 9e bd
       -0.09869412 0.10104886 -2.6044523e-05 -0.07749024
000220 61 3a d9 3d 6b fb bc 3d a6 27 a0 3d d5 8b bc bd
       0.10606838 0.09227642 0.07820062 -0.09206358
000230 c6 7a b8 3d 1b ef 4d 3c 49 c1 9f bd 8e d1 e9 bc
       0.09007792 0.012569214 -0.07800538 -0.028542306
000240 87 b6 ab bd 1b 92 c8 3d 11 5f 39 bd 4d a5 c3 3d
       -0.08384424 0.097934924 -0.045256678 0.09553013
000250 60 3a fc bc e4 a4 9e bd 9d 2c 09 bd ae 8d 01 bd
       -0.030789554 -0.07746294 -0.033489812 -0.031629257
000260 4f 9a ac 3d 14 0d 16 be 17 3b f7 3d 71 6c 3e bc
       0.084278695 -0.14653426 0.12071817 -0.011622534
000270 f8 e4 f1 bc d8 29 16 3e 14 f6 f0 3d 9b 61 b1 bd
       -0.029528126 0.146644 0.11765686 -0.08661195
000280 67 cb d2 bd 52 9d 87 3d 85 63 92 bc 16 40 f9 3c
       -0.10292702 0.06621803 -0.01786972 0.030426066
000290 fb c6 6c bd b5 86 a2 bd e0 37 b7 3d fb da 85 bd
       -0.05780695 -0.079358496 0.08946204 -0.06535908
0002a0 08 75 10 3c cf 12 2a bc c5 26 00 3e b2 0d 98 bd
       0.008816965 -0.010380461 0.1251479 -0.07424487
0002b0 52 82 0e 3e ab 5e ce bd 43 ae 88 bd 50 bd 0c bd
       0.13916901 -0.1007665 -0.06673863 -0.03436023
0002c0 00 ce 91 3d 13 db 86 bd 12 9e 9a bd 9f 8e e8 bd
       0.071193695 -0.06584754 -0.07549681 -0.11355328
0002d0 e0 4d e0 bd 68 b9 b4 bd 6a 53 c7 bd b3 01 b1 3d
       -0.109523535 -0.08824426 -0.09732707 0.08642902
0002e0 8e d3 87 bd 46 bb 78 3c 6b 56 ea 3d fe 65 45 bd
       -0.06632148 0.015181368 0.11442264 -0.04819297
0002f0 93 ad ad bd 5c 16 d5 3d c1 f2 c2 bd 73 89 f2 bc
       -0.08480372 0.10404655 -0.09518958 -0.029606557
000300 80 34 90 bc dc 44 96 3d b5 cb 03 3d bb 58 24 3d
       -0.017603159 0.07337353 0.032176692 0.040123682
000310 98 20 5d bd 56 55 a9 3d d5 48 30 bb 24 2a 92 bd
       -0.053986162 0.0826823 -0.002689888 -0.07136944
000320 08 2f 4a bc 00 12 02 be 5f 92 1a bd f4 82 a8 3d
       -0.012340315 -0.12702179 -0.037737247 0.08228102
000330 c8 ea d5 bd 02 96 eb 3d 11 d1 49 3d 15 17 1a 3c
       -0.104451716 0.11503221 0.049271647 0.009404917
000340 94 fc 97 3d 24 86 31 bd 35 bd 36 bc 08 e8 98 3d
       0.07421222 -0.043340817 -0.011153509 0.074661314
000350 e9 4d ab bd 93 c5 f5 3c e4 b9 ac 3d 4f 74 fd 3c
       -0.083644696 0.030001437 0.08433893 0.03093925
000360 85 0c 70 3d 79 09 02 3d bb e2 de 3d 1c ef 9e bc
       0.05860569 0.031747315 0.10883089 -0.019401126
000370 e0 e8 c2 bd aa 48 9f bd 75 64 1c bd 39 35 8c bd
       -0.09517074 -0.077775314 -0.03818174 -0.06846089
000380 49 1d 35 3d bc a0 dc 3c 50 8c 0e ba 86 e4 30 bd
       0.04421738 0.026932113 -0.00054377783 -0.043186687
000390 64 24 35 3d a3 ca a6 bb dd ba f6 bd f8 89 0c 3e
       0.044224158 -0.005090074 -0.1204736 0.13724506
0003a0 53 3d 30 3d d7 38 02 be c4 05 09 be 4f ac 0a be
       0.043027233 -0.12716995 -0.13381106 -0.13542293
0003b0 20 58 c6 3d 91 a9 c2 bc 6f 9f a3 bd 96 7b 8e bd
       0.09684777 -0.023762496 -0.07989394 -0.06957166
0003c0 45 5c e1 3d ca 79 ab bc 21 f0 fb bd 92 4a 97 bd
       0.11003927 -0.020932097 -0.1230166 -0.0738727
0003d0 a6 5b 14 3d 80 59 c2 3d 0c 2d fa bd b8 48 81 3c
       0.036220215 0.09489727 -0.12215623 0.015781745
0003e0 7c 8c 9a 3d 19 d7 e0 bd ec 69 0c be d2 0e 0e 3e
       0.075463265 -0.109785266 -0.13712281 0.13872841
0003f0 30 61 c0 3d e4 77 14 3d 47 91 b8 bd 40 fa 83 bd
       0.09393537 0.03624715 -0.090120845 -0.06444216

layers.3.bias f4 [5]
000000 f8 71 0d bc 49 13 28 bd 48 e2 b8 3d d6 65 27 3d
       -0.008633129 -0.041034017 0.09027535 0.040868603
000010 10 c7 67 3c
       0.014146581
