irony/models/model_25.pt (torch_old, 38823 bytes, 8 tensors)

layers.0.weight f4 [70, 10]
00000000: 89f3 693c add2 253e 20f2 8fbe 3521 9cbe
00000010: 03f2 503d 43a2 083e 75e9 513e 913c b03d
00000020: 5e33 dfbd 546b 303e 09dd 8c3e c5ed 01bd
00000030: a729 3abe f7c8 cfbe a3c7 6e3d 901e 893e
00000040: 15f5 eb3c 5886 ff3d a496 34be 5910 86bd
00000050: e42f b13e 8e58 493e ebce 173e 6351 fd3d
00000060: 0b7c 73bd 1a5e 9a3d 8990 863e 590a 953d
00000070: a99d 35be 509f 573d 1cac 8a3b 7985 35be
00000080: 0c54 06be 7eb0 ab3e 9e54 d03b b6bf e5bd
00000090: f750 46be d96f a7bc 464a 953e 4094 163d
000000a0: 97f8 7a3d 7fd6 c1bd d30c 50be 6855 253e
000000b0: 0c9f 323e 3b33 33be 9bf1 d5bc 8ddf e7bd
000000c0: a447 563e d221 263e 4f88 3a3e ba85 e23d
000000d0: c3d4 013e f183 53be e9e7 cebd 8e7b 86bc
000000e0: 2a1c 4f32 f0c1 88bd 3921 e8bc fe8d 803e
000000f0: e964 adbd aeb1 de3d f2ec 70bd d96f a33d
00000100: 8ce8 913d 47cf 3e3c 3088 c7bd 03c4 983a
00000110: 131e b295 b5d3 33ba 1f7e bd3e ef57 e2bd
00000120: 925a b0be 9483 ffbd 7aed 6fbd 2a41 903e
00000130: 6060 103e dd88 c53d 0b86 76bd 8976 58be
00000140: e509 9ebe f278 d03d 6151 8d3d 130c 043d
00000150: 94ca 483e f768 0b3e ea6d 843e 2184 d1bc
00000160: ae10 cbbd 74c2 2e3d a966 1bbe e7d9 8b3e
00000170: f28c 853e 2fb3 2abe 264a 27be 28cf 82bd
00000180: 7be6 693e 9369 5bbc f267 613e 1d4f 42be
00000190: 6d1c bfbe b083 bdbe 1793 7d3e f4b2 12be
000001a0: 2a19 08bc 87c6 ce3c 38f0 0dbd 8b5a 00be
000001b0: 101c 79bb c732 8a3e 3c7e 65be 0502 193e
000001c0: 129c eebd 692a 763e a334 053e 1ab5 683d
000001d0: cb38 a43d 3f33 e93d d9e5 873e 8930 8ebc
000001e0: c937 96be 1e3e 8bbe 4d1f 763e d535 963e
000001f0: 5844 fcbd c491 143e b271 95bd d244 a4bd
00000200: 3fdd dabd c8ff 1b3e b324 ae3e 59a2 3f3d
00000210: 0e70 ba3e e1a0 8f3e 8708 40be 2e44 503e
00000220: 40b9 2e3e 5cbe ed3d 822f 0ebe ffe6 2abe
00000230: 5500 2e3e c2f5 503e ec86 033e 3356 9c3d
00000240: 9967 2cbe dde6 39be 9d59 debd f5a7 9f3d
00000250: 70ff 43bd 2030 05be af25 82be 40e9 70be
00000260: 42d4 02bb 1d8c 8f3e 80da 313e 8bba fbbd
00000270: 5861 463e 3244 0c3e 3410 723c 925a bf3d
00000280: 19d2 68be 88bb 49be 595a aebe 37f8 323d
00000290: 0358 10bd 16b6 cfbd 74d9 22be 3e56 9e3d
000002a0: 0c0d e2bd 7b34 6f3e a4cf 53be 88dc 1bbc
000002b0: 9b42 0f3c cee7 c63d c6b9 383e 2ed0 01bd
000002c0: e75a 443e 3578 863d db0f 0cbe 978e 87bc
000002d0: e4ff 20be 64c6 fb3d 23c9 a3bc a60a d1bd
000002e0: 89f9 953e 1ac3 61be 7208 fb3d 73b4 cc3d
000002f0: bd41 b13d f990 9a3e 8e7d 8ebe e251 b73d
00000300: bb07 0ebe 687c ab3d 38f4 383e 8621 843e
00000310: 3088 47ae 5f7b a8a0 9fd8 a13e 4221 28b9
00000320: 3eb8 8dbe 3076 2d3e 264a a33d 02d6 c23e
00000330: fd5d 2b3c a08c fdbc 6bbd 273d 9a1a 533e
00000340: 67b1 9a3e 4732 1d3e 83b5 cc3e 3957 803e
00000350: baeb 9ebe b43c 023e 5d1e 943e dc96 dcbd
00000360: 3321 933e d56b bcbc 2bdc 373c 0fa3 5dbe
00000370: 3977 263d 6cee 0cbe e80e 67bc 1455 453e
00000380: 9816 823e 53df 863e 603e 01be 1ac8 593e
00000390: edc0 8cbd 0c98 2c3e a847 933d 5e6a fd3c
000003a0: 4fc0 6d3e 71e8 07bd 16c8 c8be ff5f 2fbe
000003b0: f594 953e 5e42 e73d cf42 133d 81d7 f8bd
000003c0: da71 28be 768a a7bc cd2d a53d 7f53 5fbd
000003d0: ffc5 8ab8 eb33 363d 2c46 1439 7657 f0bd
000003e0: bb1b 0ebe cc3d 3cbe 1402 84be 080a c8be
000003f0: 3fc4 653e 94b9 423e 337b 24be 7c3c 513e
0.014279255 0.16193648 -0.28114414 -0.30494085 0.05101205 0.13343148 0.20499213 0.08605302
-0.108984694 0.17228442 0.27512386 -0.031720895 -0.18179952 -0.40583012 0.058295857 0.2678113
0.028803388 0.12476796 -0.1763559 -0.06546087 0.3460685 0.19662687 0.14825027 0.12369039
-0.05944447 0.0753748 0.26282147 0.07277364 -0.17735924 0.052642167 0.004231943 -0.17726697
-0.13117999 0.3353309 0.0063577434 -0.112182066 -0.19366823 -0.020439075 0.2915823 0.036762476
0.06127223 -0.0946474 -0.20317392 0.16145861 0.17443484 -0.17500012 -0.026116183 -0.11321936
0.20925766 0.16223839 0.1821606 0.110606626 0.12678818 -0.206558 -0.10102827 -0.016416337
1.205539e-08 -0.06677616 -0.028336154 0.2510833 -0.08466513 0.108737335 -0.05881972 0.079803176
0.07124433 0.011646098 -0.097427726 0.0011655096 -7.1941076e-26 -0.0006859855 0.37010285 -0.11051928
-0.344441 -0.124762684 -0.058576085 0.28174716 0.14099264 0.09645245 -0.060186427 -0.21138968
-0.30866924 0.101793185 0.069002874 0.032238077 0.19608527 0.1361426 0.25865108 -0.0255757
-0.09915291 0.042665914 -0.1517588 0.27314684 0.26084095 -0.16669916 -0.16336879 -0.06387168
0.22841828 -0.01339187 0.22012308 -0.18975492 -0.37326375 -0.37014532 0.24763142 -0.14326078
-0.008306781 0.02524115 -0.03465292 -0.1253454 -0.0038011111 0.26991865 -0.22411436 0.14942177
-0.11650862 0.24039616 0.1300836 0.056813337 0.08018645 0.113867275 0.26542547 -0.017357128
-0.29339436 -0.2719583 0.24035378 0.29337946 -0.12317723 0.1450873 -0.07297076 -0.08020939
-0.106867306 0.15234292 0.34012374 0.046785686 0.36413616 0.28052428 -0.18753253 0.20338508
0.17062855 0.11608574 -0.1388531 -0.1668968 0.16992314 0.20406249 0.12844437 0.07633629
-0.16836394 -0.18154474 -0.10856936 0.07795707 -0.047851026 -0.1300664 -0.25419375 -0.23526478
-0.0019962941 0.28036585 0.17368507 -0.122914396 0.19373071 0.1369789 0.014774371 0.09343447
-0.22736396 -0.19700444 -0.34053305 0.043693747 -0.035240185 -0.10142152 -0.15903264 0.07731293
-0.11037645 0.23359863 -0.20684677 -0.009513028 0.008743907 0.09712182 0.18039617 -0.031692676
0.19175301 0.065658964 -0.13677923 -0.016547484 -0.15722615 0.122936994 -0.01999337 -0.10207109
0.29291943 -0.22047082 0.1225747 0.099953555 0.08655117 0.3018873 -0.27830166 0.08951165
-0.13870136 0.08373338 0.18061912 0.25806826 -4.536832e-11 -2.8541947e-19 0.3161058 -0.00016034118
-0.27679628 0.16939616 0.07973127 0.380539 0.01045942 -0.030950844 0.040952127 0.20615616
0.30213472 0.1535121 0.39982232 0.25066546 -0.3103922 0.12718469 0.28929415 -0.10770962
0.28736266 -0.023000637 0.011221926 -0.21644233 0.040641043 -0.13762826 -0.014102675 0.19270736
0.25407863 0.26342258 -0.1262145 0.21267739 -0.06872735 0.16854876 0.07191402 0.030934509
0.23217891 -0.033180658 -0.39215153 -0.17126463 0.29215208 0.112919554 0.035952386 -0.12150479
-0.16449681 -0.020451766 0.080653764 -0.054522987 -6.6172324e-05 0.044483107 0.00014140521 -0.11735432
-0.13877766 -0.18382949 -0.25782835 -0.39070153 0.22438143 0.19016105 -0.16062622 0.20433229

layers.0.bias f4 [70]
00000000: 5fc5 8d3e 2c4c 4b3e f4f5 173e f881 6bbe
00000010: bd2d 2b3e 44b5 28be ecf7 10be ee1e f63c
00000020: 4311 cb3d 2169 dc3d f568 8d3e 9bc9 f9bc
00000030: 5ba2 b03d 2afa dbbd 8eb2 593e ab55 a03c
00000040: d9d7 f33d 183b 0f3e 0f4d e0bd 697d 69be
00000050: ae14 a4bd 125c 99bd 06b1 093e ec66 823e
00000060: b825 e1bd e9e5 713e 22e0 053e 6b3a 013e
00000070: 932d a2ba 2cdd 4e3e 72fa 853e 6fa3 843e
00000080: e8f1 e8bd 6d32 97bd ed94 a63c a37b 173e
00000090: 89b3 adbd a084 843e 4e7a eebd 8ac8 45be
000000a0: a5d6 263e a561 3b3e 9b97 8fbe 2d7e a1bc
000000b0: e3bf b63d b9db 6d3e 8634 0d3d 82ba 7f3e
000000c0: 4f5e c73d 77ad 9b3c 4c4f a9bd 23cc 90ba
000000d0: 86a7 1cbe 57e6 8c3e 7186 5d3e 8749 503c
000000e0: ab21 18be 2750 803e 533f 09be 3b99 e83d
000000f0: 7141 ecbd 3da9 613e 87f4 703e bf2d 173e
00000100: f76a 973d 124f 6d3e 1360 213e 1f08 5a3e
00000110: 898f fe3d bbc1 163d
0.27689645 0.19853276 0.14839917 -0.22998798 0.16716667 -0.16475397 -0.14157075 0.030044045
0.09915402 0.10762239 0.27619138 -0.03049164 0.08624717 -0.107410744 0.2125952 0.0195721
0.11906404 0.13987386 -0.10952198 -0.22801746 -0.08011757 -0.07488264 0.13446435 0.25469148
-0.109935224 0.2362286 0.13073781 0.12619941 -0.0012373201 0.20201558 0.26167637 0.2590594
-0.11374265 -0.07382665 0.020334685 0.14793257 -0.08481509 0.25882435 -0.116444215 -0.19314781
0.16292818 0.18298967 -0.28045353 -0.019713486 0.08923318 0.23228349 0.03447392 0.24973491
0.09734785 0.019003613 -0.08267078 -0.0011047166 -0.1529828 0.27519485 0.21633317 0.012712843
-0.14856593 0.2506115 -0.13403063 0.113573514 -0.115359195 0.22037216 0.2353078 0.14763544
0.07393449 0.23174694 0.15759306 0.2129216 0.12429721 0.03680585

layers.1.weight f4 [50, 70]
00000000: cf55 bf3c e8f4 2c3d ab67 c5bd 585a 1b3e
00000010: 0b12 983d 8879 86bd 9c43 7eb9 db4f a03c
00000020: 7f83 493d 465b 4b3d 6aa2 173e 467a 023d
00000030: 3140 b53d 7958 59ba 202f 2fbe ef91 f13d
00000040: 2672 0e3e a1be 053e 26c8 0c3e f3f6 3f3d
00000050: 70a6 1a3e dce4 d63d 4abe 1f3d e323 d7bc
00000060: 6eff d6bb ffe3 d8bd e9df ac3d a2b3 e73c
00000070: e314 b23d c5f3 60bd 5f8f 303d b8ac d2bc
00000080: 4c90 ef3a 6942 e536 bdda 72bd 1e8d 4e3d
00000090: 3d5c cf3c a5e3 c43d d2c0 853c 4a44 0ebb
000000a0: 8e32 4a3d ce36 dd3d 1ec0 00bd 3741 1f3d
000000b0: c691 743d 76d4 2dbe 230b 12be 3ae2 22be
000000c0: 9134 28bc 7b00 53bd 82c1 963c 0f33 24bd
000000d0: 816b 8c3c a226 fabc 2d3b 90bb a2c9 23bd
000000e0: 4ffe fc3d 8683 0a3e 781a ccbd 8397 3ebd
000000f0: 7089 23be 6e30 083c 37d7 eebd 79b0 e3bc
00000100: b4a7 023e 7dce c33d e5e8 39bc a03f 8e3d
00000110: dd4d 1c3e bbde 8d3c 5dca 1b3d 3574 6c3d
00000120: 8098 743d 7e11 353c 27f8 15bd 3a42 e7bb
00000130: 2b08 c1bc 9e2c cabd a3fd e33c b6fc bcbc
00000140: a0d4 3d3d 833b d1bd da23 bfbd 643c 3a3e
00000150: ceaa 06bd e381 e5bc 9ada 1cbd 5034 a5bc
00000160: ea97 fabd 6a7c 23be 11ed b0bd ee6f b53c
00000170: aa82 a1bd 264b c33c fd55 a3bb 0f43 ac3c
00000180: f7a1 88bd 4094 0ebe 21cb 2e3d 79b7 4bbd
00000190: 1e6c 32bd ba96 083d afc4 46bc cb5b 2cbc
000001a0: 3703 af3d 82b5 ef3c 28ab d63d 6e3a 833d
000001b0: 4dc3 113e cd8a c1b8 6410 0cbe 05a3 8e3c
000001c0: 2151 c0bd 871f e33d 8d2f fa3d 632c 853d
000001d0: b737 363e 071b 223d 9ed8 353e 81f7 02bd
000001e0: 13fa e8bd 1ab0 c8bb 8ae4 90ae 51c0 08be
000001f0: 2476 df3d d9b9 2f3d 9495 893d e9c0 babd
00000200: fb8e a2bd 5c1f b5bc cd1e ba3d 98d2 b7bd
00000210: ba57 103d f369 193d 768c e83c 7f70 923d
00000220: 78bb 133e cb88 b33d fc07 3fbd 8342 d23c
00000230: 369d 5abd 19e1 a8bd 9718 9f3d 25e1 8f3a
00000240: 1949 2fbd 79f2 fabd d8f1 7315 1e9d 77bd
00000250: 8cc6 01be f496 aebd f87f 01bd 2d60 a53d
00000260: ab29 013e 5de2 43bd b380 c1ba de10 1a3d
00000270: 56f2 89bc 73f6 dfbd 398d 84bc 2fbf 2ebb
00000280: d38b 8c3d 553a 80bc b334 f8bc e91f 233c
00000290: 0d3d d9b9 3b1d 443d 73e2 8abd 99fb 07be
000002a0: 34e2 7a3d 0f7e 2cbd 17c0 c03d ca2a 2bbc
000002b0: 20ad f8bd 3607 2c3b 6471 2f3c f2ee b03d
000002c0: 4776 af3d e66a 55bd a78c d83d 8b36 70bb
000002d0: d393 84bd f3a2 9e3c 4170 c2bd 64ac 15be
000002e0: 67c6 b23d abe5 86bd 5ec7 523d 6d45 7bbd
000002f0: 938d aa3d 5db4 48bd 12d4 d2bc aa73 c938
00000300: 169d a1bc e129 cbbd c194 0c3e c44e 0a3d
00000310: 8547 253e 88c8 93bd bd4a 65bc 0dcd 9c3d
00000320: 9d5d a3bd d4f7 c83c bfcd d33c ca02 ef3d
00000330: d077 493d 7a25 6bbb cfad abbd 6267 d7bd
00000340: 927d 90bd 9fc3 b53c 057e 43bd 7b07 2bbd
00000350: 233a 55bd 2d63 fb3d 1569 73bc 61e5 c9bd
00000360: c0a0 9b3a 6bd0 5ebd fc0c 76ba 6381 bc3c
00000370: da9f b13d 1999 ed3d 8371 803d e96e 6d3d
00000380: 6b84 febd f4b4 d73d 7c2a ca3d 05a8 bd3d
00000390: e1dc c6bb 50da c83d ca2b a1bd 4e7a 8d3d
000003a0: d7be 71bd e1e6 7fbd a5c6 9b2d 6be2 52bd
000003b0: 233d 1abd e62b 2e3e ccea 623a 1b50 0cbd
000003c0: 547b 8ebc 3428 d33d 490e 3f3e 6864 d43c
000003d0: 80a5 a43d 2ed6 c93d db5b c9bd 4be9 013e
000003e0: f10f 473d 491e 893c f8e0 8dbd c208 3e3d
000003f0: 82f4 673d 280b c0bd 4f57 38be 6134 493c
0.023356346 0.04222575 -0.09638914 0.15171182 0.074253164 -0.06566149 -0.00024248514 0.019569328
0.04919767 0.049647592 0.1480805 0.03185489 0.08850134 -0.00082910765 -0.1710782 0.11795413
0.13910732 0.13061 0.13748226 0.04686637 0.15102553 0.1049287 0.038999833 -0.02626223
-0.0065612113 -0.10590362 0.08441145 0.028283898 0.0869539 -0.054919977 0.04310548 -0.025717124
0.0018277257 6.832463e-06 -0.059290636 0.05042755 0.025312537 0.09613732 0.016327295 -0.0021708184
0.04936462 0.10801469 -0.031433217 0.038880553 0.059709333 -0.16975579 -0.14262061 -0.15906611
-0.010266439 -0.05151413 0.018402819 -0.040087756 0.017141106 -0.030536 -0.0044015856 -0.039987214
0.12353193 0.13526735 -0.09965986 -0.04653121 -0.15970397 0.008312328 -0.11662143 -0.02779411
0.12759286 0.09560869 -0.01134703 0.06945729 0.15264077 0.01731812 0.038034786 0.05772801
0.059715748 0.011051534 -0.03661361 -0.0070574554 -0.023563465 -0.09871791 0.027830904 -0.02306972
0.046345353 -0.10216429 -0.0933301 0.181871 -0.032877736 -0.028016036 -0.038294412 -0.020166546
-0.122360066 -0.15965429 -0.08638967 0.022148099 -0.0788625 0.023839545 -0.004984616 0.02102807
-0.06671517 -0.1392374 0.042674188 -0.04973552 -0.04356014 0.03334687 -0.012131854 -0.010519932
0.08545535 0.029261354 0.10481864 0.06407629 0.14234658 -9.228811e-05 -0.13678128 0.017411718
-0.09390474 0.11089998 0.12216101 0.06502607 0.17794691 0.039576557 0.17758414 -0.03197432
-0.11375823 -0.0061245086 -6.5889585e-11 -0.13354613 0.109112054 0.042901848 0.06717983 -0.09118826
-0.079374276 -0.02210968 0.09087906 -0.089757144 0.035239913 0.037454557 0.02838729 0.07150363
0.14426982 0.087663256 -0.046638474 0.02566648 -0.053372584 -0.08246059 0.07768362 0.0010977132
-0.04279432 -0.12253279 4.926424e-26 -0.060452573 -0.12673396 -0.08524886 -0.03161618 0.08074985
0.12613551 -0.0478233 -0.0014763087 0.037613742 -0.016839188 -0.10935678 -0.016180621 -0.0026664247
0.06862607 -0.015652815 -0.030298566 0.009956338 -0.00041434952 0.04787944 -0.06781473 -0.1327957
0.06125088 -0.042112406 0.09411638 -0.010447213 -0.12142396 0.0026249415 0.010708187 0.08639325
0.085674815 -0.0521039 0.10573702 -0.0036653604 -0.06473508 0.01936481 -0.09494067 -0.14616543
0.087292485 -0.065867744 0.051459663 -0.061345506 0.083277844 -0.049000133 -0.025735889 9.605971e-05
-0.019728225 -0.09920097 0.1372862 0.033766523 0.16140564 -0.07215983 -0.01399487 0.07656298
-0.0797684 0.024532236 0.025854943 0.11670454 0.049186528 -0.0035880492 -0.08382761 -0.105177656
-0.07055201 0.022188006 -0.047727603 -0.04175518 -0.052057397 0.12274776 -0.0148565965 -0.09858204
0.0011873469 -0.05439798 -0.000938609 0.023010915 0.086730674 0.11601467 0.06271651 0.0579671
-0.124276005 0.10532561 0.098713845 0.09260563 -0.0060688113 0.09807265 -0.0786968 0.069080934
-0.05901989 -0.062476043 1.7709676e-11 -0.05148546 -0.03765596 0.17008933 0.0008656203 -0.034256082
-0.017392792 0.103104025 0.18657793 0.025926784 0.08039379 0.09855305 -0.09831973 0.1268665
0.048599187 0.016738074 -0.06927675 0.04639507 0.056629665 -0.09377128 -0.18002056 0.0122805545

layers.1.bias f4 [50]
00000000: d30b cbbd 5f81 46bd 689d 8e3d 4cfe cebd
00000010: d622 563d 39e9 b43d a085 a3bc e133 92bd
00000020: 3172 48bd fc3b b4bd 6ef6 b53d 467a f2bb
00000030: 86a8 9abd 7f2f 35bb d001 baba 3e8d d4bc
00000040: cde9 9a3d b77c 1a3d dba8 93bd 66c3 2c3d
00000050: f960 9e3d 5657 8c3d 323b b2bd e7d0 e1bc
00000060: d275 53bd e125 25bd fae8 38bc c53b a3bc
00000070: 2684 5abd df13 653d ea4c 27bd ecbb b23c
00000080: bf4c b83d d64c a5bb ffe5 b5bd 976f 5e3d
00000090: b7f1 b13d 5089 373d e516 22bc 1139 c93d
000000a0: 1a6b cd3d a378 47bd 6443 c93d dccb 903d
000000b0: e4c7 73bd fc91 a0bb 5fbd 403d 2fb9 a73d
000000c0: 657b bb3c 9f73 92ba
-0.09914365 -0.04846322 0.069636166 -0.10107097 0.052279316 0.08833546 -0.019961178 -0.07138801
-0.048937026 -0.088005036 0.08884893 -0.00739983 -0.075516745 -0.0027646718 -0.0014191214 -0.025946256
0.07564125 0.037716594 -0.07209941 0.042178534 0.0773334 0.068525955 -0.08702697 -0.027565433
-0.051626034 -0.040319327 -0.011286015 -0.019925961 -0.053348683 0.055927154 -0.040844835 0.021818124
0.08999013 -0.00504456 -0.08881759 0.05430564 0.086886816 0.044808686 -0.009893154 0.09825338
0.100301936 -0.048699033 0.09827307 0.07070133 -0.059516802 -0.004900215 0.0470556 0.08189618
0.022885988 -0.0011173374

layers.2.weight f4 [90, 50]
00000000: 8658 583d 9e4b 113d d4e6 193e 24b6 26bd
00000010: 11d8 c23d df97 953d a424 0b3e cc41 b33a
00000020: f0f8 48bd 6260 32bd bbd0 893d 0abc 04b8
00000030: de44 513d 8bf7 85bd 20cd a13c 190d b93d
00000040: 189a 043e 2a0f 13be f622 c7bc 2c05 17bd
00000050: 2005 d0bd 7cba ebbd cf8a dabc 69c3 253e
00000060: b88e b8bd bdc2 b8bd 21da a33d f02a 523d
00000070: faad cfbd 73f4 e8bd 04ad 04be cf52 b9bd
00000080: 9d9e a0bd 3637 a53c a2af 433e 03a6 943d
00000090: 33f9 b5bd cc5f edbd a034 ca3d 98d2 4a3d
000000a0: b646 2b3d a2c1 d1bb 0bb4 1dbc 9db5 f43c
000000b0: 7330 febd 72b5 943d 504c b83d e03d 29bd
000000c0: 307f fb3c d847 033e 291b cabd 3cea 693d
000000d0: bcc7 a6bc 69a3 ab3d 1c97 6e3b c076 04be
000000e0: 811c 9fbd 67d7 ae3c f434 033e c614 d93c
000000f0: 30b4 14bd 81cf 9ebd 7344 2b3d 4daf e8bd
00000100: 2244 c63b 3552 ec3c 600c 663d 2ef6 a93d
00000110: a74c f73b a4b8 9d3d 6b5e b0bd d32a 2bbd
00000120: 4259 24be 97df abbd 365f 7dbd b791 efbd
00000130: e858 5cba 935c af3c 264b 21be 2ae4 0d3e
00000140: 3a15 acbd fc05 563d 52d7 adbd 71dd 003d
00000150: c466 283e 5172 d33d b8d0 ea3d b411 273d
00000160: 4c4e dc3d c515 ba3d 101b 85bd 3af8 3e3d
00000170: 9c32 3abd cf4c b3bc 45ac cc3b 0779 d9bc
00000180: 4e37 113d 0328 013e f0c1 17bc ef86 33bd
00000190: 66a0 c13c a43c 2f3a 67f8 eb3d 4f46 d23d
000001a0: 30e5 01be 24c0 1c3c 025e a5bd 1fda 403d
000001b0: 332d 23bd 1299 38bd 3c0f 9fbd 290e 8f3c
000001c0: 663c 063e ce23 0d3e 6fed 0bbe 1ef4 023e
000001d0: f17d 70bd 4f0c 23be e7ba b3bd 86f6 d5bd
000001e0: f36f 83bd 14de d43b 1267 27be d4ac 9cbb
000001f0: 77aa d0bc a0e6 2abe 7a51 d3bd 9410 ea3d
00000200: a60a 413d 4d7d f53d d06c a3bb d003 cd3d
00000210: b284 173a 7f03 1a3d fc68 d83d abe4 f7bd
00000220: 6b96 333d d827 1c3d a55d 063e 18f3 11be
00000230: 7041 bd3c f270 c5bc 6754 f9bd 8e53 283e
00000240: 216c efbd ac21 1abb d70c ab3d f5b8 f63d
00000250: f043 10bd f998 233e d1b5 253d e059 95bc
00000260: afc5 953d 35b5 dd3c 1a19 3f3d 0510 f0bc
00000270: 05bb 183d 256d 3b3d 2593 35be d42e 9ebd
00000280: fd0e 04be 29de c43d 07d3 b03d 7368 07be
00000290: 9bdb 0a3e fdd5 8dbd 928e ffbd 3189 cbbc
000002a0: 405e fdbc 3527 7e3d e60f ee3d 60be f1bc
000002b0: 1bc3 ccbd c58c 8dbc b546 43bd 980d 093e
000002c0: d69e 0d3e 1b47 f3bd 4513 a13c 9136 f33d
000002d0: 6112 9f3d 69f1 cabd fefc 1e3e 75d3 70bd
000002e0: 19ef 6fbd 8e93 803d a303 26be 16f0 b4bd
000002f0: 69ca f1bd 51d4 a5bd 84ce bcbd 4abf aebd
00000300: eecf bfbc cf36 c6bd ff51 d73d a1a7 003e
00000310: 3a22 823c 3afd 21bd 0b01 bd3d f4c5 cfbc
00000320: ff13 bc3d 3b46 acbd 66ee 103e 2097 b23d
00000330: 0fd3 823d b3a9 fa3d d7ff 6c3d 0e2a 7e3d
00000340: 5e3d b3bd 327d cfbd b786 203e 7813 a43c
00000350: 918b 413e 59b2 a93c f27b e0ba a56d 763d
00000360: 97b8 153d 9ca3 8cbd 2253 a63d d547 eabd
00000370: dfa0 273e 3de4 d03c 7de3 d83d c0c4 10be
00000380: 0400 e6bd 5a04 9cbd 19bb 273d 927a bcbb
00000390: ac13 8c3c 543a 1e3d de04 5bbd b0e6 c1bd
000003a0: 2b18 803a 5607 103e 14f6 833d a190 b93a
000003b0: e006 163e 9b90 333d 6d3d a63d 1a85 3b3d
000003c0: d08d 613c c8a8 683d 8b86 a4bd 757b 6abd
000003d0: cb57 50bd 0b02 de3d b31a 60bd 8cef 283e
000003e0: 71c8 023d 735f 5b3d 3995 8abd fea0 a4bd
000003f0: 4337 35be 1c58 c23d 0093 123e a840 82bc
0.052818798 0.035472505 0.1502946 -0.040701047 0.09513868 0.07304358 0.13588196 0.0013676225
-0.04906553 -0.04354895 0.06729265 -3.1646377e-05 0.051091067 -0.06541356 0.019751132 0.09035701
0.12949407 -0.14361253 -0.024308663 -0.036870167 -0.101572275 -0.115101784 -0.026677517 0.16187824
-0.090115964 -0.090215184 0.08000589 0.05131048 -0.10140605 -0.1137475 -0.12956625 -0.090489976
-0.07842753 0.020167928 0.19109967 0.07258227 -0.088854216 -0.115905374 0.09873319 0.049517244
0.041815482 -0.0064012567 -0.009625445 0.029871756 -0.12411585 0.072611704 0.089989305 -0.041318774
0.030700296 0.12820375 -0.09868462 0.05710815 -0.020358913 0.083807774 0.0036405986 -0.12935925
-0.077691086 0.021342946 0.12813169 0.026499163 -0.036304653 -0.07754422 0.041813325 -0.11361561
0.0060506025 0.028847793 0.056164145 0.08298908 0.0075469795 0.07701233 -0.08611759 -0.041788887
-0.16049674 -0.08392256 -0.06185838 -0.11697715 -0.0008405582 0.021406448 -0.15751323 0.13856569
-0.08402486 0.0522518 -0.08488335 0.031461183 0.16445452 0.103245385 0.11465591 0.040788367
0.107571214 0.090861835 -0.064993024 0.046623446 -0.04545842 -0.021887211 0.006246122 -0.026546968
0.035453133 0.1261292 -0.009262547 -0.043829855 0.023636054 0.00066847564 0.11521988 0.102673166
-0.12685084 0.009567294 -0.08074571 0.047083016 -0.039838027 -0.045067854 -0.077665776 0.017462807
0.13108978 0.1378319 -0.13664792 0.12788436 -0.058713857 -0.15922664 -0.08775883 -0.10447411
-0.06417837 0.0064962003 -0.16347912 -0.004781345 -0.025471909 -0.16689539 -0.10318275 0.11428943
0.047129296 0.1198679 -0.0049873367 0.10010493 0.0005779966 0.03760099 0.10566899 -0.12104162
0.04384462 0.038123935 0.1312166 -0.14252889 0.023102492 -0.024101708 -0.121743016 0.16438124
-0.11690546 -0.0023518605 0.083520584 0.120469965 -0.03522104 0.15976323 0.040456597 -0.018231332
0.07313096 0.027063945 0.046654798 -0.029304514 0.03728773 0.045758385 -0.17731912 -0.077237755
-0.12896343 0.09612686 0.08634 -0.13223438 0.13560335 -0.06925581 -0.12478365 -0.024845691
-0.030928731 0.06204911 0.11624126 -0.029509723 -0.09998151 -0.017279038 -0.047674853 0.13384092
0.13830122 -0.11878797 0.019662509 0.11875642 0.077671774 -0.099093266 0.15526196 -0.05879541
-0.05857763 0.06278144 -0.16212325 -0.08834855 -0.11806185 -0.08097137 -0.09219077 -0.08532579
-0.023414578 -0.09678423 0.105136864 0.12563945 0.015885461 -0.039548136 0.092287146 -0.025362946
0.091835015 -0.08411833 0.14153442 0.08720231 0.063879125 0.12239399 0.057861175 0.062051825
-0.08751939 -0.10131301 0.1567639 0.020028815 0.18900897 0.020714926 -0.0017126782 0.06016316
0.03655299 -0.068671435 0.08121325 -0.11439482 0.16369961 0.025499457 0.10590265 -0.14137554
-0.11230472 -0.076180175 0.040949915 -0.005751916 0.017099224 0.038629845 -0.05347144 -0.09467828
0.0009772828 0.14065298 0.0644342 0.0014157483 0.1465106 0.04383908 0.08117185 0.045781232
0.013766721 0.056801587 -0.080334745 -0.057246644 -0.050864976 0.108402334 -0.054712962 0.1649763
0.031929437 0.053557824 -0.06766743 -0.08038519 -0.17696862 0.09489462 0.14313889 -0.015899971

layers.2.bias f4 [90]
00000000: 84c3 853d 2bec 5dbc e038 8b3c 895f 39bd
00000010: 237e 733d 86cb d4bd 2b0f cebd dce5 2bbd
00000020: 3b10 203d 9796 87bd dcf2 1e3d 3151 92bd
00000030: dd2f 993d e05d 403d cde3 85bd 7800 0e3e
00000040: f1eb c83d 6091 8b3d 5d19 93bc 1cdd f3bd
00000050: 8523 2f3e ddb5 533d 7db8 16be ba9b dc3d
00000060: aab5 65bd c6d0 b3bb 2a80 0e3d 9722 1b3c
00000070: 8077 06bd 2bed 00be 80f0 a6bc e833 cb3d
00000080: 7109 99bd c25a 8f3d c51f b83d eac8 b93d
00000090: 9bd5 ffbd 100f 653d 5e5d ea3d bf7c cebd
000000a0: 5e65 f6bd 3df6 31bd 77fe 38bc 784e 6ebd
000000b0: 7995 8bbd 23d5 0f3d b00b 9e3d 4d51 f43d
000000c0: 293c e6bd 0a00 f53d 7855 6f3d cf64 6c3d
000000d0: 958b 5fbc aaaa 08be 200c 14bd 333b e83d
000000e0: a6bc dfbd ddef b13c f651 b43d fb26 68bc
000000f0: c89f 74bd 77de 9b3d 1795 f23b eb61 92bd
00000100: d04b b3bd 008c e53c 51eb 013e 9d1a ec3d
00000110: 0ea6 0abe bac8 033e 36c3 0d3e 9ec0 8a3c
00000120: 61e3 fd3b c54d 6e3d f712 f33b 3d62 d13d
00000130: f4ca 8ebc 4eab 933b 8b5c 073e f678 e2bd
00000140: 8623 973c 4440 b63b ec16 aebc 4511 043e
00000150: 209e 033e 8732 34bd e5d0 fc3d ca6f 8ebd
00000160: 628c c7bd 6a54 043e
0.06531432 -0.013545076 0.016994894 -0.045257125 0.059446465 -0.103903815 -0.10061487 -0.041967258
0.03907798 -0.066205196 0.038805827 -0.07144392 0.07479832 0.046964526 -0.0653759 0.13867366
0.09810627 0.068148375 -0.01795643 -0.11907408 0.17103393 0.05168711 -0.14718814 0.1077189
-0.05608145 -0.005487534 0.034790196 0.009468696 -0.032828808 -0.12590472 -0.020378351 0.0992201
-0.07472504 0.069997326 0.089904346 0.090715244 -0.12491914 0.055922568 0.1144359 -0.10082387
-0.12031053 -0.04344772 -0.011291138 -0.058180302 -0.06815619 0.035115372 0.07717073 0.119295694
-0.112419434 0.11962898 0.05843112 0.057713326 -0.013644119 -0.13346353 -0.036144376 0.11339416
-0.10924654 0.021720821 0.08804695 -0.01416945 -0.05972269 0.07610791 0.007403027 -0.071475826
-0.087546945 0.028020859 0.12687422 0.115285136 -0.13539907 0.1286954 0.13843998 0.01693755
0.007748053 0.058179636 0.0074180323 0.102238156 -0.01743076 0.004506505 0.13218896 -0.11058228
0.018449556 0.0055618603 -0.021251164 0.12897213 0.12853289 -0.0439935 0.12344531 -0.06954916
-0.09743573 0.12922826

layers.3.weight f4 [5, 90]
00000000: 1043 f2bd ad34 613d 61c4 50bd 5ce7 64bd
00000010: ced0 0ebe 7833 413d 2be0 cabd e42f b93c
00000020: c106 7ebd d142 5cbd 79b0 c73b 43bc 4f3d
00000030: ab8a c63d f8d5 653d 3c04 d3bd 648d 8f3b
00000040: f919 cf3b 7c7c 8bbc f7fb b53d 2160 c83d
00000050: c61c d2bc 99d6 23be afa2 203e c6b0 af3d
00000060: e343 1cbe 6ad9 0f3e 1f05 14be c21a 26bc
00000070: e738 3b3d 6abe 50bd 0379 5b3d bf20 17be
00000080: 14c8 d2bd 3e26 193e 3e17 c23d bcb5 fb3c
00000090: 0950 ec3d 956e 75bd f878 b33d ecf0 8c3c
000000a0: 94dd c7bd 1204 053d c8c2 dc3d ba2e 7637
000000b0: 39e8 01be f6fe 0cbd 126f 99bd 2ede f8bd
000000c0: 0f81 a13d 5ea6 febc 3776 cd3c 3dd2 89bd
000000d0: a09e 023e ea90 8a3d e774 223e 3a8f f83d
000000e0: 6224 d23d dd3c 7dbd 9848 76bd bb8a 173e
000000f0: fa5d aebd c5df 20bc 70c9 ab3d da70 3dbc
00000100: b0de 103e 1a68 183e 16a6 2dbd 133c 17be
00000110: f6b1 1bbe dd66 433b 96dc 90bd 603e 6e3d
00000120: 56fd 8bbd 8bb3 57bd 7cd2 c63d b094 303d
00000130: b350 e1bc 4edc d53d 42ed 4cbc dde5 c23d
00000140: a8af 8b3c 4a6c 823c ff71 893c 392e c63d
00000150: 9c87 bdbd 5887 fe3d 91c6 cabc dbdf b1bd
00000160: 8a6e 613d 81a2 e43c 5ee6 243c 8e86 a83d
00000170: 7929 5f3d 7cc6 9dbd 1a1c 5cbb 0273 d6bd
00000180: 16e1 7f3d bce1 223d f066 0fbe 82ee 8cbd
00000190: f435 f4bc c0e2 753d 228d 463d aa5e ff3d
000001a0: 86fe 64bd 099e 0f3e ac99 a4bd ff9e 82bd
000001b0: 0e6e f33d 28c2 bdbb a2f0 953d e753 02be
000001c0: c9e1 17bd aa72 3c3c 8778 f9bc 3259 063e
000001d0: d6e1 d33c 4e44 9d3d 3bcb 6d3d 2bc6 533d
000001e0: adee 1f3e ca08 cd3b 171e 7b3d a890 523c
000001f0: a355 b53d 1d3b 12bd b85b 803d c638 993d
00000200: 2eb5 b9bc 80fc 04bc ae0c d83c d138 d63c
00000210: b981 b5bb d14a 9abc 98f7 fcbd 11d5 f63c
00000220: c579 c4bd 3c09 0abe 1f8e 84bd f9ac 32bd
00000230: be94 a8bd 9be0 093d fd5c cf3d 8437 873d
00000240: 1e39 c43c d182 333d 7811 f2bd c394 8abd
00000250: e9a2 d5bc 115b a43d 04a6 9b3d 5f0d d2bd
00000260: da7d 153e a96b 9d3c 07de c6bb 7916 fb3d
00000270: 510f 29bc 4690 c5bd 5947 05be 1535 1bbe
00000280: 29af 93bd 4139 d53d 9860 f4bc 81bf f63d
00000290: d127 ac3c 81da d4bc d165 0bbd d69d 9b3d
000002a0: c5dd 1b3e b9cc c2bc 321f 003e bb99 a23d
000002b0: 5cb6 233e fc15 cfbd 3752 253d 9153 923d
000002c0: 123e 1dbd 5182 b63d c1d8 8439 270e 13bd
000002d0: 534d dd3d 9b30 0e3e 9870 f93d 925a a3bd
000002e0: 5fe5 40bc 62ed 93bc 4285 373d 1d56 44bd
000002f0: 9f22 ffbd e1d7 0b3e be58 c63d d13f 223e
00000300: e2d6 b43c 9536 793d b48c eabd 5466 ba3d
00000310: 9daa 4d3d 00e4 863d 77b8 09be d017 883b
00000320: 2f91 a93d d14f 423d 0084 03be 3c50 efbd
00000330: a938 1b3d a46a fd3b e224 90bd 7ea1 e73d
00000340: 1dd6 0f3e 9346 f93d 2348 4bbd 5802 bf3c
00000350: a06f 0fbd d52e e83d 13f9 95bd d2a2 b0bc
00000360: 8f68 483d c608 be3d 7f1f 2dbd 547b c0bd
00000370: 8cad 233e 36a7 cdbd 73b7 67bc 7148 9dbd
00000380: 6927 ef3c 649b d4bd 627b 883c 9eba 36bd
00000390: afd7 c9bd c202 c33d 350b d03d 4060 703c
000003a0: 2aa0 4e3d 4758 0d3e af72 a1bd 01f0 e03c
000003b0: d569 173b 4914 77bd 4e7e 463c 7d2e 91bd
000003c0: 567c 163d 983d 89bd 8243 f83c 9fca 073e
000003d0: 65fd 09bd 50ad 26be 9e1f 6f3d 636b 56bd
000003e0: fefd 393d 356e 1c3d f60e c9bd c194 81bc
000003f0: 8d46 ae3d 72aa c5bd 98ae 2a3e b3b5 5ebc
-0.118291974 0.054981876 -0.05096853 -0.055884704 -0.1394684 0.047168225 -0.09906038 0.022605844
-0.06201816 -0.05377466 0.006094035 0.05071665 0.096944176 0.05611226 -0.10303542 0.0043808687
0.006320235 -0.017027132 0.08885949 0.0978396 -0.025648486 -0.15999831 0.15687059 0.08578639
-0.15260272 0.1404778 -0.14455079 -0.0101382155 0.045708563 -0.050962843 0.053582203 -0.14758585
-0.10292068 0.14955994 0.09477089 0.030726306 0.11538703 -0.059919912 0.08763307 0.017204724
-0.097590595 0.032474585 0.10779339 1.4673622e-05 -0.12686242 -0.034422837 -0.07491888 -0.121517524
0.07885944 -0.03108519 0.025080783 -0.06729553 0.12755823 0.067659214 0.15864907 0.12136693
0.10260846 -0.061825622 -0.060127825 0.14799015 -0.08514018 -0.009818976 0.083880305 -0.01156255
0.14147449 0.14883462 -0.04239472 -0.1476901 -0.15204605 0.002981595 -0.070733234 0.058164954
-0.06835429 -0.05266146 0.097081155 0.04311055 -0.0275043 0.104424104 -0.012507739 0.09516499
0.017051533 0.015920777 0.01677799 0.09676785 -0.09254381 0.124281585 -0.024752887 -0.08685275
0.05503706 0.02790952 0.010064689 0.08228789 0.05448291 -0.077038735 -0.0033586086 -0.10471155
0.062470518 0.03976606 -0.14004111 -0.06881429 -0.029810883 0.0600307 0.04847444 0.124692276
-0.055906795 0.1402513 -0.08037123 -0.06377982 0.11886226 -0.0057909675 0.07321288 -0.12727319
-0.03708056 0.011501947 -0.03045298 0.13119963 0.025864523 0.07679044 0.058055144 0.05170266
0.15618391 0.0062571513 0.061307993 0.012851872 0.088542245 -0.035700906 0.06267494 0.07481532
-0.022669401 -0.008116841 0.026373234 0.026150139 -0.005539146 -0.018834503 -0.12351912 0.030130895
-0.09593538 -0.13480085 -0.0647242 -0.04362199 -0.08231495 0.033661466 0.10125158 0.06602386
0.023953017 0.043825928 -0.11819738 -0.06766655 -0.026078658 0.08025182 0.07600024 -0.102564566
0.1459879 0.019216375 -0.006068948 0.12260146 -0.010318593 -0.096466586 -0.13015498 -0.15156968
-0.072111435 0.10411311 -0.029831216 0.12048245 0.02101508 -0.025983097 -0.034032647 0.07598464
0.15221317 -0.02377926 0.125119 0.07939478 0.15987533 -0.10111615 0.04036161 0.07144845
-0.038389273 0.08911575 0.00025338496 -0.03590217 0.10805764 0.13885729 0.12179679 -0.07976259
-0.011773436 -0.018057529 0.04480482 -0.047933687 -0.12457775 0.1365657 0.09684895 0.15844657
0.02207512 0.06084307 -0.11452618 0.09101549 0.050211538 0.06586456 -0.13449274 0.0041532293
0.08279645 0.0474394 -0.12843323 -0.11685225 0.037895832 0.00773366 -0.07038285 0.11310099
0.14046521 0.12171664 -0.04962934 0.023316547 -0.035018563 0.113370575 -0.07322898 -0.021562014
0.04892784 0.09279017 -0.042266365 -0.09398523 0.15984172 -0.100416586 -0.014142859 -0.07679833
0.029193597 -0.10381201 0.016660396 -0.044611566 -0.098555915 0.095220104 0.101583876 0.014671385
0.050445713 0.13803206 -0.07883202 0.027458193 0.0023103852 -0.06032208 0.012115074 -0.07088945
0.03673967 -0.06701201 0.030305628 0.13260888 -0.03368892 -0.16277051 0.058379762 -0.052348506
0.04540824 0.03819104 -0.09817307 -0.015818002 0.0850955 -0.096516505 0.16668165 -0.013593125

layers.3.bias f4 [5]
00000000: ee52 51bc 825f 6c3d 2438 0cbd 148b a23d
00000010: 9ff1 c73d
-0.01277612 0.05770827 -0.034233227 0.07936683 0.097628824
