irony/models/model_31.pt (torch_old, 58143 bytes, 8 tensors)

layers.0.weight f4 [70, 10]
000000 e2 9f 17 be 51 15 95 be 33 52 ef bc 0e 7b e7 3e
       -0.14807084 -0.29117826 -0.029214 0.4521107
000010 dc 4e 70 bd e4 a3 8b 3c bb 45 17 be 46 93 9b 3d
       -0.058668956 0.017045923 -0.14772694 0.075964496
000020 bd 56 ea 3c 49 b4 ee bc b6 41 31 3d 9f c3 a4 be
       0.028605813 -0.029138701 0.043275557 -0.32180497
000030 53 6d e8 bc 30 3e de 3e f8 4e cb bd 97 18 58 bc
       -0.028372442 0.4340682 -0.099271715 -0.013189456
000040 bc db a8 bd fd 64 d6 3d 04 19 af 3d ce d5 92 bd
       -0.08245036 0.10468481 0.08549693 -0.07169686
000050 90 c9 22 3e 99 65 d5 3e 15 cd ac be cb 67 57 3e
       0.15897202 0.41679075 -0.33750215 0.21035688
000060 3b 1d ae be 58 a0 b9 3d a1 60 4d 3d 79 08 27 be
       -0.34006676 0.09063786 0.05014098 -0.16311826
000070 a8 20 a2 3d 75 05 51 3a c5 cd b6 be 02 6e c4 3d
       0.07916385 0.00079735304 -0.35703865 0.09591295
000080 44 21 af 3e a2 3d d0 3d 60 02 4f be 3b d5 c5 bd
       0.34205067 0.101680055 -0.2021575 -0.09659811
000090 51 e4 30 3d d0 9a 8d 3d 74 0b 76 3d 15 e6 b0 bd
       0.04318649 0.06914294 0.060069516 -0.08637635
0000a0 b7 3d 54 be 22 23 33 be 78 f9 c6 bc 3a e4 6a 3e
       -0.20726667 -0.17493871 -0.024288878 0.22938624
0000b0 37 a3 f7 3d ac 4a bc bd 07 93 fa bd 0f 00 a6 bd
       0.12091678 -0.0919393 -0.122350745 -0.0810548
0000c0 0c 6d 37 3e e9 f8 aa 3d 5b 39 c4 3e 72 ae a3 bd
       0.17912692 0.08348257 0.3832501 -0.07992257
0000d0 cc ae 9f be 36 09 eb bd d9 16 3e 3e 72 3a b8 3d
       -0.31188047 -0.11476366 0.18563403 0.089955226
0000e0 8e af ce bd 63 81 6a 3c 0c a0 77 bd 32 cb 14 3e
       -0.10092078 0.014313075 -0.060455367 0.14530638
0000f0 5d f8 84 3d ed 1b 8b 3e 58 c7 b3 be 53 38 b0 3e
       0.06492684 0.27169743 -0.35113025 0.34417972
000100 aa 92 55 be c2 54 7f bd 3b 79 5b 3d 84 bd a4 bd
       -0.20856729 -0.06233669 0.05358241 -0.0804396
000110 55 1e 35 3e 9e d1 df bc 0b 99 3e be ad 8a 4e be
       0.17687352 -0.027321633 -0.18613069 -0.20170088
000120 52 84 92 bd cf e2 18 3e f8 14 92 3e 27 d4 1b bd
       -0.07154144 0.1493027 0.28531623 -0.03804412
000130 36 c0 b9 bc 53 d1 e2 bd cf d2 86 3d eb 65 bc 3d
       -0.022674661 -0.11075082 0.06583177 0.09199127
000140 74 8f f8 bd f6 51 8b be 0c de 80 3e c1 66 3e be
       -0.121367365 -0.2721097 0.25169408 -0.18593885
000150 04 9b cb 3e 50 51 a3 3c 06 f8 61 bd 75 78 b8 3d
       0.39766705 0.019936234 -0.055168174 0.0900735
000160 58 38 c5 bd ce 53 be 3d 44 91 39 3e b4 46 36 3e
       -0.09629887 0.09293328 0.1812182 0.17800409
000170 b8 08 30 3e 8b 37 80 be 9b 30 4f be a9 61 03 3e
       0.17190826 -0.25042376 -0.20233385 0.12830223
000180 a7 ab d2 3d e4 3e b0 3d 45 fd 0b be 3c cf bd bd
       0.10286646 0.086057454 -0.13670833 -0.092680424
000190 29 11 3d be e5 d1 21 be 94 5e 8b 3d 5d 00 d8 3e
       -0.18463577 -0.15802725 0.06805149 0.42187777
0001a0 a9 b7 f9 bd 57 98 30 3d 50 65 26 be 89 e6 d2 3d
       -0.121932335 0.043114033 -0.16249585 0.10297877
0001b0 a3 11 ea 3c fb a4 f7 3c 83 71 9c 3e d0 8d 67 be
       0.028572863 0.030230036 0.30555353 -0.22612691
0001c0 41 4a e0 be ff f1 57 3d 7d 26 8f 3e 09 1a 0f 3e
       -0.4380665 0.05272102 0.27959052 0.13974775
0001d0 de 0f b5 bd 9f c6 e6 bd 52 0d 1d bd f0 ee b7 3d
       -0.08840917 -0.11268353 -0.03834278 0.089811206
0001e0 b7 79 31 be 48 1e 78 be 3a bb e8 3e e7 aa 80 be
       -0.17331587 -0.24230301 0.45455343 -0.25130388
0001f0 dd a8 88 3e fc ac 99 bd 82 e2 93 3d 0b b6 3c 3e
       0.26691332 -0.07503697 0.07220937 0.18428819
000200 f0 e5 33 be 5e 27 5d 3c 8b 79 32 be 59 b2 0e be
       -0.17568183 0.013498155 -0.17429177 -0.13935222
000210 9e ca 4c be d8 05 5d 3e 8b c2 66 3e b8 bc 02 be
       -0.19999167 0.2158426 0.2253515 -0.12767303
000220 e8 a4 40 bd 1a d1 14 be fa fb 91 3d bd 7d 25 3e
       -0.047032267 -0.14532891 0.07128139 0.16161247
000230 54 ab 4a 3e 20 0f 86 3e 58 20 1e be 48 65 9d be
       0.19791919 0.26183414 -0.15442026 -0.30741334
000240 1d 3f 10 3e 26 e5 4d 3d 45 bd 00 3e e6 5b b9 bd
       0.14086576 0.05026736 0.125722 -0.09050731
000250 e3 49 be bd 08 e1 c8 3d d9 d3 6c 3e e2 12 ee 3d
       -0.092914365 0.09808546 0.23127688 0.11624695
000260 49 06 f9 be 8b 29 a3 3e 1d 02 0f be 1f 68 89 3d
       -0.48637608 0.31867632 -0.1396565 0.06709313
000270 17 12 fd bd de a3 aa bd e8 ea 2a 3e d8 ff 3c bb
       -0.12356966 -0.083320364 0.16691172 -0.0028839018
000280 f1 4d 25 be 62 73 94 be 46 4c 6a 3e ac cf 9a 3e
       -0.16143014 -0.2899428 0.22880659 0.30236566
000290 1c fe 0a be 01 78 97 bd a8 bc da bd 92 5b ec 3d
       -0.13573498 -0.07395936 -0.106805146 0.11540903
0002a0 2e 59 2d 3e 82 d8 2a be 6a 5f 1b be ab 35 b1 bd
       0.1692855 -0.16684154 -0.15173116 -0.086528145
0002b0 54 d1 31 be f3 f0 47 3e ed 7b 97 3e 01 be ac bd
       -0.17365009 0.19525509 0.29586735 -0.08434678
0002c0 9f b8 32 bd 3c 60 59 bc 8b 1e e4 3d 0c 4c 06 3e
       -0.0436331 -0.013267573 0.11138638 0.13114947
0002d0 ef b6 a7 bd 58 d4 29 be c1 ba 50 be bd 4e 5f 3e
       -0.08189189 -0.16584909 -0.20383741 0.2180738
0002e0 fc f3 7e 3e 42 cb fc bd e5 6d 65 bd 94 98 0e be
       0.2489776 -0.12343456 -0.056013007 -0.13925391
0002f0 53 de 06 3e 2f 46 0e 3e cf 49 6c be ea b0 69 3e
       0.13170747 0.1389396 -0.2307503 0.22821394
000300 13 81 8b 3e 0e 58 8b bd 21 7e 81 be 76 5b 01 be
       0.27246913 -0.068039045 -0.2529154 -0.12632546
000310 34 00 96 3d d3 11 7d 3d 24 74 98 3c 5d 3c 40 bd
       0.073242575 0.061784577 0.018610068 -0.046932567
000320 70 a4 26 be 70 df 2a be 1a 74 bc 3d 9d 81 a0 3e
       -0.16273665 -0.16686797 0.09201832 0.31348887
000330 67 c2 30 be d6 8b 69 bd 0d db 13 be 06 34 23 3e
       -0.17261659 -0.057018124 -0.1443903 0.15937814
000340 22 30 97 3d c2 15 be bd 47 21 86 3e 1e 18 fc bd
       0.073822275 -0.09281494 0.26197264 -0.123092875
000350 02 c9 7d be b2 db b0 bd 19 14 72 3e 17 93 11 3e
       -0.2478371 -0.086356536 0.23640479 0.14216267
000360 ab 5f 4e be a6 1f 7f 3a 4d bd b5 bc 0e 32 ed 3d
       -0.20153682 0.0009732194 -0.022184992 0.11581813
000370 0a 2d 98 be b7 9d 28 3d 75 bb bb 3e 9a 15 93 bc
       -0.29721862 0.041166034 0.36666456 -0.017954636
000380 e3 db 42 be 19 83 99 bd e3 59 1b 3d 88 ee de 3d
       -0.19029193 -0.07495708 0.03792752 0.1088534
000390 d0 cb 35 bc 1d 62 b2 bd de 0f 36 be 24 80 4e be
       -0.011095956 -0.0871012 -0.1777949 -0.2016607
0003a0 ab 98 d1 bd f3 00 7f 3e 70 9b 5a 3e e1 ee 1f be
       -0.10234197 0.24902706 0.21348357 -0.15618469
0003b0 58 56 72 bd 30 0a c2 bd 5d 84 2e 3e 88 1b d5 3d
       -0.059164375 -0.09474599 0.1704268 0.10405642
0003c0 2d d6 60 3e 77 5f 15 3e ec b3 94 3d 6a 3d 1f bd
       0.21956702 0.14587198 0.0726088 -0.03887693
0003d0 0e 6a ec be cb c9 2b 3d 6a 66 35 bd 3a 91 22 3e
       -0.46174663 0.04194049 -0.044287123 0.15875712
0003e0 53 0b b7 bd c3 a4 bf bd 15 a4 a1 be 02 a7 38 3d
       -0.08937707 -0.09357598 -0.31570497 0.045081146
0003f0 0c e3 9c 3d 2d 39 cb 3e 9f 3b 1b be 33 1f cb bd
       0.07660493 0.3969206 -0.15159462 -0.0991806

layers.0.bias f4 [70]
000000 fe b8 a6 3c 66 42 90 3c 42 9d d2 3a 7c b9 ea 3c
       0.020351883 0.017609786 0.0016068595 0.028652899
000010 a7 e1 ca bc b7 ff 15 bd 8f 79 ee 3c a7 f6 be 3c
       -0.024765803 -0.03662082 0.029110698 0.023310972
000020 ab cd 06 3d 1b af 80 3d d0 22 98 3b 8f 0e 9f 3b
       0.032910984 0.06283399 0.004642822 0.0048540304
000030 bc 95 82 3c 66 80 26 bd d1 ae 9c 3d f1 76 9d 3c
       0.01594054 -0.040649794 0.07650531 0.019221755
000040 3d 27 87 bc 5f 26 f4 bc ed 9b 6e 3b 37 96 9f bc
       -0.016498202 -0.029803453 0.0036408857 -0.019480808
000050 49 25 1a bd 5b 3f 84 bc 7c 71 1d bd 0d 5c 12 bd
       -0.037633214 -0.016143491 -0.038438305 -0.035732318
000060 64 d2 6d bd f8 ee b5 3c c5 8f 85 bc c7 42 99 3d
       -0.058061972 0.022208676 -0.016303906 0.0748344
000070 dc f8 df 3c 2c 2d 38 bd f6 27 45 3a d7 6e be 3b
       0.027340345 -0.044964954 0.0007520908 0.005811553
000080 94 d9 bb 3d de a4 8a 3b da 81 8a bd b5 3a 67 3d
       0.09172359 0.0042310795 -0.067630485 0.05645247
000090 b2 e2 a3 3b 8e 01 d3 bc e1 5e 31 bd 6a 8f f3 bb
       0.0050013894 -0.025757577 -0.043303374 -0.007432868
0000a0 d1 88 fe 3a c2 59 72 bd ae c5 43 bb 86 4b 23 bd
       0.0019419437 -0.05916763 -0.0029872465 -0.039866947
0000b0 4a 21 d2 bc fc 5c 82 3c 95 ca 7e bd 81 9d 1d 3c
       -0.02565064 0.015913479 -0.062204916 0.009620071
0000c0 71 3d 07 bc f8 47 2f bb a6 21 df bc f7 e2 b8 3c
       -0.008254395 -0.0026745778 -0.027237725 0.022569163
0000d0 2e 7e bd 3c 1a 1e cd 3c 89 67 9a 3b 2d e0 5a bd
       0.023131456 0.025038768 0.0047120494 -0.053436447
0000e0 6c 45 d9 bc 46 b0 6a 3d a1 10 2b bd 0f 07 a2 bc
       -0.02652236 0.057297014 -0.041763905 -0.019778756
0000f0 f9 bf a2 bc 12 e9 28 bc 89 1a a4 bd c0 a8 68 bd
       -0.01986693 -0.010309475 -0.08012874 -0.056801558
000100 0e 88 9f 3d 2a 4c d6 3c 7b e7 44 3d b6 e2 53 3d
       0.07789622 0.026159365 0.04807232 0.05172988
000110 e2 16 97 bc 2d c2 54 3c
       -0.018443529 0.012985748

layers.1.weight f4 [80, 70]
000000 9f f0 b8 3d d3 87 14 3d ab c3 15 be 33 5f 23 3d
       0.0903027 0.036262345 -0.14625423 0.03988571
000010 12 7f 44 3e bd fd 12 3d 35 12 8f 3d a0 eb d3 3c
       0.19189098 0.035886515 0.069858946 0.02586919
000020 a7 bd 85 3d d3 ef 6a be 8d 5d cc 3c f4 59 bd 3d
       0.06530314 -0.22943048 0.024946952 0.09245673
000030 3b 8e 1b 3e ec b9 ce 3c 14 13 8d 3c a6 31 97 3d
       0.15190975 0.025235139 0.017221011 0.073825166
000040 25 9c 83 3d d6 55 60 3e 40 a4 0c 3e 75 70 02 bd
       0.064262666 0.21907744 0.13734531 -0.03184553
000050 11 ef b2 bd c6 50 fe 3d 42 8b 36 3d 93 6e e9 3d
       -0.087370045 0.1241775 0.0445664 0.113980435
000060 a0 72 e1 bd a8 5e 7a bd 27 29 99 3d 42 bb 40 be
       -0.11008191 -0.061125427 0.07478552 -0.18821433
000070 0f fc 18 bd 4f 10 27 3c 33 19 26 3d 27 da a0 3c
       -0.037349757 0.010196759 0.040551376 0.019635273
000080 23 b6 75 bd 5c 2c 34 be 93 b0 70 3c c8 7e 1e bd
       -0.059988152 -0.17595047 0.014690536 -0.038695127
000090 9a 70 a1 3d f2 e5 9a 3d 0a 8f 83 3d 8b d6 81 bd
       0.07882805 0.0756339 0.06423767 -0.06339749
0000a0 9b 29 01 be 33 54 9f 3d 97 d4 97 3d 9b 12 20 bd
       -0.12613527 0.077797316 0.07413595 -0.039080244
0000b0 60 88 2c 3e 44 63 dc bd 3d 6c ce 3d 99 df 13 3b
       0.16848898 -0.10761121 0.100792386 0.0022563695
0000c0 e1 cf a2 bd fe 05 69 3e 50 0b 8d bc 5a 50 32 bc
       -0.07949806 0.22756192 -0.017217308 -0.010883415
0000d0 ff 09 4a bd 8a 0a 01 3c b5 50 20 be 7f 99 1e 3e
       -0.04932594 0.007876048 -0.15655787 0.15488242
0000e0 9c 12 d3 3d 57 66 a5 bb b4 fa 2f bd 82 f1 8a 3d
       0.10306284 -0.0050476003 -0.0429637 0.06784345
0000f0 60 54 80 3d 4b bb e6 bd fe 5e a7 3e b6 dd 8b 3e
       0.06266093 -0.11266192 0.3268966 0.2731759
000100 7a 24 7e bd 1d 36 18 bd 8c 01 6d bd e2 68 14 bd
       -0.062046506 -0.03716098 -0.057862803 -0.036232837
000110 c4 c8 32 bd ea c3 30 bd 83 dc 05 be 88 31 80 bd
       -0.043648496 -0.04315559 -0.130724 -0.06259447
000120 88 84 13 3d fa 75 96 3d e3 ce 06 be 69 72 da 3c
       0.036015064 0.07346721 -0.13164859 0.026665883
000130 d2 91 df bb d2 e0 8c be 61 4d 05 bd f3 5c cf 3c
       -0.006822803 -0.27515274 -0.032544497 0.025312876
000140 35 af a5 bd af e0 16 3c 4d a9 f6 bc f0 fc ef 3c
       -0.08090059 0.009208842 -0.030110026 0.029295415
000150 69 b4 1d 3e b1 f9 a8 bd bd 0c ad 3d eb 49 31 3c
       0.15400852 -0.0825075 0.08449695 0.010820846
000160 d9 ab 29 be ac 1d b0 3d a2 ef 3d be 99 ec 5c 3c
       -0.16569461 0.085994095 -0.18548444 0.013484144
000170 f4 e9 c1 3d 04 f6 2a be c8 25 4f 3e 7e a9 0e bc
       0.09468451 -0.1669541 0.20229256 -0.008707402
000180 26 31 61 3d aa 50 ea 3d d8 3f ee bc e2 ed 67 bd
       0.054978512 0.11441167 -0.029083177 -0.056623347
000190 28 03 bd bc f2 0a c6 bd cc ad 9e 3d 16 e6 fc 3d
       -0.023072794 -0.096700564 0.07747993 0.12348573
0001a0 6c a1 44 3d a0 c7 57 3d 27 f4 07 3d 7c 62 c6 bd
       0.048005506 0.05268061 0.033191826 -0.09686753
0001b0 ff 50 eb bd e5 1c 10 3e 1b ee 61 3e 6f 76 29 3e
       -0.11490058 0.14073522 0.22063486 0.16549085
0001c0 52 f3 13 3d c8 8d 2a bc d9 cb bb 3b 22 91 cd bc
       0.03612072 -0.01040978 0.0057310876 -0.025093619
0001d0 2b ae f0 bd 3a 13 47 be f7 26 44 3e 1a 24 1b be
       -0.1175197 -0.19440928 0.19155489 -0.1515049
0001e0 66 7d 12 3d 83 63 7b 3d 5d be 67 3e ec 6c 13 3d
       0.03576412 0.0613742 0.22631212 0.035992548
0001f0 28 e6 cf bb 60 d6 18 be 4a 7e 08 bd f8 54 52 bc
       -0.0063445754 -0.14925528 -0.033323564 -0.012837641
000200 31 ed d4 bd 09 40 06 be 14 ab 95 3d 28 06 72 3e
       -0.10396803 -0.13110365 0.07308021 0.23635161
000210 e3 6b 41 be 33 88 55 be 94 46 0a 3e f7 87 25 3e
       -0.18888812 -0.20852737 0.13503486 0.16165148
000220 6e 72 1e 3e 42 1d 54 3e a2 82 bd bc dd 1c 4b 3d
       0.15473339 0.20714286 -0.02313358 0.049588073
000230 bc af 80 bd 04 e6 04 be f8 a0 9e bb a9 32 b3 3d
       -0.06283519 -0.12978369 -0.0048409663 0.08749897
000240 09 74 7f 3d 8c 0f ed bc 8a da 13 be 90 41 b4 bd
       0.06236652 -0.028938077 -0.14438835 -0.088015676
000250 17 58 fa bd 75 d0 1b 3d c8 a1 51 3c 96 67 6b be
       -0.12223833 0.038040597 0.012794919 -0.22988734
000260 c5 b4 16 3d 2e 44 36 3d 54 ab bd 39 f5 3b e4 bc
       0.03679349 0.044498615 0.0003617654 -0.027860621
000270 10 9b 16 3e cc 99 f1 bd b6 7c 96 bb 85 b6 1f 3e
       0.14707589 -0.117969126 -0.0045925034 0.1559697
000280 eb 89 71 bc 65 2a 2f be 0e 69 79 3e b6 e1 a4 bb
       -0.014742355 -0.17106016 0.24356481 -0.0050317897
000290 50 bf f4 3c 9f 3a ee 3d 78 50 d9 3d a6 3a 6f bc
       0.029876381 0.11632275 0.10611051 -0.014601385
0002a0 01 e7 b1 3d 33 b1 7c 3d 91 87 be bd ac 2a 0d bd
       0.086866386 0.061692428 -0.09303201 -0.034464523
0002b0 d5 9d 9d 3d cb 35 7e 3c 02 dc 7b bb 80 11 4a bd
       0.0769612 0.015515755 -0.0038430695 -0.049333096
0002c0 a5 4e 52 3e b0 01 5c 3c 33 cb 9d bc f7 24 54 3d
       0.20537813 0.013428137 -0.019261932 0.051793065
0002d0 4b 70 87 bd e4 19 42 bb b8 15 a3 3c 8b 97 af bd
       -0.06613215 -0.0029617483 0.019907817 -0.085738264
0002e0 52 21 05 be 17 3d aa bd b3 4c 07 be e8 3b 19 be
       -0.13000992 -0.08312433 -0.13212852 -0.14964259
0002f0 7d b5 34 3d ea c3 c5 3d 98 3b 18 bd 2b 33 40 be
       0.044118393 0.09656508 -0.037166208 -0.18769519
000300 32 92 d3 3c 6c c8 b8 3d f5 11 6e 3e 97 21 e7 bd
       0.025826547 0.090226024 0.23249038 -0.11285704
000310 58 62 8f be 04 0b 19 3e eb 07 8e 3d 1d 7b c2 3d
       -0.28004718 0.14945608 0.06935104 0.09496138
000320 b8 02 07 be 82 26 c2 3d 0a 00 8f bd d0 cb 87 3d
       -0.13184631 0.09480001 -0.06982429 0.06630671
000330 5f 9d f0 bc a1 99 07 be 4d ed 40 bd f9 c2 b8 bd
       -0.029371915 -0.13242199 -0.047101308 -0.09021563
000340 ce 13 ed bd c5 3b 81 3e 9f c7 2a be 68 82 f0 bc
       -0.11576043 0.25240913 -0.16677712 -0.029359058
000350 47 04 41 3e d4 cf 03 3d 67 7c 95 bc 1b a6 45 3d
       0.18849288 0.032180622 -0.018247796 0.048254114
000360 de b7 4e 3d ff 52 d6 bc 79 b9 4c bd 3e 1a b5 3d
       0.05046832 -0.026162622 -0.049981568 0.08842896
000370 db 3a ad bd 89 9a a4 bb 01 e7 a6 3d 96 64 0a be
       -0.084584914 -0.005023305 0.08149529 -0.13514933
000380 d4 83 55 3d 21 34 0b be 54 57 06 bd 76 d0 e2 bd
       0.052127674 -0.13594104 -0.032798126 -0.11074917
000390 5a e8 84 be 94 09 32 3d b2 a6 c0 3c 53 a9 cd bd
       -0.2595852 0.043466166 0.023516987 -0.10042062
0003a0 3a 8f 14 3d 4a 61 12 be a5 dd 4b 3e a6 f3 d9 bc
       0.036269404 -0.14294925 0.1990877 -0.026605438
0003b0 aa ea 25 3d d6 db 46 3d fc c5 6b 3d c4 24 47 be
       0.040506996 0.048549496 0.05756186 -0.19447619
0003c0 bb 08 c9 3b 40 80 35 bb b7 05 6b bd 24 62 db 3d
       0.006135074 -0.002769485 -0.057378497 0.10712078
0003d0 c8 0e 19 bb dc a5 5e bd ed 0f 06 3e 54 2d 89 bc
       -0.0023354758 -0.054357395 0.13092013 -0.016745247
0003e0 7f 1d 4f bd fe 35 b2 3d 9e 39 9e 3e f6 68 16 be
       -0.05056524 0.087017044 0.30903333 -0.14688477
0003f0 c9 45 91 bd 15 79 74 bc 7b 48 82 3c 28 8d 80 3d
       -0.070933886 -0.014921446 0.015903702 0.062769234

layers.1.bias f4 [80]
000000 ad 92 04 bd 12 71 29 3e 19 32 f1 3d d2 9a 00 3e
       -0.032366443 0.16547039 0.117771335 0.1255906
000010 01 f5 0a bd 6d 9c 81 3d e2 fd 81 3d 14 aa 9f bd
       -0.03392506 0.06328664 0.063472524 -0.07796112
000020 27 84 29 3e 9a fc 48 3d 4c a2 32 3d 93 53 f5 bc
       0.16554318 0.049069025 0.04361181 -0.029947078
000030 09 6d 24 be 12 ce 7c 3e 6c a8 07 3e bd 09 d9 bc
       -0.16057219 0.24687985 0.13247842 -0.026493901
000040 08 cb 15 3c 4a df 9c 3d 79 9e 2a 3e 3c 54 ba bc
       0.009142645 0.076597765 0.16662015 -0.022745244
000050 64 64 84 3e 60 9c 6b 3e 05 02 82 3d 64 d3 50 3d
       0.25857842 0.23008871 0.063480414 0.050982848
000060 b6 5c 27 3e 49 d7 69 3d 85 9c 06 3c 92 98 4a 3e
       0.1634396 0.057090078 0.008216028 0.19784763
000070 95 39 b9 bd 6f f3 c5 3d 72 0d 15 3e 62 cb d6 bd
       -0.09044186 0.09665572 0.1455591 -0.10488011
000080 6a cd 61 3e c3 e2 d4 3d d1 7a 47 bd d6 5c 9f bd
       0.22051015 0.10394814 -0.04870111 -0.07781379
000090 5f c9 7e 3e 43 9c d4 3d 0d d0 cf 3d bf fc dc bd
       0.24881504 0.10381367 0.101471044 -0.10790395
0000a0 10 f9 10 3e 34 5e 86 3c 70 66 f4 3d 7e 50 be 3d
       0.1415751 0.016402341 0.11933601 0.092926964
0000b0 a9 eb 9b 3d 57 8d 1a 3e 63 d7 f8 3d dc b1 2b bc
       0.07613308 0.1509298 0.12150457 -0.010479417
0000c0 4a 85 8e 3d 67 f3 4d bd ce c6 ad 3d 0b 7d 0f 3e
       0.069590166 -0.050280955 0.084851846 0.14012544
0000d0 06 ef 17 3e 99 08 80 3d 5e b8 21 3e 85 d4 a9 bc
       0.14837274 0.0625164 0.15792987 -0.02073122
0000e0 f5 35 0f 3e 75 a1 a6 3d 2c ac 2c 3e d9 ba ef 3d
       0.13985427 0.08136264 0.16862553 0.1170556
0000f0 cb f6 65 3d 06 16 d3 3d 90 63 0e 3e d0 a1 e7 3c
       0.056143563 0.10306935 0.13905168 0.0282754
000100 c9 20 93 be b7 5c 87 3d 75 cf e7 bd 82 e6 c1 3d
       -0.2873595 0.06609481 -0.11318866 0.09467794
000110 a6 88 2a 3e 4c 8f 6d 3b 45 e3 26 3d c6 0a 06 3e
       0.1665369 0.0036248742 0.040744085 0.13090047
000120 5b 2a 95 3c 65 3f c0 3d c2 5e 24 3e fa f3 b0 bd
       0.018208673 0.093870915 0.16051772 -0.08640285
000130 9e 05 27 bd 1e 0d 7e bc 8d 07 b5 3d 5d ad 5f 3e
       -0.04077684 -0.015506057 0.08839331 0.21843477

layers.2.weight f4 [90, 80]
000000 13 35 a5 bc cc f7 50 bc cc 6d 9e bc 4e a0 ae 3b
       -0.02016691 -0.012754392 -0.019339465 0.0053291684
000010 86 b0 4e bd a6 4c 88 3c b2 89 4b bd a2 4f 08 3d
       -0.050461315 0.016638111 -0.049691863 0.03327907
000020 a8 64 84 bc ad c1 8b 3c f5 a9 f8 3b cf e8 8b 3d
       -0.016161278 0.017060125 0.00758862 0.06831514
000030 9a ba 09 3d 92 4e 97 3d 7f 13 06 3d 07 87 80 bd
       0.033625223 0.07388033 0.032733437 -0.062757544
000040 9d 82 87 3c c4 d1 ba 3a f6 2a 2f bc 3a 7a c9 3a
       0.016541773 0.0014253189 -0.010691395 0.0015371509
000050 0b a9 ce 3d d0 d1 dd bc cf f7 4d bd 23 e2 06 3d
       0.10090836 -0.027077585 -0.050285157 0.032930505
000060 0c 64 5d bb 51 35 12 3d 45 ff df 3c 05 48 5a 3c
       -0.0033781556 0.035695378 0.027343402 0.013322835
000070 e5 46 08 bd aa 65 38 bd a1 0c 86 bc 8b 53 85 3c
       -0.033270735 -0.04501883 -0.016363444 0.016275188
000080 1a 2f 9b bc 86 cb 29 bb 24 32 57 3d 6e 19 ba bd
       -0.018943358 -0.0025908663 0.052538052 -0.090868816
000090 7d 78 86 bb 86 ec 8b bc 7b 84 47 3c 41 ea a8 3d
       -0.004103719 -0.017080557 0.012177582 0.082478054
0000a0 bf 81 0e 3d 74 4e b4 3d 85 f1 98 bc 2b 1f af 3c
       0.034791704 0.08804026 -0.018669853 0.021377167
0000b0 21 36 23 ba e0 31 53 bd 8d c2 d6 bd 02 36 e4 3c
       -0.00062260224 -0.051561236 -0.10486326 0.027857784
0000c0 86 8a 9a 3c 99 72 28 bc 12 6b 7e 3b 27 dc 80 bd
       0.018864881 -0.010281228 0.0038821143 -0.06291991
0000d0 97 93 99 3c ad cc f4 bc 94 7b 38 3c 83 f1 95 bc
       0.018747134 -0.029882753 0.011259932 -0.018303638
0000e0 7d 8c 18 bd e6 c6 f0 3c 0f 13 a6 3d e9 5e 41 bd
       -0.037243355 0.029391717 0.08109104 -0.047209654
0000f0 11 d0 8b 3c a7 02 2e 3c 6e 60 ef 3b e6 0f 07 bd
       0.017066987 0.01062075 0.0073051965 -0.032974146
000100 63 d9 de 3b 15 09 67 bb af aa ea bd 14 6d b2 bc
       0.006800817 -0.0035253216 -0.114583366 -0.021780528
000110 d6 85 dc bc 60 1e 52 bd 8c 27 4a bc 52 4c b1 3c
       -0.026919287 -0.0512985 -0.01233853 0.021642838
000120 24 9f a2 bd c4 a9 ad bc 19 b1 44 3c 9a 73 88 3b
       -0.0794051 -0.021199115 0.012005114 0.0041641714
000130 fb 12 a7 bc ce 3e d6 3c 63 9b 32 3c f5 8a e4 3c
       -0.020394793 0.026152994 0.010901305 0.027898291
000140 d4 be 68 be e7 41 2b 3e 40 6b be b8 72 70 67 3e
       -0.22729045 0.16724358 -9.079883e-05 0.22601488
000150 eb f3 68 bd 00 7b ba bd 1e ab f4 3c 3a a8 80 be
       -0.056873243 -0.09105492 0.029866751 -0.25128347
000160 74 04 2f 3e 7a 01 1d 3d ce c4 23 3e 14 70 e3 3d
       0.17091542 0.038331486 0.15993044 0.111053616
000170 9f c3 ad be 0a 91 b1 bd 2f c8 96 bc 55 ae 73 3d
       -0.3393831 -0.08670242 -0.018406002 0.059492428
000180 29 22 1d be 01 7b 38 be 78 bb e2 be c8 c7 06 3f
       -0.15345062 -0.18015672 -0.44283652 0.5264859
000190 dc b1 c8 be e5 86 5f 3e 5b c9 78 bd 86 84 c7 3d
       -0.39198196 0.21828802 -0.060738903 0.09742074
0001a0 96 6e fa be 72 d5 82 3e f4 5f fa bd 22 63 ab 3d
       -0.48912495 0.2555347 -0.12225333 0.083685175
0001b0 e4 95 72 be d9 84 1e be e3 9b 99 bd a6 77 a5 be
       -0.23689991 -0.15480365 -0.07500436 -0.32317847
0001c0 42 5a 82 bd 19 33 50 3e a6 c9 9b be 2a 22 28 3e
       -0.063648716 0.20331992 -0.30427283 0.16419283
0001d0 65 8b 16 3e e3 69 f6 3c 86 88 ac 3d f9 10 31 bd
       0.14701612 0.030079788 0.08424477 -0.043229077
0001e0 a1 f2 16 3e d3 42 75 be 14 6c 9f bc 13 ba f1 3e
       0.14740993 -0.23951273 -0.019460715 0.47212276
0001f0 1a 77 5f be 46 c5 c8 bd be 04 f9 bd 22 5c 24 bd
       -0.21822777 -0.09803252 -0.121591076 -0.040126927
000200 c8 9e e9 3d 0c 69 2a be e4 a4 dd 3d a1 b1 16 3e
       0.11407238 -0.16641635 0.10822466 0.14716198
000210 d7 22 7a 3c f4 4d 02 3e 6e 72 14 3e 39 d0 04 3e
       0.0152670955 0.1272505 0.14496776 0.12970056
000220 f6 71 39 bd cd c7 24 3e 33 96 03 3e 0c 98 f5 bd
       -0.045274697 0.16091843 0.12850265 -0.11991891
000230 37 68 07 3e 15 b7 9c bd c4 36 db 3c fb b6 75 bd
       0.13223349 -0.076521076 0.026759513 -0.059988957
000240 67 c7 7b 3e a7 e0 6f 3d f3 51 c3 bd a8 0f 40 3c
       0.24587785 0.058563855 -0.09537115 0.011722483
000250 49 35 6d 3e fb 10 89 be 47 3f ba 3e 79 9a 52 3e
       0.23164858 -0.26770768 0.36376402 0.20566739
000260 68 28 dd 3c ad 50 3a 3c 02 71 4b 3e 39 73 aa bd
       0.026996806 0.011371774 0.19867328 -0.08322758
000270 6f e8 06 3f 32 0d 05 be a8 f8 0c 3e a9 1f ea be
       0.52698416 -0.12993315 0.1376673 -0.4572728
000280 ee 2d 5b 3d d1 19 06 bc 2b 0e b8 bd f8 67 f2 bc
       0.0535106 -0.008184866 -0.08987077 -0.029590592
000290 dd ce 0c bd 09 4b a3 bd d9 c8 90 bd 72 29 c1 3d
       -0.034376968 -0.07973296 -0.07069559 0.09431733
0002a0 a5 8a 7f bd 3d 08 c9 3d 2f 05 b9 bd dc df 72 3c
       -0.06238808 0.098160245 -0.09034192 0.01482388
0002b0 c5 98 96 bd 1d 20 a3 3d 5c bc 20 bd 88 77 c7 ba
       -0.07353357 0.079651095 -0.039242133 -0.0015218118
0002c0 f7 d3 4f 3d 46 61 ae bd a2 df 97 bd 53 c7 34 3d
       0.050739255 -0.08514647 -0.074157014 0.044135403
0002d0 ed 57 b5 bd b2 25 9e 3d 07 ae c6 bd 7a 4b c3 bd
       -0.08854661 0.077220336 -0.09701162 -0.095358804
0002e0 38 dd 31 bd 4e 08 8f bd b6 94 a3 3d 78 00 7a 3c
       -0.04342386 -0.06984006 0.07987349 0.015258901
0002f0 ce 39 91 bd 2a c2 b4 bc 4b 72 9e 3d d2 be d4 3b
       -0.070911035 -0.02206524 0.077366434 0.006492474
000300 48 8a 46 bc fd 13 4e bd b8 7f b6 3b 2b 07 b7 bd
       -0.01211793 -0.05031203 0.0055694245 -0.08936914
000310 87 15 2c 3c 71 1c ed 3c f4 5b fd bd c1 42 8d bd
       0.010503179 0.028944226 -0.12371054 -0.06897498
000320 d4 8e 83 3d 66 7d ea bc 28 75 5e bd a5 82 07 bd
       0.06423727 -0.028624248 -0.054310948 -0.033083577
000330 6a 60 c5 bb 4c 4b 59 3d ec 84 e7 3b 66 02 12 3d
       -0.0060234563 0.053050324 0.007065406 0.03564682
000340 08 47 18 3b 4a 5c 9a bc 45 0c 7e 3c 2e 03 a6 3d
       0.0023235697 -0.018842835 0.015505855 0.08106075
000350 ba 8f 6f bd d2 5f dc 3d cd 9c ab bc 10 e3 33 3e
       -0.058486678 0.10760464 -0.020948792 0.17567086
000360 49 cc b3 3c 78 b6 8a 3d 53 b8 66 bd 0e cb d5 3c
       0.021947997 0.067730844 -0.05632813 0.0260978
000370 d0 f9 51 39 37 ce cc bd 5d 79 13 be 19 d0 2d bd
       0.00020024856 -0.1000027 -0.14401765 -0.042434786
000380 ce ce 23 bd dc bf f5 bd 10 f2 7a bb be 52 74 3d
       -0.039992146 -0.11999485 -0.0038291253 0.05964922
000390 07 8c 60 bd 01 5c 9e 3d 4b b8 c0 3c 6d 5f de bb
       -0.05482104 0.07732392 0.023525378 -0.006786278
0003a0 c5 0f 72 3b 0a 7c b5 bc a4 fb 54 3c 0e 16 9f 3c
       0.003693567 -0.022153873 0.012999449 0.019419696
0003b0 78 3c 8d 3d a6 ae 46 3d 5f 5d 0a 3c 8a ec ca bd
       0.06896299 0.0485064 0.008445113 -0.099083975
0003c0 a6 07 72 bc fd f9 01 bd 73 4a 9e bc 62 9a c5 3c
       -0.014772331 -0.031732548 -0.01932261 0.024121467
0003d0 36 a9 2f bc 1a f1 62 bd f8 23 dc 3c 56 c1 92 3b
       -0.010721495 -0.055405714 0.02687262 0.004478614
0003e0 37 90 12 3d e2 57 9b 3c 79 12 71 bd 74 c2 bb bb
       0.035782065 0.018962804 -0.058855508 -0.0057299677
0003f0 92 ba ca 3c 0f 51 0f 3d ad 63 51 bd 09 f9 e9 3c
       0.024747167 0.034989413 -0.05112045 0.028561132

layers.2.bias f4 [90]
000000 9e a0 2e bc 44 9c 19 be 36 74 7d 3b 43 19 5b 3c
       -0.010658411 -0.15001017 0.0038674003 0.013372722
000010 21 7d 91 3c 49 bd 2b bd d3 9d d5 3b c7 4c 86 3c
       0.017759861 -0.041928563 0.0065190583 0.016394032
000020 0d 09 b8 3c f9 2f bb bc 4f dc 43 bc d8 cf f3 3c
       0.022465253 -0.022850024 -0.011954381 0.029762194
000030 4e f4 90 bc 88 67 98 bb d9 30 a2 3c 5a a2 34 3c
       -0.017694619 -0.0046510138 0.019798683 0.011025036
000040 14 0d 89 3c b9 dc d3 3c 8b ef 5e bc f8 f6 1e bc
       0.016729869 0.025862085 -0.013606916 -0.009702437
000050 e4 cb e5 b9 d3 dd ea bb 06 40 b0 bc 75 37 27 bd
       -0.00043830194 -0.007167557 -0.021514904 -0.040824372
000060 59 18 3e bd 04 4b 45 3c 05 d9 4b 3d 1d 63 f3 3c
       -0.04640994 0.012041811 0.049767513 0.029710347
000070 7d ed 52 3c ea 41 e7 bb 95 27 86 3c 42 b9 a4 bb
       0.012874004 -0.007057418 0.016376296 -0.0050269673
000080 d5 38 c0 bc a0 68 2c 3c 82 4c ce bc d6 7e e4 3d
       -0.0234646 0.010522991 -0.025182966 0.111570045
000090 5d c9 36 3f 30 5d f8 bc 3c da f0 3c 2b 8e f8 bc
       0.71401006 -0.030317873 0.029400937 -0.030341228
0000a0 07 03 0f 3d b4 78 5c bc ad 8c f4 bc 2f be 1c 3c
       0.034914996 -0.013456512 -0.029852236 0.009566828
0000b0 d2 0f 65 bd f6 a7 bc 3c b1 7f ec bc e0 66 27 bc
       -0.05592329 0.023029309 -0.028869482 -0.010217398
0000c0 d2 a5 39 3b d8 44 e3 3b bc ac 4c 3c 40 9e fe 3b
       0.0028327596 0.006935697 0.012492355 0.0077703297
0000d0 b1 27 19 3d c4 f0 63 3d bb 9f e6 bc c6 68 03 be
       0.03739137 0.055649534 -0.028152337 -0.12832937
0000e0 de e4 9f 3b 92 1b 92 3b 35 5d 3d 3d c3 3d 1e bc
       0.004879578 0.004458853 0.046231467 -0.00965828
0000f0 ae 6b c5 bc 24 ec 2b 3d ca 6d 6a 3c 8c 35 a7 bc
       -0.024099197 0.041973248 0.014308402 -0.020411275
000100 a6 0f 00 3c 1f 0a 5a 3b 8e 93 9b 3c fb 0b 8a 3c
       0.007816231 0.0033270193 0.018991258 0.016851416
000110 41 e6 b3 3c 57 87 80 3d ec a9 d0 bc 59 ea a0 ba
       0.02196038 0.06275814 -0.02547165 -0.0012276872
000120 eb 0f 61 3d a6 90 30 3a 69 35 92 3c e2 ab 9f bd
       0.05494682 0.00067354215 0.017847734 -0.07796456
000130 26 ac 18 bd c3 57 87 bc 5d b0 ea 3c 87 c2 5c bd
       -0.03727355 -0.01652134 0.02864855 -0.053896453
000140 79 94 19 bd 79 f2 d3 bc 76 e9 57 3d 85 27 be 3d
       -0.03749511 -0.025872456 0.05271288 0.092848815
000150 4e 69 0f bd 20 81 43 bb b7 19 84 bd 4c 29 ee be
       -0.035012536 -0.0029831603 -0.06450217 -0.46515882
000160 bf f9 5d 3c da fc 7f 3c
       0.013548314 0.015624249

layers.3.weight f4 [5, 90]
000000 47 e5 18 bb 42 8a 24 bb 0e 2b 00 bb 97 00 e4 3c
       -0.002333002 -0.0025106822 -0.0019556913 0.027832313
000010 9c f4 d1 bc 66 fa 1b bd 4f fd 25 bc 24 bf c2 bc
       -0.025629334 -0.038080595 -0.010131194 -0.023772784
000020 0e 58 0d 3d 11 01 8d 3c 4f 9f 3b bd bc be a0 ba
       0.034507804 0.017212423 -0.045806225 -0.0012263875
000030 96 eb 6a bd d0 e9 0f 3a bc a5 3a bc e0 71 b3 3c
       -0.05735358 0.0005489858 -0.011392053 0.021904886
000040 5a 12 56 3c f0 51 fd 3b 2b bc 06 bd 96 b0 c5 bb
       0.013065899 0.007730715 -0.032894295 -0.0060330136
000050 c9 52 53 bc a3 d0 68 3b 3b 64 ed 3c 3e e1 ef 3c
       -0.0128981555 0.0035524748 0.028978458 0.029282209
000060 f4 0b 2d bc 22 cf 86 3c f1 4e 94 3c 0e 08 29 bb
       -0.010561932 0.01645619 0.018104048 -0.0025792154
000070 20 6b 43 3c 16 d1 96 3c f8 62 d7 3b 8f b7 1f bc
       0.011927396 0.018410247 0.0065730773 -0.009748354
000080 6c dc ae 3c 0c cc 61 bc d8 8f 27 bd 86 ef 7c 3c
       0.02134534 -0.013781559 -0.040908664 0.015437966
000090 77 e8 91 3c f2 62 c7 3b a4 88 3d bc 36 c2 9d bc
       0.017811043 0.0060847932 -0.011568222 -0.019257646
0000a0 04 d3 07 bd 18 a8 0e 3c aa bc 46 3c f0 1a 9d bc
       -0.033160225 0.008707069 0.012129942 -0.019177884
0000b0 c5 b5 97 bc 08 73 d3 3b 68 37 06 bc 1e 0a 6f bb
       -0.018519292 0.006452922 -0.008191921 -0.0036474536
0000c0 fd ff e7 3b 78 de ed 3b 22 6d dc 3b e2 86 41 bc
       0.0070800767 0.0072591864 0.006726877 -0.011811944
0000d0 3c 9d f1 ba 48 95 12 3c 12 04 08 bc bf 82 75 be
       -0.00184337 0.008946724 -0.008301752 -0.23975657
0000e0 2e fb bc bb 12 69 c9 3b dd f2 1b 3c d9 0b 13 3c
       -0.0057672476 0.0061465586 0.009518352 0.008974993
0000f0 ed 5e ae bc 80 6b 8f bc 75 c5 40 3c a5 32 d0 3c
       -0.021285499 -0.017507315 0.011765827 0.025414774
000100 9f d6 15 3d 98 e4 68 3b 15 9b ad b9 c9 b8 8b bb
       0.03658163 0.0035536643 -0.00033112676 -0.0042639715
000110 7e 92 25 bc 61 cf 3e bc d3 eb 09 3c 62 cd a7 bb
       -0.010105727 -0.011646123 0.008418041 -0.005120919
000120 88 4a ff bb 9e ea a5 bc b1 3c 2b bb ee 5b 34 bb
       -0.0077908672 -0.020253476 -0.0026128704 -0.0027520615
000130 65 f1 89 bc 90 17 7d bc 8d 02 34 bc 5c ba c3 3b
       -0.016838739 -0.015447512 -0.010986936 0.0059731435
000140 38 a9 1e 3a d6 d6 6f bc a9 fb 9c bc 04 81 27 bc
       0.0006052437 -0.014638623 -0.01916297 -0.010223631
000150 36 c5 ff 3b c3 6b d7 3b 82 bc a0 3c c1 da 97 3e
       0.007805492 0.0065741255 0.019621138 0.29659083
000160 71 5e 43 3b ea 37 c1 3c 17 76 a6 bc ef 28 ff bc
       0.002981093 0.023586232 -0.020319982 -0.031147448
000170 38 32 3a 3c af 37 28 bd 10 7a d5 3a 15 88 7b 3c
       0.011364512 -0.04106873 0.0016286988 0.015352269
000180 5b 1f cb bc 74 5d b7 3b 1b f8 03 bc b1 a3 8e bc
       -0.024795225 0.0055958573 -0.008054758 -0.017412039
000190 bb 64 0b 3d fd 7e de bc 66 9c 38 3d 06 cf 86 3b
       0.03403161 -0.027160162 0.04507103 0.0041140346
0001a0 79 8a 41 3c e8 7b 0c bd 62 fb dd 3b c5 5d 13 bc
       0.0118128 -0.034297854 0.006774352 -0.008994524
0001b0 08 09 5f 3a d4 87 c0 ba 34 00 62 3c e9 f8 12 bd
       0.00085081207 -0.0014688917 0.013793994 -0.03588191
0001c0 08 c3 37 ba ca 4d 0b bd 52 2b d0 bc e5 57 f7 bc
       -0.0007009958 -0.034009732 -0.025411282 -0.030193279
0001d0 58 60 6f bc fc c2 a7 3c 02 87 9c bc 2e cb 59 bb
       -0.0146103725 0.020478718 -0.019107345 -0.0033232677
0001e0 b2 88 5e bc 25 e6 d9 bc a1 73 79 bb fa c1 23 3c
       -0.013582395 -0.026599 -0.0038063305 0.009994978
0001f0 e9 00 d4 3c f8 26 cf bc bf f0 cc bd 01 e0 4d 3c
       0.02587934 -0.025287136 -0.10006856 0.012565614
000200 c1 d2 cf bb 9f 33 81 3c 4d 87 03 3d 27 86 1e 3d
       -0.0063422625 0.015771685 0.032111455 0.038702156
000210 8b 95 6c 3c 3e 8e d7 3b 69 51 0d 3d e6 98 dc bb
       0.014439951 0.006578236 0.034501467 -0.006732094
000220 92 81 57 3c 10 fe 11 3c 88 bc 25 bd 69 69 8d 3c
       0.013153451 0.008910671 -0.040463 0.017262178
000230 94 d1 ba 3c 93 7e d8 bb 78 cf 1b bc b4 44 10 bc
       0.022805013 -0.0066068857 -0.009509914 -0.008805443
000240 87 f4 a1 3c f4 8a 48 3e 4f 1d b2 bc a8 09 e7 3c
       0.01976992 0.19584256 -0.021742491 0.028202847
000250 11 fe a9 bc 87 48 50 bc e9 18 4a 3b be cf b7 bc
       -0.020751031 -0.012712604 0.0030837602 -0.022437926
000260 51 01 02 bd 0a 09 08 3c bc 71 26 3b 5b 1b cf 3c
       -0.031739537 0.008302936 0.002539738 0.025281599
000270 56 f6 47 bc 3a e2 5f bd de d8 aa bb 38 00 29 bd
       -0.012204727 -0.054659106 -0.005213841 -0.041259974
000280 e6 a8 09 3d 70 01 26 3d 0c c1 6c 3a ea 93 22 3d
       0.03360834 0.040528715 0.0009031452 0.039691843
000290 62 7e 68 bb d2 d2 02 3d 4c e4 b8 3c 37 7e 54 ba
       -0.003547572 0.031939335 0.022569798 -0.00081059657
0002a0 58 d1 96 3b 8d 41 66 3c 16 7a e5 bc fc 9c 9c bb
       0.0046025924 0.014053714 -0.028012317 -0.004779456
0002b0 08 7a 60 3c 19 6a 62 bb f0 c4 83 39 49 f1 0a 3d
       0.0137009695 -0.0034548102 0.00025132997 0.033921514
0002c0 62 66 01 bd 49 16 94 3e dd 02 ce bc 70 82 c3 3c
       -0.03159178 0.28923252 -0.02514785 0.023865908
0002d0 be 64 f7 3a b0 c6 80 3e 9c a3 b4 bb 4e 51 74 3a
       0.0018874628 0.25151587 -0.005512668 0.00093199767
0002e0 02 46 ec 3b 2c 93 3d bc b5 f6 23 3c 76 4d 9f ba
       0.007210494 -0.011570733 0.01000755 -0.0012153822
0002f0 80 ac 1f 38 14 fb 20 bb 5e 96 0b bc 6f 81 2e bc
       3.8069207e-05 -0.0024563717 -0.008519737 -0.010650977
000300 cd 8e 38 bc 96 fb b4 3b 5a a1 51 3c 41 d2 a0 3c
       -0.011264515 0.0055231554 0.012794817 0.019631507
000310 c4 a8 04 3c 31 42 0d 3c 37 65 30 3c 00 b7 9b 3c
       0.0080968775 0.008621738 0.010766319 0.01900816
000320 ed 69 7c bc dc 65 b7 3c f5 73 a5 bb 28 18 0c bc
       -0.015406114 0.022387438 -0.0050492235 -0.008550681
000330 6c 76 9d 3c 24 b9 29 3c e0 17 61 bb 3c 97 3a bc
       0.019221507 0.010359082 -0.0034346506 -0.011388596
000340 25 4f f6 3b 00 26 7a b7 07 5c cd 3a d4 74 ee 3c
       0.007516759 -1.4910009e-05 0.0015667685 0.029108442
000350 2a b5 3b bb 38 6f a2 bc e4 71 7a 3a e8 7c 6b bc
       -0.0028641918 -0.019828424 0.0009553714 -0.014373042
000360 f7 09 6f be 0a f4 a3 bc a7 6f a0 3c 6b c5 53 bc
       -0.23343645 -0.020013828 0.01958449 -0.012925486
000370 4d 58 20 bc 4f 5a 14 bc a3 13 86 3a ef ab 05 3c
       -0.009786678 -0.009054734 0.0010229241 0.008158668
000380 02 47 26 bc e9 1e 2e bb 03 b2 a5 3b d4 cb 52 3c
       -0.0101487655 -0.0026568717 0.005056621 0.012865979
000390 c8 5b 57 3b fd 2e ba b9 92 90 e4 bc 35 02 b4 3c
       0.0032861102 -0.00035511694 -0.027900968 0.021973709
0003a0 dc 80 0d bc 93 45 46 bc 09 76 31 3c 73 45 57 3d
       -0.0086366795 -0.012101549 0.010831364 0.052556466
0003b0 32 46 59 bb 1c 0a 3b 3c 40 b3 1b 3b c2 bb b4 bb
       -0.0033153412 0.0114159845 0.0023757964 -0.0055155465
0003c0 e4 8d b8 3c 8e e5 81 3c 21 d4 73 3c e9 9d 48 bc
       0.022528596 0.01585653 0.014882118 -0.01224468
0003d0 f6 80 1c bc 6c a9 69 bc 1d d5 68 bc f2 b4 a4 3c
       -0.009552231 -0.014261585 -0.014210966 0.020105813
0003e0 01 aa 95 3c f6 ce 76 3c fc 56 7d 3a f6 ea ba bc
       0.01826954 0.015063992 0.0009664146 -0.022817116
0003f0 53 88 95 3b 5f fe 65 bb 56 cc 79 3b 71 33 72 bc
       0.0045633703 -0.0035094244 0.0038116178 -0.014782772

layers.3.bias f4 [5]
000000 3a b9 af be 34 c1 87 be cd ce 27 be 86 3d 67 3e
       -0.34321004 -0.2651459 -0.16387482 0.22582063
000010 f8 ec f8 3e
       0.48618293
