irony/models/model_48.pt (torch_old, 38823 bytes, 8 tensors)

layers.0.weight f4 [70, 10]
0	0xbd8caa44	-0.06868413
1	0xbef08752	-0.4697824
2	0x3e05dd34	0.13072664
3	0x3e594d2f	0.2122085
4	0xbe3c3c52	-0.18382385
5	0xbdb03bd2	-0.0860516
6	0xbccab925	-0.024746487
7	0x3d9af7f2	0.07566823
8	0x3de2f8c7	0.11082607
9	0xbd782fa0	-0.060592294
10	0xbe44e1a6	-0.19226703
11	0xbda319b3	-0.07963886
12	0x3c36b0a7	0.011150516
13	0xbe828e51	-0.25499204
14	0x3ed20a59	0.4102352
15	0xbdaf4de7	-0.085597806
16	0xbdb62540	-0.088938236
17	0xbdd46cc0	-0.10372305
18	0x3c48d41a	0.0122576
19	0x3e36344e	0.1779339
20	0x3e4bdf71	0.19909455
21	0xbf5341ea	-0.8252245
22	0x3e44535c	0.19172424
23	0x3e5eaac1	0.21744825
24	0xbc55bf2e	-0.013046069
25	0x3bd305ac	0.006439885
26	0xbd3f5cbf	-0.04671931
27	0x3ceccac6	0.028905284
28	0x3cfbb742	0.030727033
29	0xbdfb697c	-0.12275979
30	0xbdaa71d5	-0.08322493
31	0xbed91af6	-0.42403382
32	0x3e424b9b	0.18974154
33	0x3e88a232	0.26686245
34	0xbe01bde8	-0.126701
35	0xbdbab97d	-0.0911741
36	0x3c37e278	0.011223428
37	0x3e1eab0d	0.15494938
38	0x3e32d72d	0.17464896
39	0xbb5a8b43	-0.0033347167
40	0x3e3ba76f	0.1832559
41	0xbf1b8fe7	-0.6076645
42	0x3dcdb4ad	0.10044227
43	0xbe02b773	-0.12765293
44	0xbdf4cb6a	-0.11952861
45	0x3ddd7922	0.1081412
46	0xbbfc00c5	-0.0076905214
47	0x3dfabce7	0.122430615
48	0xbda509f6	-0.080585405
49	0xbd91c0d3	-0.071168564
50	0x3e372def	0.17888616
51	0x3d1cdef4	0.038298562
52	0x3d51ec7f	0.05125093
53	0x3e6772a1	0.22602321
54	0xbf53413f	-0.8252143
55	0x3dbdcfe1	0.092681654
56	0x3d93902d	0.07205234
57	0x3dfdd0b4	0.123933226
58	0x3d9848d0	0.07435763
59	0x3cb1c832	0.021701906
60	0xbf3df53f	-0.7420234
61	0x3e013722	0.12618688
62	0x3e203000	0.1564331
63	0x3e2eb07c	0.17059511
64	0x3c1ebae2	0.009688111
65	0xbda1b36c	-0.0789555
66	0xbba47057	-0.0050182748
67	0x3d166938	0.03672144
68	0x3c84ddd2	0.016219053
69	0xbdd00919	-0.10157985
70	0x3e6a48f3	0.2287939
71	0x3e9b163e	0.30290407
72	0xbed47b8d	-0.41500512
73	0xbe1d1ae8	-0.15342295
74	0xbda1f3eb	-0.07907852
75	0x3dfce931	0.12349165
76	0x3dc369fa	0.09541698
77	0xbd4c64df	-0.049900886
78	0xbe2af530	-0.16695094
79	0xbd86494f	-0.06556951
80	0xbe844ade	-0.2583837
81	0xbe47f5f1	-0.19527413
82	0x3e21c16c	0.15796441
83	0x3e8d497c	0.27595127
84	0xbe53b289	-0.20673575
85	0xbdfed631	-0.124431975
86	0xbdc949e6	-0.09828548
87	0x3df6756c	0.12034115
88	0x3e194454	0.14967471
89	0xbc9425ae	-0.018084373
90	0x3e335d07	0.17515956
91	0xbf19e63a	-0.6011692
92	0xbe7f5882	-0.24936107
93	0x3e0e3c35	0.13890155
94	0x3dbf2f29	0.09335167
95	0x3c4ee30e	0.012627376
96	0xbd99be98	-0.07507056
97	0xbe242dee	-0.16033146
98	0x3b31b095	0.0027113308
99	0x3dcbc3de	0.09949468
100	0xbe4efb33	-0.20213012
101	0xbdf67856	-0.12034671
102	0x3e404d9f	0.1877961
103	0x3e8048ac	0.25055444
104	0xbeccb657	-0.39982864
105	0xbdad05ac	-0.084483474
106	0xbdf174b6	-0.11789839
107	0x3e054ee6	0.13018379
108	0x3dbf871d	0.09351943
109	0xbd5cc3c3	-0.05389763
110	0x3dca6618	0.09882754
111	0x3e7455dd	0.23860879
112	0xbf439cb7	-0.76411
113	0x3e532ad1	0.20621802
114	0xbd6e4d09	-0.058178935
115	0x3d5f2878	0.054481953
116	0x3dd2bc9b	0.1028988
117	0xbc769144	-0.015049282
118	0x3d876c1b	0.06612416
119	0xbd7b6c0e	-0.061382346
120	0xbe1d002e	-0.153321
121	0xbe51b012	-0.20477322
122	0xbdbfd0c3	-0.0936599
123	0x3e8abfa8	0.27099347
124	0x3e602b0d	0.21891423
125	0xbd458c5a	-0.048229553
126	0xbd32bc41	-0.043636564
127	0xbbeb8237	-0.0071871537
128	0x3e3fff32	0.18749693
129	0x3e304b12	0.17216137
130	0xbe03bd31	-0.1286514
131	0xbe33d00b	-0.17559831
132	0xbde4ce63	-0.11172178
133	0x3e8819f8	0.26582313
134	0x3e3b94b4	0.18318444
135	0xbd13ae0e	-0.036054663
136	0xbe0416b7	-0.1289929
137	0xbda5755f	-0.080790274
138	0x3e371231	0.17878033
139	0x3e395b59	0.18101253
140	0x3ea90e72	0.33018833
141	0xbe4e7efb	-0.20165627
142	0xbea4dc77	-0.3219945
143	0x3eb8ef62	0.36120135
144	0xbe982c6e	-0.29721397
145	0x3e358864	0.1772781
146	0x3c2b886b	0.010469536
147	0x3d6bc241	0.0575583
148	0x3e50d80b	0.20394914
149	0x3d9f3f11	0.07775701
150	0xbf6ffa10	-0.9374094
151	0x3e756775	0.23965247
152	0x3e046ca6	0.12932071
153	0x3df7f90a	0.12108047
154	0x3e78a97d	0.24283405
155	0xbdad04bd	-0.084481694
156	0xbd41146f	-0.047138628
157	0xbc9a0ffd	-0.018806452
158	0xbd7df11b	-0.061997514
159	0x3c33e08b	0.010978828
160	0x3e89f791	0.2694669
161	0xbe96870e	-0.29399914
162	0x3eae54da	0.34049112
163	0xbe9fd6f2	-0.31218678
164	0xbd9ae62a	-0.075634316
165	0x3df1ba79	0.11803145
166	0xbd11d112	-0.035599776
167	0x3d8a0c3f	0.06740617
168	0xbdbb46fa	-0.09144397
169	0xbe004973	-0.12528019
170	0xbe1bb3ae	-0.15205261
171	0xbe25e7dd	-0.1620173
172	0xbe1d1089	-0.15338339
173	0x3e851bf0	0.25997877
174	0x3e141486	0.14460954
175	0xbdd71174	-0.10501376
176	0xbd9c91ac	-0.07644972
177	0xbddf9d8c	-0.109187216
178	0x3df33b7f	0.11876582
179	0x3e05be95	0.13060983
180	0x1dda3834	5.7762232e-21
181	0x1b5a1779	1.8040122e-22
182	0x1ac99329	8.33694e-23
183	0x9f1cf2c5	-3.32351e-20
184	0x9c6e0699	-7.875612e-22
185	0x95b100c4	-7.149094e-26
186	0x98b95394	-4.790577e-24
187	0x16fbcbc2	4.0679826e-25
188	0x3730e37b	1.0543382e-05
189	0x95b3b838	-7.258817e-26
190	0x3e60c0b1	0.21948506
191	0x3e777eac	0.24169415
192	0xbf01bb66	-0.5067657
193	0xbd5e35ff	-0.054250713
194	0xbd35530f	-0.044268664
195	0x3d46fdd9	0.04858193
196	0x3d1e9e6f	0.038725313
197	0xbd8828c7	-0.06648403
198	0xbe52da55	-0.205911
199	0xbe7b8494	-0.24562293
200	0xbe1545b6	-0.14577374
201	0xbe283272	-0.16425493
202	0x3ee5fd2c	0.44919717
203	0xbe5dee9b	-0.21673052
204	0xbdc08a43	-0.09401371
205	0xbe3685c1	-0.1782446
206	0xbc38a858	-0.011270605
207	0x3e2c66b3	0.16836052
208	0x3cce52f2	0.025186036
209	0xbdea1cc5	-0.114312686
210	0xbeea7b51	-0.45797208
211	0x3e570004	0.209961
212	0x3dfa1aa4	0.122121125
213	0x3e59500e	0.21221945
214	0xbe94f67d	-0.29094306
215	0x3c6b11d6	0.014347514
216	0x3df7cd77	0.12099736
217	0x3e0f0c9f	0.13969658
218	0x3e2c6e5b	0.16838972
219	0x3c241b84	0.010016326
220	0x3d8b8270	0.06811988
221	0x3e9aa58f	0.30204436
222	0xbe55d6e5	-0.20882757
223	0xbf086cde	-0.5329112
224	0x3e8ebc58	0.2787807
225	0x3d1d4ee7	0.038405325
226	0x3dacea21	0.08443094
227	0xbde73dbe	-0.11291073
228	0xbd9c1907	-0.07621961
229	0x3d7f74ba	0.06236718
230	0x3e9045e6	0.28178328
231	0xbd7e3485	-0.062061805
232	0xbe348b25	-0.17631204
233	0xbe797261	-0.24360038
234	0x3ead443d	0.33841124
235	0x3e2df7bc	0.16989034
236	0xbd8088a6	-0.062760636
237	0xbd2fdc11	-0.04293448
238	0xbcdad5d1	-0.026713284
239	0x3e35f1d9	0.17768039
240	0xbea05512	-0.31314903
241	0xbe223b79	-0.15843
242	0x3ef5f87d	0.48041144
243	0xbe68c7ca	-0.22732463
244	0x3ec2a1ce	0.38014072
245	0x3d0b6e56	0.03404077
246	0xbdb4eb10	-0.08833897
247	0x3e2b3d06	0.16722497
248	0x3d85a79b	0.06526109
249	0x3e3bdabc	0.1834516
250	0x3e218ba8	0.15775931
251	0x3ec0e0ce	0.37671512
252	0xbf289c43	-0.65863436
253	0x3d9a7d5a	0.0754344
254	0x3e8d7092	0.27624947
255	0x3da3d7f3	0.080001734

layers.0.bias f4 [70]
0	0x3d87e1bd	0.06634853
1	0xbce7255f	-0.028216062
2	0x3c92d729	0.017924862
3	0xbc898e86	-0.016791593
4	0x3d8994e1	0.067178495
5	0x3bf690a6	0.0075245677
6	0x3d63c929	0.055611763
7	0x3b20cbd9	0.0024535565
8	0xbb691aed	-0.0035569028
9	0x3ddb255d	0.10700486
10	0x3d19bae9	0.037531767
11	0x3bff2cfa	0.007787344
12	0xbdae6f6b	-0.08517345
13	0xbd87bd05	-0.066278495
14	0xbdd6c5bd	-0.10486934
15	0x3cb3b3d0	0.021936327
16	0x3c47a130	0.012184426
17	0xbca4354e	-0.020044949
18	0xb7803237	-1.5282172e-05
19	0x3db22c48	0.08699852
20	0xbd399d3f	-0.045315977
21	0xbcd860e7	-0.026413394
22	0x3cb84d34	0.02249775
23	0xbda3db98	-0.080008686
24	0xbe1b9083	-0.15191846
25	0xbdfe4420	-0.124153376
26	0x3d40201b	0.04690562
27	0xbe2ef1e7	-0.17084466
28	0xbe29eb8a	-0.16593757
29	0x3c117ac3	0.008879366
30	0xbc239d2c	-0.009986203
31	0xbd45569d	-0.048178304
32	0xbca500ce	-0.020141985
33	0xbdbf969d	-0.09354899
34	0xbd00ccb0	-0.031445205
35	0x3c8b849b	0.017031005
36	0xbd9c7a9f	-0.076405756
37	0xbd836190	-0.06415093
38	0xbd2c0b19	-0.04200277
39	0xbe37e729	-0.17959274
40	0xb980461f	-0.00024466307
41	0xbcdef222	-0.027215067
42	0x3cc4477c	0.023959868
43	0xbe6d5576	-0.23177132
44	0xbe3ac992	-0.18240955
45	0xbb96dee6	-0.0046042083
46	0x3e09ed11	0.1346934
47	0xbdaec67b	-0.08533951
48	0xbcc375f4	-0.023859955
49	0xbdcaa888	-0.09895426
50	0xbd81077d	-0.063002564
51	0xbe255512	-0.16145733
52	0xbdf9d986	-0.121996924
53	0xbd28d370	-0.041217268
54	0xbdc86fa4	-0.09786919
55	0x3c6f9160	0.014622062
56	0xbe728aec	-0.23685807
57	0xbddd0f3f	-0.107939236
58	0x3d0360a2	0.032074578
59	0xbc49e34c	-0.012322258
60	0xbdade402	-0.08490755
61	0x3d99b4c8	0.075051844
62	0xbd84754d	-0.06467686
63	0x3dd72035	0.1050419
64	0xbcb79931	-0.022411915
65	0xbe0d28fd	-0.13785167
66	0xbd656443	-0.05600382
67	0xbe5d20b9	-0.21594514
68	0xbd939e9b	-0.07207986
69	0xbda4be2f	-0.08044087

layers.1.weight f4 [50, 70]
0	0xbd2e93c2	-0.04262138
1	0x3dd379d1	0.10325969
2	0x3d082c96	0.033245645
3	0xbd8652fb	-0.06558796
4	0x3da59ad5	0.080861725
5	0xbe0bcacd	-0.13651581
6	0xbe5e089f	-0.21682976
7	0x3d06e3ea	0.0329322
8	0xbe1084ef	-0.1411321
9	0x3d5fc40f	0.054630335
10	0xbe18c57d	-0.14919086
11	0xbccda396	-0.025102418
12	0xbd2d50c0	-0.042313337
13	0x3d026036	0.031830035
14	0xbc56e108	-0.013115175
15	0xbe00e64c	-0.12587851
16	0x3d2e8ffa	0.042617775
17	0x3c359837	0.011083654
18	0x98487c77	-2.5912233e-24
19	0x3c1cd91d	0.009573248
20	0xbdba1df7	-0.090877466
21	0xbe6c5601	-0.23079683
22	0x3e0695d2	0.1314309
23	0x3e109300	0.14118576
24	0x3c668205	0.014069085
25	0x3d00a065	0.031402964
26	0x3d5f1c97	0.054470625
27	0xbd97e161	-0.074160345
28	0x3d8dc51d	0.06922362
29	0xbdf6c991	-0.120501645
30	0x3cdd3fea	0.027008016
31	0x3df6fcbe	0.120599255
32	0xbbe84403	-0.0070881858
33	0xbddf42d7	-0.109014206
34	0x3d95c941	0.07313777
35	0x3d949903	0.07255747
36	0xbd5a1bf8	-0.05324933
37	0x3d8302a7	0.0639699
38	0xbcecc157	-0.028900785
39	0xbcf03481	-0.02932191
40	0x1ab648f0	7.539127e-23
41	0x3e1dd338	0.15412605
42	0xbe0997cc	-0.13436812
43	0x3c19f842	0.009397568
44	0x3dab4d40	0.08364344
45	0xa3cb5706	-2.204616e-17
46	0x3cf99d1a	0.03047042
47	0x3df597a6	0.11991815
48	0x3da0e9cd	0.07857094
49	0xbe02ffb7	-0.1279286
50	0x3e330f08	0.17486203
51	0xbe3ae3a0	-0.18250895
52	0x3dd49414	0.10379806
53	0xbe069cc4	-0.13145739
54	0x3dc40cee	0.09572779
55	0x3d42c64e	0.0475524
56	0x3d6b17a0	0.057395577
57	0xbc8516b6	-0.016246181
58	0xbd960e3d	-0.073269345
59	0x3a2f3675	0.0006683835
60	0x3c8f5ace	0.017499354
61	0x3d9970a2	0.07492186
62	0xbe1bd5e9	-0.15218319
63	0xbe22c4fd	-0.15895458
64	0xbdbea1ce	-0.093082055
65	0xbdfee8bd	-0.12446735
66	0xbd233c58	-0.03985247
67	0xbe1947bc	-0.1496877
68	0xbd886c1f	-0.066612475
69	0xbbcbd52f	-0.006220482
70	0x3e1c1d13	0.15245466
71	0xbdce41e8	-0.10071164
72	0x3dbe5d74	0.092951685
73	0x3d99c4b0	0.07508218
74	0xbcc43f62	-0.023956005
75	0x3dbd8c1c	0.09255239
76	0x3d7eb8db	0.06218801
77	0xbe02eb03	-0.12784962
78	0x3e204adc	0.15653557
79	0xbd21ae2d	-0.039472748
80	0x3e1d2890	0.15347505
81	0xbc56c067	-0.013107396
82	0x3d82cf12	0.06387152
83	0x3ce54bba	0.02799021
84	0x3d749d0c	0.059720084
85	0x3d720832	0.059089847
86	0xbd7a2531	-0.061070625
87	0x3c475ac7	0.012167639
88	0x19047c32	6.849321e-24
89	0xbe0ea41c	-0.1392979
90	0x3d993ada	0.07481928
91	0x3d111846	0.03542354
92	0xbe8bede9	-0.2732995
93	0xbdf4588d	-0.11930952
94	0x3d1e8e20	0.03870976
95	0xbe1aed74	-0.15129644
96	0xbd844117	-0.064577274
97	0xbcfa863f	-0.030581592
98	0xbdd52aa2	-0.10408522
99	0x3dcd1232	0.10013236
100	0x3ce5fca2	0.028074566
101	0xbca19090	-0.019722253
102	0xbdd91dff	-0.106014244
103	0x3ccbe558	0.024889633
104	0xbe5605e9	-0.20900692
105	0xbea0c57d	-0.31400672
106	0xbcb996a8	-0.022654846
107	0xbc9ce110	-0.019150287
108	0x3ce054b2	0.027384136
109	0xbe111be3	-0.14170794
110	0x9b088139	-1.129141e-22
111	0xbdf13e1a	-0.11779423
112	0x3dd7964a	0.10526712
113	0xbd3f8c94	-0.046764925
114	0xbde2f335	-0.11081544
115	0xa2f77c02	-6.7080783e-18
116	0x3d497f07	0.04919341
117	0xbe2e670f	-0.17031501
118	0xbdf5f417	-0.12009447
119	0x3d6ad12d	0.05732839
120	0xbd182660	-0.037145972
121	0x3ca94c1e	0.020666178
122	0xbde4c1c2	-0.11169769
123	0x3d9c895d	0.076433875
124	0xbe1d8e77	-0.15386377
125	0x3d6c5704	0.057700172
126	0xbd924451	-0.071419366
127	0x3c028cc7	0.007968134
128	0x3cbfa463	0.023393815
129	0x3d56a69a	0.052404977
130	0x3ca990f0	0.020698994
131	0x3bc651e4	0.0060522426
132	0x3c9cb046	0.019127022
133	0x3c226b7d	0.0099133225
134	0x3d934398	0.07190627
135	0x3d79b895	0.060967047
136	0x3df37cf2	0.11889066
137	0x3d65b3c1	0.05607963
138	0xbcdfdd02	-0.027327064
139	0xbc3e0c82	-0.011599662
140	0x3d40e8bc	0.047096953
141	0x3e0c28e7	0.13687478
142	0x3d64558c	0.055745646
143	0x3d440cb1	0.047863666
144	0xbe07324b	-0.13202779
145	0xbdd61b06	-0.10454373
146	0x3ce4b26d	0.027917111
147	0xbd2552ec	-0.040362284
148	0x3d8364d8	0.06415719
149	0x3cad06bc	0.021121375
150	0x3b9c7b6c	0.004775455
151	0x3d70032f	0.058596786
152	0x3d9ba9ce	0.07600747
153	0x3da6dfa6	0.08148126
154	0x3d1b049f	0.037846204
155	0x3d6279b9	0.055291865
156	0xbe1c71b5	-0.15277751
157	0x3d73bf74	0.059508756
158	0x986c784b	-3.0563018e-24
159	0x3d470568	0.04858914
160	0xbdc5b9f5	-0.09654609
161	0x3d680f72	0.056655355
162	0xbd884a58	-0.06654805
163	0x3c3c73f4	0.011502255
164	0x3db41455	0.087929405
165	0x3d9c34e8	0.076272786
166	0x3d307a61	0.04308546
167	0xbde7b30e	-0.11313449
168	0xbe13f042	-0.1444712
169	0x3da5804e	0.08081113
170	0x3da9bddb	0.08288165
171	0x3d267057	0.04063448
172	0xbe0a47ef	-0.13504003
173	0xbdea2dff	-0.11434554
174	0xbc8392bb	-0.016061177
175	0xbce2bb28	-0.027677134
176	0xbe59cc81	-0.21269418
177	0x3d32f454	0.04369004
178	0xbe5d1141	-0.21588613
179	0xbe2367da	-0.15957585
180	0x19a6b58c	1.7237324e-23
181	0x3dcaac17	0.09896105
182	0xbdb0bc8f	-0.08629715
183	0x3e090a8c	0.1338293
184	0xbda80104	-0.08203319
185	0x23232abf	8.8452995e-18
186	0x3d99b833	0.07505836
187	0xbcbd6d7a	-0.023123492
188	0xbdc1905b	-0.09451362
189	0x3d24a886	0.04019978
190	0x3d34fa22	0.044183858
191	0xbe135417	-0.14387546
192	0xbd2b2635	-0.041784484
193	0xbe3be892	-0.18350437
194	0xbdbf8c7c	-0.09352967
195	0x3d386e59	0.04502711
196	0x3e01ad33	0.12663727
197	0xbe718f9a	-0.23589936
198	0x3d83d6ac	0.0643743
199	0x3e1a0e43	0.15044503
200	0x3dc08490	0.09400284
201	0xbd8eb13a	-0.06967397
202	0x3d595859	0.05306277
203	0xbd22c280	-0.03973627
204	0x3d3bbfc3	0.045837175
205	0xbe2196c1	-0.15780164
206	0x3dde3e09	0.10851676
207	0xbcb86f1e	-0.022513922
208	0xbd9f90e2	-0.07791306
209	0x3db22b29	0.086996384
210	0xbac4a45f	-0.00150026
211	0xbe0a8cff	-0.13530348
212	0xbca0ee65	-0.019644925
213	0xbcadd4f7	-0.021219714
214	0xbd96b0eb	-0.07357963
215	0x3e010a4f	0.12601589
216	0xbd941b4e	-0.072317705
217	0x3e28e2f9	0.16492833
218	0xbcddbbaa	-0.027067024
219	0xbcdf6ef7	-0.027274592
220	0xbb1bd326	-0.0023776977
221	0x3e829e95	0.25511613
222	0xbd0d73c5	-0.034534235
223	0xbc8ecc42	-0.017431382
224	0x3e313564	0.17305523
225	0xbdb89202	-0.09012224
226	0xbd93a467	-0.07209092
227	0xb9bb03d8	-0.00035670283
228	0x988a65bf	-3.57749e-24
229	0x3e423e1a	0.18969002
230	0xbde6fe31	-0.11278952
231	0x3da61b66	0.081106946
232	0xbd56a2cb	-0.052401345
233	0xbd4c65d7	-0.04990181
234	0xbe53fb95	-0.2070144
235	0x3da776c0	0.08176947
236	0x3d518041	0.051147703
237	0x3e13a7b6	0.14419445
238	0x3e08a6a2	0.13344815
239	0xbcfcfa9e	-0.030881222
240	0xbd4e977b	-0.05043743
241	0xbd8eb8dd	-0.069688536
242	0x3db4a0a6	0.08819704
243	0xbd1b1165	-0.037858386
244	0xbdb3396f	-0.08751189
245	0xbd6580da	-0.056031086
246	0x3d2dda5b	0.042444568
247	0xbdaaaca9	-0.083337136
248	0xbca7efd1	-0.020500096
249	0xbe079d59	-0.13243617
250	0x99f12c43	-2.4936693e-23
251	0xbe1fec28	-0.1561743
252	0x3e8266ec	0.25469148
253	0x3e561fdd	0.20910592
254	0x3e005a40	0.12534428
255	0x21c61651	1.3422909e-18

layers.1.bias f4 [50]
0	0x3c03fb70	0.008055553
1	0x3c35c352	0.011093931
2	0x3cf3afbe	0.029746886
3	0xbc20080d	-0.009767544
4	0x3b6ae357	0.0035841072
5	0xbc9ca068	-0.019119456
6	0xbab47aea	-0.0013769541
7	0x3c9c901e	0.01911169
8	0x3ccc821d	0.024964387
9	0x3a84f950	0.0010145102
10	0xbb5a6a9d	-0.0033327707
11	0x3c6b7769	0.014371731
12	0x3aac69f2	0.0013154133
13	0xbaf6af7c	-0.0018820609
14	0xbc176681	-0.009240747
15	0xbc70e5d8	-0.0147032365
16	0xbc2237d2	-0.009901004
17	0x3ced8d5e	0.028998073
18	0xbc37eee1	-0.011226387
19	0xbbd80676	-0.006592567
20	0xbca23998	-0.019802853
21	0x3c70e800	0.014703751
22	0x3ca8309c	0.020530991
23	0x3b73464c	0.0037120758
24	0xbc384838	-0.011247687
25	0xba47aca0	-0.00076169707
26	0x3b40c8de	0.0029416601
27	0x3d4584fc	0.048222527
28	0x3c43360f	0.011914744
29	0x3aa37630	0.0012471136
30	0x3ca7fd38	0.020506486
31	0xbc2da8fb	-0.01059937
32	0xbb988112	-0.0046540583
33	0xbc77b15c	-0.015117969
34	0x3b84055b	0.0040289587
35	0xbd1dcbda	-0.038524486
36	0x3cd90380	0.026490927
37	0xbc6e0604	-0.014527801
38	0x3cdac383	0.026704555
39	0x3d000306	0.031252883
40	0xbc9c90ff	-0.019112108
41	0x3c7c8b58	0.0154140815
42	0xbc80df99	-0.01573162
43	0x3c3675bd	0.011136469
44	0x3d00ee33	0.031477164
45	0xbcabcb78	-0.020971045
46	0xbba7f037	-0.0051250714
47	0xbb71fa75	-0.0036922966
48	0x3beeec99	0.007291388
49	0x3b2c2f84	0.0026273439

layers.2.weight f4 [90, 50]
0	0x3b6e338b	0.003634664
1	0xba141506	-0.00056488847
2	0x3a810eef	0.000984637
3	0xb71e8340	-9.448093e-06
4	0x3c221802	0.009893419
5	0x3bdda2f4	0.0067638103
6	0x3a437837	0.0007456573
7	0x3b951cd9	0.004550558
8	0x3c071b62	0.008246275
9	0xbbd0f9d5	-0.0063774385
10	0x3c1dd57d	0.009633419
11	0x3b628c2b	0.003456841
12	0x3b890c96	0.0041824086
13	0xbb2d89d8	-0.0026479866
14	0xb9a5bc43	-0.00031611518
15	0xba1df64e	-0.0006025777
16	0xba5634de	-0.000817133
17	0x3c22abcc	0.009928655
18	0x39033830	0.00012514065
19	0xbbebd07f	-0.0071964855
20	0x3a8d7c00	0.0010794401
21	0x3b6724e6	0.0035269796
22	0xbc1dd194	-0.009632487
23	0xbbf50982	-0.00747794
24	0x3b8e38b9	0.004340258
25	0xbbf9fc53	-0.0076289563
26	0xbbccd2ee	-0.0062507307
27	0xbb6d9adc	-0.0036255633
28	0x3bac0bb6	0.0052504195
29	0xbab49700	-0.0013777912
30	0x3b6ddb3f	0.003629401
31	0xbbcc9812	-0.006243714
32	0x3b73e23c	0.0037213704
33	0x3a98e679	0.0011665366
34	0xb9cfc16b	-0.00039626224
35	0x3c4bd7ee	0.012441618
36	0x3b3b1f5d	0.002855263
37	0x3bd5ea42	0.00652817
38	0x3b77e481	0.0037825408
39	0x3ae1a6a5	0.0017215802
40	0x3bc57192	0.0060255015
41	0x3a441c92	0.0007481064
42	0xbb989121	-0.0046559726
43	0xbbdc5257	-0.006723683
44	0xbb8ab05a	-0.0042324485
45	0x3bd4170b	0.0064724735
46	0x3b809088	0.0039234795
47	0xb9f2848c	-0.00046256592
48	0xbb8d60a1	-0.0043144976
49	0x3acec593	0.0015775434
50	0xbc4a1db6	-0.012336185
51	0x3c5e6bbc	0.013575491
52	0x3c4de8eb	0.012567739
53	0x3c6b9c8d	0.014380586
54	0x3b8390bb	0.004015056
55	0x3c21881d	0.009859112
56	0xbc96e816	-0.018421214
57	0xbc19f78d	-0.0093974
58	0xbc2b05cd	-0.010438395
59	0xbc40865e	-0.011750786
60	0x3b916768	0.004437376
61	0xbc9fac5d	-0.019491369
62	0x3c8c0409	0.017091768
63	0x3ca5104b	0.02014937
64	0xbc6fc0e4	-0.014633391
65	0x3b96674d	0.004589951
66	0xbc4a94e5	-0.012364601
67	0xbbbffa48	-0.0058586933
68	0x3bf8d918	0.007594239
69	0xbbdcee71	-0.0067422916
70	0x3b41f80b	0.0029597308
71	0x3be6e5f0	0.0070464537
72	0xbbb13e94	-0.005409071
73	0xbbd6a4d1	-0.0065504094
74	0xba816f72	-0.0009875132
75	0x3c7d2e50	0.015452936
76	0x3c886a74	0.016652323
77	0xbc66150e	-0.014043106
78	0xbc43381a	-0.011915231
79	0x3c3b5f1a	0.011436248
80	0x3c3ae272	0.011406528
81	0x3c45e144	0.012077633
82	0x3b064da5	0.0020493057
83	0x3c9dc2a8	0.019257858
84	0xbccbfd9b	-0.024901202
85	0xbaf029cb	-0.0018323002
86	0x3c67f017	0.014156363
87	0xba63cd11	-0.000868992
88	0x3c9e88c3	0.019352322
89	0xbc9d864a	-0.019229073
90	0xbcb48142	-0.022034291
91	0xbb97a4b0	-0.0046277866
92	0x3b65fca3	0.003509321
93	0x38c694e2	9.469107e-05
94	0xbc24a460	-0.010048956
95	0x3bd41892	0.0064726556
96	0x3c34e0c7	0.011039919
97	0x3ca2e625	0.019885132
98	0xbc43e26d	-0.01195584
99	0xbbd8c113	-0.006614813
100	0xb7809dae	-1.5332214e-05
101	0xb822a400	-3.8776547e-05
102	0x31d7bc80	6.2787535e-09
103	0xb7038240	-7.838535e-06
104	0xb80b31dc	-3.3186618e-05
105	0x37acf106	2.0616233e-05
106	0xb822368f	-3.867462e-05
107	0x37df5c91	2.6626776e-05
108	0x38043b96	3.1526746e-05
109	0xb616f2f7	-2.2493166e-06
110	0xb7a4223b	-1.9566263e-05
111	0xb7023b98	-7.762479e-06
112	0x35f9cbbc	1.861124e-06
113	0x3839d031	4.430133e-05
114	0xb797a722	-1.807843e-05
115	0x383dee9d	4.5283337e-05
116	0xb7770f5a	-1.4725922e-05
117	0x3749d6fd	1.20305895e-05
118	0xb7a0340e	-1.9097726e-05
119	0x37132d56	8.772438e-06
120	0xb7345d76	-1.0750597e-05
121	0xb84c9738	-4.8778224e-05
122	0x37cc9fe5	2.4393152e-05
123	0x34cdd4f0	3.8339158e-07
124	0x36e8c29b	6.936794e-06
125	0x367dc172	3.7812538e-06
126	0x36c0848c	5.7374764e-06
127	0xb7b238b5	-2.124566e-05
128	0x378aea88	1.6560094e-05
129	0xb7ac9adf	-2.0576115e-05
130	0xb784a749	-1.5813524e-05
131	0x38040e6a	3.1484677e-05
132	0xb745dccf	-1.1793526e-05
133	0x378a34cb	1.6475466e-05
134	0xb816921d	-3.5898865e-05
135	0x365c1f18	3.2800654e-06
136	0xb80a81dd	-3.302271e-05
137	0xb8048c7f	-3.16021e-05
138	0xb78ae220	-1.655618e-05
139	0xb826f36e	-3.9804196e-05
140	0x382d28db	4.1284464e-05
141	0x3759cdaa	1.2982093e-05
142	0x36d8ff0a	6.466992e-06
143	0xb726d42f	-9.943774e-06
144	0xb845016c	-4.6969784e-05
145	0xb7925100	-1.7442275e-05
146	0x378a3b02	1.647836e-05
147	0x376e734d	1.4212751e-05
148	0xb7b109a2	-2.110453e-05
149	0x376411b9	1.3593985e-05
150	0xb6aeb7b0	-5.206988e-06
151	0x384b4faa	4.8473164e-05
152	0x38c5d802	9.4339266e-05
153	0x3841292a	4.6053123e-05
154	0xb84bc0f0	-4.857866e-05
155	0xb8a49db2	-7.8495024e-05
156	0x38288127	4.0174604e-05
157	0xb807e420	-3.2398966e-05
158	0xb90b222f	-0.00013268807
159	0x38a5b30f	7.9011654e-05
160	0xb8af0df9	-8.347253e-05
161	0xb67bd361	-3.7524953e-06
162	0xb9130f66	-0.00014024749
163	0xb8f0236f	-0.00011450692
164	0x388f7f99	6.842538e-05
165	0xb88a319e	-6.589595e-05
166	0x3886850a	6.4143984e-05
167	0xb8fc75f5	-0.000120382676
168	0xb7c7b1d7	-2.3805462e-05
169	0x38ddad57	0.00010570388
170	0xb88b8944	-6.653604e-05
171	0xb81df2f5	-3.765799e-05
172	0x383b4142	4.464505e-05
173	0x38fa09d3	0.00011922759
174	0xb8b7554c	-8.742008e-05
175	0x38c21534	9.25459e-05
176	0xb888ed63	-6.529202e-05
177	0x384937b7	4.7974023e-05
178	0xb7990cec	-1.8245039e-05
179	0xb70a3718	-8.2382685e-06
180	0x36be6569	5.674247e-06
181	0x387425b9	5.8209265e-05
182	0xb887a662	-6.468293e-05
183	0x38447b83	4.684507e-05
184	0x379c0dea	1.8603128e-05
185	0xb91a843b	-0.00014735844
186	0x37620d89	1.3473801e-05
187	0x3837be1d	4.3807657e-05
188	0x37058e65	7.960572e-06
189	0xb6e39762	-6.7827505e-06
190	0xb750edc0	-1.2453122e-05
191	0x37bd1258	2.2539098e-05
192	0x384f7d06	4.9469083e-05
193	0x38badf8b	8.910809e-05
194	0x38626b93	5.3982785e-05
195	0xb8320f61	-4.245283e-05
196	0xb8d2764a	-0.000100356134
197	0xb8179bec	-3.614642e-05
198	0x37d2d75b	2.5134234e-05
199	0xb7e8d6ed	-2.7756638e-05
200	0x3ad454f3	0.0016199633
201	0x39b03c36	0.00033614197
202	0x39904f27	0.00027524793
203	0xba10cd30	-0.00055237394
204	0x3b6ec0b1	0.003643077
205	0x3b178ff1	0.0023126567
206	0x3a4164fe	0.0007377415
207	0x3ab0f2d0	0.0013500098
208	0x3b50fad8	0.0031887796
209	0xbb0bf64e	-0.0021356526
210	0x3b7088ef	0.0036702713
211	0x3a9b2670	0.0011837017
212	0x3acf38d9	0.0015809789
213	0xba539141	-0.0008070656
214	0x3876e132	5.88607e-05
215	0x39d8b4a2	0.00041333312
216	0xba0eae6d	-0.00054428616
217	0x3b7a6dd9	0.0038212447
218	0x3a2b30b1	0.0006530388
219	0xbb482519	-0.003053969
220	0x3a9393c3	0.0011259246
221	0x3b134aa1	0.0022474902
222	0xbb79e90a	-0.0038133287
223	0xbb32cb20	-0.0027281716
224	0x3b227909	0.002479138
225	0xbb46b56c	-0.0030320538
226	0xbaf30821	-0.0018541851
227	0xbaac4b49	-0.0013144995
228	0x3af14b9b	0.0018409373
229	0x398a87e3	0.00026422655
230	0x3aeafb43	0.0017927665
231	0xbb17ad3f	-0.0023144034
232	0x3afbd4bf	0.0019213184
233	0x3952439e	0.0002005235
234	0x3a1220e4	0.0005574359
235	0x3ba362a5	0.0049861246
236	0x3a9f9532	0.0012175201
237	0x3b1e8ee3	0.0024194054
238	0x3aea2d9a	0.0017866374
239	0x3ae89411	0.0017744323
240	0x3b0fa74c	0.0021919785
241	0xb8fa41b8	-0.0001193317
242	0xbb01d90f	-0.0019813215
243	0xbb3079b0	-0.0026928
244	0xb9f6a42c	-0.00047043094
245	0x3b13908e	0.0022516581
246	0x3a9835d4	0.0011612722
247	0xba87343f	-0.0010315253
248	0xba83f0a9	-0.0010066229
249	0x3935b17d	0.00017327625
250	0xbb5ea03e	-0.0033970024
251	0x3b9e8f00	0.0048388243
252	0x3c49d300	0.012318373
253	0x3bd1ed7c	0.006406484
254	0x3bd6856d	0.0065466673
255	0x3c45f54e	0.012082411

layers.2.bias f4 [90]
0	0xbb0072ba	-0.0019599632
1	0xbc1e9431	-0.009678886
2	0x3667e24f	3.4553411e-06
3	0xb78a99f5	-1.6522574e-05
4	0xb9c7c837	-0.0003810541
5	0xbb435466	-0.0029804944
6	0x3ca16ec6	0.019706141
7	0xbc14f3df	-0.0090913465
8	0x3c9a0cbb	0.018804898
9	0xbb920360	-0.0044559687
10	0xba2e99b0	-0.00066604745
11	0x3c0a40f4	0.008438338
12	0xbb524d6d	-0.0032089606
13	0x3a7f163b	0.00097307906
14	0x3b45d602	0.0030187373
15	0xbc0db28c	-0.008648526
16	0x3bb379ba	0.0054771574
17	0xbd62de7d	-0.055387963
18	0xbb16eff7	-0.0023031214
19	0xb781995b	-1.544941e-05
20	0xb9e15284	-0.00042976823
21	0x3ad08d02	0.0015911164
22	0xbcb6c493	-0.02231053
23	0xbb8112d6	-0.003939013
24	0xbd1f16ab	-0.038839977
25	0xbabf889a	-0.0014612854
26	0xb6dd0e54	-6.5879813e-06
27	0x3b9c3deb	0.0047681234
28	0x3d51fc75	0.051266152
29	0xbc0dba42	-0.008650364
30	0x3d250888	0.04029134
31	0xb9f33f3a	-0.0004639568
32	0x3c043f98	0.008071803
33	0x3d0401f7	0.032228436
34	0x3c721e56	0.01477774
35	0x3c179274	0.009251226
36	0x3d10c24d	0.03534155
37	0x3d10141a	0.03517542
38	0xbb16bebd	-0.0023001872
39	0xb88d92c7	-6.750743e-05
40	0x3d02e80c	0.03195958
41	0xbc84438b	-0.016145488
42	0xbba5b6a6	-0.005057174
43	0x36c24a72	5.790317e-06
44	0xba49c868	-0.00076974044
45	0x3b331f8b	0.0027332033
46	0xb5d2cd68	-1.5706e-06
47	0x3c5d8425	0.013520275
48	0x37d4c046	2.5361904e-05
49	0x373bfa9f	1.1204421e-05
50	0xbc22aab7	-0.009928397
51	0x39e5e66a	0.00043849956
52	0xba3f2d6b	-0.00072928396
53	0x3d106d72	0.035260625
54	0x3c871b0e	0.016492393
55	0xbbd4b883	-0.006491722
56	0xbac43670	-0.0014969837
57	0x3cab3cf6	0.020903092
58	0x3ba652bf	0.005075782
59	0x39f18d58	0.0004607241
60	0x3a99ef9e	0.0011744385
61	0x3c059fb0	0.008155748
62	0xbae9d29c	-0.0017839256
63	0xbc9541d7	-0.018219871
64	0x3cd80b79	0.026372658
65	0xbc4da6dd	-0.01255199
66	0x3d149e87	0.036283996
67	0xbcff36c8	-0.031154051
68	0x37f31dbe	2.8981707e-05
69	0xbc5be77c	-0.013421889
70	0x384bb6b0	4.8569113e-05
71	0x3aa1407f	0.0012302547
72	0xbc9471fe	-0.018120762
73	0xb8a6f009	-7.960207e-05
74	0xbcd53052	-0.026024017
75	0x3ccee374	0.025254942
76	0x3b109223	0.002205976
77	0x3b05e3e2	0.0020430018
78	0xb6818bc6	-3.8607714e-06
79	0x39b9e828	0.0003545892
80	0xbb6ab663	-0.0035814277
81	0x37ed87a1	2.8315759e-05
82	0x3b0845c9	0.0020793548
83	0x3b0e60d9	0.0021725206
84	0xbb1e76ce	-0.00241797
85	0xbc125fef	-0.008934005
86	0x3c1d528e	0.009602202
87	0xbc0da250	-0.008644655
88	0xbba3eb75	-0.005002434
89	0x3ccdda4c	0.025128506

layers.3.weight f4 [5, 90]
0	0x3b4194d6	0.0029538176
1	0x3c87611b	0.016525796
2	0xbb8fe937	-0.004391815
3	0xbc1a66d4	-0.00942393
4	0xbc2447b5	-0.010026862
5	0x3c8cd1ce	0.017189886
6	0xbd93f9b9	-0.07225365
7	0x3d4276ed	0.047476698
8	0xbc274330	-0.01020889
9	0x3c1543cc	0.009110402
10	0xbbfc2a8e	-0.0076955026
11	0xbda38409	-0.07984168
12	0x3caf19ea	0.021374661
13	0xbc123865	-0.008924578
14	0x3d90f6dc	0.07078335
15	0xbd9e28fc	-0.07722661
16	0xbb606612	-0.0034240526
17	0x3d3efbf7	0.04662701
18	0x3c88988f	0.016674308
19	0xbc04b6b4	-0.0081002
20	0x3c2f6faf	0.01070778
21	0xbab7c556	-0.0014020603
22	0x3e132ae0	0.14371824
23	0x3a21772a	0.00061594194
24	0x3d7e7066	0.06211891
25	0x3bc95c0d	0.0061450065
26	0xbbae1174	-0.005312139
27	0x3d61ac38	0.05509588
28	0xbe8e6ee6	-0.27818984
29	0x3cce3491	0.02517155
30	0xbd00b64f	-0.031423863
31	0xbc4b129f	-0.012394576
32	0xbd43ba4c	-0.04778509
33	0x3c5b20c1	0.013374508
34	0x3d8b7946	0.068102404
35	0x3e3b3504	0.18281943
36	0xbe63b0c6	-0.22235402
37	0xbe7a4cf3	-0.24443416
38	0xbc96bc43	-0.018400317
39	0xbc1372e2	-0.008999558
40	0xbdd2afb9	-0.10287423
41	0xbccbf3cb	-0.024896523
42	0x3e1c6ef4	0.152767
43	0xbbeb3b7c	-0.007178722
44	0xbc83e38c	-0.016099714
45	0x3b2160a3	0.002462425
46	0xbb7e57e9	-0.0038809723
47	0xbdb609df	-0.088886015
48	0xbc07435e	-0.008255808
49	0x3c803b95	0.01565341
50	0x3d406bf4	0.046977952
51	0xb9a5d04c	-0.00031626446
52	0xbcd7935d	-0.026315385
53	0xbdd099bb	-0.10185572
54	0xbd0105a2	-0.031499512
55	0x3e22dd34	0.15904695
56	0xba95858a	-0.0011407596
57	0x3e22a16d	0.15881892
58	0xbcffb509	-0.031214254
59	0x3c060ef0	0.008182272
60	0xbbaeb531	-0.0053316583
61	0xbadcbbd2	-0.0016840643
62	0x3ce4e9d1	0.027943524
63	0xbdbc78bd	-0.092027165
64	0x3e30d558	0.17268884
65	0x3d6f75d3	0.058461975
66	0x3e239897	0.15976177
67	0xbe0825ec	-0.13295716
68	0xbac638de	-0.0015123149
69	0x3c987fa5	0.018615553
70	0xbba19a59	-0.0049317298
71	0xbb52c793	-0.0032162413
72	0x3e2390d4	0.15973216
73	0xbba48de5	-0.005021798
74	0x3cb7881f	0.022403775
75	0x3e287134	0.16449434
76	0xbc1de524	-0.009637151
77	0x3c245b23	0.010031494
78	0xb9fcf3fb	-0.00048246965
79	0xbbcdfd9f	-0.0062863375
80	0x3c2c6ae9	0.010523536
81	0xbb34c609	-0.0027583858
82	0xbc9d72d1	-0.019219788
83	0x3b8499da	0.004046661
84	0x3b89a3c5	0.004200431
85	0xbc8f2f9d	-0.017478758
86	0xbe2996cc	-0.1656143
87	0x3d56e3d1	0.052463356
88	0x3d57efb7	0.052718844
89	0xbcd2cbb9	-0.025731908
90	0xbc346b22	-0.011011871
91	0x3ccb2add	0.024800712
92	0xbb8f6687	-0.004376236
93	0xbc190836	-0.009340337
94	0xbc713d3f	-0.014724075
95	0x3c3ffab3	0.011717486
96	0xbc5cbac2	-0.013472261
97	0x3bfd4b95	0.0077299573
98	0xbd00c22b	-0.031435173
99	0xbd14fd58	-0.03637442
100	0xbc398008	-0.011322029
101	0x3e026dbf	0.12737177
102	0x3c87aae1	0.016560974
103	0xbc8ea057	-0.01741044
104	0x3d7e9288	0.06215146
105	0xbd634073	-0.055481385
106	0xbac58b91	-0.0015071501
107	0x3e815026	0.2525646
108	0x3c07bac8	0.008284278
109	0xbc050991	-0.008119957
110	0x3c2e534f	0.0106399795
111	0x3ce1f62f	0.02758321
112	0x3bba4e9c	0.0056856405
113	0xb9605d43	-0.00021397047
114	0xbd93b824	-0.072128564
115	0x3b839e5d	0.004016681
116	0xbbae86a1	-0.0053261076
117	0x3d6e936b	0.058246057
118	0x3e0bd254	0.13654453
119	0x3da40ed6	0.08010642
120	0xbdbb9b16	-0.0916044
121	0xbc4f0c0e	-0.012637151
122	0x3d622c8f	0.055218276
123	0xbd9b0375	-0.07569019
124	0xbce3f59d	-0.027827078
125	0xbd020ebe	-0.03175234
126	0xbdbccb6c	-0.09218487
127	0x3e3b5826	0.18295345
128	0xbc8879d2	-0.016659651
129	0xbc112da2	-0.008860977
130	0x3dee1a3a	0.11626096
131	0x3d2d8be8	0.042369753
132	0xbda0a315	-0.078436054
133	0xbbe6f101	-0.007047773
134	0xbc902e0c	-0.017600082
135	0xbcb26b02	-0.02177954
136	0xbb79779f	-0.0038065684
137	0x3bc70a7a	0.006074247
138	0xbc078d7c	-0.008273479
139	0x3c7ba51d	0.01535919
140	0x3c9baf5c	0.019004516
141	0xbb3bcdd0	-0.002865661
142	0x3d9c68c8	0.07637173
143	0xbeb862f6	-0.36013
144	0x3d275235	0.040849883
145	0xbdf9790c	-0.12181291
146	0xb8fe87c7	-0.00012136954
147	0xbe7483a0	-0.23878336
148	0x3d008ae9	0.031382475
149	0x3c077cce	0.008269502
150	0x3cfdadd0	0.03096667
151	0x3d54717d	0.051866043
152	0xbddbfa4a	-0.10741098
153	0x3da32960	0.07966876
154	0x3df591a3	0.119906686
155	0x3d38aa2b	0.04508416
156	0x3d264bcd	0.040599633
157	0x3ea15e81	0.31517413
158	0xbacf9af0	-0.0015839022
159	0x3db4f723	0.088362
160	0xbb9ac910	-0.0047236755
161	0xbb373ad9	-0.002795866
162	0x3dd1bb7a	0.102408364
163	0xbb9b186a	-0.004733135
164	0x3d0f2e5d	0.034956325
165	0x3dc63c53	0.09679475
166	0xbc15379e	-0.009107498
167	0x3a79fd92	0.0009536381
168	0xba0c1a29	-0.00053444743
169	0xbbe318ab	-0.006930431
170	0xbb825a17	-0.0039780247
171	0xbb3ffeef	-0.002929624
172	0xbce0817a	-0.02740549
173	0x3bb4c5ea	0.0055167573
174	0x3c1f69cb	0.009729813
175	0x3d66b871	0.05632824
176	0x3dc1cb15	0.09462563
177	0xbdc59bd8	-0.096488655
178	0xbc10aed1	-0.008830742
179	0xbd00959e	-0.031392686
180	0xbb42d047	-0.0029726194
181	0x3c281690	0.010259286
182	0xbb92cc3f	-0.0044799144
183	0xbc187db5	-0.009307315
184	0xbc2f96ba	-0.010717088
185	0x3b99f6b1	0.0046985974
186	0x3d6c7cd2	0.057736225
187	0xbc970d8f	-0.018439082
188	0x3cf0e066	0.029403877
189	0xbbf60f6f	-0.007509164
190	0xbbbf640f	-0.0058407853
191	0x3cc61218	0.02417855
192	0x3c8d3f10	0.017241985
193	0xbca225d5	-0.01979343
194	0x3c43a8ca	0.011942098
195	0xbc9a5932	-0.01884136
196	0x3b16d374	0.002301422
197	0x3db78388	0.089606345
198	0x3bad91e1	0.005296931
199	0xbc02f90e	-0.00799395
200	0x3c2b400a	0.01045228
201	0xbc22635f	-0.009911387
202	0xbe69f08c	-0.22845668
203	0xbc627e3d	-0.013824043
204	0x3dcd46e1	0.10023285
205	0x3ba037e6	0.004889476
206	0xbbafdb5d	-0.0053667263
207	0xbd06ace3	-0.03287972
208	0x3d9069d8	0.07051438
209	0x3d82f0b2	0.06393565
210	0x3c9cfa02	0.019162182
211	0xbc4ea807	-0.012613303
212	0x3d81e0f8	0.063417375
213	0xbc67525c	-0.014118757
214	0xbdd6542f	-0.104652755
215	0xbe27e6d9	-0.16396655
216	0xba3fa81d	-0.00073111226
217	0x3d70eb14	0.058817938
218	0xbc82d0c1	-0.015968682
219	0xbc0dd7ee	-0.008657439
220	0x3d318b8d	0.043345977
221	0xbdb5319d	-0.088473536
222	0x3def122b	0.11673387
223	0xbbe5feef	-0.007018916
224	0xbc8b6299	-0.017014788
225	0xba8d9bd8	-0.0010803891
226	0xbb780462	-0.003784441
227	0x3d90769f	0.07053875
228	0xbc075122	-0.00825909
229	0x3c7bfe64	0.015380476
230	0xbd81690d	-0.06318865
231	0xbac93613	-0.0015351198
232	0xbe81523b	-0.2525805
233	0x3e98de90	0.29857302
234	0x3bdcc236	0.006737019
235	0xbe41d807	-0.18930064
236	0xbc1a37d4	-0.0094127245
237	0xbcffefa2	-0.031242196
238	0x3cf3b5e7	0.029749824
239	0x3c097e72	0.008391963
240	0x3bbdb803	0.005789758
241	0x3c85a68a	0.016314764
242	0x3d7bb159	0.06144843
243	0x3d340ebd	0.043959368
244	0x3e83c0c0	0.25732994
245	0x3cb15792	0.021648202
246	0xbe267252	-0.16254547
247	0xbead0dcf	-0.33799598
248	0xbabf3307	-0.0014587351
249	0x3dde6766	0.108595654
250	0xbb9c7258	-0.004774373
251	0xbaf96327	-0.0019026742
252	0xbe4c1f07	-0.19933711
253	0xbb9d131a	-0.004793537
254	0xbdb2696d	-0.087115146
255	0xbda7aad6	-0.08186881

layers.3.bias f4 [5]
0	0xbd22b32f	-0.039721664
1	0x3be463e1	0.0069699143
2	0xbd4487f9	-0.047981236
3	0xbd144d5e	-0.036206596
4	0xbd937ad3	-0.07201161
