irony/models/model_33.pt (torch_old, 58143 bytes, 8 tensors)

layers.0.weight f4 [70, 10]
0	0xbe3c6424	-0.18397576
1	0xbbc19895	-0.005908082
2	0xbe4be7fd	-0.19912715
3	0x3d792d39	0.060834143
4	0x3e8a89be	0.27058214
5	0x3dc6c1aa	0.09704907
6	0x3d20fa2f	0.039301094
7	0xbd38aef1	-0.045088712
8	0x3e65ef28	0.22454512
9	0x3e13cef8	0.14434421
10	0x3e226224	0.1585775
11	0xbec25363	-0.37954244
12	0x3e24b5d3	0.16084985
13	0x3ecc987e	0.39960092
14	0xbd7d9ef9	-0.061919186
15	0x3de06e56	0.10958545
16	0xbe2fe362	-0.17176583
17	0x3d06b5cc	0.03288822
18	0x3d2a12a4	0.041521683
19	0xbcdcdc4c	-0.026960514
20	0x3d090a2a	0.03345696
21	0x3d8b6145	0.06805662
22	0xbf17085c	-0.5899713
23	0xbeaf06f1	-0.34184983
24	0x3d5b2687	0.05350354
25	0x3e94ebc4	0.29086125
26	0xbc72cfc7	-0.014820046
27	0x3cf7300b	0.030174276
28	0x3ddc138e	0.10745917
29	0x3e861e22	0.26194865
30	0xbeae1d35	-0.34006658
31	0x3db869da	0.090045646
32	0x3db8a429	0.09015686
33	0x3eab6741	0.33477214
34	0x3ea4266b	0.3206056
35	0xbd94b337	-0.07260745
36	0xbd880dad	-0.066432334
37	0xbd0fee52	-0.03513939
38	0x3e6d6bb4	0.23185617
39	0x3e036e00	0.1283493
40	0xbe88839f	-0.2666292
41	0x3e9381d6	0.28809994
42	0x3e576850	0.21035886
43	0x3e6ed232	0.2332237
44	0xbe1fafb0	-0.15594363
45	0xbc2f2298	-0.0106894
46	0x3dbb19ba	0.09135766
47	0x3df2da65	0.11858062
48	0x3c9aa9d5	0.01887981
49	0xbe4b233a	-0.19837657
50	0xbeda1059	-0.42590597
51	0xbe752d65	-0.23943098
52	0xbde05881	-0.10954381
53	0x3e27ab5e	0.16373965
54	0x3d02271e	0.031775586
55	0xbe93e05a	-0.28882104
56	0x3ccedd58	0.02525203
57	0xbe45cfba	-0.19317523
58	0xbd57c788	-0.052680522
59	0x3d9ddac0	0.07707739
60	0xbeea7e13	-0.45799312
61	0xbe4626a8	-0.19350684
62	0xbdc9849e	-0.09839748
63	0x3e0fcb71	0.1404245
64	0xbe8467c6	-0.25860423
65	0xbe319741	-0.17342855
66	0xbe49e274	-0.19715291
67	0xbcb6ab35	-0.022298435
68	0x3d0edfaf	0.03488129
69	0xbda9adda	-0.08285113
70	0xbec96ec2	-0.39342314
71	0x3e86683d	0.26251402
72	0x3ef853c4	0.48501408
73	0xbd68b28a	-0.056810893
74	0x3e02f497	0.12788616
75	0xbd820a98	-0.06349677
76	0x3d30bb43	0.043147337
77	0x3e39d3f0	0.18147254
78	0x3cfe245b	0.031023195
79	0xbcf7a904	-0.03023196
80	0x3e8a1bee	0.26974434
81	0x3d13205a	0.035919525
82	0xbeeba85e	-0.4602689
83	0xbc374e23	-0.011188063
84	0x3ec12e8a	0.3773082
85	0xbd969e50	-0.073544145
86	0xbe153dc0	-0.14574337
87	0xbd0c87f5	-0.034309346
88	0xbb33396b	-0.0027347456
89	0x3e1e5717	0.1546291
90	0xbe25eafa	-0.16202918
91	0xbc979ffe	-0.018508907
92	0x3f0bacab	0.54560345
93	0xbdc2b571	-0.095072635
94	0xbe79295c	-0.24332184
95	0x3e0093e7	0.1255642
96	0x3e037460	0.12837362
97	0x3e15b286	0.14618883
98	0x3e31f0f8	0.17377079
99	0xbe1a00f6	-0.15039429
100	0xbdf3a80b	-0.11897286
101	0x3df910d9	0.121614166
102	0xbcb71988	-0.022351041
103	0x3ca22126	0.019791197
104	0xbe57ec30	-0.21086192
105	0x3e3db783	0.18527035
106	0x3e0bc12a	0.13647905
107	0xbe557f30	-0.208493
108	0xbd09743f	-0.033558127
109	0xbe00c097	-0.12573467
110	0xbe149b20	-0.145123
111	0xbe66694a	-0.22501102
112	0x3d632132	0.05545158
113	0x3cf5feb7	0.030028684
114	0x3ea088d2	0.31354386
115	0xbd92af52	-0.07162346
116	0xbd8fe6be	-0.070264325
117	0xbc9f13d6	-0.019418638
118	0x3dc1e314	0.0946714
119	0x3e39b746	0.1813632
120	0x3e84e4b0	0.25955725
121	0x3ea72c89	0.32651165
122	0x3d589b98	0.05288276
123	0xbcf217fb	-0.02955245
124	0xbe7fab89	-0.24967779
125	0xbd289c17	-0.041164484
126	0xbc9eeffb	-0.019401541
127	0xbdbd34ec	-0.0923861
128	0xbe37807e	-0.1792011
129	0x3cd99c5c	0.026563816
130	0xbea01348	-0.3126471
131	0xbe8e3cfe	-0.27780908
132	0x3e43642a	0.19081178
133	0x3e7981bc	0.24365896
134	0x3e12a599	0.14320983
135	0xbe3392e1	-0.17536499
136	0xbbc36e2e	-0.005964062
137	0x3e07e2c6	0.13270101
138	0xbe47d963	-0.1951652
139	0xbc5ad4bd	-0.013356385
140	0x3e0774f1	0.13228203
141	0xbeed354b	-0.46329722
142	0xbdef2879	-0.116776414
143	0x3e2beb05	0.16788872
144	0xbdad0486	-0.084481284
145	0x3daf9544	0.08573392
146	0xbddf33f7	-0.108985834
147	0x3e07a896	0.13247904
148	0xbe3e80e0	-0.1860385
149	0xbddc2bd5	-0.10750548
150	0x3ded7f39	0.115965314
151	0xbd6c88df	-0.057747718
152	0x3e58180a	0.2110292
153	0xbe1b6248	-0.1517421
154	0x3e8cfc66	0.27536315
155	0xbe213333	-0.15742187
156	0xbd0dc027	-0.03460708
157	0xbdc5514c	-0.09634647
158	0xbd6c3ab6	-0.05767318
159	0xbd4be196	-0.049775682
160	0x3dbb5b74	0.09148303
161	0x3ed1c663	0.4097167
162	0xbcb0a05b	-0.021560838
163	0x3d7b51f3	0.06135745
164	0xbeb83abd	-0.35982314
165	0x3ded61fc	0.11590955
166	0x3dd95aee	0.106130466
167	0x3e525211	0.20539118
168	0xbdd7e11b	-0.10540982
169	0x3d9e85b6	0.07740347
170	0xbeb8aea5	-0.36070743
171	0xbcd52c9a	-0.026022244
172	0x3eaa10f1	0.3321605
173	0x3e8d56ae	0.27605194
174	0xbe3f9bc8	-0.1871177
175	0x3d4104f7	0.047123875
176	0x3e00fd6e	0.12596676
177	0x3e47d2e9	0.1951405
178	0x3e5632a1	0.20917751
179	0xbce42dbf	-0.027853845
180	0x3dac7ec1	0.08422614
181	0x3e8c5572	0.2740894
182	0x3f0ceb94	0.55046964
183	0x3eee5cf6	0.465553
184	0x3d1b4161	0.037904147
185	0xbe3e9636	-0.18611988
186	0xbe3ec0e5	-0.18628271
187	0xbd64493a	-0.055733897
188	0x3d5dbc7d	0.054134835
189	0xbe2fd6d4	-0.17171794
190	0xbe0c2d19	-0.13689078
191	0x3c08f591	0.008359329
192	0xbe9f98eb	-0.31171355
193	0x3e4d1ba8	0.20030081
194	0x3ebfa456	0.37430066
195	0xbdac2348	-0.08405167
196	0x3dc97d9b	0.098384105
197	0xbdfc9b3b	-0.12334295
198	0x3e16aaa9	0.14713539
199	0x3e7d703c	0.24749845
200	0xbe5909d3	-0.21195154
201	0xbe735cbc	-0.23765844
202	0x3e1d893c	0.15384382
203	0x3e2c95e0	0.16854048
204	0x3edb60aa	0.42847186
205	0xbd999bbb	-0.07500406
206	0xbe030899	-0.12796248
207	0xbb9a5156	-0.004709403
208	0xbe221503	-0.15828328
209	0xbd2b0c15	-0.04175957
210	0x3e94f55c	0.29093444
211	0x3d00d9e9	0.031457815
212	0x3d9cbd32	0.07653274
213	0x3e17c2f2	0.1482046
214	0xbea889eb	-0.32917723
215	0x3e7fc791	0.24978472
216	0xbd3bd615	-0.04585846
217	0x3e4f8771	0.2026651
218	0x3e6062fc	0.2191276
219	0xbd87e258	-0.066349685
220	0xbeb38d1f	-0.35068604
221	0xbdb3fd8b	-0.08788594
222	0x3ed9abda	0.42513925
223	0x3dd056d7	0.101728134
224	0xbd6eee25	-0.05833258
225	0xbdf6d667	-0.12052613
226	0x3b2d5b95	0.0026452292
227	0xbd0ae7c9	-0.033912454
228	0x3df6d310	0.12051976
229	0xbd3ba502	-0.04581166
230	0x3e1cbe78	0.15307033
231	0x3e885b82	0.26632315
232	0x3e97d8ba	0.29657537
233	0xbebff31d	-0.37490168
234	0xbe23af0b	-0.15984742
235	0x3d839daa	0.064265564
236	0x3e751d7e	0.23937032
237	0x3e008514	0.12550765
238	0x3bfa6acb	0.0076421252
239	0x3da338b3	0.07969799
240	0x3e939ef6	0.28832215
241	0xbe68d98a	-0.22739235
242	0xb983afe6	-0.00025117322
243	0xbe9ea165	-0.3098251
244	0x3e8bca02	0.27302557
245	0x3d296dfb	0.04136465
246	0xbe4e34dd	-0.20137353
247	0x3e34d122	0.17657903
248	0xbe7c118a	-0.24616066
249	0x3dc62436	0.096748754
250	0x3e64c275	0.22339804
251	0xbd73b5db	-0.059499603
252	0xbd396e62	-0.045271285
253	0x3d99b37f	0.07504939
254	0xbe78c957	-0.24295555
255	0x3e102937	0.14078222

layers.0.bias f4 [70]
0	0xbe20a7a6	-0.15688953
1	0xbd6201ce	-0.055177502
2	0xbd246fc5	-0.040145654
3	0xbe47a7d8	-0.19497621
4	0xbd62c516	-0.055363737
5	0x3e5c90bb	0.21539585
6	0x3e65669c	0.22402424
7	0xbdc8776c	-0.09788403
8	0xbd70f43c	-0.05882667
9	0xbdb02ceb	-0.086023174
10	0x3cbb5506	0.02286769
11	0xbe0a0610	-0.13478875
12	0x3bd0ae06	0.0063684015
13	0x3da895b8	0.082316816
14	0x3e03963b	0.12850277
15	0xbe07f5e4	-0.13277394
16	0xbdb961f3	-0.090518855
17	0xbdea8a8c	-0.11452207
18	0xbe2ddb7a	-0.16978255
19	0xbe33c1b8	-0.17554367
20	0xbd925508	-0.07145125
21	0xbd8a8ddf	-0.06765341
22	0xbc86abb4	-0.016439296
23	0xbe08a299	-0.13343276
24	0x3d59ce06	0.053174995
25	0xbdeda9b8	-0.11604637
26	0x3d71fd80	0.059079647
27	0x3d99be7c	0.07507035
28	0x3d71f100	0.059067726
29	0x3e335a40	0.17514896
30	0xbdbd1725	-0.0923293
31	0xbd409bad	-0.047023464
32	0xbe2569d1	-0.16153647
33	0xbe2b34b5	-0.16719325
34	0xbd655607	-0.055990245
35	0xbd60b4a3	-0.05485977
36	0x3d55af02	0.052168854
37	0x3d6b0f9d	0.057387937
38	0x3e36016e	0.17773983
39	0x3e30d1ee	0.17267582
40	0x3ba0c568	0.004906345
41	0x3d6ddf77	0.05807444
42	0xbe1df9e9	-0.15427364
43	0xbda76ed6	-0.08175437
44	0xbdffaeba	-0.12484498
45	0x3e413de2	0.18871263
46	0xbc61a102	-0.013771297
47	0xbd6eca4e	-0.0582984
48	0xbd9d41f4	-0.07678595
49	0xbd3b9971	-0.04580063
50	0xbca7f69c	-0.020503335
51	0xbdfccc5b	-0.12343665
52	0xbd5db486	-0.05412724
53	0x3e16ca86	0.14725694
54	0xbce2af39	-0.027671443
55	0xbe3aeb58	-0.18253839
56	0xbe38db15	-0.18052323
57	0xbe1b535b	-0.15168516
58	0xbdb78a34	-0.08961907
59	0xbe67a2a0	-0.2262063
60	0x3e43ee01	0.1913376
61	0x3ddad967	0.106859975
62	0xbe15f2ec	-0.14643449
63	0xbe132f55	-0.14373524
64	0xbde4d67c	-0.11173722
65	0xbd2f8aac	-0.042856857
66	0xbdcb2b66	-0.09920387
67	0x3e363f09	0.17797484
68	0xbcf7a538	-0.03023015
69	0x3e081422	0.1328893

layers.1.weight f4 [80, 70]
0	0x3d8f04cc	0.06983337
1	0xbd8fee10	-0.07027829
2	0x3d0f8139	0.035035346
3	0x3d5708e5	0.052498717
4	0xbd7eae7b	-0.062178116
5	0x3da1fe7f	0.079098694
6	0xbe3b0d22	-0.18266729
7	0xbd94491c	-0.07240507
8	0x3c7dcdda	0.015490973
9	0x3cbb3dfe	0.022856709
10	0xbd573dc9	-0.052549157
11	0xbd9df64f	-0.07712995
12	0xbc85e004	-0.01634217
13	0xbd77c16c	-0.060487196
14	0x3d3e3738	0.04643938
15	0xbcd61418	-0.026132628
16	0x3aa4d68b	0.0012576146
17	0xbe30bd74	-0.1725977
18	0xbbe3f291	-0.0069564064
19	0x3c8ca142	0.017166737
20	0xbc1cc1e1	-0.009567709
21	0xbdbca145	-0.09210447
22	0xbd90af30	-0.07064664
23	0x3bc05792	0.005869814
24	0x3c757c45	0.014983241
25	0xbaca578e	-0.001543747
26	0x3c12f3eb	0.008969287
27	0xbe4147ec	-0.18875092
28	0xbda54949	-0.08070619
29	0xbd27a8a5	-0.040932316
30	0x3e3bd69b	0.18343584
31	0x3dba0f16	0.09084909
32	0xbd6410ef	-0.05568021
33	0xbdc322df	-0.095281355
34	0xbb25076f	-0.0025181433
35	0xbd4d0741	-0.050055746
36	0xbdb108c1	-0.08644248
37	0x3d3e38a2	0.046440728
38	0xbdb7c344	-0.08972791
39	0xbc3045dc	-0.010758843
40	0x3d77e134	0.060517505
41	0xbd43bad2	-0.047785588
42	0xbda881a7	-0.08227854
43	0xbdcc5a6f	-0.09978186
44	0xbc55b4d1	-0.013043598
45	0x3cbedc53	0.023298418
46	0xbd9db1ec	-0.076999515
47	0xbd02b950	-0.03191501
48	0x3e093f72	0.13403109
49	0x3be1b330	0.006887816
50	0xbc20bb67	-0.009810305
51	0x3d40d5b1	0.047078792
52	0xbd0b5188	-0.0340133
53	0xbba084ec	-0.004898658
54	0x3dd3dc44	0.10344747
55	0xbc489a5b	-0.012243832
56	0x3df4fbe7	0.11962109
57	0x3dc3fb71	0.09569443
58	0xbba6ea86	-0.0050938753
59	0x3e650f6b	0.22369163
60	0xbe1092a4	-0.14118439
61	0x3cd1ce49	0.02561106
62	0x3d051a00	0.0324955
63	0xbc983382	-0.018579248
64	0xbe43b201	-0.19110872
65	0xbce3da66	-0.027814101
66	0xbd279eb9	-0.040922854
67	0x3caad8d0	0.020855337
68	0xb98a1eda	-0.00026344397
69	0x3d1202cb	0.035647195
70	0x3c914a28	0.017735556
71	0xbdafe94f	-0.08589422
72	0xbc3c5dd5	-0.011496981
73	0xbcd10eee	-0.025519814
74	0x3d4ba973	0.049722146
75	0x3d5ee225	0.054414887
76	0xbc57a4ce	-0.013161851
77	0x3d7132e8	0.05888644
78	0xbd532b8e	-0.05155521
79	0x3d7ea761	0.062171344
80	0xbd051a3f	-0.032495733
81	0x3d00ac04	0.031414047
82	0x3cdb1b50	0.026746422
83	0xbd7a6d94	-0.061139658
84	0xbe893b8d	-0.26803246
85	0xbd5d2914	-0.053994253
86	0xbc202713	-0.009774941
87	0x3d14edd7	0.036359634
88	0x3c77fcd1	0.01513596
89	0x3ccd35c1	0.025050046
90	0xbb3f75f0	-0.0029214583
91	0xbd64ddc8	-0.05587557
92	0x3d144d54	0.03620656
93	0x3dcd02d7	0.10010307
94	0xbe019c12	-0.12657192
95	0xbda69285	-0.08133415
96	0xbdc3f6dd	-0.0956857
97	0x3ceb9a69	0.028760152
98	0x3b704384	0.0036661336
99	0xbcc7f3ef	-0.024408309
100	0x3a0ab418	0.0005291118
101	0x3d4e3b14	0.05034931
102	0xbe20c18d	-0.15698834
103	0xbd7ae8ba	-0.0612571
104	0xbe4146c0	-0.18874645
105	0x3d1e67d6	0.038673244
106	0x3c10f9be	0.008848606
107	0xbe222f2e	-0.1583831
108	0x3cf896a6	0.030345272
109	0x3b7d6b4c	0.003866869
110	0x3d628be5	0.055309195
111	0xbd3416fd	-0.043967236
112	0xbd634188	-0.055482417
113	0xbcfb1ee7	-0.030654384
114	0xbc041afe	-0.008063076
115	0x3e005348	0.1253177
116	0xbca8fa6c	-0.020627223
117	0xbe26138d	-0.16218396
118	0xbb93adf5	-0.0045068213
119	0xbc06d558	-0.008229576
120	0xbdb0ceae	-0.08633171
121	0xbd99310a	-0.074800566
122	0x3df978ff	0.12181281
123	0xbd7fa19b	-0.06240998
124	0xbd9a24e5	-0.07526568
125	0x3d96492e	0.07338177
126	0xbe087ce2	-0.13328889
127	0x3d9e9b8a	0.077445105
128	0x3cd9c2b2	0.026582096
129	0x3d762a0b	0.06009869
130	0x3e10181e	0.140717
131	0x3d84329e	0.06454967
132	0x3d41754c	0.047231004
133	0xbd8c41b6	-0.06848471
134	0x3987b43e	0.00025883497
135	0xbc6ced1b	-0.014460827
136	0x3c934c48	0.01798071
137	0x3e0b4602	0.13600925
138	0x3d0096b3	0.031393718
139	0xbd9fef4e	-0.078093156
140	0x3d4ecfb4	0.05049105
141	0xbd06ddee	-0.032926492
142	0xbcaffce5	-0.021482894
143	0x3d75fd74	0.060056165
144	0x3d88747c	0.06662843
145	0x3d2c912e	0.04213064
146	0x3e20d54c	0.15706366
147	0xbca10168	-0.01965399
148	0xbd3e4bf4	-0.046459153
149	0x3d910a6b	0.07082065
150	0xbd153aeb	-0.03643314
151	0x3d498691	0.0492006
152	0xbde45e80	-0.11150837
153	0xbc9aefd9	-0.018913196
154	0x3d9e44a1	0.07727934
155	0xbc5ce2b3	-0.013481784
156	0x3d1716e2	0.036887057
157	0x3deb377f	0.114851944
158	0x3e42915f	0.19000767
159	0xbd693e00	-0.056943893
160	0xbcc691b4	-0.024239399
161	0x3d2f3c74	0.042782262
162	0x3e10d64d	0.1414425
163	0xbdb15600	-0.08658981
164	0xbc3db0c8	-0.0115777925
165	0x3ccdb8ff	0.025112627
166	0xbcdcb5dd	-0.026942188
167	0x3cfcf8af	0.0308803
168	0x3c83833e	0.016053792
169	0xbd60244e	-0.054722123
170	0xbe0a353f	-0.13496874
171	0xbd5db075	-0.05412336
172	0x3dcd8afb	0.10036274
173	0x3e1a2a20	0.15055132
174	0x3dc5dd3e	0.09661339
175	0x3dec52b7	0.11539214
176	0x3d270247	0.040773656
177	0xbd7cc111	-0.06170756
178	0x3bc965f3	0.0061461865
179	0x3d853b82	0.06505491
180	0xbcd3ebc9	-0.025869267
181	0x3d8f332e	0.069921836
182	0x3e08c8f5	0.13357909
183	0x3e35a822	0.17739919
184	0xbd68dff9	-0.056854222
185	0x3d55aa9b	0.052164655
186	0x3dd5a0c4	0.10431054
187	0xbab4de40	-0.0013799146
188	0xbd9b5249	-0.07584054
189	0xbc877b0c	-0.016538166
190	0xbdc9007a	-0.09814544
191	0x3dfc8393	0.12329783
192	0x3c970b12	0.018437896
193	0xbd93b225	-0.07211713
194	0xbdfa6a0a	-0.122272566
195	0x3c01cfa5	0.0079230415
196	0xbdc5987b	-0.09648224
197	0xbc0419be	-0.008062778
198	0x3d5af95d	0.053460468
199	0xbd5f981b	-0.05458842
200	0x3dabf7cb	0.08396872
201	0xbd81bf38	-0.063353
202	0x3c5620be	0.01306933
203	0xbd0a6ee6	-0.033797167
204	0xbb0256ca	-0.0019888156
205	0xbd83615f	-0.064150564
206	0xbd6107f5	-0.05493923
207	0xbc1b516b	-0.009479861
208	0x3d0af684	0.033926502
209	0x3d1337de	0.03594195
210	0xbe14be8b	-0.14525811
211	0xbd1d5df0	-0.038419664
212	0xbb2aecae	-0.0026081013
213	0xbd50d6ea	-0.050986208
214	0xb9f8b386	-0.00047436001
215	0xbd39b9b4	-0.045343116
216	0xbdd3076c	-0.1030415
217	0x3afca1e9	0.0019274327
218	0xbd3e1296	-0.046404444
219	0x3d049027	0.032364037
220	0xbb02341d	-0.0019867488
221	0xbd4f7e68	-0.05065766
222	0x3c015ab8	0.007895164
223	0x3d2f6f6b	0.042830866
224	0x3c844789	0.016147392
225	0x3d43301a	0.047653295
226	0x3d291b0e	0.041285567
227	0x3b999c19	0.0046877977
228	0xbd89bf24	-0.0672591
229	0xbd81b799	-0.063338466
230	0xbde1d480	-0.11026859
231	0x3c4a29f0	0.0123391
232	0xbdb35ea3	-0.08758285
233	0x3df400ff	0.119142525
234	0xbd2b8cdc	-0.04188238
235	0xbd14933a	-0.03627322
236	0x3bacd7a7	0.005274731
237	0x3ba18ff4	0.0049304906
238	0xbe37d4ee	-0.1795232
239	0x3c3bf0e4	0.011471007
240	0x3d70e094	0.058807924
241	0x3deffae0	0.117177725
242	0x3dd60a9a	0.10451241
243	0xbbdbc2ed	-0.0067065866
244	0xbd9d7c06	-0.07689671
245	0x3dc635d5	0.096782364
246	0xbd7aa242	-0.061189897
247	0x3d0eb590	0.03484112
248	0x3e1ab72a	0.15108934
249	0x3cffae42	0.031211022
250	0x3ddaa01f	0.10675072
251	0xbdcf3248	-0.10117012
252	0x3d14e089	0.036346946
253	0xbe32135b	-0.17390196
254	0xbce11b4d	-0.027478838
255	0x3d2f3eed	0.04278462

layers.1.bias f4 [80]
0	0x3c9e1146	0.019295346
1	0xbd52b58e	-0.051442675
2	0x3d219d6c	0.03945677
3	0xbc9a4baa	-0.018834908
4	0xbd82838c	-0.06372747
5	0x3d0333c1	0.03203178
6	0x3d433d33	0.047665786
7	0x3c6940da	0.014236653
8	0x3c676cc4	0.014125053
9	0x3d3a7acf	0.045527276
10	0x3d481f90	0.048858225
11	0xbc102e36	-0.00880008
12	0x3cd48e3d	0.02594673
13	0xbd0ad996	-0.033898912
14	0xbd107119	-0.03526411
15	0x3d5eec37	0.05442449
16	0x3d98353b	0.07432028
17	0x3de52493	0.111886166
18	0xbbc183c6	-0.005905601
19	0x3d97140a	0.07376869
20	0xbd85eedb	-0.06539699
21	0xbd140223	-0.03613485
22	0xbd002563	-0.031285655
23	0x3ce708bd	0.028202409
24	0xbc5ca939	-0.01346808
25	0xbd0f250f	-0.03494745
26	0x3d9a1281	0.075230606
27	0x3d5257d4	0.05135329
28	0x3d8bdb84	0.06828979
29	0xbd19ac16	-0.03751763
30	0x3d7734ad	0.06035297
31	0x3ddb34e4	0.107034475
32	0xbd06a21c	-0.032869443
33	0xbd4b2ca6	-0.049603127
34	0x3bf43acc	0.007453298
35	0x3c67c0d7	0.014145098
36	0xbbb44ec4	-0.0055025537
37	0x3d63c80c	0.0556107
38	0x3d39e296	0.045382105
39	0x3dd3d9d7	0.10344284
40	0xbcb07d48	-0.021544114
41	0x3ca1257a	0.01967119
42	0x3d41d25e	0.047319762
43	0x3b4c4774	0.003117052
44	0x3dc5c339	0.096563764
45	0x3d9facda	0.07796641
46	0x3d840419	0.06446094
47	0x3e21071a	0.15725365
48	0xbd219daf	-0.03945702
49	0x3dc7b343	0.09750988
50	0x3d54fe79	0.052000497
51	0x3d9eb966	0.07750206
52	0x3d74f86d	0.05980723
53	0xbd0b05f1	-0.033941213
54	0xbcee38e3	-0.02907986
55	0x3d72a119	0.059235666
56	0xbd1a41c2	-0.037660368
57	0xbcbc5e1e	-0.022994097
58	0x3d02afe6	0.03190603
59	0xbc61e8dc	-0.013788428
60	0x3cbd398b	0.023098728
61	0x3cd52bf7	0.02602194
62	0x3d4849cc	0.048898503
63	0x3c37ed51	0.011226014
64	0x3d9a3e16	0.07531373
65	0xbb168345	-0.0022966426
66	0x3e10e1cc	0.14148635
67	0xbbb405f3	-0.0054938733
68	0x3c2e8b68	0.010653354
69	0xbd72d3ed	-0.05928414
70	0x3ca4c7f3	0.020114874
71	0x3dcf002d	0.101074554
72	0x3d208aab	0.039194744
73	0xbd47b550	-0.048756897
74	0xbd374446	-0.044742845
75	0xbd1fe30e	-0.039034896
76	0x3ce32167	0.027725888
77	0x3d4fdd6d	0.050748277
78	0x3d9f3803	0.07774355
79	0x3a32e559	0.00068243366

layers.2.weight f4 [90, 80]
0	0x3ad02dcd	0.001588279
1	0xbd8df6d0	-0.069318414
2	0x3d27ec0a	0.04099659
3	0x3d5238ae	0.051323585
4	0x3e059f01	0.13048936
5	0x3d523c2e	0.051326923
6	0x3dbd7335	0.092504896
7	0xbdbbbabf	-0.09166478
8	0x3d9194e0	0.07108474
9	0x3e051c58	0.12999094
10	0xbd69cc88	-0.05707982
11	0x3d543416	0.051807486
12	0xbd45405e	-0.04815709
13	0x3db1937a	0.08670707
14	0x3bf9eee8	0.007627357
15	0x3d833249	0.064060755
16	0x3d18ffce	0.03735333
17	0xbd0125d7	-0.031530228
18	0x3c7c6596	0.015405079
19	0xbdf7b7f0	-0.1209563
20	0xbc683603	-0.014173034
21	0xbd3d6c00	-0.046245575
22	0x3c3cee76	0.011531463
23	0x3d9c56fe	0.0763378
24	0x3d69c649	0.057073865
25	0xbd860186	-0.06543259
26	0x3cf6f8e5	0.030147979
27	0x3e03f6bb	0.12887089
28	0xbd21a954	-0.039468125
29	0xbd543448	-0.05180767
30	0x3db43739	0.087995954
31	0xbb3bf223	-0.002867826
32	0xbda3ccd7	-0.079980545
33	0xbd30fee5	-0.043211836
34	0x3dd0cddd	0.10195515
35	0xbc26f5b0	-0.010190412
36	0xbdbeece3	-0.09322526
37	0x3c84deb5	0.016219476
38	0xbc1c3e12	-0.009536283
39	0xbde1ba68	-0.11021882
40	0x3d03bdbf	0.032163378
41	0xbd973d91	-0.0738479
42	0xbd1b0d11	-0.037854258
43	0x3d6453cf	0.05574399
44	0x3d1a795c	0.037713394
45	0x3ae2484d	0.0017263979
46	0xbcb059dc	-0.021527223
47	0xbd283c06	-0.041072868
48	0xbd48ba41	-0.04900575
49	0x3ce05642	0.02738488
50	0xbdd50764	-0.104018
51	0x3d4cc380	0.04999113
52	0xbd51d0f5	-0.051224668
53	0xbd8f5495	-0.069985546
54	0x3be61692	0.0070217336
55	0xbdb75cfe	-0.08953284
56	0xbd2ebae6	-0.04265871
57	0xbd0ed7bb	-0.034873705
58	0x3df568db	0.1198289
59	0xbb7cee14	-0.0038594054
60	0xbcf24c69	-0.02957745
61	0xbcb4b766	-0.022060107
62	0xbcdb2687	-0.02675177
63	0xbc82aa72	-0.015950415
64	0xbdbc5dcc	-0.09197578
65	0x3d07e135	0.03317376
66	0xbc4621ba	-0.012093002
67	0xbd17e63a	-0.037084796
68	0x3c5cdf03	0.0134809045
69	0x3d417cd6	0.047238193
70	0x3dda33e4	0.106544286
71	0xbd1c9ff8	-0.038238496
72	0x3d8c0be3	0.06838205
73	0x3df2ad47	0.11849456
74	0xbdbcc651	-0.09217513
75	0x3c379ae3	0.011206361
76	0xbd33c189	-0.04388574
77	0xbc4a728e	-0.0123564135
78	0x3cb37378	0.021905646
79	0x3e0ee944	0.13956171
80	0xbd4cadea	-0.049970545
81	0x3d92d1ab	0.07168897
82	0xbd9889d0	-0.07448161
83	0xbc3da12b	-0.01157407
84	0x3e042b3b	0.12907116
85	0xbdcfccea	-0.10146506
86	0xbd95019a	-0.07275696
87	0xbdc167cd	-0.094436266
88	0x3dcf50be	0.10122822
89	0x3e0dc87f	0.13846014
90	0xbd9f25c6	-0.077708766
91	0x3b877ac1	0.0041345065
92	0xbdd4107d	-0.103547074
93	0x3b22f93f	0.00248678
94	0x3c3823c3	0.011238995
95	0xbd766830	-0.060157955
96	0x3d8a5a9a	0.06755562
97	0xbd36c4f9	-0.04462144
98	0xbbc721e8	-0.00607704
99	0xbcc45192	-0.023964677
100	0xbba0cb82	-0.0049070725
101	0xbd4022a3	-0.046908032
102	0xbd985098	-0.07437247
103	0x3dd90fe3	0.10598733
104	0xbd8c9300	-0.068639755
105	0x3d6eb695	0.058279593
106	0x3dad5181	0.08462811
107	0x3d7c52a4	0.06160225
108	0xbce49be6	-0.02790637
109	0xbc246529	-0.010033884
110	0xbb9489bc	-0.004533021
111	0x3c43c12b	0.01194791
112	0xbd32ac7e	-0.043621533
113	0x3d9d78ee	0.07689081
114	0x3c808221	0.01568705
115	0xbd762147	-0.06009033
116	0xbd6b3b17	-0.0574294
117	0xbc82575d	-0.015910799
118	0xbda86c10	-0.08223736
119	0xbe02f7a9	-0.12789787
120	0xbd67fe4a	-0.056638993
121	0x3b2c567c	0.0026296666
122	0x3d98168b	0.07426175
123	0xbd6ccf86	-0.057815097
124	0xbd1b440a	-0.037906684
125	0x3cee3dac	0.029082142
126	0x3daf6472	0.0856408
127	0xbccd1447	-0.025034083
128	0xbd387445	-0.04503276
129	0xbd1e93ac	-0.03871505
130	0x3cb5aec6	0.022178065
131	0xbc50d3b3	-0.0127457855
132	0xbdb12071	-0.08648766
133	0xbd0a497e	-0.033761494
134	0x3cc6ae1d	0.024252946
135	0x3c4c401e	0.012466459
136	0xbd3acaf8	-0.045603722
137	0xbd2bb786	-0.04192307
138	0x3da71be7	0.08159619
139	0x3d801fb5	0.06256048
140	0xbd15082c	-0.036384746
141	0x3d8a06b3	0.06739559
142	0xbd02fc94	-0.03197916
143	0xbdf1cae5	-0.11806277
144	0x3d7ad92f	0.06124228
145	0xba9243e1	-0.0011159146
146	0xbe1705c1	-0.14748289
147	0xbdac7eed	-0.08422647
148	0xbde562b1	-0.112004645
149	0xbd3c8eaa	-0.046034493
150	0x3c0dfb09	0.0086658085
151	0xbcf0e248	-0.029404774
152	0x3dc23a09	0.094837256
153	0xbcf75f8d	-0.03019693
154	0xbd4a7218	-0.049425215
155	0xbd842c59	-0.06453771
156	0xbcbe26a1	-0.02321178
157	0x3df0058d	0.11719809
158	0xbd7d524c	-0.061846063
159	0x3dbd60b7	0.092469625
160	0xbd844e44	-0.064602405
161	0x3dbb4e12	0.0914575
162	0x3d318cd0	0.04334718
163	0x3db99e6f	0.09063422
164	0xbda1ff13	-0.0790998
165	0x3ddfd538	0.1092934
166	0xbdd3aa3a	-0.103352025
167	0x3d2a54eb	0.04158489
168	0xbd7c48c9	-0.06159285
169	0xbdbfc47a	-0.09363647
170	0x3d7a7ced	0.061154295
171	0xbdd213c1	-0.10257674
172	0xbcbf644f	-0.02336326
173	0x3c914c56	0.017736595
174	0x3ca9c3d7	0.020723267
175	0x3b78899b	0.0037923816
176	0xbcb51149	-0.022102969
177	0x3dafc766	0.08582954
178	0x3d7175dc	0.05895029
179	0x3da8a4c0	0.082345486
180	0xbcf4a2d4	-0.029862799
181	0x3da0dfda	0.07855196
182	0x3c959186	0.018257868
183	0xbd90f6f8	-0.070783556
184	0xbd885124	-0.06656101
185	0x3c13f837	0.009031347
186	0x3d317b5a	0.043330528
187	0xbdbf74c6	-0.09348445
188	0xbd1f2469	-0.038853083
189	0xbd616417	-0.055027094
190	0x3c8e0df2	0.017340634
191	0xbcd16f4c	-0.025565766
192	0xbd524c06	-0.051342033
193	0xbda51bb3	-0.08061924
194	0xbe32c441	-0.17457677
195	0xbcee7caa	-0.029112179
196	0x3d86d565	0.065836705
197	0xbd80db1c	-0.06291792
198	0x3e063782	0.13107112
199	0x3e1425ff	0.1446762
200	0x3d67c452	0.05658371
201	0x3e4a499a	0.1975464
202	0x3d466e19	0.04844484
203	0xbe08bba0	-0.13352823
204	0xbc010907	-0.007875687
205	0x3c5ec692	0.013597148
206	0xbe014df8	-0.12627399
207	0x3d9a5cff	0.07537269
208	0xbdd0e909	-0.10200698
209	0x3d8fd612	0.070232525
210	0x3c7c83d7	0.015412292
211	0x3da80284	0.08203605
212	0xbda9c853	-0.08290162
213	0x3d952b32	0.072836295
214	0x3d04ef0d	0.03245454
215	0xbd1b13a9	-0.037860546
216	0x3d3d02cf	0.046145257
217	0xbd2483fc	-0.040164933
218	0x3dacc13f	0.08435296
219	0x3a853371	0.0010162425
220	0x3c457bf1	0.012053476
221	0xbdc6ab05	-0.09700588
222	0xbdb6773d	-0.08909462
223	0xbdf5994d	-0.119921304
224	0x3cb444b4	0.022005416
225	0x3d4dd88e	0.05025535
226	0x3d9d433f	0.07678842
227	0x3dd97cd9	0.10619516
228	0xbd45739b	-0.048205953
229	0xbd755615	-0.059896547
230	0x3d139a16	0.03603562
231	0xbd181be6	-0.03713598
232	0x3d116a34	0.035501674
233	0x3d0199ce	0.03164082
234	0x3d856728	0.06513816
235	0x3dc29b30	0.09502256
236	0x3d1463b5	0.0362279
237	0xbdaab1ca	-0.08334692
238	0x3db0ed17	0.08638971
239	0x3d192f43	0.037398588
240	0xbc9a3aaf	-0.01882681
241	0xbd2de3ab	-0.04245345
242	0x3d4d1ff9	0.05007932
243	0xbe1c1510	-0.1524241
244	0x3c0d76a0	0.008634239
245	0xbd278496	-0.04089793
246	0x3ce84b37	0.028356178
247	0x3d11541f	0.035480615
248	0x3d02ad86	0.031903766
249	0xbe0ea790	-0.13931108
250	0x3dc03ad2	0.09386219
251	0xbde65cb0	-0.112481475
252	0xbd2fe8c2	-0.042946585
253	0x3dc3dda2	0.095637575
254	0xbca956cf	-0.020671276
255	0x3dbe06b9	0.09278626

layers.2.bias f4 [90]
0	0xbd912045	-0.07086233
1	0x3db2400f	0.087036245
2	0xbcd5c70d	-0.026095891
3	0x3d9e699d	0.07734988
4	0x3dad6c79	0.08467955
5	0xbd108b5a	-0.035289146
6	0x3d9e23f4	0.07721701
7	0xbd9fbc30	-0.07799566
8	0xbd1e8222	-0.038698323
9	0xbb6b9710	-0.0035948195
10	0x3df789c0	0.120868206
11	0xbd80c36c	-0.06287274
12	0xbdc70f93	-0.097197674
13	0xbdc1da37	-0.09465449
14	0xbd76650e	-0.060154967
15	0xbd105839	-0.035240386
16	0x3e0bdcc7	0.13658439
17	0x3d621a40	0.055200815
18	0x3ce96fbe	0.028495666
19	0x3d6fc385	0.05853607
20	0x3cd39ee6	0.025832605
21	0xbd51be06	-0.05120661
22	0xbde9d500	-0.1141758
23	0x3d138bf9	0.03602216
24	0xbdfac72b	-0.122450195
25	0xbaa1a15e	-0.0012331416
26	0x3de5c0aa	0.112183884
27	0x3d01a0fd	0.03164767
28	0xbc9079aa	-0.017636139
29	0xbcf834be	-0.030298587
30	0xbdfb9c6b	-0.12285694
31	0xbd58023c	-0.052736506
32	0x3cba1221	0.022713723
33	0xbd785d35	-0.060635764
34	0x3bc77f4a	0.006088172
35	0x3d813776	0.063094065
36	0xbd1d1ed5	-0.03835948
37	0x3dc7df50	0.0975939
38	0x3db99c2e	0.09062992
39	0x3cb820cd	0.022476578
40	0xbd0e6f9c	-0.034774408
41	0xbd6fd2f6	-0.058550797
42	0xbd30cda7	-0.043164875
43	0xbba2f63b	-0.0049732006
44	0xbc66bc60	-0.014082998
45	0xbd1b68f4	-0.037941888
46	0x3d9b7090	0.07589829
47	0xbb8f603c	-0.0043754857
48	0xbd9c01a7	-0.07617503
49	0xbdf7a336	-0.12091677
50	0xbd569fe0	-0.052398562
51	0xbd15b41b	-0.036548715
52	0xbe0e9b32	-0.1392639
53	0xbe00d801	-0.12582399
54	0xbdfcedaf	-0.12350022
55	0xbb0cf0c6	-0.0021505817
56	0x3cc4fbef	0.024045913
57	0x3e0f73f7	0.14009081
58	0x3d3f5388	0.04671052
59	0xbc2a5f15	-0.010398646
60	0x3d22b1d2	0.039720364
61	0x3d276d6e	0.040875845
62	0x3d215547	0.039387967
63	0xbccad207	-0.024758352
64	0xbdc451ae	-0.09585892
65	0x3bd6b00a	0.006551747
66	0x3d0cb163	0.034348857
67	0x3dc88f73	0.09792986
68	0x3d84c0ed	0.0648211
69	0x3caa276d	0.020770753
70	0xbce3f3fa	-0.027826298
71	0xbdbe5a95	-0.09294621
72	0x3c5f923d	0.013645706
73	0xbc93c676	-0.01803897
74	0xbd34e980	-0.044167995
75	0x3d8798c0	0.066209316
76	0xbc7deb90	-0.015498057
77	0x3dcf7bb2	0.10131015
78	0xbd880ee2	-0.06643464
79	0xbd18f72f	-0.037345108
80	0xbd2da8ca	-0.042397298
81	0xbd0cd33b	-0.034381133
82	0xbd8e09f0	-0.06935489
83	0xbdb2cf76	-0.08730976
84	0x3c907afc	0.017636769
85	0xbd6f9344	-0.058490053
86	0xbe189b5c	-0.14903015
87	0xbdf69f39	-0.12042088
88	0xbd5ee79e	-0.054420106
89	0xbd3fecce	-0.046856694

layers.3.weight f4 [5, 90]
0	0x3d026864	0.031837836
1	0x3d702508	0.058629066
2	0xbe0aab6d	-0.13541956
3	0xbd8b1fcb	-0.067931734
4	0x3d9a4bc4	0.075339824
5	0x3e1a2110	0.15051675
6	0x3d49a93a	0.049233653
7	0x3db2b399	0.08725662
8	0xbdbc70e5	-0.092012204
9	0x3e00fcf8	0.125965
10	0x3d7ffc82	0.06249667
11	0xbd97d73b	-0.07414099
12	0x3de63cf0	0.11242092
13	0x3e2cc32e	0.1687133
14	0xbd8483a9	-0.06470425
15	0x3c7ebfa7	0.015548623
16	0xbdecbaad	-0.11559043
17	0x3d8546fc	0.0650768
18	0xbce4506f	-0.027870385
19	0x3d309a2a	0.043115772
20	0xbc5d6d4e	-0.01351483
21	0x3e0adc6b	0.13560645
22	0x3dc9cb2c	0.09853205
23	0x3a23c819	0.00062477734
24	0x3d93686d	0.07197652
25	0x3c290f95	0.010318656
26	0x3d5ae451	0.053440396
27	0xbd94b4d2	-0.07261051
28	0xbd9444cd	-0.07239685
29	0x3de6b032	0.11264075
30	0x3e0db914	0.13840133
31	0x3bbe7df4	0.0058133546
32	0x3d9caf29	0.07650597
33	0xbe2835e2	-0.16426805
34	0xbdf838c4	-0.12120202
35	0x3b3af9b8	0.0028530192
36	0x3d65a14a	0.05606202
37	0xbda67f93	-0.081298016
38	0xbcf98252	-0.03045765
39	0x3e18346b	0.14863746
40	0xbd4083f0	-0.047000825
41	0x3db1da26	0.08684187
42	0x3d9b7c17	0.07592028
43	0xbd705b89	-0.058681045
44	0x3d55e1f4	0.05221744
45	0xbddc2c5e	-0.1075065
46	0x3d978c49	0.07399804
47	0x3e1e519c	0.15460819
48	0x3e056187	0.13025485
49	0x3e00ddc0	0.12584591
50	0x3dc4ea2b	0.096149765
51	0x3e066f28	0.1312834
52	0x3de17539	0.110086866
53	0xbd328a12	-0.043588705
54	0x3e14853b	0.14503948
55	0x3d819e90	0.063290715
56	0x3dedeca2	0.116174
57	0x3db67e4a	0.089108065
58	0x3d0b0924	0.033944264
59	0x3dbcbb7e	0.09215449
60	0x3d8d6869	0.0690468
61	0xbd92b3e3	-0.07163217
62	0x3dd8d264	0.10587004
63	0xbdbaa03a	-0.09112592
64	0x3cf7f95d	0.030270273
65	0x3d331f48	0.043731004
66	0x3b740730	0.003723573
67	0x3de61eb7	0.11236327
68	0x3e15ca4e	0.14627954
69	0x3e1dc886	0.15408525
70	0xbdcd0392	-0.100104466
71	0x3d208300	0.03918743
72	0xbda01e73	-0.07818308
73	0xbd9618c2	-0.07328941
74	0x3d8be88b	0.068314634
75	0x3b0e61a6	0.0021725683
76	0x3d98aa16	0.07454316
77	0xbd12ec62	-0.035869963
78	0xbd366519	-0.044530008
79	0x3d90c912	0.07069601
80	0x3db1b485	0.086770095
81	0x3d5c5a1c	0.053796872
82	0xbbda6568	-0.0066649206
83	0xbd7647f9	-0.060127232
84	0x3db00a63	0.08595731
85	0xbd7faf00	-0.062422752
86	0x3da74d85	0.081690826
87	0xbca64473	-0.020296311
88	0x3d7bdfc1	0.061492685
89	0x3e0ab9b3	0.13547401
90	0xbdae1480	-0.08500004
91	0xbc922730	-0.017840952
92	0x3db3c56e	0.08777891
93	0xbd971fd2	-0.07379116
94	0xbdc06838	-0.09394878
95	0x3d2358e9	0.039879713
96	0xbe2f3936	-0.17111668
97	0x3e0cd69c	0.13753742
98	0xbb831bf2	-0.004001134
99	0xbd20f6e3	-0.03929795
100	0x3df9da5c	0.12199852
101	0xbd8a9a44	-0.06767705
102	0x3d04abdf	0.03239047
103	0x3dc15958	0.09440869
104	0xbd92b150	-0.07162726
105	0xbae3ac9f	-0.0017370171
106	0xbe08e2da	-0.13367787
107	0x3d51df96	0.05123862
108	0xbd4fed37	-0.050763335
109	0xbd7918fa	-0.060814835
110	0xbd40e8d9	-0.04709706
111	0x3d96832e	0.07349239
112	0x3e08d0b0	0.13360858
113	0x3c74a550	0.014931992
114	0xbda2e2b4	-0.079533964
115	0xbb190752	-0.002335031
116	0x3cd53c41	0.026029708
117	0x3c57cea3	0.013171825
118	0xbd1ead48	-0.038739473
119	0x3df3c667	0.119030766
120	0xba1a3b6c	-0.00058834883
121	0x3e1847a1	0.14871074
122	0x3d8abceb	0.067743145
123	0xbd5e04d4	-0.054203823
124	0xbd3810ee	-0.04493802
125	0x3e00d67a	0.12581816
126	0x3d2d0541	0.04224134
127	0xbcaa1581	-0.020762207
128	0xbdbccfcd	-0.09219322
129	0x3d92b041	0.07162524
130	0xbda3cc3f	-0.07997941
131	0xbde02d6e	-0.10946165
132	0xbde6009b	-0.11230584
133	0xbd712cb0	-0.058880508
134	0xbd1d8c4f	-0.038463887
135	0x3cbe9f09	0.023269193
136	0x3d37709f	0.04478514
137	0x3e1d179d	0.15341039
138	0x3d4b410f	0.04962259
139	0xbd219df1	-0.039457265
140	0xbe06ba4a	-0.13157001
141	0xbd6bfc08	-0.057613403
142	0xbd90a738	-0.070631444
143	0x3d34a990	0.04410702
144	0xbbfc8ffe	-0.007707595
145	0xbca0301a	-0.019554187
146	0xbd69944c	-0.057026193
147	0xbde62893	-0.11238208
148	0x3d353904	0.044243827
149	0x3da94576	0.08265202
150	0xbcc8a909	-0.024494665
151	0x3db239a3	0.087023996
152	0x3cd8f712	0.026485
153	0x3dc31e33	0.095272444
154	0x3e11dc6c	0.1424424
155	0xbe013f9a	-0.12621918
156	0xbe0a067c	-0.13479036
157	0xbcd15f34	-0.025558092
158	0xbd4826b8	-0.04886505
159	0x3da89ea3	0.082333826
160	0xbdb51904	-0.08842662
161	0xbc9ffdc3	-0.019530183
162	0x3d6fbb21	0.05852807
163	0xbc2a74f6	-0.010403862
164	0xbd9f6c12	-0.07784285
165	0x3dc83469	0.097756214
166	0xbd95c67f	-0.07313251
167	0x3de18fd4	0.11013761
168	0x3df83e6a	0.121212795
169	0x3d82a911	0.06379903
170	0xbd2f2690	-0.042761385
171	0x3db93063	0.09042432
172	0x3e17b479	0.14814939
173	0x3da62aa4	0.08113602
174	0x3d42a419	0.047519777
175	0x3bdd5767	0.006754804
176	0x3de8d22f	0.11368214
177	0x3d2588df	0.040413734
178	0x3d927ee9	0.071531124
179	0x3dd72248	0.105045855
180	0xbdc87519	-0.097879596
181	0xbe0e86e1	-0.1391864
182	0x393d32d2	0.00018043377
183	0xbd12f1f6	-0.035875283
184	0xbdf89b5e	-0.12139009
185	0x3cb4013d	0.021973247
186	0x3cb7f6b3	0.022456503
187	0xbb82e758	-0.0039948635
188	0x3daf6055	0.08563296
189	0x3aaad6f4	0.0013034032
190	0xbdb326a3	-0.08747604
191	0x3d17650a	0.036961593
192	0x3cefa47b	0.029253235
193	0x3c8ce841	0.017200591
194	0x3dee5a39	0.11638302
195	0xbdc539a5	-0.096301354
196	0xbddfcede	-0.10928129
197	0xbdd71a35	-0.105030455
198	0xbd092ec6	-0.033491872
199	0xbd23b320	-0.03996575
200	0xbd80671e	-0.06269668
201	0xbe06558e	-0.13118574
202	0x3adbf5ba	0.0016781606
203	0xbc0228be	-0.007944284
204	0x3e3a2f85	0.1818219
205	0x3e034cd5	0.12822278
206	0x3d29a0df	0.041413184
207	0x3dfc4e54	0.123196274
208	0x3d441b22	0.04787744
209	0xbcf4ca71	-0.029881688
210	0x3dd0b9a0	0.10191655
211	0x3c886df0	0.016653985
212	0xbd91d433	-0.07120552
213	0x3de9cb48	0.11415726
214	0xbdd9ffb7	-0.10644477
215	0xbcbda0e4	-0.023148008
216	0xbdaccf41	-0.08437968
217	0xbceb40cb	-0.02871742
218	0xbccb55b2	-0.024821136
219	0xbd35a3cc	-0.044345662
220	0xbda18666	-0.078869626
221	0x3ac5a516	0.0015079107
222	0xbd4308b3	-0.047615718
223	0x3dcf8cb0	0.10134256
224	0xbd9be2c2	-0.0761161
225	0x3c9fa326	0.019486975
226	0xbd8ad744	-0.0677934
227	0x3b5618c2	0.0032668565
228	0x3d6ba877	0.057533707
229	0x3db8634f	0.090033166
230	0xbdac4d45	-0.084131755
231	0x3daf9795	0.08573834
232	0x3df5a586	0.11994462
233	0x3d0a7a36	0.033807956
234	0xbbd2ce18	-0.0064332597
235	0x3dcd2e06	0.10018544
236	0xbd8f0544	-0.06983426
237	0xbe37ef9e	-0.179625
238	0x3d3f7b78	0.04674861
239	0xbd5bc18f	-0.05365139
240	0xbcec4c1f	-0.028844891
241	0x3dd35b84	0.103201896
242	0xbd81d697	-0.06339758
243	0x3dbbecc7	0.09176021
244	0xbd7ad5f4	-0.061239198
245	0xbd8ffbaa	-0.07030423
246	0xbd939e9a	-0.07207985
247	0xbdfa3893	-0.12217822
248	0x3d7e891a	0.06214247
249	0x3d82205a	0.06353827
250	0x3dec59c4	0.11540559
251	0x3cc5c563	0.024141973
252	0xbdb59c94	-0.088677555
253	0xbd63b6ec	-0.05559437
254	0x3dab6c0e	0.08370219
255	0x3c96c4c4	0.018404372

layers.3.bias f4 [5]
0	0xbda97e0d	-0.082759954
1	0xbdb918f6	-0.09037964
2	0xbd849ccc	-0.06475219
3	0x3c84a60a	0.016192455
4	0x3c297f52	0.010345297
