irony/models/model_20.pt (torch_old, 25943 bytes, 8 tensors)

layers.0.weight f4 [70, 10]
0.11847418 -0.28914806 -0.19163796 0.28008157 0.36132148 -0.118063465 -0.110769205 -0.23866682
0.024573017 0.110629685 0.29610753 0.41311288 0.22023478 -0.08132006 -0.14845149 0.17765105
0.20285423 0.19971834 -0.17692111 -0.14921737 0.034052297 0.40631962 -0.119091034 -0.01706279
-0.1785611 -0.03360198 -0.09526764 -0.28740937 -0.0034698672 -0.13562839 0.07602076 0.22235252
-0.39724323 -0.43992734 -0.061434064 0.2429244 0.14207967 0.09506008 -0.0006069746 0.046721186
0.17873383 0.09905211 -0.5360431 -0.18675175 0.05892369 0.16996843 -0.15547776 -0.096215695
-0.056709416 0.14539668 -0.41612354 -0.039142083 0.12134363 0.25384927 0.094460264 -0.32076755
-0.2208112 -0.17301796 -0.061918203 0.024832772 -0.02503968 0.28309745 0.32371682 -0.023750363
-0.31231767 0.1537269 -0.019421475 0.15084586 0.105500266 -0.034778893 0.33737984 0.08157294
-0.20460553 -0.34578666 0.29101536 0.2724194 0.094896704 -0.01535465 0.07003285 0.1804867
0.2798965 0.15270999 -0.251256 -0.4396468 0.0962897 0.006797594 -0.09995134 -0.24079439
-0.19784947 0.0784033 -0.085688785 -0.09533824 -0.0145687 0.30375376 0.36438194 -0.09460657
-0.030454945 -0.13043064 -0.0064083473 0.14356993 -0.10358055 0.20170277 0.37099737 0.4544669
0.09698653 -0.075047955 -0.16987069 -0.019698229 -0.015341226 -0.10376125 0.0960227 0.31404686
0.31897062 -0.27735624 -0.24075115 0.2267835 0.18375129 0.27916008 -0.14143963 -0.02577976
-0.11474722 -0.026116852 -0.21225022 0.30064628 0.32186213 -0.06590238 -0.2525482 -0.3057289
0.07282428 0.14714836 0.3024569 0.36646315 -0.04305542 -0.22961918 -0.30191663 0.020464065
-0.025334448 -0.062120263 0.06062771 -0.14307307 0.4291682 0.36002582 0.2373394 -0.43205982
-0.036547456 -0.09344366 0.07305929 0.08286907 -0.30174455 -0.2808742 0.30739415 -0.08949409
0.1878229 0.08136472 -0.32575566 -0.034905735 -0.011472622 0.04135953 -0.23057392 -0.1897735
0.4010771 0.08645239 0.21006624 -0.21420822 -0.13026883 0.12117792 0.080235176 0.014351985
0.049052555 -0.049060848 -0.112469226 0.18485655 0.16063519 0.37613425 -0.027558567 -0.2701267
-0.04339791 -0.05037026 0.055711694 -0.15413065 0.41001967 -0.05132535 -0.4522285 -0.2847476
0.29958364 0.17212178 -0.26020053 -0.28100607 -0.025579197 0.030792598 0.08995428 -0.00040901738
0.020762142 -0.19978191 0.29898742 0.07535671 0.21145628 -0.016810596 0.117204726 0.26703724
-0.2960221 -0.059778668 0.40390265 -0.05559513 -0.12491234 -0.056266412 -0.11960905 0.29545933
-0.09259409 0.06878881 -0.32781062 0.0796165 0.25406885 0.009598551 -0.12098243 0.08279301
-0.050562833 -0.20015515 0.22556412 0.09962473 -0.03598687 -0.43013227 0.113656774 0.030242898
0.39162692 -0.19588432 -0.18797453 -0.010711471 0.0699126 0.12716536 0.37757248 0.20591843
-0.42632568 0.09339337 -0.047074936 0.12634401 -0.056520425 0.06549298 -0.15735534 0.047866497
0.43390673 -0.0048412764 0.12479299 -0.40310898 0.3177349 0.15906851 0.17677163 -0.04863221
-0.14296095 0.253508 0.2201444 -0.44013944 -0.16643743 0.3758608 0.25850585 -0.11576677
00000000: 97a2 f23d 370b 94be be3c 44be da66 8f3e
00000010: 21ff b83e 42cb f1bd f7da e2bd 1365 74be
00000020: 5a4d c93c d191 e23d 689b 973e 8883 d33e
00000030: 3a85 613e 228b a6bd ab03 18be 28ea 353e
00000040: 05b9 4f3e f782 4c3e cf2a 35be 70cc 18be
00000050: 6c7a 0b3d 2009 d03e 00e6 f3bd 44c7 8bbc
00000060: b9d8 36be 3ba2 09bd ae1b c3bd 5227 93be
00000070: b666 63bb 2be2 0abe c6b0 9b3d 61b0 633e
00000080: 7763 cbbe 283e e1be 49a2 7bbd 2dc1 783e
00000090: 557d 113e dcae c23d 601d 1fba b75e 3f3d
000000a0: 0006 373e d5db ca3d 1f3a 09bf da3b 3fbe
000000b0: f859 713d 340c 2e3e 9035 1fbe bc0c c5bd
000000c0: 2248 68bd dee2 143e 250e d5be 7353 20bd
000000d0: 0283 f83d 88f8 813e 6274 c13d a53b a4be
000000e0: 551c 62be 9f2b 31be f19d 7dbd 196e cb3c
000000f0: 0420 cdbc 26f2 903e 36be a53e 1f90 c2bc
00000100: 1ae8 9fbe 966a 1d3e c919 9fbc 5677 1a3e
00000110: 8610 d83d 5074 0ebd 0dbd ac3e b70f a73d
00000120: 1d84 51be f30a b1be f7ff 943e 8e7a 8b3e
00000130: 3459 c23d 1292 7bbc 626d 8f3d 81d1 383e
00000140: 984e 8f3e 0260 1c3e a0a4 80be 6319 e1be
00000150: 8933 c53d 5abe de3b 4ab3 ccbd ce92 76be
00000160: 0d99 4abe e991 a03d 9a7d afbd b240 c3bd
00000170: 8fb1 6ebc 9d85 9b3e 4590 ba3e 17c1 c1bd
00000180: a67c f9bc 9c8f 05be 1dfd d1bb ff03 133e
00000190: 0a22 d4bd 2c8b 4e3e 5ef3 bd3e e3af e83e
000001a0: e0a0 c63d beb2 99bd 95f2 2dbe 2e5e a1bc
000001b0: c459 7bbc c780 d4bd 8da7 c43d c0ca a03e
000001c0: 1e50 a33e a301 8ebe 7887 76be ef39 683e
000001d0: 4c29 3c3e 12ee 8e3e 8dd5 10be 1330 d3bc
000001e0: 9700 ebbd 02f3 d5bc 1f58 59be 4fee 993e
000001f0: 1dcb a43e d4f7 86bd ff4d 81be 8088 9cbe
00000200: e524 953d 0fae 163e a1db 9a3e 0fa1 bb3e
00000210: e15a 30bd 4a21 6bbe d194 9abe 41a4 a73c
00000220: 308a cfbc d171 7ebd c354 783d bf81 12be
00000230: efbb db3e 4e55 b83e 1a09 733e f236 ddbe
00000240: c9b2 15bd 645f bfbd 1ca0 953d 42b7 a93d
00000250: 437e 9abe bece 8fbe c462 9d3e ad48 b7bd
00000260: a554 403e 8ca2 a63d 72c9 a6be 51f9 0ebd
00000270: aaf7 3bbc 9c68 293d 921b 6cbe fc53 42be
00000280: fa59 cd3e f30d b13d 9b1b 573e 6659 5bbe
00000290: 3165 05be 212c f83d 5752 a43d 9724 6b3c
000002a0: 55eb 483d 07f4 48bd 4456 e6bd 094b 3d3e
000002b0: 8d7d 243e ab94 c03e 81c2 e1bc 0c4e 8abe
000002c0: 02c2 31bd 0c51 4ebd f231 643d 6dd4 1dbe
000002d0: 19ee d13e 883a 52bd 7e8a e7be 70ca 91be
000002e0: 0763 993e b140 303e 0139 85be 07e0 8fbe
000002f0: 778b d1bc c240 fc3c f339 b83d 6271 d6b9
00000300: 5e15 aa3c a193 4cbe e114 993e 9e54 9a3d
00000310: ff87 583e 60b6 89bc 0809 f03d 1bb9 883e
00000320: 3590 97be 7ada 74bd 54cc ce3e b8b7 63bd
00000330: 0ad2 ffbd 9c77 66bd 97f5 f4bd 7246 973e
00000340: f8a1 bdbd 26e1 8c3d cbd6 a7be fa0d a33d
00000350: 5015 823e 3e43 1d3c a3c5 f7bd 628f a93d
00000360: f91a 4fbd 79f5 4cbe 48fa 663e 0d08 cc3d
00000370: f866 13bd 4c3a dcbe e2c4 e83d f4bf f73c
00000380: 5383 c83e e695 48be 657c 40be 2a7f 2fbc
00000390: 562e 8f3d a337 023e 2e51 c13e 48dc 523e
000003a0: 5c47 dabe 0645 bf3d a6d1 40bd 5360 013e
000003b0: f681 67bd 2f21 863d c221 21be a90f 443d
000003c0: 0629 de3e 92a3 9ebb 7893 ff3d 4d64 cebe
000003d0: 26ae a23e dbe2 223e 9f03 353e 9132 47bd
000003e0: 5b64 12be cdcb 813e 896d 613e f559 e1be
000003f0: 936e 2abe d470 c03e e15a 843e 2117 edbd

layers.0.bias f4 [70]
-0.09210448 -0.14327335 -0.07327445 0.013824869 0.05084786 0.18294862 -0.0832013 -0.19751106
0.119025044 -0.17892218 -0.13995318 -0.057650678 0.030686583 0.18025614 0.08890865 0.10859354
-0.12863737 -0.0027715075 0.04800336 -0.22661796 -0.09082354 0.08657577 -0.0059708506 -0.052194044
-0.15734756 -0.11158222 0.17746899 0.1169315 -0.06852424 -0.03207594 -0.092816345 -0.15221362
-0.060703408 -0.108925246 -0.07039868 0.08171327 -0.12854002 0.02765189 -0.18772037 0.027376438
0.08450018 0.117373705 -0.1064597 -0.19837461 -0.10103879 -0.032821648 0.020314904 -0.0582292
0.004560196 0.17429204 0.19472502 0.08858293 0.068387285 -0.18065825 0.11609919 -0.088467404
0.037847385 0.18656532 -0.08568172 -0.11430024 0.029410854 -0.12695017 -0.043463778 0.028746238
0.207759 0.20332555 -0.101315536 0.10183118 0.025793726 0.12344593
00000000: 46a1 bcbd 40b6 12be ea10 96bd b481 623c
00000010: d845 503d e256 3b3e 7165 aabd 5740 4abe
00000020: 67c3 f33d 6037 37be e34f 0fbe 1e23 6cbd
00000030: 6e62 fb3c 1195 383e bd15 b63d 4a66 de3d
00000040: 84b9 03be 2ea2 35bb 2c9f 443d 8a0e 68be
00000050: b101 babd a34e b13d 20a7 c3bb 6cc9 55bd
00000060: b81f 21be 3885 e4bd 6eba 353e c879 ef3d
00000070: 7056 8cbd 1062 03bd 7f16 bebd e3dd 1bbe
00000080: 23a4 78bd 3314 dfbd 2f2d 90bd 4959 a73d
00000090: ff9f 03be 3786 e23c c539 40be 8d44 e03c
000000a0: 6e0e ad3d a061 f03d 8b07 dabd b722 4bbe
000000b0: 6ded cebd fe6f 06bd 716b a63c be81 6ebd
000000c0: b26d 953b 9d79 323e ff65 473e f86a b53d
000000d0: a20e 8c3d 7afe 38be 6ac5 ed3d 662e b5bd
000000e0: dc05 1b3d fb0a 3f3e e679 afbd 3f16 eabd
000000f0: 08ef f03c 3aff 01be 1307 32bd 3b7d eb3c
00000100: c6be 543e 9334 503e 857e cfbd de8c d03d
00000110: 5d4d d33c 38d1 fc3d

layers.1.weight f4 [30, 70]
0.076290265 0.052764334 -0.0006561981 0.118817054 0.15612952 -0.1001601 -0.07276403 0.13309816
0.1514487 -0.052988872 -0.13850062 -0.029947376 -0.005506243 -0.012393793 -0.005030211 -0.012068803
0.10052186 -0.06630196 0.13814946 0.04155477 -0.03171454 0.041840103 -0.026851796 0.13194387
0.1028135 0.10602085 -0.021823633 0.05285919 0.014264681 0.07982066 -0.035149474 0.08385131
0.014718221 0.1407229 -0.06877117 0.079191014 0.009071584 -0.09947516 0.15230505 -0.030723507
0.056999277 -0.05578974 0.0035018672 0.1442721 0.11957765 0.011873911 -0.008674811 -0.024533277
0.05237164 -0.05146094 0.018674478 0.02961086 -0.06777047 -0.00833569 -0.1113734 0.027952306
0.04295386 -0.08555548 -0.07567041 0.16178471 -0.005071206 0.06529288 0.025878852 -0.1409325
-0.07136458 -0.012781712 -0.115607895 0.0058524106 -0.0033795654 0.1202155 0.091961086 -0.0647318
0.032272436 0.08875312 -0.03433167 -0.012960964 -0.008269311 0.10425401 0.04977805 0.086830445
0.02176569 -0.07546922 0.056110542 -0.15712953 0.00040862942 -0.041060522 -0.028761372 -0.046952587
0.01723666 0.0897786 0.07239342 -0.05935992 0.016847117 -0.036373597 0.07440623 0.09846134
0.03688278 0.106715746 -0.028721418 0.10531383 -0.008324551 0.14193274 0.07236089 0.034254517
-0.06897867 0.04592753 0.07396661 -0.13020112 0.06284669 0.1267169 0.00820604 0.06254751
-0.035088602 -0.051266603 0.18763939 0.11761804 -0.11102725 -0.04454044 0.021664537 0.013776676
0.031645235 0.017052129 -0.056670483 -0.020656988 -0.005953344 0.014552041 0.108966514 -0.033665843
0.053774968 -0.035847396 0.07860886 -0.017956119 -0.020098696 -0.0040858914 -0.08039464 -0.16951665
-0.10400194 0.041936494 0.014505508 -0.13777499 -0.035872612 -0.0073284805 -0.1266335 -0.030383667
-0.09059256 0.08952302 -0.028055515 -0.0316975 -0.03881877 0.059618596 -0.03309656 0.012404235
-0.053611197 -0.18642086 0.06791153 -0.112250604 -0.08864552 -0.06672491 -0.042179707 0.050578576
0.13762222 -0.045399047 0.07390464 -0.079328045 0.056957938 0.05907014 -0.016550113 0.2874883
-0.124639906 -0.078585476 0.08907424 0.11817087 -0.035133634 -0.09621176 -0.029048048 -0.023314316
0.07292211 0.09908353 -0.0008245534 0.13970567 -0.04218339 -0.12685381 0.05273966 -0.048643038
-0.015651213 0.10013199 -0.0555162 0.057752576 -0.07267893 0.03340387 0.115702115 0.07605739
-0.025707817 -0.009741503 0.11713654 -0.059321478 -0.034573264 0.06884327 0.083714776 -0.045123253
0.20574383 -0.056001384 0.13630657 -0.08738133 -0.051605705 0.034470916 -0.07272 0.0056426656
0.23241447 -0.21722597 0.04278538 -0.06326006 0.013005391 0.15828042 0.10549811 -0.13325919
-0.03747973 0.19300342 0.20297422 0.07481269 -0.10681356 0.015929408 0.028696328 -0.031104673
-0.028933376 -0.026431687 0.0070431326 -0.20543635 0.17897707 0.14503698 -0.079300016 0.01484501
0.056648064 0.12455366 0.09249204 0.04825116 0.017260952 -0.022431873 0.0128852045 0.036823563
-0.08282513 0.12609103 -0.016276544 0.038939644 -0.046272404 0.12728019 -0.09164908 -0.13673626
0.082153276 -0.086541444 -0.0073796376 0.0054005245 -0.03839375 0.09012722 -0.0033149037 -0.019485522
00000000: 123e 9c3d 6a1f 583d b604 2cba 5b56 f33d
00000010: 6be0 1f3e bd20 cdbd 4f05 95bd e24a 083e
00000020: 5e15 1b3e dc0a 59bd 1bd3 0dbe 3354 f5bc
00000030: b76d b4bb 560f 4bbc 78d4 a4bb 3bbc 45bc
00000040: 68de cd3d 52c9 87bd 0d77 0d3e 5635 2a3d
00000050: 1be7 01bd 8760 2b3d 4cf8 dbbc 4b1c 073e
00000060: e28f d23d 7621 d93d 7ac7 b2bc e182 583d
00000070: 69b6 693c 0479 a33d e5f8 0fbd 3cba ab3d
00000080: b124 713c aa19 103e e6d7 8cbd e62e a23d
00000090: fba0 143c a2b9 cbbd dbf5 1b3e ddaf fbbc
000000a0: 1378 693d c883 64bd 957f 653b 11bc 133e
000000b0: 21e5 f43d cb8a 423c cb20 0ebc 03fa c8bc
000000c0: a583 563d b5c8 52bd 38fb 983c 7992 f23c
000000d0: 3fcb 8abd 6b92 08bc bd17 e4bd 3cfc e43c
000000e0: 63f0 2f3d b637 afbd 17f9 9abd e4aa 253e
000000f0: 5c2c a6bb 46b8 853d e3ff d33c 9c50 10be
00000100: 9827 92bd 636a 51bc d5c3 ecbd 94c5 bf3b
00000110: b37b 5dbb 8b33 f63d 1856 bc3d 1b92 84bd
00000120: 1a30 043d 32c4 b53d 5d9f 0cbd 395a 54bc
00000130: 017c 07bc 2083 d53d 12e4 4b3d 29d4 b13d
00000140: f64d b23c 9b8f 9abd 2bd4 653d 90e6 20be
00000150: 503d d639 142f 28bd f89c ebbc 5b51 40bd
00000160: e533 8d3c d8dd b73d 0043 943d 6323 73bd
00000170: f702 8a3c 7bfc 14bd 4b62 983d 19a6 c93d
00000180: 6612 173d c98d da3d 2e49 ebbc c7ae d73d
00000190: b363 08bc d156 113e f231 943d 774e 0c3d
000001a0: b044 8dbd 811e 3c3d ce7b 973d 7153 05be
000001b0: c4b5 803d 13c2 013e a072 063c e918 803d
000001c0: 11b9 0fbd eefc 51bd 8a24 403e bae1 f03d
000001d0: 4162 e3bd 0970 36bd d479 b13c 91b7 613c
000001e0: 6f9e 013d e8b0 8b3c 4f1f 68bd d838 a9bc
000001f0: 4514 c3bb af6b 6e3c d629 df3d 32e5 09bd
00000200: 2443 5c3d b8d4 12bd affd a03d b618 93bc
00000210: 05a6 a4bc f1e2 85bb f2a5 a4bd c695 2dbe
00000220: f8fe d4bd 9ac5 2b3d 83a8 6d3c e314 0dbe
00000230: 29ef 12bd c023 f0bb 36ac 01be 2be7 f8bc
00000240: 9888 b9bd d857 b73d aed4 e5bc 3dd5 01bd
00000250: 6e00 1fbd a132 743d 4290 07bd 223b 4b3c
00000260: 6a97 5bbd 1ce5 3ebe 3315 8b3d a5e3 e5bd
00000270: c88b b5bd 12a7 88bd a1c4 2cbd 7b2b 4f3d
00000280: d7ec 0c3e 5af4 39bd 515b 973d be76 a2bd
00000290: ba4c 693d 88f3 713d 1a94 87bc ab31 933e
000002a0: 3543 ffbd 6cf1 a0bd 8e6c b63d 9203 f23d
000002b0: 49e8 0fbd ac0a c5bd 2cf6 edbc aafd bebc
000002c0: 3058 953d 4eec ca3d d826 58ba 010f 0f3e
000002d0: 7ec8 2cbd f7e5 01be 8b05 583d ec3d 47bd
000002e0: f936 80bc 0012 cd3d f464 63bd f78d 6c3d
000002f0: b1d8 94bd 7fd2 083d 3bf5 ec3d fac3 9b3d
00000300: 3399 d2bc d39a 1fbc 48e5 ef3d 14fb 72bd
00000310: b29c 0dbd b3fd 8c3d a772 ab3d 29d3 38bd
00000320: 83ae 523e b561 65bd f393 0b3e fcf4 b2bd
00000330: 8160 53bd 6031 0d3d 39ee 94bd 1ce6 b83b
00000340: 0ffe 6d3e 7c70 5ebe b93f 2f3d 7e8e 81bd
00000350: 9014 553c 4314 223e 650f d83d 1975 08be
00000360: 5884 19bd b0a2 453e 79d8 4f3e 6537 993d
00000370: 11c1 dabd 647e 823c 9014 eb3c 3acf febc
00000380: b005 edbc 4487 d8bc 14ca e63b e85d 52be
00000390: c445 373e 9384 143e 0c68 a2bd 7c38 733c
000003a0: cd07 683d fd15 ff3d 776c bd3d 02a3 453d
000003b0: d766 8d3c 0cc3 b7bc 771c 533c 4ed4 163d
000003c0: 39a0 a9bd 021e 013e 6356 85bc 2d7f 1f3d
000003d0: 2288 3dbd bd55 023e 83b2 bbbd 9704 0cbe
000003e0: fa3f a83d a43c b1bd e3d0 f1bb e2f6 b03b
000003f0: c442 1dbd 9f94 b83d db3e 59bb 1aa0 9fbc

layers.1.bias f4 [30]
0.07884732 0.034216736 -0.01514121 0.009640142 0.043145776 0.037665173 0.07271881 0.014889676
0.042806603 0.029099263 0.10033383 0.094219215 0.11219357 0.16858613 0.048663735 -0.048507936
0.0012866287 0.023848591 -0.026739193 -0.050008476 -0.1254026 -0.091023244 -0.019413048 0.02874543
0.013205544 0.035378493 -0.008673023 -0.011510282 0.06015868 0.031699955
00000000: b47a a13d d926 0c3d d612 78bc b0f1 1d3c
00000010: a0b9 303d cc46 1a3d 99ed 943d d4f3 733c
00000020: fa55 2f3d 9461 ee3c d37b cd3d 01f6 c03d
00000030: bec5 e53d d8a1 2c3e a053 473d 42b0 46bd
00000040: 18a4 a83a 1f5e c33c 270c dbbc b0d5 4cbd
00000050: 8a69 00be 656a babd 1d08 9fbc 897b eb3c
00000060: 115c 583c 0ae9 103d 4c19 0ebc 9f95 3cbc
00000070: f368 763d d0d7 013d

layers.2.weight f4 [90, 30]
0.088285 0.03475214 0.100008786 -0.00035454266 -0.09612029 0.03690204 -0.15353271 -0.075685
-0.19638269 -0.03265222 0.11876133 -0.07365663 -0.055076923 0.05545386 0.13438876 0.12218272
-0.16689478 -0.16323155 0.12044535 -0.15843657 0.11265638 0.09340001 0.117138356 0.04706764
-0.07420215 -0.012565578 -0.07879325 -0.098444134 0.15945248 -0.05127509 -0.0050263507 -0.050456937
-0.012153051 -0.15239565 0.17264432 0.09204856 0.05064684 0.21170954 0.07747681 -0.109464966
0.089488074 0.14664441 -0.042717338 0.077857725 -0.17211182 -0.1969522 -0.10114548 0.11380487
-0.14653039 0.0014317567 0.054298114 -0.032731473 -0.02397956 -0.058516234 0.022095893 0.069229074
0.106107615 -0.0021880828 0.17073141 0.057016116 -0.12594576 0.045364056 0.13234273 0.1793507
0.13803387 0.14636916 0.15560152 -0.04880312 -0.0679533 -0.07931506 -0.03089884 0.0030475764
-0.07224081 0.02004536 0.071661815 0.10255955 -0.09627951 0.20480052 -0.12408771 -0.05323411
0.001552591 0.09196147 -0.050968267 0.011786817 -0.010663476 0.21698649 0.05879749 -0.14941499
-0.11171099 -0.14541249 -0.0778504 0.025933784 0.0066390857 0.22406141 0.069551684 -0.15681115
0.013994427 -0.20239331 -0.16270056 0.0013233142 -0.19670418 -0.019589942 -0.10249125 -0.14819998
-0.015568438 0.12301919 -0.07549951 0.106340386 0.100767106 -0.0413986 0.046735417 0.17845449
0.07454915 -0.14135697 -0.054195326 0.0033773123 -0.16987504 -0.14896002 -0.11040832 -0.013601404
-0.16407944 0.086431265 -0.043243963 0.01652128 0.21478891 -0.024035454 0.11999668 0.04592906
0.20103355 0.040539145 0.11733778 0.034855127 -0.23679577 0.026150104 -0.11064551 0.13502598
0.1876668 0.0010670666 -0.13401653 -0.13665801 -0.14722857 0.12073954 -0.014056502 0.18978278
-0.089019775 0.123814896 -0.002097239 -0.10455772 -0.08390668 0.09281118 0.08679384 -0.014722817
-0.14878927 -0.042904396 -0.19737674 -0.06572963 -0.04009427 0.13608778 -0.12546381 0.092752755
0.109784685 -0.06866375 0.19930269 -0.05885902 0.15669036 -0.013655217 -0.054997053 0.13219741
-0.03089836 0.071290046 -0.009963389 -0.16350453 0.07887537 -0.010478499 0.15953307 -0.035103824
0.0400882 0.03971631 -0.014856929 0.23973215 -0.086827956 0.19428127 0.07812769 0.1586526
0.09539541 0.09278662 -0.07199716 0.036859818 -0.01668159 -0.12264606 -0.07336146 -0.16577338
-0.21383685 -0.029834496 -0.23768279 0.0729604 -0.020981764 0.14007087 -0.034410123 -0.17484522
-0.0145797245 0.2135486 -0.017629672 -0.07603645 -0.18733253 0.17007135 -0.09840334 -0.0800578
0.073564656 -0.20123108 -0.09858445 -0.15653354 -0.133155 0.10058377 -0.11149319 -0.08981634
-0.03241081 0.14327343 0.06736484 0.19959593 0.100080155 0.17950173 0.09717685 0.068759315
0.09659241 -0.18492402 -0.012570498 0.107195765 -0.10330238 -0.06243285 -0.0069160247 -0.01657731
0.017754324 -0.12377495 -0.027130121 -0.16801308 0.20199917 0.020905731 0.08791105 0.052793242
-0.00492259 0.114685245 -0.13228321 -0.038931806 0.019605553 -0.15216301 -0.15291813 0.12507331
0.029916449 -0.010387131 -0.03992464 0.23641394 0.0067357635 0.15766151 -0.103538126 0.1001217
00000000: c4ce b43d 4358 0e3d 68d1 cc3d e9e1 b9b9
00000010: b7da c4bd 9826 173d ae37 1dbe bd00 9bbd
00000020: 8b18 49be 56be 05bd 2439 f33d 4ad9 96bd
00000030: 5798 61bd 9623 633d 359d 093e ef3a fa3d
00000040: 77e6 2abe 2c26 27be 0dac f63d 323d 22be
00000050: 63b8 e63d 8148 bf3d 3ce6 ef3d ffc9 403d
00000060: 4cf7 97bd dbdf 4dbc 5b5e a1bd 149d c9bd
00000070: 8347 233e d405 52bd 16b4 a4bb efab 4ebd
00000080: 971d 47bc 9b0d 1cbe acc9 303e f583 bc3d
00000090: 1073 4f3d 63ca 583e 29ac 9e3d 2b2f e0bd
000000a0: 8645 b73d f429 163e 60f8 2ebd df73 9f3d
000000b0: 153e 30be d6ad 49be 5d25 cfbd 8712 e93d
000000c0: 100c 16be c8a9 bb3a b367 5e3d 7011 06bd
000000d0: c870 c4bc b8ae 6fbd 7202 b53c f9c7 8d3d
000000e0: f34e d93d f065 0fbb 37d4 2e3e bb89 693d
000000f0: edf7 00be a9cf 393d da84 073e b6a7 373e
00000100: c058 0d3e cce1 153e 0156 1f3e c8e5 47bd
00000110: 1a2b 8bbd ef6f a2bd 901f fdbc d9b9 473b
00000120: fdf2 93bd 2b36 a43c 6ec3 923d be0a d23d
00000130: 312e c5bd 3ab7 513e b321 febd 030c 5abd
00000140: 4f80 cb3a 4c56 bc3d 1ac4 50bd 7e1d 413c
00000150: dcb5 2ebc b531 5e3e a3d5 703d 3e00 19be
00000160: bbc8 e4bd 03e7 14be 0870 9fbd 1673 d43c
00000170: b08c d93b 5b70 653e 1d71 8e3d 1a93 20be
00000180: e248 653c 3140 4fbe fa9a 26be 0e73 ad3a
00000190: d26c 49be 167b a0bc efe6 d1bd bcc1 17be
000001a0: c312 7fbc 7cf1 fb3d 7d9f 9abd fdc8 d93d
000001b0: fc5e ce3d 9491 29bd a36d 3f3d c6bc 363e
000001c0: 3aad 983d e2bf 10be ebfb 5dbd e655 5d3b
000001d0: b9f3 2dbe fa88 18be c21d e2bd 6cd8 5ebc
000001e0: 7104 28be e002 b13d 9520 31bd a357 873c
000001f0: a0f1 5b3e 00e6 c4bc d2c0 f53d 1c20 3c3d
00000200: bddb 4d3e 600c 263d ca4e f03d 40c4 0e3d
00000210: 977a 72be be38 d63c 1d9a e2bd 4044 0a3e
00000220: ba2b 403e d0dc 8b3a a13b 09be 14f0 0bbe
00000230: 16c3 16be 4b46 f73d 3e4d 66bc 6b56 423e
00000240: 0050 b6bd aa92 fd3d d571 09bb 5c22 d6bd
00000250: 44d7 abbd ca13 be3d f8c0 b13d f837 71bc
00000260: 375c 18be 85bc 2fbd 211d 4abe 429d 86bd
00000270: e439 24bd 985a 0b3e 9679 00be 28f5 bd3d
00000280: cbd6 e03d 959f 8cbd 0116 4c3e 2816 71bd
00000290: 7073 203e 22ba 5fbc 9744 61bd c25e 073e
000002a0: 8f1e fdbc 8400 923d 7b3d 23bc bb6d 27be
000002b0: 6989 a13d 03ae 2bbc a35c 233e 07c9 0fbd
000002c0: 8633 243d 92ad 223d 7a6a 73bc 587c 753e
000002d0: dbd2 b1bd abf1 463e 6901 a03d d475 223e
000002e0: ab5e c33d e906 be3d 3f73 93bd 52fa 163d
000002f0: d4a7 88bc dc2d fbbd 883e 96bd 7fc0 29be
00000300: 0cf8 5abe 7967 f4bc 1e63 73be 436c 953d
00000310: f3e1 abbc bd6e 0f3e a1f1 0cbd a00a 33be
00000320: ccdf 6ebc 7cac 5a3e 1a6c 90bc 00b9 9bbd
00000330: 19d4 3fbe 2f27 2e3e b187 c9bd 58f5 a3bd
00000340: 11a9 963d 850f 4ebe a5e6 c9bd 544a 20be
00000350: c959 08be ddfe cd3d 8b56 e4bd a1f1 b7bd
00000360: 33c1 04bd 45b6 123e 94f6 893d e062 4c3e
00000370: d3f6 cc3d 4dcf 373e a804 c73d afd1 8c3d
00000380: 3ed2 c53d b95c 3dbe 7df4 4dbc 7489 db3d
00000390: 3390 d3bd 97b9 7fbd d29f e2bb 24cd 87bc
000003a0: 8471 913c b97d fdbd fd3f debc 9f0b 2cbe
000003b0: dfd8 4e3e 7f42 ab3c b50a b43d ba3d 583d
000003c0: ae4d a1bb 19e0 ea3d 4075 07be f576 1fbd
000003d0: d39b a03c 9fd0 1bbe 9296 1cbe 3813 003e
000003e0: 5713 f53c c92e 2abc 0588 23bd 7f16 723e
000003f0: aeb7 dc3b 0572 213e cc0b d4bd 9b0c cd3d

layers.2.bias f4 [90]
0.11704135 0.14562646 0.07123057 0.0026411342 0.10838816 -0.13709754 -0.0052113766 -0.14456886
-0.13286433 0.05844008 0.07628476 -0.07347345 0.20382795 -0.14564118 0.1398489 -0.19407232
-0.00642734 0.16367854 0.012975156 -0.11343539 -0.025287626 0.12585658 -0.12668632 0.04297893
-0.060003567 0.08739667 -0.047067456 -0.06158555 -0.087347984 -0.04206493 0.10917227 -0.20717198
0.11892604 -0.06825659 -0.07161428 -0.011115112 0.056018826 -0.018366158 -0.059501287 -0.12540533
-0.065589726 -0.020115413 -0.14283432 -0.10924242 0.10158323 0.1330731 0.08461163 0.047185026
0.079514146 0.08100075 0.18245174 0.039334603 0.007648648 -0.1015861 -0.023822106 -0.004212296
0.014108083 -0.15163103 -0.04313897 -0.008167419 0.00790868 0.07990732 -0.038511712 -0.15181555
-0.16004479 0.107994996 0.056443147 0.04250312 -0.14924113 -0.09481324 -0.11722428 0.0850376
0.08557532 -0.14499773 -0.17924713 0.05850737 0.032966323 0.030844314 -0.013479204 0.18389136
-0.0072918325 -0.037254155 -0.028582877 0.18312518 0.1565454 0.20928267 -0.026928004 -0.022058329
-0.025980545 -0.23354103
00000000: 60b3 ef3d 1a1f 153e 55e1 913d e116 2d3b
00000010: 9dfa dd3d 4c63 0cbe 32c4 aabb dc09 14be
00000020: 960d 08be de5e 6f3d 2f3b 9c3d 4079 96bd
00000030: 46b8 503e f622 15be 8d34 0f3e e5ba 46be
00000040: 709c d2bb 599b 273e c095 543c d050 e8bd
00000050: ff27 cfbc 8ce0 003e 0fba 01be ad0a 303d
00000060: 4dc6 75bd 06fd b23d cec9 40bd 2141 7cbd
00000070: 80e3 b2bd 474c 2cbd b695 df3d e424 54be
00000080: 7f8f f33d 1cca 8bbd 82aa 92bd 291c 36bc
00000090: ff73 653d a074 96bc 9fb7 73bd 416a 00be
000000a0: e853 86bd 14c9 a4bc 2943 12be 7dba dfbd
000000b0: de0a d03d 5144 083e dd48 ad3d 1645 413d
000000c0: 50d8 a23d b9e3 a53d a1d4 3a3e 521d 213d
000000d0: 83a1 fa3b 600c d0bd 9426 c3bc 4d07 8abb
000000e0: 9725 673c 2a45 1bbe 7db2 30bd a3d0 05bc
000000f0: 6893 013c 73a6 a33d 75be 1dbd 8975 1bbe
00000100: c8e2 23be 7b2c dd3d ee30 673d c017 2e3d
00000110: abd2 18be 722d c2bd 4913 f0bd 3128 ae3d
00000120: 1d42 af3d 497a 14be 8f8c 37be 6da5 6f3d
00000130: b207 073d 37ad fc3c e1d7 5cbc 044e 3c3e
00000140: 53f0 eebb d097 18bd a326 eabc 2b85 3b3e
00000150: 704d 203e 324e 563e 1e98 dcbc abb3 b4bc
00000160: 27d5 d4bc 6125 6fbe

layers.3.weight f4 [5, 90]
0.0315 -0.10441573 -0.1450042 0.010697624 -0.12707697 0.12484045 -0.1021687 -0.01108031
-0.07800465 -0.08240543 -0.107977055 -0.051113497 -0.047870442 -0.09629412 0.0148612475 -0.013880514
0.037427202 -0.1086009 0.029952114 0.17705323 -0.06566898 -0.098645166 -0.049639404 0.009619461
-0.064155474 0.06390766 -0.06331075 0.12135809 0.016112836 0.11937747 -0.09892034 0.13527793
0.038009156 -0.08634097 -0.09033556 0.03301731 -0.1294787 -0.08671178 0.08609141 0.041331988
-0.13592109 0.05945187 -0.1349215 0.08681089 -0.11873514 0.07921998 -0.085906066 0.097629525
-0.055577125 -0.030033676 -0.014147622 0.027879093 -0.08416013 -0.012633182 0.034575865 -0.17157808
0.085614294 -0.0027236107 -0.1031248 0.15740946 -0.056289822 -0.008578724 -0.021260504 0.09471637
-0.12741591 0.10818949 0.17458183 0.07336792 0.10220137 -0.010280604 -0.00974534 -0.14084448
-0.13225333 0.15335439 -0.028604828 0.025145156 -0.11231347 0.04815489 0.1440104 -0.086178236
-0.09758133 0.036352612 0.053602543 0.09937529 -0.12305054 0.0613069 0.06325257 0.09714203
0.051299512 -0.05270293 0.11954095 -0.009136845 -0.06947841 -0.00949032 -0.09381441 0.05637388
-0.13226712 0.12108589 0.11512898 -0.015290244 0.055432778 -0.12692371 -0.110860266 -0.15731956
0.019244613 0.13137488 -0.004193072 -0.0922192 0.11291462 0.07529992 -0.12814629 -0.12958784
0.030143224 -0.14462787 -0.08464453 0.017507654 0.006859836 0.04310502 0.002344565 -0.0049985447
0.12847632 0.044308446 0.08716613 0.037607007 -0.045543384 -0.095132135 0.003655879 0.11093984
0.1208159 0.016976455 0.007117993 -0.06544634 0.07605156 -0.008557326 -0.042856336 0.011561648
0.056197423 0.0041475017 -0.066593915 0.027309354 -0.047089968 0.09747158 0.057422735 -0.02261287
-0.046426743 -0.092747346 -0.10679202 0.068185136 -0.09138513 0.109216645 -0.022604 0.08557479
-0.051510274 0.041672383 0.06832046 -0.05630741 0.09991133 0.06697761 0.14347789 -0.008620994
0.08103084 -0.09210642 -0.0011477518 0.040315658 0.017192593 0.034627713 -0.08615327 0.1154356
-0.0050266786 -0.11403145 -0.17414832 -0.048390664 0.0944868 0.08688023 -0.17926873 -0.15526168
-0.08845185 -0.08467331 0.122524485 0.047962774 0.0047673928 0.07873298 -0.09015876 -0.1712781
0.03627845 0.0213128 -0.11685002 0.0843796 -0.052509144 0.10492111 0.070354275 0.053183343
-0.106984206 -0.016216876 0.005345609 0.08705706 -0.00033384634 0.07131814 -0.033569217 -0.099860616
-0.11126986 0.03216822 0.15602815 -0.0035653466 -0.08583984 -0.05348492 -0.15796773 0.07696358
0.00020841265 0.021200879 0.101078235 0.014999388 0.002356752 0.034578577 0.068554245 0.04647091
0.04835491 0.13760155 0.07604909 0.029164677 0.20063254 0.11445598 -0.0066260197 0.008569794
0.0081292 -0.14086013 -0.006070399 -0.068367176 0.024365848 0.0844329 -0.06443297 -0.123032704
0.025860282 -0.040566575 -0.056123015 0.063950986 -0.09060691 0.0672823 0.16185267 -0.11989924
0.05360093 -0.16286922 0.12536037 0.06543609 0.10066664 -0.010350999 -0.02316177 -0.122756995
-0.0005023685 0.06966999 0.04255453 0.037521683 -0.13075884 0.060177546 -0.013510351 -0.04829526
00000000: 2506 013d ead7 d5bd fb7b 14be 1645 2f3c
00000010: 7720 02be 5aac ff3d d33d d1bd 308a 35bc
00000020: e7c0 9fbd 2ec4 a8bd 1323 ddbd 635c 51bd
00000030: cc13 44bd da35 c5bd 977c 733c 186b 63bc
00000040: 444d 193d 266a debd 235e f53c 714d 353e
00000050: 757d 86bd 7a06 cabd b052 4bbd f29a 1d3c
00000060: f263 83bd 05e2 823d 11a9 81bd 978a f83d
00000070: 11ff 833c 2d7c f43d bf96 cabd 4c86 0a3e
00000080: 7daf 1b3d 89d3 b0bd da01 b9bd 293d 073d
00000090: 1096 04be f295 b1bd b150 b03d bb4b 293d
000000a0: e62e 0bbe ce83 733d dd28 0abe e8c9 b13d
000000b0: 692b f3bd 163e a23d 85ef afbd fdf1 c73d
000000c0: d7a4 63bd 2f09 f6bc 6dcb 67bc b262 e43c
000000d0: 255c acbd 68fb 4ebc 6c9f 0d3d 2ab2 2fbe
000000e0: 8c56 af3d 9b7e 32bb 1833 d3bd f22f 213e
000000f0: 2890 66bd c78d 0cbc 822a aebc a8fa c13d
00000100: 5179 02be 7492 dd3d 94c5 323e ec41 963d
00000110: f44e d13d fa6f 28bc ebaa 1fbc 8939 10be
00000120: 6b6d 07be ef08 1d3e ac54 eabc 37fd cd3c
00000130: 9b04 e6bd 103e 453d 7677 133e 377e b0bd
00000140: b8d8 c7bd 7ae6 143d 578e 5b3d 4685 cb3d
00000150: ec01 fcbd f21c 7b3d 908a 813d 67f2 c63d
00000160: 701f 523d 07df 57bd e3d1 f43d b5b2 15bc
00000170: b24a 8ebd 4a7d 1bbc c521 c0bd 4ce8 663d
00000180: 0871 07be e1fb f73d bec8 eb3d ee83 7abc
00000190: 7b0d 633d 4af8 01be b50a e3bd 6118 21be
000001a0: e1a6 9d3c 2387 063e 0a66 89bb 6cdd bcbd
000001b0: c83f e73d d836 9a3d c838 03be adb2 04be
000001c0: ecee f63c 5419 14be 1d5a adbd 366c 8f3c
000001d0: 7ac8 e03b e48e 303d 46a7 193b d5ca a3bb
000001e0: 4c8f 033e c67c 353d 2884 b23d ce09 1a3d
000001f0: b38b 3abd a3d4 c2bd 7997 6f3b 6d34 e33d
00000200: 546e f73d 3512 8b3c 0e3e e93b bb08 86bd
00000210: ecc0 9b3d 0734 0cbc 208a 2fbd 116d 3d3c
00000220: 452f 663d c4e7 873b 6462 88bd deb7 df3c
00000230: 69e1 40bd 2e9f c73d 1a34 6b3d a03e b9bc
00000240: f829 3ebd 52f2 bdbd c6b5 dabd a6a4 8b3d
00000250: 2128 bbbd faac df3d 062c b9bc d641 af3d
00000260: 70fc 52bd a9b0 2a3d 99eb 8b3d 99a2 66bd
00000270: 509e cc3d 8f2b 893d deeb 123e 123f 0dbc
00000280: 7ff3 a53d 4aa2 bcbd 2970 96ba 0822 253d
00000290: 7bd7 8c3c cad5 0d3d 2071 b0bd 8069 ec3d
000002a0: d6b6 a4bb 5289 e9bd f053 32be 4a35 46bd
000002b0: 4c82 c13d 43ee b13d 3992 37be ebfc 1ebe
000002c0: 3e26 b5bd 3369 adbd 1eee fa3d 9d74 443d
000002d0: ca37 9c3b c23e a13d 28a5 b8bd 8763 2fbe
000002e0: b698 143d 2e98 ae3c 104f efbd 36cf ac3d
000002f0: d413 57bd e1e0 d63d e715 903d c7d6 593d
00000300: 891a dbbd 41d9 84bc 382a af3b f94a b23d
00000310: 1908 afb9 3f0f 923d e07f 09bd b983 ccbd
00000320: 74e1 e3bd d3c2 033d d8c5 1f3e 97a8 69bb
00000330: cccc afbd 0113 5bbd 4bc2 21be 159f 9d3d
00000340: 5889 5a39 77ad ad3c 1b02 cf3d febf 753c
00000350: bd73 1a3b 44a2 0d3d 2b66 8c3d 4858 3e3d
00000360: cc0f 463d 6ce7 0c3e a0bf 9b3d c3ea ee3c
00000370: 9e72 4d3e e667 ea3d 151f d9bb 5268 0c3c
00000380: 5630 053c a33d 10be 33ea c6bb 1704 8cbd
00000390: e39a c73c 28eb ac3d 6ff5 83bd 92f8 fbbd
000003a0: f1d8 d33c 2329 26bd 3fe1 65bd bcf8 823d
000003b0: 1e90 b9bd 4dcb 893d b5bc 253e bc8d f5bd
000003c0: a68c 5b3d 30c7 26be 785e 003e 5b03 863d
000003d0: 502a ce3d 3d97 29bc c1bd bdbc 0568 fbbd
000003e0: 61b1 03ba 24af 8e3d a94d 2e3d 56b0 193d
000003f0: a5e5 05be bb7c 763d 855a 5dbc 40d1 45bd

layers.3.bias f4 [5]
-0.061487768 0.03260744 -0.022982737 0.08709488 0.11869591
00000000: 99da 7bbd 618f 053d 4b46 bcbc cd5e b23d
00000010: d716 f33d
