irony/models/model_44.pt (torch_old, 38823 bytes, 8 tensors)

layers.0.weight f4 [70, 10]
000000 95 26 0e be 7e 43 99 be 1a cd a4 3c f9 db c8 3e
       -0.13881905 -0.29934305 0.020117331 0.39230326
000010 d4 dd ec 3d a5 eb c8 bd 45 70 f0 bd f6 d2 29 3e
       0.11565748 -0.098105706 -0.11740164 0.16584381
000020 5d ba 43 3d 4e 63 35 3d f3 32 ce 3e 58 c2 21 3e
       0.04778515 0.044284157 0.40273246 0.15796793
000030 4d ef a7 3e 2b bc 12 be 3b 03 88 be 2f 90 41 3e
       0.3279976 -0.14329593 -0.26564965 0.18902658
000040 4c f3 10 be 7a b1 a6 3e cc 89 d5 bb d8 13 34 be
       -0.1415531 0.3255728 -0.006516671 -0.17585695
000050 dc a0 e5 3e c4 66 6c 3e 60 d3 9c bd 91 2d 20 3d
       0.44849288 0.23086077 -0.07657504 0.039105956
000060 d6 6c 91 be 68 69 53 3e 96 8f 87 be 04 62 cf bd
       -0.28403348 0.20645678 -0.26476735 -0.10126117
000070 1c 80 59 bd b6 53 bd bd 9b 5f 2c 3e 13 d4 43 3e
       -0.05310069 -0.09244482 0.16833346 0.19123869
000080 5d ee a9 be 71 0b 23 3e 44 c5 05 bf 85 db e3 bd
       -0.3318967 0.15922333 -0.5225413 -0.111258544
000090 c9 ea 37 bd e4 5e c0 be e1 70 09 3d 47 1f e0 bd
       -0.044901643 -0.37572396 0.033554915 -0.10943466
0000a0 89 6c fc bd 6e d1 52 be 1a 4e 73 be ac 4b 19 be
       -0.12325389 -0.20587704 -0.23760262 -0.14970273
0000b0 40 bd ac 3e e0 d0 b3 bd 87 61 9f bd 6a a1 dc bd
       0.33738136 -0.08780074 -0.07782274 -0.10772975
0000c0 e6 89 d8 bd c5 3a 30 3e 71 6f be bd 80 fb 78 be
       -0.10573177 0.17209919 -0.092985995 -0.2431469
0000d0 15 05 9f bc 95 e3 86 be 58 59 c6 3e 77 e2 cb bd
       -0.019411603 -0.26345506 0.3874004 -0.09955304
0000e0 84 a7 c8 bd 78 94 1c be b9 a4 eb bd 74 e4 33 3d
       -0.09797576 -0.15291011 -0.11506028 0.04391904
0000f0 13 c7 46 be 15 ff c0 be 33 6c 43 be 64 7c e0 3e
       -0.19411878 -0.37694612 -0.19084243 0.43844903
000100 4f 3a 7d 3e dc 05 1f be 2a 02 1b be 22 e4 ff bd
       0.24729274 -0.15529579 -0.15137544 -0.12494685
000110 8f 20 73 3d 19 a1 41 3d c2 36 4c 3e 27 93 bc 3e
       0.059357222 0.047272775 0.19942763 0.36831018
000120 ca d1 18 3e 64 e0 a0 be 5a bf b6 be c2 72 8d 3d
       0.14923778 -0.31421196 -0.35692865 0.06906654
000130 45 cc e3 3d d0 82 eb 3c c0 25 ac bd ed 05 06 be
       0.11122946 0.0287489 -0.08405638 -0.13088198
000140 90 ba ac 3e 19 36 cb 3e a3 96 f2 3c de 24 c8 be
       0.33736086 0.3968971 0.029612845 -0.39090627
000150 90 47 40 be f2 fe ce 3c 7e 3f 72 3b 96 ab b3 bd
       -0.18777299 0.025268052 0.0036964114 -0.08772962
000160 29 7d 01 be 38 ba 88 3a 57 7f 21 bb b0 b9 10 bb
       -0.12645401 0.0010431474 -0.002464255 -0.0022083335
000170 4b cd 48 ba 35 32 fe b9 e6 44 1f b8 4f 4b 96 3a
       -0.00076599856 -0.00048484062 -3.797272e-05 0.0011466536
000180 26 12 26 bb dd 1e 1b bc bd 01 34 38 7b 21 16 bc
       -0.0025340407 -0.009467808 4.2916963e-05 -0.009163256
000190 94 de b6 3e dd ea 30 3e 6b 31 e4 bd bd ec a7 be
       0.3571669 0.17277093 -0.11142238 -0.32797804
0001a0 6b bf ac be 46 bf 44 3e d9 33 5b 3c 91 4e 8c bd
       -0.3373979 0.1921359 0.013379061 -0.06850923
0001b0 4a 14 ea 3c 72 61 c1 3d 50 05 be 3e df 3b 4c bd
       0.028574128 0.09442414 0.37113428 -0.049861785
0001c0 d9 e5 dc be b9 f9 88 be d0 4c 92 3e 33 85 d9 3d
       -0.4314411 -0.26753023 0.28574228 0.10621109
0001d0 6b 09 14 be ca fe a2 be ad 74 5a be ae 90 1e bc
       -0.14456718 -0.31835014 -0.21333571 -0.009678049
0001e0 4a 18 01 bd 48 f7 68 bd 1e 6c 33 bd d0 de b7 bb
       -0.031517304 -0.05687645 -0.04380428 -0.005611278
0001f0 31 e5 1a bd 69 fe 8c bb bb 2b c2 bd 38 4f 43 bb
       -0.03781623 -0.004302789 -0.09480997 -0.0029801857
000200 24 75 6f bd dd c8 8c bd 86 bf 3d 3b 04 cb 8f 3d
       -0.058461323 -0.06874249 0.0028953268 0.07021144
000210 d2 5e 93 be 12 cd 2b bf 4c cd e2 3b 42 e8 c4 bd
       -0.2878328 -0.6710979 0.006921446 -0.09614612
000220 4b dd 71 3e 4e db 89 be 4a 5d 7f bd 15 25 ab 3d
       0.23619573 -0.2692513 -0.062344827 0.08356682
000230 64 2b 8a 3e c4 8c 02 3e 4e 9f c8 be b3 78 d1 be
       0.2698623 0.1274901 -0.3918404 -0.409124
000240 92 79 25 3e 94 5b 6c 3e da 51 e1 bd 07 74 fd bd
       0.16159657 0.2308181 -0.1100194 -0.12375646
000250 ef f5 be 3d 5a 12 38 3e 2e d1 d1 be 51 6f d4 3e
       0.09324252 0.1797575 -0.40979904 0.41491178
000260 fd f7 c6 3e de 25 86 3d 44 69 a8 be 36 72 7e be
       0.38861075 0.06550191 -0.3289281 -0.24848256
000270 4c 56 b0 3d d9 f4 ab bd 52 36 94 bd 59 bf 73 be
       0.0861021 -0.0839631 -0.07236923 -0.23803462
000280 19 dc 92 be a1 12 8e be 91 96 ce 3e 21 06 d6 3e
       -0.28683546 -0.27748588 0.40349248 0.4180155
000290 3d c3 9b be ef 93 74 bd eb 92 dc bd 43 6b 1d 3e
       -0.30422392 -0.059711393 -0.1077021 0.15372948
0002a0 14 8a d1 3d 1c ef 1e be bc ba b6 bd a5 84 c8 be
       0.102314144 -0.155209 -0.089223355 -0.391637
0002b0 a0 9d 67 3e 45 b7 12 3f af 40 c9 bd fc 74 69 3d
       0.22618723 0.573109 -0.098267905 0.05699633
0002c0 8f 16 29 3d bc 1b 33 3e d3 0c 19 3e 17 5b ac bd
       0.04128128 0.17491049 0.14946298 -0.084158115
0002d0 d3 94 55 3e eb e3 31 3e e8 d0 98 be d0 9e 0a bf
       0.20857553 0.173721 -0.29846883 -0.5414858
0002e0 3b db 29 3e 96 af 37 3e 04 84 c7 3d 83 bc 08 be
       0.16587536 0.17938074 0.09741977 -0.13353162
0002f0 7e 78 a3 bd 30 51 dc 3d c6 38 a2 3e e1 66 f5 3e
       -0.079819664 0.10757673 0.3168394 0.47930053
000300 4f 20 74 3e 38 dd 37 bd f9 42 35 be e8 9a 16 3e
       0.2384045 -0.044888705 -0.1770133 0.1470753
000310 97 48 06 3e fb 5a 36 3e 5e cb a5 bc 5a 21 00 bd
       0.13113628 0.17808144 -0.020238575 -0.031281807
000320 4c 51 1a be 8f cf 37 be 77 aa b8 be 04 19 86 3b
       -0.15070075 -0.17950271 -0.36067554 0.0040923376
000330 3d 85 bb 3e d5 cb ae 3d 09 32 fb 3d 02 d8 78 3d
       0.3662509 0.085349716 0.12265403 0.060752876
000340 a1 4f 04 3e fe c1 56 3e e3 2e c8 be 39 7e 53 3d
       0.12921001 0.2097244 -0.39098272 0.051634047
000350 a1 06 0e 3f 84 26 b0 3d 36 96 8d be 92 31 0a be
       0.55478865 0.08601096 -0.27653664 -0.13495472
000360 11 20 25 3d db bd f8 3d a5 dd 0c bc 08 db b0 bd
       0.040313784 0.12145587 -0.008597766 -0.08635527
000370 8e 5f 98 be 91 05 05 bf a7 dc 8c be aa 12 50 3e
       -0.29760402 -0.5196162 -0.27512094 0.2031962
000380 41 c6 9a 3d 6c 3e 61 be 35 4c 5e be 53 b3 85 be
       0.07557345 -0.21996468 -0.21708758 -0.26113376
000390 7d 04 90 3d 46 83 04 3e e3 18 be be 1f 97 68 bd
       0.07032106 0.12940702 -0.37128362 -0.056784745
0003a0 be 88 85 3e 30 84 91 3e 69 8c ab be e8 c8 59 3e
       0.26080889 0.28421164 -0.33505562 0.21268046
0003b0 6d 2b ff 3d 78 94 98 3e 8b 77 73 3e e4 4d 28 bc
       0.12459455 0.29800773 0.23776071 -0.010272477
0003c0 6a d5 3a 3e 58 aa 84 be a1 bf bd be 68 a3 55 bf
       0.18245474 -0.25911212 -0.37060264 -0.83452463
0003d0 58 a2 48 3d a9 16 89 3d eb 96 c3 3d 4a f1 31 bd
       0.048982948 0.06693775 0.0955027 -0.043443
0003e0 63 ae e3 bb 6e a9 f1 3d 8e 5e ae 3e 5e 7f 95 3e
       -0.0069482788 0.11799894 0.34056515 0.29198736
0003f0 97 5c 78 bd 30 65 aa be 37 66 52 be 3a 1c df 3c
       -0.060635176 -0.33280325 -0.20546804 0.02723514

layers.0.bias f4 [70]
000000 bc 3f 39 bc d1 96 23 be 9e bc 57 bd 1c 36 5a 3e
       -0.011306699 -0.159755 -0.052670114 0.21309704
000010 fa 21 ac bd 26 29 2f 3d e6 91 3e 3d 50 9b 2a 3d
       -0.08404918 0.04276385 0.04652586 0.041652024
000020 5d 0e e6 3c fd 39 29 bd f4 be 50 bc ae 66 b9 3c
       0.02808302 -0.041315068 -0.012740839 0.02263197
000030 3e e2 3e be da 83 fa 3d db fe 10 be 5c 8c e3 3d
       -0.18640992 0.1223218 -0.1415972 0.11110756
000040 a2 91 d8 bc 4c 03 3e be 09 91 f7 bc be 68 40 be
       -0.02643663 -0.18555945 -0.030220525 -0.18789956
000050 bd c9 3a be 9d 28 3a 3d e3 1b 46 3d 6d f6 67 be
       -0.1824102 0.045448888 0.04836644 -0.22652598
000060 a5 fb 30 3e cd f1 fc 3c d8 1c b7 3c cc 35 2a be
       0.17283495 0.030877018 0.022352621 -0.16622084
000070 84 2c a8 bc 94 ea 5f bd ca 93 cc bd 5f 39 04 3e
       -0.02052904 -0.05466707 -0.09989126 0.1291251
000080 71 8e 00 bc 74 7f d2 3c ce 15 22 bc 11 44 fe 3c
       -0.007846461 0.02569554 -0.009892894 0.031038316
000090 4d 53 0d be b2 c8 07 3b 99 63 8d 3b e1 04 b2 3d
       -0.13801308 0.002071899 0.0043148515 0.08692337
0000a0 ec f7 6a 3a c0 4f c9 3d 0f cd 6c be 7f bf e6 bc
       0.0008963335 0.09829664 -0.23125099 -0.028167484
0000b0 65 70 8c be 6d 0a 1c 3e 58 4b fe 3c 44 d8 52 bc
       -0.274295 0.15238352 0.031041786 -0.012868945
0000c0 15 a2 01 3d b6 65 28 be 8f ed 2a 3d 4d 38 03 be
       0.031648714 -0.1644505 0.04173046 -0.12814446
0000d0 f9 04 82 be 9f fb 5d 3e 5a 4e 48 bd a3 0b 6d bc
       -0.2539442 0.21678017 -0.048902847 -0.014468106
0000e0 b5 b2 ce 3d df 79 a7 bc a3 55 e6 bd a0 37 8a bd
       0.100926794 -0.020443855 -0.11246803 -0.06748891
0000f0 75 7b 88 bd a3 6c 43 3d cb b3 ad 3c 20 71 6f bd
       -0.066641726 0.047711026 0.021203896 -0.058457494
000100 8d 98 90 bd dc 83 a1 bd 7b 15 ce bd e1 bb 00 3d
       -0.07060347 -0.07886478 -0.10062691 0.031429175
000110 c8 17 93 3b 26 52 d0 3d
       0.004488919 0.101719186

layers.1.weight f4 [50, 70]
000000 6f 8a 3d bd 6b 38 38 bd d2 9b 01 bd 74 d6 f2 3c
       -0.0462746 -0.04497568 -0.031642742 0.029643275
000010 f9 36 5d bd 5d 95 72 bc 1f c4 e2 bd 00 06 fa bc
       -0.054007504 -0.014806119 -0.110725634 -0.03052044
000020 9e 56 52 3d e8 37 87 35 7d 9f 35 bd a2 31 bc bd
       0.051352136 1.0074555e-06 -0.044341553 -0.09189154
000030 c9 11 46 b8 fc 65 69 3c fb da 64 be b4 82 7d 3e
       -4.7223442e-05 0.014245506 -0.2234916 0.2475689
000040 c8 0a e9 3c ff 60 84 bd 02 29 af bc 3d 58 eb bc
       0.028447524 -0.06463813 -0.021381859 -0.028728599
000050 a2 59 d4 3c 75 83 a1 3e 04 33 0c 3e 1d 32 2d bd
       0.025921647 0.31545606 0.13691336 -0.04228412
000060 7f 44 ad bb 5a a5 a2 bd 09 b6 a1 3d 7e 36 c2 3d
       -0.0052877064 -0.079416946 0.078960486 0.0948305
000070 4e c6 cf bc b0 10 4c b8 17 ec ae bd 7d 88 97 3c
       -0.025363114 -4.865293e-05 -0.08541124 0.0184977
000080 00 5b 94 be c2 e8 c0 3b c1 85 71 3d 5b 6c af bd
       -0.28975677 0.005887122 0.05896545 -0.08565589
000090 bb 74 20 bd c8 3d 32 bd 2a 18 5a 3e 74 a6 96 bd
       -0.039173823 -0.04351595 0.2129828 -0.07355967
0000a0 00 16 1c bd 3e 86 8e 3c fd c2 88 bd 38 e5 5e 3c
       -0.03810692 0.017397996 -0.06677816 0.013604455
0000b0 07 65 b0 bd 19 84 86 3e eb be bd ba 4d 1a aa 3c
       -0.086130194 0.26272658 -0.0014476454 0.020764494
0000c0 bd 03 c7 3d 6e ed 50 be c5 09 85 3e be 6f 1a bc
       0.0971751 -0.20403072 0.25984016 -0.0094260555
0000d0 2c 39 2f 3d a1 d6 b1 3e d4 97 95 3a ea d6 25 32
       0.042779133 0.3473406 0.0011413046 9.65313e-09
0000e0 4d 0b e3 3d 7a ea 9d bd 63 d5 82 bc 42 3c b8 bc
       0.1108614 -0.077107385 -0.015970891 -0.02248967
0000f0 13 d3 99 bd 82 7e c2 3d 96 22 e4 bc 9b 99 53 bd
       -0.07510962 0.09496786 -0.027848523 -0.05166016
000100 21 a1 68 3c 34 29 90 3e 1e f4 39 3b a2 2d 27 3e
       0.014198572 0.28156435 0.0028374265 0.16326001
000110 1e cd be bd 1b 32 87 3c 36 09 d5 3c ce 37 29 be
       -0.09316467 0.016503384 0.026005369 -0.16525194
000120 73 1c 92 bc 4d 96 34 3e d8 ce a4 3c 98 48 0b 3d
       -0.017835831 0.1763546 0.020118162 0.034004778
000130 24 47 04 3e de d1 26 be ba b3 0e be 3f 5e 26 21
       0.12917763 -0.16290995 -0.13935748 5.636772e-19
000140 8f 1b f4 bd 7d 1b ea bc dd f3 92 3b 1c 72 72 3a
       -0.11919319 -0.02857756 0.004484637 0.0009248571
000150 db 6d 08 3e fe 59 18 3b 68 bf 6a bc f5 48 07 bd
       0.13323157 0.0023247 -0.014327861 -0.03302856
000160 f4 95 8e bd 66 e0 37 be 98 59 a3 3c 7a 7d 6f bd
       -0.06962195 -0.17956695 0.019940183 -0.058469273
000170 0f 89 24 3e 20 4b f6 3d 3e 3d 0f be 00 b4 0a be
       0.16067909 0.12026048 -0.13988206 -0.13545227
000180 e2 bc 2e 3d 51 ac 36 be b4 09 08 bd 04 a8 56 38
       0.0426606 -0.17839171 -0.03321238 5.1178053e-05
000190 a6 9c f2 bd 2c b4 d6 bd 8a c7 4a bd 44 11 92 3e
       -0.118462846 -0.10483584 -0.0495067 0.28528798
0001a0 56 84 1b be 6f 23 83 3c c6 10 37 be b2 7b 44 3d
       -0.15187201 0.016008107 -0.17877492 0.047969528
0001b0 6d df ba bc 47 ff 2e bd ed ca a0 3d 5a 12 92 be
       -0.022811616 -0.04272392 0.07851205 -0.28529626
0001c0 8f ea 8b bd 49 f2 2d 3e b6 92 3e 3d ea a8 b6 3c
       -0.06831848 0.16986956 0.046526633 0.022297341
0001d0 ca aa 9c bd 42 49 f3 bd 19 77 c2 bd 4a 89 19 3b
       -0.07649763 -0.11879207 -0.09495372 0.0023427778
0001e0 42 a2 7e bd ee 1d 6b 3e a8 90 10 be d7 6f dd bd
       -0.06216646 0.22960636 -0.14117682 -0.108123474
0001f0 ab 33 f1 3d 2f 2c 1a ad 09 1f 8a bd 37 e8 ef 3d
       0.11777433 -8.763697e-12 -0.06744201 0.11714213
000200 25 26 d4 bd 93 4f 5d bc fb 80 21 3d 7b 44 75 bd
       -0.10358838 -0.0135077415 0.039429646 -0.05987976
000210 47 ac 76 3c 9c f6 a6 bd b0 ba 28 3e 03 6e ff bc
       0.015055723 -0.08152506 0.16477466 -0.031180387
000220 32 36 1c 3e 14 e7 17 be cd 8a 64 bc 6b c1 ca bd
       0.15255049 -0.14834243 -0.013949108 -0.09900173
000230 57 dd 04 be 8e 37 6b 3b c9 9e c4 bd b6 33 1a 3d
       -0.1297506 0.0035891267 -0.09600598 0.03764697
000240 87 01 21 bd 7a c3 de bc ee 21 19 be f8 24 ab 3d
       -0.039308097 -0.02719282 -0.1495435 0.083566606
000250 58 cd 08 3e 2e 54 22 b4 75 d8 2b 3e 94 91 63 3e
       0.13359582 -1.511805e-07 0.1678179 0.22223502
000260 77 02 3f ba 53 ef 4f 3e ff 94 26 3e 9e 26 43 bd
       -0.0007286439 0.20306139 0.16267775 -0.04764425
000270 79 dc 1b be b9 f5 61 be 48 21 4c 3e 81 04 bc 3d
       -0.15220822 -0.22066392 0.19934571 0.091805466
000280 79 74 48 bd dc 73 d1 bb 72 b2 dd bc a5 f8 76 bd
       -0.048939202 -0.0063919853 -0.027062628 -0.06029572
000290 6a a2 03 3e c5 e6 bd 3d 04 cf 21 bc ee e7 39 be
       0.12854925 0.092725314 -0.0098760165 -0.1815488
0002a0 fc 66 51 3d 28 e9 82 ba a2 35 19 bd 2a c0 f3 3d
       0.051123604 -0.0009987699 -0.037404664 0.11901887
0002b0 b1 02 1a 3e cb 47 d3 bd 09 a9 a1 3d 6a 13 1a ba
       0.15040089 -0.10316428 0.07893569 -0.0005877527
0002c0 73 ce 23 3e 7d c0 34 bd 09 c6 64 bd d8 6b 05 3c
       0.15996723 -0.044128884 -0.055852924 0.008143388
0002d0 2a a4 85 bc 16 d3 ad bc c9 19 33 3e 3b 5f f1 3c
       -0.016313631 -0.021218818 0.17490305 0.029464355
0002e0 d7 9c db 3b 0d 9c 71 bd db 48 98 3d 58 b7 82 3c
       0.0067020464 -0.058986712 0.07435771 0.015956566
0002f0 1a ac b5 bd 28 ef 34 3e b2 c6 6b 3d 5d 3f 56 bd
       -0.088707164 0.17669356 0.057562537 -0.05230652
000300 83 09 9c bd 3d c6 ca bd 3e 14 47 bc e6 83 fc b7
       -0.07619002 -0.09901092 -0.012150822 -3.0102161e-05
000310 b7 d1 1e bd 89 92 72 be 26 6c 1c be 38 a3 e9 3b
       -0.03877422 -0.23688711 -0.1527563 0.007130053
000320 31 99 13 be f1 3f 4d 3b dc 5e de b9 49 fb 6d 3e
       -0.14413907 0.003131863 -0.00042413815 0.23240389
000330 b1 81 83 bd 9b f6 05 bd fa f0 43 bd 68 e7 f6 3d
       -0.06421221 -0.032705884 -0.047837235 0.12055856
000340 d5 53 23 3e b1 7a 69 3d b4 0b ff bd 18 57 b1 bd
       0.15949948 0.057001773 -0.12453404 -0.0865919
000350 e2 de 02 bd eb 4a 09 3d 4e 01 a6 3d 72 2f 5f bb
       -0.03195084 0.033518713 0.081057176 -0.003405538
000360 29 b8 02 be 96 9a 95 3d 5a 35 6c 3d d9 3f 31 b8
       -0.12765564 0.073048756 0.057668068 -4.225955e-05
000370 0d 85 9c 3d 20 fc 7c 3e 30 3e a6 bb ab 79 9d 3e
       0.07642565 0.24705553 -0.0050733313 0.30756888
000380 50 b1 1f 3e 60 26 e9 3c 8b 27 75 be ee 65 52 be
       0.15594983 0.028460681 -0.23940866 -0.20546696
000390 e9 8c 0e 3e f8 da ec 3c 92 37 75 3c 21 32 a1 bb
       0.1392094 0.028913006 0.014966862 -0.004919306
0003a0 b4 d8 24 3c 53 33 10 be 93 6b 47 3e 3e cc 14 3e
       0.010061432 -0.14082079 0.1947463 0.14531037
0003b0 fa 3f e1 3d c4 6e 34 be 80 14 ae 3d a0 b1 71 b7
       0.10998531 -0.17620379 0.08500004 -1.4406076e-05
0003c0 0a 0a 83 bd 1a eb 22 3e 01 98 c2 3d d8 52 d6 bd
       -0.06398399 0.15909997 0.09501649 -0.1046502
0003d0 f6 27 28 3e 32 61 85 3c 4d 60 1c 3e a0 aa 7e 3c
       0.16421494 0.016281698 0.15271111 0.01554361
0003e0 79 cc cf bd 13 3e ec 3d ae 0c c4 3d f6 e2 ac 3c
       -0.10146422 0.11535277 0.09572731 0.021104317
0003f0 97 ca 9d 3d 2f a0 96 bd 47 dc 35 3e 47 bf b4 bd
       0.077046566 -0.07354771 0.1775981 -0.08825546

layers.1.bias f4 [50]
000000 80 73 a6 bd 61 a7 bc 3d fc a4 1a bd 7e 82 26 3c
       -0.081274986 0.092116125 -0.037754998 0.010162948
000010 6e 22 a0 bc 47 22 18 bd 77 06 03 bd cb e8 0e 3c
       -0.019547667 -0.037142064 -0.031988587 0.008722494
000020 b2 3f 2d 3a 76 6e 75 bd 4e 83 d3 3c 50 ee db 39
       0.00066089176 -0.059919797 0.025819447 0.00041948492
000030 dd bc 8d bd 01 41 3a bd 43 11 b6 bb 18 bf dc bc
       -0.069207884 -0.04547215 -0.005556257 -0.02694659
000040 85 14 19 bc 57 f4 ee bc fb b6 5d 3d 45 b9 48 3c
       -0.009343271 -0.029169245 0.054129582 0.012251203
000050 6a fb 47 3d 5b 4a 68 bc 3f 7b 37 bd 38 c6 36 bc
       0.04882375 -0.014177884 -0.04479527 -0.0111556575
000060 28 2a 18 3d fe 2d c4 bc 80 de 90 3d 90 58 0b 3d
       0.03714958 -0.023947712 0.070736885 0.034020007
000070 c1 2e ee 3c f5 03 c4 3d 28 58 5c 3b 32 d6 e5 bc
       0.029075028 0.09571067 0.003362188 -0.028056238
000080 aa 76 42 3d 8a 42 a6 bc 4b 48 96 3c 75 68 1f bd
       0.047476448 -0.0202954 0.018345019 -0.038917977
000090 14 d6 80 3b d4 da c3 bc 22 07 17 bc 7b f5 ed bc
       0.00393177 -0.023908056 -0.009218009 -0.029047718
0000a0 7b 7f 13 3c 48 ef 82 3c ef f8 46 bd 04 7e 75 3c
       0.009002562 0.015983239 -0.048577245 0.014983658
0000b0 0d f4 04 bc f0 f4 a9 bc ac cd 0c bd dc 19 4c bc
       -0.008114827 -0.020746678 -0.03437583 -0.012457337
0000c0 38 44 81 bc c1 18 33 bd
       -0.0157796 -0.04372478

layers.2.weight f4 [90, 50]
000000 62 ee 86 3e 9b 43 00 be d9 c6 d5 bc e8 64 e3 3d
       0.26353747 -0.1252579 -0.026095795 0.11103231
000010 b1 7d 89 3d 5c 68 e5 3d 03 89 81 3d 5f d5 b9 bd
       0.06713427 0.112015456 0.06324961 -0.090739004
000020 67 d2 05 bd 18 e6 85 3d f4 44 79 be dd 04 36 3e
       -0.03267136 0.065380275 -0.2434271 0.17775293
000030 98 e7 b9 3d 0f d4 48 bc 8c 33 98 3d 35 5a c9 3d
       0.09077376 -0.01225759 0.07431707 0.09831659
000040 d0 ee 34 bd 9d a3 ab 3d f8 f0 7c be f0 61 25 bd
       -0.04417306 0.08380816 -0.24701297 -0.040376604
000050 5a 69 81 bd ee ac 98 be 0b f2 5b 3e da a1 a0 3e
       -0.06318922 -0.29819435 0.21479051 0.31373483
000060 7d 4e 12 be 6a f6 b5 3d 04 83 a6 bd 91 f2 26 3e
       -0.14287753 0.088848904 -0.08130458 0.16303469
000070 31 90 46 be 43 d1 1a be b8 c5 b7 3d f1 08 51 3e
       -0.19390942 -0.1511889 0.08973259 0.20413567
000080 b4 0d 24 bd 3f 23 05 3d 2e 44 ed 3d b8 59 4d 3d
       -0.04005213 0.032504316 0.1158527 0.05013439
000090 00 7a b8 bd 5d 31 bb bd 0e 42 c8 3d d7 b3 e2 3d
       -0.09007645 -0.09140275 0.09778224 0.11069458
0000a0 bd b7 51 be c0 e6 76 be bc 40 d5 3d 64 27 16 bc
       -0.20480247 -0.24111462 0.10412738 -0.009164665
0000b0 66 ff 45 3d f4 0a 86 3e c8 6e 71 3d 11 96 81 3d
       0.04833927 0.26180232 0.05894354 0.06327451
0000c0 4d 05 6c bd 29 e1 94 3d 96 62 75 bd 97 41 4f bc
       -0.057622243 0.072695084 -0.059908472 -0.012649915
0000d0 b8 c9 95 3c ba 5c ab bb 39 82 06 3c 9a df b1 3c
       0.018284664 -0.0052295597 0.008209758 0.021713067
0000e0 25 a4 98 3c 3b 24 87 bb c6 5e 8e bd c9 e7 d9 bb
       0.018632958 -0.004124192 -0.0695167 -0.0066499454
0000f0 d3 22 ac 3b 34 98 a7 bc de 7c 6c bc 02 8a dd 3b
       0.005253175 -0.020458318 -0.0144340675 0.0067608366
000100 51 b3 8b bb 22 cc bb bc 06 4f e2 bb c4 4b 8d bc
       -0.0042633195 -0.022924487 -0.006906393 -0.017248042
000110 f5 e8 04 3c 1b ea 81 bc 99 90 09 bd 0f 9b 48 3c
       0.008112182 -0.0158587 -0.033585165 0.012244
000120 d4 d1 00 bc fb 11 99 bc 9c bd 6c bb 88 4d d1 bc
       -0.007862527 -0.018685332 -0.0036123758 -0.025549665
000130 19 6f c8 bc ed 22 a5 3c 8a 30 67 bb 3e 91 ab 3c
       -0.024467038 0.020158255 -0.0035276734 0.02094328
000140 f1 79 8a bb df ac d9 bc 8e 4e c1 3a 49 d2 73 3c
       -0.0042259623 -0.02657169 0.0014748143 0.014881679
000150 ed ad 96 3c 7c af 0c bd 76 cd 92 bb 6c a6 68 bb
       0.018393481 -0.034347042 -0.0044800593 -0.0035499586
000160 7a d2 f7 bb 19 72 fa 3c 61 4e a4 bb 0b 6a 13 bd
       -0.0075629326 0.030571984 -0.0050142263 -0.035989802
000170 3e a6 c7 bc 0b 8e 0e 3c 5f 26 57 bd be 7d 81 3c
       -0.024371263 0.008700858 -0.052526828 0.015807029
000180 86 86 71 bc 0f ae 8e bc 4d 09 bf 3c 24 bd be 3a
       -0.014741546 -0.017416982 0.023319865 0.0014552218
000190 6b 7b f0 3c 7d 1d d3 3a af 59 95 bc 17 21 31 bc
       0.029355725 0.0016106811 -0.018231241 -0.010811112
0001a0 8b 03 74 bc 44 5d d6 3b 60 66 95 bc 00 2b f6 3a
       -0.014893423 0.00654188 -0.018237293 0.0018781126
0001b0 9d ae 6d 3c 58 58 b9 bc de 31 f4 bb ce 9d 38 3a
       0.014506963 -0.022625133 -0.0074522337 0.00070425577
0001c0 9b c6 68 3c 74 fa 36 bb b9 e6 3a bb e6 46 05 3b
       0.0142075075 -0.0027920278 -0.002851887 0.0020336448
0001d0 62 1f 5c 3b 81 21 b0 bc 88 d7 b3 bb f3 32 0d bc
       0.0033588042 -0.02150035 -0.00548834 -0.008618104
0001e0 df c3 48 3c e6 c1 84 b9 f5 a9 2e 3c 04 5c 65 bb
       0.012253731 -0.00025321468 0.010660638 -0.0034997473
0001f0 f8 a6 3d bb c5 1f 97 ba fd f0 b9 ba 38 f3 d6 bc
       -0.0028938632 -0.0011529854 -0.00141862 -0.026239023
000200 54 70 ce 39 6d 1a 0d 3c a1 11 a1 3c 3c 15 79 bc
       0.00039375073 0.008612257 0.019661726 -0.015202817
000210 9f cd 81 bc 09 89 d2 bb 8a 9b ad bb b8 5c db ba
       -0.015845118 -0.0064250273 -0.0052980827 -0.0016736006
000220 7a 9d a9 b9 90 2a 56 bb ba 8d 36 bb 5d b3 e2 3b
       -0.0003235152 -0.0032679178 -0.0027855472 0.0069183544
000230 e7 43 ad 3c c3 1c 03 bc f2 86 b1 3b a9 5f a3 bb
       0.021150542 -0.008002463 0.005417698 -0.004985769
000240 ec c6 d1 3c 93 eb e7 ba ef 5b 4d 3c 18 da ea 3b
       0.025607549 -0.0017694108 0.012534126 0.007167112
000250 bd 57 d0 bc 00 e3 41 3c 2d 1a 3f 3d 05 9b 3d bc
       -0.025432462 0.011833906 0.046655823 -0.011572604
000260 fa 1d 1d 3d 36 7c ae 3d 3a 31 f1 bc 26 a6 8a 3d
       0.038358666 0.08519785 -0.029442418 0.067699715
000270 22 0b 66 3d fe d3 ab bd 50 25 b8 bd b9 a3 e7 3c
       0.05616296 -0.08390044 -0.08991492 0.028276311
000280 7c cf 05 be d1 26 50 3d c4 8e f4 b9 7a ed b9 bd
       -0.1306743 0.05081827 -0.00046645675 -0.09078498
000290 9b ea 45 bd ce ec a9 bc 19 e1 30 3d 58 a9 40 3d
       -0.04831944 -0.0207428 0.04318342 0.0470365
0002a0 7a 36 7c bd 96 7f d3 3c 26 a9 2c 3d f8 83 e8 bc
       -0.06157539 0.025817674 0.0421535 -0.02838324
0002b0 c1 0f 17 3d 45 86 da 3d 27 b3 60 bd e0 6f b7 3d
       0.03688026 0.10670141 -0.054858353 0.08956885
0002c0 e8 c5 28 3d ab 7a 88 3c e2 dd 80 bd 34 4c 2e bc
       0.041204363 0.016660055 -0.06292321 -0.010638285
0002d0 88 6d cb bc 84 a7 02 3d f5 19 92 3d 06 04 d7 3c
       -0.024832502 0.031898037 0.07133857 0.026247036
0002e0 11 6d b6 3d 17 19 ae bd ae f5 5d bc f0 e1 b6 bc
       0.089075215 -0.08500879 -0.013547344 -0.022324532
0002f0 21 0e 82 3c 14 15 00 3d c6 c3 a7 bd f4 3c 1b bd
       0.015875878 0.0312701 -0.08191638 -0.037899926
000300 40 31 31 bd 4c 1a 6d 3d 2a 5c 07 bd 7b 09 85 3d
       -0.04325986 0.057886407 -0.03304688 0.06495949
000310 cc fe a4 bc fa a3 78 3d 4e 80 a2 3c ab 53 85 bd
       -0.020141028 0.060703255 0.019836571 -0.06510099
000320 15 cd db bc 0c 0d 5c 3c 50 62 8d bc f6 eb 6f 3b
       -0.02683119 0.013430845 -0.017258793 0.003660915
000330 80 de 82 bc a6 98 56 bb ee 0a 77 3b ce 18 8f 3c
       -0.015975237 -0.0032744794 0.0037695724 0.017467882
000340 8b 24 10 bd 5f e6 78 bc 55 83 1a bb 43 f7 1d bd
       -0.0351911 -0.0151916435 -0.0023576815 -0.038565885
000350 73 20 71 3a 76 65 11 bd 34 38 df bb 02 c7 78 ba
       0.0009198256 -0.03549715 -0.00681212 -0.00094901037
000360 f2 38 55 bd 30 03 9d 3c db e2 b0 3b b9 dc b2 bc
       -0.05205626 0.019166559 0.005398137 -0.021833764
000370 88 96 dc 3c 54 92 2d bc 8b d6 8a bc 57 53 28 bb
       0.026927248 -0.010593969 -0.016948005 -0.002568444
000380 be a4 01 3d fe c2 ab 3a a2 99 c6 bb 48 5f 9f bc
       0.03165125 0.0013104377 -0.006060795 -0.019454613
000390 75 ed 3f bc e4 2d 19 3c d3 1f 6a 3c a1 ad fb 39
       -0.011714329 0.00934932 0.014289814 0.00048003814
0003a0 df 3d 97 bc 17 78 3d 3d ee 3e dc bb 17 e3 1c bd
       -0.01846212 0.046257105 -0.006721369 -0.038302507
0003b0 bc b1 73 bc fc f1 e5 3b 7c 85 36 3c 15 6d fc 3c
       -0.014873918 0.007017372 0.011140224 0.030813733
0003c0 10 7c ff 3b 2b fc a7 bc f2 e2 0f bc f3 13 c7 bc
       0.007796772 -0.020505985 -0.008782135 -0.024301505
0003d0 fa b1 d9 bc 6d b4 6e 3c 7e 08 1e 3d dc 58 9e bc
       -0.026574124 0.014569384 0.038582318 -0.01932948
0003e0 ef bd 0c 3d e1 3c 32 bc b1 2c 68 3b 5c 97 be 3c
       0.034360822 -0.0108787725 0.0035427029 0.023265533
0003f0 b2 7b 2d 3d 7d 30 67 3d c8 e2 26 bc db 74 21 3d
       0.042354293 0.056442726 -0.010185905 0.039418083

layers.2.bias f4 [90]
000000 8d 12 78 be 8b 3b 0f bc 53 67 0d bc 41 cf 91 bd
       -0.24225827 -0.0087422235 -0.008630591 -0.07119609
000010 be 09 3d bb 15 eb c1 bd 4f d1 df 3c d0 f0 63 3e
       -0.0028844918 -0.094686665 0.027321486 0.22259831
000020 ed f3 81 be 3c 04 ac 3c a1 6f eb 3b f5 12 bc 3b
       -0.25381413 0.020998113 0.007184938 0.0057395645
000030 41 db fd bc 45 53 94 bc 79 9b 35 3c f0 4e c7 bd
       -0.030988337 -0.018106112 0.011084431 -0.09731853
000040 22 44 7a 3e 2e a1 62 3d c7 67 06 bc 91 f2 88 3c
       0.24440053 0.055329494 -0.008203453 0.016717227
000050 56 1e 79 3c 06 f9 94 38 7b d5 55 3d ca b1 9f bd
       0.015204987 7.103574e-05 0.052205544 -0.077975824
000060 49 66 1d 3c 15 ca b5 ba d4 b8 0b bc 3c 2f ac bd
       0.009606906 -0.0013869429 -0.008527953 -0.08407447
000070 57 b8 4b be fe 58 5d 3e 29 68 aa 3c 95 d6 f2 3c
       -0.19894539 0.21615979 0.02080162 0.029643336
000080 7f 7f 7d 3b 81 93 25 3e 71 19 3f 3c 13 f7 9a 3e
       0.003868073 0.1616955 0.011663781 0.30266628
000090 60 18 96 bc 46 ce e3 3c 78 a1 c1 3d 46 1a 8c bc
       -0.01832217 0.02780832 0.09454626 -0.017102372
0000a0 dc b7 17 bd 58 7b 19 3d b2 0b d9 bb 77 bc 3d 3c
       -0.037040576 0.037471145 -0.0066237086 0.011580578
0000b0 ad cd 3d bc 72 f5 a8 bb 76 41 55 bb 08 a4 bb be
       -0.011584681 -0.0051562125 -0.0032540238 -0.36648583
0000c0 cd 60 9e 3d ce b1 9e 3d f3 aa 0d bd aa c8 4d 3d
       0.07733307 0.07748757 -0.034586858 0.050240196
0000d0 83 83 f4 bd 23 c7 79 3c 8b d6 b1 bb 75 ab 66 3d
       -0.11939146 0.015245232 -0.005427187 0.056315858
0000e0 5a e7 2b be 6b 9a 86 be fa 23 3d bd da 7d 6c 3b
       -0.16787472 -0.26289687 -0.046176888 0.0036085756
0000f0 7b 21 a6 3c fd 78 04 3d 93 9c eb bc 58 68 ad bd
       0.020279637 0.032341946 -0.028761184 -0.084671676
000100 a1 28 3c 3c 09 31 a6 3d cc 45 98 3b 6b 6b 40 be
       0.011484296 0.081148215 0.0046469923 -0.18790977
000110 71 bf d7 3c 70 5f 5a bc 2e 88 a3 bc 6c d3 3b 3c
       0.026336404 -0.013328418 -0.019962396 0.011463981
000120 80 62 df 3d 1a 52 a4 3c c2 d6 7c be 33 9f b0 bd
       0.10907459 0.02005868 -0.24691299 -0.08624115
000130 be 47 87 bd d0 af 13 bc 00 72 e0 3c 7e 29 83 3c
       -0.066054806 -0.009014085 0.02739811 0.016010996
000140 31 40 d8 3c c9 ec e1 3b 92 a0 22 3b 2a 47 c8 bc
       0.026397796 0.006894682 0.0024814946 -0.024447996
000150 71 c4 21 bd 1d 23 f4 bc 32 9f d3 3d fe 7c 59 3c
       -0.03949398 -0.0298019 0.103330985 0.013274429
000160 6c a5 3b 3e 47 f2 54 3c
       0.18324822 0.012997217

layers.3.weight f4 [5, 90]
000000 16 e9 cf bc a4 c5 04 3d 30 13 a9 3c 6f a0 1f 3c
       -0.025379699 0.032415047 0.020639032 0.00974284
000010 5a c5 2c 3b e7 b1 5e 3b 10 82 bb 38 c6 67 a9 bd
       0.0026362748 0.003398055 8.941081e-05 -0.08271746
000020 6f a7 80 3e fd 10 fb bc 62 80 c2 bc 12 93 fa 3b
       0.25127742 -0.03064775 -0.023742858 0.0076469267
000030 be 5a 8f 3c 11 99 cf 3c a8 6c 0e bc 7a dc bd ba
       0.017499324 0.025341542 -0.008692898 -0.0014485263
000040 c7 de 58 be 09 10 a3 3a 80 78 49 ba 08 b2 9e bc
       -0.21178733 0.0012440692 -0.00076854974 -0.019372001
000050 c9 a0 80 bc fb c9 5d 3c af df f8 bb 07 73 02 bc
       -0.015701668 0.013536925 -0.0075950245 -0.007961995
000060 17 94 22 3d a3 9c a0 3c d2 f4 9e ba 89 14 7b 3e
       0.03969201 0.01960594 -0.0012127405 0.24519552
000070 7c dd c0 3d 94 03 5a bd e5 3e c7 3c ad 05 8d 3c
       0.09417245 -0.05322607 0.024321983 0.01721462
000080 e8 8c d5 bc 6b ec 5f bb 7e 45 17 bd b1 8f 0e be
       -0.026068166 -0.0034168016 -0.036931507 -0.13922001
000090 ac 98 f3 bc 31 b5 96 3a db 4b 1a 3c 06 bb 18 bd
       -0.029735886 0.0011498091 0.009417499 -0.037287734
0000a0 39 51 4a 3c 6f 84 d6 3b 1f 78 0a bb da 7b b1 bc
       0.012348467 0.006546549 -0.0021128727 -0.021665502
0000b0 4e d6 5c 3d 06 86 66 3b 64 30 14 bd a4 0a 25 3e
       0.053915314 0.00351751 -0.03617896 0.1611734
0000c0 1e fb f5 3c 83 b7 67 3c bb 0b 13 bd 2b 65 73 bd
       0.030026969 0.014142874 -0.03589986 -0.059422653
0000d0 d9 cc 9f bc 1e c6 37 3c 4c ee a4 bc 92 92 08 bb
       -0.019506859 0.011216668 -0.02013316 -0.0020839316
0000e0 9d 10 a6 3d 09 4d 45 3c a0 84 92 3d 9a 98 00 3d
       0.081086375 0.012042292 0.071542025 0.031395532
0000f0 d7 aa 5e bc 8f ee c7 bb 46 5f 1c bd 03 72 ae 3d
       -0.013590536 -0.0061014364 -0.038176797 0.0851784
000100 f8 20 3c 3d f7 5b 95 bd fb 7b 9e 3c 57 28 6f 3d
       0.04592988 -0.072929315 0.019346228 0.05838808
000110 5f e5 5a ba 09 a3 d1 3b 11 b4 f8 bc 62 f3 fe ba
       -0.0008350219 0.006397609 -0.0303593 -0.0019451196
000120 7c 01 04 3c 6e 6f 14 bc 6f ee 0f 3d 23 5d 9f 3c
       0.0080569945 -0.00905977 0.035139497 0.01945359
000130 86 7c 75 3d 03 a9 51 3c 72 6b d5 3c ab 98 19 bd
       0.059933208 0.012796643 0.02605221 -0.03749911
000140 14 b3 be 3b f4 a1 45 3b 05 3c 51 bc 67 cd 52 3d
       0.0058196876 0.0030156346 -0.012770657 0.05146542
000150 62 13 88 3a 02 66 00 3d b0 4b 88 bb 8c 25 d1 bc
       0.0010381753 0.031347282 -0.0041594133 -0.025530599
000160 4d 8d 2b bd 2f 2d f7 3c 29 65 2a 3e fc 11 90 3c
       -0.0418828 0.030172912 0.16640152 0.0175867
000170 08 ef 96 3c 81 bf 5a 3d b0 5d 9c bb 4d cb a6 3c
       0.018424526 0.05340529 -0.0047719106 0.020360613
000180 46 27 87 3c 33 56 83 bd 3c d5 b7 3c 8e 57 1c 3c
       0.01649822 -0.064129256 0.022440545 0.009542359
000190 29 ea d4 bc 2c 77 b1 bb 46 62 8d bd 80 dc 9c 39
       -0.025990563 -0.0054158177 -0.0690351 0.00029918924
0001a0 44 28 f3 bb 8c b3 f0 3b 3d 0d 53 be d2 3a 5e bc
       -0.0074205715 0.0073456224 -0.20610519 -0.013563829
0001b0 8f e8 8c bc 14 50 94 b9 ca 92 d8 3b 02 7e 8a 3b
       -0.017200736 -0.00028288423 0.0066092955 0.004226447
0001c0 e3 ac 0b 3d 4f 4b 43 bc 67 0b 7c 3d 8f 59 0c bd
       0.034100424 -0.01191981 0.06153431 -0.034265097
0001d0 88 fb b4 3c 71 23 b6 3c ba 6d 54 3e 68 ff b6 bd
       0.022092596 0.022233697 0.20744982 -0.089354336
0001e0 28 e4 21 3d 0f 4c 54 3c 5b e4 a0 bc 2a 92 cf 3b
       0.039524227 0.012957587 -0.019640138 0.006334563
0001f0 22 b2 69 bd c7 fe 0a be b2 4c 8f bc ad 36 41 3c
       -0.057054646 -0.13573752 -0.017492626 0.011792821
000200 96 64 92 3c d5 76 15 bd 31 44 98 3c f7 e2 b4 ba
       0.017870229 -0.03649028 0.018587204 -0.0013800551
000210 d0 ab cd bb df dc 7f bc a3 b1 54 3d 7e 5b ad 3c
       -0.006276585 -0.015616625 0.05192722 0.021161791
000220 fb d3 f9 bc 64 15 d4 3d 3a 42 b4 3c 7a 14 b6 3b
       -0.030496588 0.103556424 0.022004236 0.00555664
000230 aa 3d 52 bd 9f 3a d0 bd 3a 25 04 3d 2d c9 17 3c
       -0.05132834 -0.10167431 0.032262065 0.009264273
000240 f5 49 f4 bc c7 dd 0f bc 2d e6 80 3d ce 0d 82 3d
       -0.029820422 -0.008780903 0.062939025 0.06350289
000250 2f aa 1f bc dc 9a a8 3c 52 93 09 bd a5 47 0d bd
       -0.009745165 0.020581655 -0.03358776 -0.034492154
000260 3b ec 2c bd 80 67 ed 3d c6 13 da bd af 28 34 bd
       -0.042217474 0.11592007 -0.10648303 -0.04398411
000270 39 3a ed 3b 72 81 4e 3d 54 83 75 ba 40 8b 19 3c
       0.0072396067 0.050416417 -0.0009365578 0.009371579
000280 ae f7 94 bc cf 85 5d 3c 4d 9b b0 bb 66 85 49 3d
       -0.01818451 0.013520672 -0.005389607 0.049199484
000290 81 2e 2b 3d 24 95 28 3d 94 c6 54 3d b3 ee 3d 3c
       0.041792396 0.041157857 0.05194719 0.011592555
0002a0 f8 8b ca 3b 5c a5 42 bd d7 e8 d3 bc 86 a0 20 bc
       0.0061812364 -0.04752098 -0.025867863 -0.009803897
0002b0 7c 09 40 b9 ec 2b df 3c 09 cb f7 3a 00 55 16 bc
       -0.0001831408 0.027242623 0.0018905114 -0.009175539
0002c0 c7 50 85 bc 00 8c 34 bd 80 b0 8a bd af b9 5f 3c
       -0.01627387 -0.044078827 -0.06771946 0.01365511
0002d0 cc af e9 3c 67 61 a9 3c fb 64 9b 3c 94 35 39 bb
       0.02852621 0.020676328 0.01896905 -0.0028260695
0002e0 56 9d 9f bb f3 99 94 bc 79 95 67 3c 6f e3 19 bd
       -0.004871051 -0.018139815 0.014134758 -0.037570413
0002f0 a7 62 94 3d 38 9c b9 39 68 28 f5 bc 31 73 29 3c
       0.07245379 0.00035402342 -0.029926494 0.010342405
000300 ea 93 31 bd f4 f0 6e 3c b0 a6 e6 ba c5 9c 10 3c
       -0.043353952 0.014583815 -0.0017597284 0.008826439
000310 b1 07 5a 3e 7a b2 50 3a d9 6c 8c 3c 0d 95 ee b9
       0.21291997 0.00079611654 0.017141746 -0.0004550595
000320 4f 5b 5e bc 61 e9 71 3c 56 b2 61 3c 88 10 68 bc
       -0.013571574 0.0147651145 0.013775429 -0.014164098
000330 97 bc ff 3c c4 d5 9a bb 9f 40 3a 3c c2 3e 69 be
       0.031217856 -0.00472519 0.011367946 -0.22777846
000340 48 03 98 3d 82 ff 2c bd 22 e0 25 3d f4 cc 75 3c
       0.07422501 -0.04223586 0.040496953 0.015002478
000350 d6 7c 05 bc bf a5 4e 3c 6e dc 25 bd 05 f9 44 bd
       -0.008147439 0.012612759 -0.04049342 -0.048089046
000360 d6 62 c4 bc 19 ec b2 3b a6 ba a7 3c d1 9c 3d bd
       -0.02397291 0.005460274 0.020474743 -0.04629213
000370 05 ac 9f 3c 43 ef 39 bb cf 2e ce 3b f4 4d 53 bc
       0.019491205 -0.002837137 0.006292201 -0.012897003
000380 ff 1f 4e 3d 0e 9a 9b 3c 28 7e e0 bc 41 34 d2 3d
       0.050323483 0.018994357 -0.027403906 0.10263873
000390 72 26 1f 3d 1e 3b a3 3b 09 34 a6 bd c8 35 00 be
       0.038855024 0.0049814126 -0.08115394 -0.12520516
0003a0 1e f1 fa bc 93 a1 2e 3b 4b bf bc bc 63 b0 fb bb
       -0.030632552 0.0026646599 -0.023040434 -0.007680939
0003b0 b7 e9 16 3e 8d 28 27 3d 27 4c 20 3d 3c 1a 10 3d
       0.14737593 0.040810157 0.039135125 0.03518127
0003c0 37 42 c2 bc 43 27 11 bc b6 bc 0e bd 5c b7 e1 3d
       -0.023713214 -0.008859458 -0.034847938 0.11021301
0003d0 90 e0 2d bd 7d fc 89 bd 15 1b c3 3c b6 b9 60 3c
       -0.042450488 -0.067376114 0.023816625 0.013716152
0003e0 0e 01 58 bb 5b 97 1c bc f7 c6 d2 bc 3c 1e c4 3b
       -0.0032959613 -0.00955757 -0.02572964 0.0059850495
0003f0 57 05 97 3b 3e 02 d5 3c 2d a7 f3 ba 17 db 99 3b
       0.004608791 0.026002046 -0.0018589251 0.004695307

layers.3.bias f4 [5]
000000 15 80 7f be f4 ad 07 bc 1b b3 9c bc 00 48 fa 3d
       -0.24951203 -0.00828122 -0.019128373 0.12220764
000010 30 b1 e7 3d
       0.11313093
