irony/models/model_7.pt (torch_old, 58143 bytes, 8 tensors)

layers.0.weight f4 [70, 10]
0.22684096 0.26867798 -0.09938552 0.04345939 -0.20783347 0.08838769 0.0029064354 -0.25495613
-0.012136563 -0.17605218 0.17541045 -0.06304968 -0.31188357 -0.3977357 0.12088383 0.017081846
-0.11350448 -0.15025689 -0.1125263 0.049480703 0.0061324644 0.24123675 0.34133646 -0.35697487
0.24429117 0.031292368 0.081021026 0.012596156 -0.13014916 -0.011750189 -0.103886396 -0.12886184
-0.28950554 0.34101972 -0.37197706 0.03368321 -0.11447116 0.053301115 0.13548419 -0.055573717
0.41847986 0.30096713 -0.32688487 0.0037900964 0.2775149 0.1558798 0.06744901 -0.069016695
0.108996004 0.19069874 0.14764325 0.23698097 0.14211619 -0.32467058 -0.18586129 0.0016676807
0.049739026 0.052558094 -0.19146813 -0.12404062 -0.066662826 0.4967734 -0.011182982 -0.4455669
0.1759847 0.039133046 0.18862607 -0.055149626 -0.079066135 0.07552543 0.26709273 -0.3628584
-0.51424617 -0.055660807 0.085980594 0.21234937 -0.041048244 0.01590748 -0.04277521 0.17319271
-0.31155667 -0.29407093 0.23681185 -0.27498162 0.14204173 -0.07141063 -0.0067633777 0.06641687
0.058580562 0.18405037 -0.4669442 -0.0054899966 0.27395818 -0.33939993 0.17153871 -0.11927857
0.005290927 0.077538475 -0.30943963 -0.034208894 -0.09886831 0.18427433 0.42379037 0.31526703
-0.06734204 -0.096232705 0.06487937 0.06496132 0.08950312 -0.11663192 0.4214733 -0.036368035
0.14306177 -0.18784744 -0.2464219 0.23021846 0.15258981 0.22723842 0.03371908 -0.006906784
-0.28430006 -0.13361105 0.27262944 0.22053267 -0.19367543 -0.007507431 0.048365124 0.0781463
0.16243796 -0.02832457 0.22507954 0.20236465 -0.18292427 -0.17686525 -0.14882976 0.12869385
0.10964703 -0.019470502 -0.018239437 0.02376561 -0.1353827 -0.07008296 -0.2883213 0.31910354
0.2932937 0.028132606 -0.10470768 -0.10245799 0.13559514 0.21511228 -0.32900518 -0.3141211
-0.19841233 0.047807597 0.09274939 -0.083005995 -0.075671464 -0.18433891 0.082592405 0.0859046
0.10089394 -0.12675226 -0.19014819 -0.19603513 0.29509664 0.24735385 0.047007754 0.137312
0.00725612 0.20032503 -0.43086517 0.1599765 0.2948733 -0.52669924 0.18012315 -0.098039694
0.04726305 -0.073854536 -0.14441937 0.027333427 0.069107324 -0.19675803 -0.1789046 0.3114566
0.18805745 -0.06415367 -0.31962383 -0.07187067 -0.16651323 -0.1332715 0.12460047 0.49995923
0.17899029 -0.14894237 -0.12679236 0.24984069 0.194543 0.17186788 -0.10261395 -0.04936663
0.38665134 -0.09749515 -0.36247435 -0.06310526 0.28969762 0.024202421 -0.00021390186 -0.17362498
-0.009561886 0.044512525 0.13109384 0.03988511 -0.4416574 -0.28014186 0.100073956 0.14763811
0.11315885 -0.13624524 0.029724803 0.18959628 0.35027602 0.17600508 0.31813395 0.11804639
-0.1778693 0.08616533 -0.038237914 0.19930822 -0.032343417 -0.10319375 0.07596153 0.14469866
0.21083654 -0.52516276 0.24478002 -0.021791074 0.18616943 -0.039552968 -0.19501862 0.0422934
0.14970815 -0.32905567 0.06689837 -0.12962143 0.09373378 0.06501301 -0.030338796 0.19584934
-0.16407539 -0.047619294 0.18590446 0.32841477 0.18239912 -0.30153567 -0.25677907 0.24081065
00000000: ff48 683e 2990 893e a38a cbbd 7902 323d
00000010: 4cd2 54be 9b04 b53d e579 3e3b 9c89 82be
00000020: 6fd8 46bc 0647 34be cc9e 333e 3120 81bd
00000030: 34af 9fbe 03a4 cbbe f191 f73d 3aef 8b3c
00000040: 0975 e8bd f1dc 19be 3074 e6bd 47ac 4a3d
00000050: d7f2 c83b c406 773e a7c3 ae3e 69c5 b6be
00000060: 7727 7a3e 6d2c 003d 5aee a53d 1c60 4e3c
00000070: d245 05be dd83 40bc 64c2 d4bd 5cf4 03be
00000080: 123a 94be 239a ae3e c773 bebe 68f7 093d
00000090: db6f eabd 4552 5a3d 5ebc 0a3e 44a1 63bd
000000a0: fe42 d63e 5d18 9a3e 745d a7be 4463 783b
000000b0: 6f16 8e3e f49e 1f3e b522 8a3d a058 8dbd
000000c0: 4c39 df3d 8846 433e cb2f 173e 24ab 723e
000000d0: e886 113e 393b a6be 6c52 3ebe 1496 da3a
000000e0: 26bb 4b3d 2847 573d 3910 44be 0209 febd
000000f0: 8586 88bd 1559 fe3e d338 37bc 5821 e4be
00000100: 5535 343e f949 203d 3127 413e 93e4 61bd
00000110: 6ded a1bd 14ad 9a3d 61c0 883e 94c8 b9be
00000120: a3a5 03bf 96fc 63bd 9816 b03d 1d72 593e
00000130: 3422 28bd 6750 823c 0f35 2fbd 6e59 313e
00000140: 5b84 9fbe 7790 96be ce7e 723e 64ca 8cbe
00000150: 6373 113e bd3f 92bd 539f ddbb 9105 883d
00000160: 2cf2 6f3d b377 3c3e 4f13 efbe 6ee5 b3bb
00000170: 3f44 8c3e d4c5 adbe d8a7 2f3e 5348 f4bd
00000180: 835f ad3b 7ecc 9e3d df6e 9ebe a01e 0cbd
00000190: 787b cabd 69b2 3c3e 0dfb d83e ae6a a13e
000001a0: a0ea 89bd a715 c5bd 7adf 843d 710a 853d
000001b0: 694d b73d b7dc eebd 59cb d73e a6f6 14bd
000001c0: c97e 123e 145b 40be 0656 7cbe 63be 6b3e
000001d0: 8140 1c3e 30b1 683e 051d 0a3d 4e52 e2bb
000001e0: c78f 91be 56d1 08be 1696 8b3e 51d3 613e
000001f0: da52 46be e500 f6bb 821a 463d 2b0b a03d
00000200: 2356 263e ee08 e8bc 407b 663e ae38 4f3e
00000210: 8050 3bbe 2a1c 35be d466 18be 52c8 033e
00000220: 9f8e e03d 9a80 9fbc df6a 95bc 19b0 c23c
00000230: c3a1 0abe a887 8fbd d99e 93be 8a61 a33e
00000240: 982a 963e 5a76 e63c fb70 d6bd 7fd5 d1bd
00000250: 74d9 0a3e 6546 5c3e 5e73 a8be 7bd4 a0be
00000260: 9a2c 4bbe e6d1 433d 64f3 bd3d 0cff a9bd
00000270: a4f9 9abd 57c3 3cbe 3526 a93d c0ee af3d
00000280: 7ba1 ce3d 58cb 01be 35b6 42be 6fbd 48be
00000290: e816 973e 544a 7d3e 348b 403d 849b 0c3e
000002a0: bfc4 ed3b 0122 4d3e 5c9a dcbe e1d0 233e
000002b0: a2f9 963e c3d5 06bf 3472 383e 09c9 c8bd
000002c0: e696 413d 0c41 97bd ace2 13be 5aea df3c
000002d0: 2488 8d3d f07a 49be c432 37be 3d77 9f3e
000002e0: 2292 403e 0063 83bd bca5 a3be ee30 93bd
000002f0: 7282 2abe 5378 08be 882e ff3d a8fa ff3e
00000300: 3b49 373e 5984 18be dbd5 01be 3dd6 7f3e
00000310: 4836 473e 22fe 2f3e 4327 d2bd aa34 4abd
00000320: 2af7 c53e 8aab c7bd 3d96 b9be 553d 81bd
00000330: 3f53 943e 2844 c63c d84a 60b9 bfca 31be
00000340: 75a9 1cbc c452 363d 773d 063e 925e 233d
00000350: eb20 e2be c16e 8fbe 93f3 cc3d 722e 173e
00000360: d4bf e73d df83 0bbe 6e81 f33c 8725 423e
00000370: 6157 b33e ad3a 343e 74e2 a23e 4ec2 f13d
00000380: 5f23 36be 7377 b03d 5c9f 1cbd 7417 4c3e
00000390: 887a 04bd 3f57 d3bd b891 9b3d e32b 143e
000003a0: 89e5 573e 1171 06bf 9da7 7a3e 3283 b2bc
000003b0: 33a3 3e3e 4b02 22bd f6b2 47be d83b 2d3d
000003c0: 184d 193e fc79 a8be 0302 893d 7bbb 04be
000003d0: 7ff7 bf3d 8a25 853d 1189 f8bc bb8c 483e
000003e0: 6103 28be 730c 43bd bd5d 3e3e fb25 a83e
000003f0: d6c6 3a3e e262 9abe 8c78 83be 1197 763e

layers.0.bias f4 [70]
0.04237829 0.22989282 -0.07214288 0.08770482 -0.13180934 0.1373775 -0.069219545 0.08634689
0.06948111 0.12776384 -0.060876306 -0.16602351 0.010795919 -0.07810901 -0.083155215 0.087869965
-0.17855704 0.10671168 0.14278391 -0.15461558 0.054582793 0.108085215 -0.09371308 -0.014132107
0.08489752 -0.08057522 -0.051126566 -0.06903594 0.04223502 -0.13897394 0.041635986 0.00445042
-0.0029097763 0.14020878 -0.1842236 0.09015355 -0.24485053 -0.104206525 0.07545719 0.23494574
-0.116720445 0.060967423 0.141534 -0.15102692 0.02069346 -0.08286989 -0.0011561736 0.0071723335
0.04682437 -0.04302859 0.09426866 -0.053441543 0.120223835 -0.21133304 -0.20352216 -0.11019462
-0.12955822 -0.015185627 -0.01517572 -0.006802601 -0.05546598 -0.0057117566 0.1385167 -0.20314243
0.14713308 -0.071588024 -0.08361622 0.024050891 0.13734818 0.15131277
00000000: dc94 2d3d 0669 6b3e a5bf 93bd 969e b33d
00000010: 07f9 06be b0ac 0c3e fac2 8dbd a3d6 b03d
00000020: 1d4c 8e3d 86d4 023e 6f59 79bd 1102 2abe
00000030: 5ee1 303c 9ef7 9fbd 484d aabd 2bf5 b33d
00000040: a8d7 36be a78b da3d f235 123e 8c53 1ebe
00000050: 3592 5f3d c85b dd3d a5ec bfbd 5a8a 67bc
00000060: c0de ad3d 9f04 a5bd 176a 51bd b762 8dbd
00000070: a1fe 2c3d 2f4f 0ebe 7f8a 2a3d d4d4 913b
00000080: f2b1 3ebb e492 0f3e 1da5 3cbe 6da2 b83d
00000090: 19ba 7abe 3b6a d5bd 4d89 9a3d 9e95 703e
000000a0: 210b efbd fab8 793d 4aee 103e cda6 1abe
000000b0: 5585 a93c b0b7 a9bd c08a 97ba e505 eb3b
000000c0: e9ca 3f3d bf3e 30bd ed0f c13d 85e5 5abd
000000d0: ea37 f63d b067 58be 1d68 50be b8ad e1bd
000000e0: e9aa 04be 23cd 78bc 95a3 78bc 5ae8 debb
000000f0: 4c30 63bd b029 bbbb 52d7 0d3e 9204 50be
00000100: 0eaa 163e be9c 92bd fb3e abbd 6006 c53c
00000110: 00a5 0c3e bcf1 1a3e

layers.1.weight f4 [80, 70]
0.038470678 0.11737598 -0.05842977 -0.0603118 0.008135961 -0.03737458 -0.12110574 -0.067524694
0.075130306 0.08515651 0.08486696 -0.21057904 0.0321132 -0.0589646 0.010147871 0.107945256
-0.1650097 -0.022566011 -0.07988611 -0.18010277 0.045069896 -0.017445631 -0.054129034 -0.05799334
-0.112625934 -0.17215264 -0.23736443 -0.06940022 0.2608245 -0.02236747 -0.033464495 -0.07146385
0.14124748 0.004476278 -0.111002415 0.037279207 0.0541554 0.081408866 -0.18659136 0.07884972
0.24065392 -0.035978332 -0.014698642 0.045244697 -0.00029876456 -0.06520522 -0.13776374 -0.01999813
-0.0727552 -0.1515692 0.00095939194 0.014285161 -0.17587839 -0.014981971 -0.09756511 -0.105511904
-0.0052160677 -0.047689203 0.009036626 0.09327873 0.06744198 -0.10617751 -0.09154184 -0.14472885
0.029327778 0.0056008142 0.06807056 0.042248257 -0.00058965804 -0.08213238 -0.017560115 0.052916344
0.11232778 0.012430245 0.10659481 -0.085685775 -0.06093488 0.23704796 0.014692974 0.023595946
-0.16485465 -0.025581494 0.01983365 0.024206918 0.044971656 0.08755447 0.038853098 0.06584579
0.1108939 -0.06941981 0.15122421 0.0048141954 0.026587788 -0.11735714 0.03561316 0.029416468
-0.08346153 0.105878085 0.03143491 -0.15317203 0.06861924 0.18306404 -0.13196163 -0.056745864
0.0032074058 -0.084733695 0.29565656 -0.10161745 -0.033340864 -0.0064996807 -0.01651075 -0.011566231
-0.07509545 -0.055335682 -0.12994346 -0.21793163 0.06949107 0.20496854 -0.09053176 0.05285016
-0.041014485 0.019436244 -0.029964546 0.032868225 0.02660126 0.05743308 0.16033939 0.23978804
-0.009578273 -0.055162393 0.00310283 0.02894012 -0.037106495 -0.016434336 0.15784356 0.20975631
0.26207936 0.06555118 0.05214085 -0.10367112 -0.21379071 0.10168342 0.14047994 -0.084406
-0.039001163 -0.07832124 0.09630685 0.09636204 0.04722453 0.13533148 -0.21760556 -0.08857804
-0.09279903 -0.021468403 -0.07830528 0.022948235 0.13547055 0.11875037 0.026128719 0.008167725
0.056613218 -0.057465494 -0.019521305 0.1888248 0.05337056 -0.033656076 0.0051880535 0.029811744
0.036932763 -0.059142742 -0.0056634746 0.18935533 0.024062412 -0.07371109 -0.023668878 -0.092013165
0.07866579 -0.086451195 0.032014456 -0.015619816 0.0011689602 -0.046780143 -0.16458167 -0.1251658
-0.12044369 -0.01818709 0.040929943 0.17895828 0.01584129 -0.004815568 -0.14247783 0.024882635
-0.034614325 0.0696424 0.044567127 0.016709948 0.055127617 0.06146851 -0.0836594 -0.16356802
0.049643718 -0.08281626 -0.085298166 -0.04495907 0.04401574 0.105618715 -0.00039512082 0.025141774
0.028522968 -0.15132849 -0.1562211 0.07669717 0.21084388 -0.2093839 0.003018832 0.09056638
0.09667901 -0.028744642 0.112129055 0.1426435 -0.174121 -0.046182316 -0.12025228 -0.055374924
0.034951247 0.17598043 0.13944094 0.20377739 0.07949413 -0.03106475 0.032281253 0.010299751
0.017255094 0.06734868 0.10435771 -0.0071466295 -0.029702833 -0.100814186 0.087463476 -0.03540376
-0.019115295 0.103523225 0.01117028 0.024829159 -0.0114084715 -0.13999899 0.21018422 -0.08873766
-0.15561438 0.02684535 0.06275491 -0.17431454 -0.09106474 -0.09984619 -0.13482232 -0.12295777
00000000: 6e93 1d3d d162 f03d 0e54 6fbd 8209 77bd
00000010: b24c 053c 1616 19bd 4906 f8bd 634a 8abd
00000020: ebdd 993d 8966 ae3d bbce ad3d 08a2 57be
00000030: 2189 033d dd84 71bd 4243 263c 6712 dd3d
00000040: 4ef8 28be 5bdc b8bc 549b a3bd dc6c 38be
00000050: 369b 383d 24ea 8ebc 68b6 5dbd 6d8a 6dbd
00000060: 6da8 e6bd c848 30be a90f 73be b421 8ebd
00000070: ca8a 853e fc3b b7bc 1112 09bd a45b 92bd
00000080: 2ea3 103e bead 923b 3c55 e3bd 15b2 183d
00000090: 0dd2 5d3d b1b9 a63d ce11 3fbe f67b a13d
000000a0: fb6d 763e 045e 13bd 93d2 70bc 8152 393d
000000b0: 80a3 9cb9 508a 85bd f011 0dbe 1ed3 a3bc
000000c0: ae00 95bd f534 1bbe b47f 7b3a 4f0c 6a3c
000000d0: 7719 34be f176 75bc 37d0 c7bd a016 d8bd
000000e0: 8ceb aabb c155 43bd 5b0e 143c eb08 bf3d
000000f0: 051f 8a3d 9873 d9bd 4a7a bbbd cd33 14be
00000100: cf40 f03c 0987 b73b 9468 8b3d 820c 2d3d
00000110: 4893 1aba 0535 a8bd 3bda 8fbc cfbe 583d
00000120: 1b0c e63d 3aa8 4b3c 614e da3d 067c afbd
00000130: da96 79bd b3bc 723e cdba 703c 494c c13c
00000140: a8cf 28be 4890 d1bc 2e7a a23c 964d c63c
00000150: 3334 383d c24f b33d 6d24 1f3d 28da 863d
00000160: 571c e33d f92b 8ebd 85da 1a3e 66c0 9d3b
00000170: a2ce d93c f158 f0bd 1bdf 113d cefa f03c
00000180: e1ed aabd 9cd6 d83d e4c1 003d 21d9 1cbe
00000190: 3e88 8c3d 2475 3b3e f320 07be 5a6e 68bd
000001a0: 5733 523b dc88 adbd 4c60 973e cf1c d0bd
000001b0: 6e90 08bd 46fb d4bb 8d41 87bc 4a80 3dbc
000001c0: a5cb 99bd aba7 62bd e60f 05be 7829 5fbe
000001d0: 5651 8e3d 46e3 513e b768 b9bd 6979 583d
000001e0: cefe 27bd c238 9f3c 3578 f5bc d5a0 063d
000001f0: e3ea d93c f33e 6b3d 0230 243e ff8a 753e
00000200: 30ee 1cbc f6f1 61bd d958 4b3b d513 ed3c
00000210: fbfc 17bd 4da1 86bc bea1 213e 5cca 563e
00000220: 442f 863e b23f 863d a591 553d 8651 d4bd
00000230: f4eb 5abe 663f d03d f9d9 0f3e 0edd acbd
00000240: afbf 1fbd e366 a0bd 873c c53d 7659 c53d
00000250: 826e 413d 5694 0a3e fed3 5ebe 6768 b5bd
00000260: 6b0d bebd 81de afbc 855e a0bd f0fd bb3c
00000270: cbb8 0a3e 6533 f33d e50b d63c ecd1 053c
00000280: 43e3 673d f060 6bbd 25eb 9fbc 4a5b 413e
00000290: 179b 5a3d f4da 09bd 8c00 aa3b c237 f43c
000002a0: cf46 173d a93f 72bd ab94 b9bb 5de6 413e
000002b0: 891e c53c d7f5 96bd 3ce5 c1bc 6671 bcbd
000002c0: 881b a13d 530d b1bd 9721 033d 42ea 7fbc
000002d0: cc37 993a 899c 3fbd 1988 28be 772b 00be
000002e0: 2eab f6bd 18fd 94bc 28a6 273d d740 373e
000002f0: 98c5 813c eacb 9dbb b5e5 11be abd6 cb3c
00000300: c0c7 0dbd ada0 8e3d 058c 363d 4de3 883c
00000310: 7fcd 613d 68c6 7b3d 9f55 abbd 607e 27be
00000320: 3657 4b3d 929b a9bd ceb0 aebd 0027 38bd
00000330: d949 343d a04e d83d 3828 cfb9 1ff6 cd3c
00000340: 00a9 e93c dbf5 1abe 6df8 1fbe 6813 9d3d
00000350: 75e7 573e bc68 56be 99d7 453b de7a b93d
00000360: a5ff c53d e279 ebbc eba3 e53d 2311 123e
00000370: c74c 32be ab29 3dbd d446 f6bd d1d0 62bd
00000380: 0a29 0f3d 3734 343e 9bc9 0e3e 05ab 503e
00000390: d2cd a23d 817b febc 5939 043d 49c0 283c
000003a0: 8e5a 8d3c 1bee 893d 7fb9 d53d 462e eabb
000003b0: 5b53 f3bc ab77 cebd 0d20 b33d 8803 11bd
000003c0: ae97 9cbc fc03 d43d 8d03 373c 8566 cb3c
000003d0: 99ea 3abc e55b 0fbe 883a 573e 17bc b5bd
000003e0: 6059 1fbe c8ea db3c a585 803d 837f 32be
000003f0: 2780 babd 297c ccbd dd0e 0abe 49d1 fbbd

layers.1.bias f4 [80]
0.10487436 0.06191502 -0.08006507 -0.07590791 0.03137781 0.017781468 0.12683082 -0.02442034
0.076948084 -0.10244729 0.16903631 -0.123853296 0.025402308 0.016698143 0.029696785 -0.17154768
-0.037070382 0.101139225 0.027733738 -0.09736182 0.058683857 0.09891927 -0.013542824 0.0024770922
0.039168317 -0.016413493 0.0333155 0.050336514 0.057084784 -0.122948326 0.10936126 0.07177964
0.07094464 -0.0466824 -0.048425425 0.16309358 -0.012883147 -0.0029323795 -0.04583167 0.050048143
0.06635123 -0.06378998 0.07015925 0.015761351 0.05574127 0.056037072 0.12018635 -0.22588837
0.058313113 -0.12502621 0.018237798 0.08841267 -0.057340946 0.0040801778 -0.048803914 0.0047304467
-0.009302555 0.09298886 0.008267447 0.03343776 0.07982011 0.037068382 0.17719308 0.045281187
0.019375313 0.11914214 0.06085126 0.015117995 0.072775386 -0.02275523 0.07723947 0.07901919
-0.03343882 0.047582597 -0.048908696 -0.05051327 0.110150985 0.074760444 -0.10492183 0.07244251
00000000: 5ec8 d63d 9b9a 7d3d 28f9 a3bd 9b75 9bbd
00000010: 0586 003d 71aa 913c f0df 013e 2a0d c8bc
00000020: f596 9d3d e3cf d1bd db17 2d3e cca6 fdbd
00000030: 8018 d03c 8bca 883c ac46 f33c 32aa 2fbe
00000040: 1dd7 17bd 1522 cf3d dd31 e33c a265 c7bd
00000050: 7c5e 703d 3096 ca3d b9e2 5dbc b656 223b
00000060: f56e 203d 9775 86bc d575 083d a92d 4e3d
00000070: bcd1 693d 55cc fbbd ccf8 df3d 3401 933d
00000080: 6c4b 913d 0b36 3fbd bd59 46bd 0102 273e
00000090: d613 53bc 2a2d 40bb fdb9 3bbd 48ff 4c3d
000000a0: 27e3 873d 52a4 82bd a7af 8f3d f31d 813c
000000b0: f550 643d 2187 653d 4324 f63d 484f 67be
000000c0: bbd9 6e3d df06 00be 6f67 953c b411 b53d
000000d0: 57de 6abd 03b3 853b 9de6 47bd dd01 9b3b
000000e0: be69 18bc f270 be3d 3074 073c 08f6 083d
000000f0: ba78 a33d 04d5 173d 1a72 353e c478 393d
00000100: fab8 9e3c cb00 f43d 2c3f 793d 78b1 773c
00000110: 430b 953d 2d69 babc ba2f 9e3d d0d4 a13d
00000120: 25f7 08bd f8e5 423d 7c54 48bd 01e7 4ebd
00000130: d796 e13d 011c 993d 42e1 d6bd bd5c 943d

layers.2.weight f4 [90, 80]
-0.039641168 0.03043163 -0.029740898 -0.014640408 -0.05412986 0.05134342 -0.120084405 -0.20674057
-0.0061111352 -0.19679037 0.028548589 0.09490995 -0.006231076 0.038411535 0.0002239662 0.012156075
0.0039664437 -0.05501253 -0.038898155 0.066167586 -0.1480064 -0.074502066 -0.041694134 -0.10200984
0.09403135 0.038425237 0.112359636 -0.1421509 0.05437984 -0.19882078 -0.103473544 -0.07944075
-0.08411877 -0.053965908 -0.13579412 0.07472965 -0.039807234 -4.0883312e-14 -0.07085182 -0.016601559
-0.08873553 0.19528158 0.044952627 -0.1005942 -0.057015315 -0.12602901 0.05447092 -0.062304955
0.15868028 -0.06895904 0.014729748 -0.10838207 0.18862467 -0.07339835 -0.08420299 0.04944926
0.0518762 -0.0114598945 0.07518108 -0.006619895 -0.039717212 0.109587595 0.07298825 0.009727426
0.060999755 0.12963511 -0.049289227 -0.17308132 0.020081393 -0.033927053 0.008356565 -0.11215748
-0.0374921 0.021563012 -0.053497747 -0.014938832 -0.07832465 -0.08511482 0.044146203 -0.025479862
-0.0150304 0.014948518 -0.026376318 0.0063530095 0.030342419 0.007754036 -0.022307394 0.04283154
-0.012891948 0.042991787 0.0042094225 0.0057221088 -0.0016276592 -0.037228864 -0.02718755 -0.0043923547
0.01619723 -0.02635485 0.023554986 -0.022023542 0.009081828 -0.022808695 -0.0166848 -0.047506228
0.023969034 0.028485462 -0.023775756 -0.009471108 -0.011704982 -0.0025474397 -0.020930855 -0.0037172944
-0.054447755 -0.015237875 -0.0013076891 -0.01910008 0.01194192 -1.3950097e-12 0.03352215 -0.019066934
-0.019317552 0.015809406 -0.025187535 0.018545471 -0.036391757 0.029676836 -0.019247988 -0.032911498
0.018888164 0.023863947 -0.022056464 -0.005120514 0.03322621 -0.0063878335 0.003804966 0.011409029
-0.018176097 0.0029348223 0.0035370183 -0.017382778 -0.019599564 -0.019353312 -0.030254416 -0.030113775
-0.009748091 0.0037464567 0.012248263 -0.019754242 0.03779013 -0.014327383 -0.02491886 0.014926574
-0.009709033 -0.017742168 0.037354246 -0.044205848 0.0068219737 -0.01370354 -0.026955359 0.036998745
0.02662094 -0.007696031 -0.009471574 0.014694729 0.000724858 -0.0031967517 0.03477978 -0.015395285
-0.004245495 0.04157395 -0.007032651 -0.017379168 -0.058484092 -0.021925483 -0.0029065849 -0.012164031
-0.021011433 -0.008853087 0.033120845 -0.0023356283 0.02837058 -0.027256124 0.0048622256 -0.0009383025
-0.01719136 -0.010331038 -0.026376788 0.004043379 -0.047712177 0.03558647 0.00848479 0.01254829
0.00587951 0.0086545255 -0.011473201 -0.016213613 -0.020237915 2.3078497e-12 0.0182934 -0.028791875
-0.0029832982 -0.010198095 -0.031962268 0.0032518194 -0.01729005 0.014369676 -0.0128126405 -0.003222342
-0.0122174965 0.009790494 -0.00874088 0.009087867 0.00864792 -0.011430515 -0.03030437 0.0036359942
-0.05453212 0.010744279 0.007854684 -0.028843414 0.033999156 0.019609274 -0.0036294032 -0.01009741
-0.012684626 -0.009695889 0.01947148 0.01056312 0.018389815 -0.016339837 -0.021668168 0.02761192
0.020603148 -0.007488593 0.047201023 -0.01418621 0.0008451974 -0.019556815 -0.03431037 0.02611016
-0.02723268 -0.06265553 -0.082155295 -0.06285475 0.028584337 0.055822294 0.03427962 -0.08837773
-0.017476747 -0.018885916 -0.09752354 -0.038652293 -0.025165288 0.015611434 -0.015037191 -0.045539983
00000000: c75e 22bd c14b f93c 2fa3 f3bc 52de 6fbc
00000010: 46b7 5dbd 7a4d 523d d0ee f5bd cdb3 53be
00000020: eb3f c8bb 6a83 49be bbde e93c 2660 c23d
00000030: 0e2e ccbb 6a55 1d3d 78d8 6a39 462a 473c
00000040: f1f8 813b d254 61bd ac53 1fbd df82 873d
00000050: fd8e 17be 8a94 98bd 78c7 2abd 89ea d0bd
00000060: 8293 c03d c863 1d3d cf1c e63d 0190 11be
00000070: 65bd 5e3d ad97 4bbe f0e9 d3bd d5b1 a2bd
00000080: 7646 acbd 5b0b 5dbd 9d0d 0bbe dc0b 993d
00000090: e90c 23bd 401f 38a9 c21a 91bd feff 87bc
000000a0: f9ba b5bd e5f7 473e 3f20 383d 5504 cebd
000000b0: e488 69bd c00d 01be e61c 5f3d 7b33 7fbd
000000c0: 157d 223e 663a 8dbd 0a55 713c 6bf7 ddbd
000000d0: d326 413e e051 96bd 9e72 acbd 4f8b 4a3d
000000e0: 237c 543d 48c2 3bbc 8af8 993d b4eb d8bb
000000f0: 84ae 22bd 766f e03d dd7a 953d c85f 1f3c
00000100: e1da 793d 11bf 043e 80e3 49bd 3b3c 31be
00000110: bc81 a43c 18f7 0abd f9e9 083c d2b2 e5bd
00000120: 5191 19bd eaa4 b03c 7420 5bbd 01c2 74bc
00000130: ad68 a0bd ae50 aebd a6d2 343d 25bb d0bc
00000140: 1142 76bc a1ea 743c 2613 d8bc e82c d03b
00000150: aa90 f83c 9215 fe3b ffbd b6bc 2070 2f3d
00000160: c038 53bc 2818 303d 32ef 893b 8780 bb3b
00000170: 2e57 d5ba 4b7d 18bd 6db8 debc beed 8fbb
00000180: 0eb0 843c 20e6 d7bc 63f6 c03c b76a b4bc
00000190: f3cb 143c 4dd9 babc 90ae 88bc e495 42bd
000001a0: b55a c43c 585a e93c 60c5 c2bc b52c 1bbc
000001b0: 41c6 3fbc f2f2 26bb 2f77 abbc da9d 73bb
000001c0: 9c04 5fbd 48a8 79bc c466 abba c577 9cbc
000001d0: 0ba8 433c 8554 c4ab 864e 093d 4232 9cbc
000001e0: d83f 9ebc ba82 813c 1756 cebc acec 973c
000001f0: 860f 15bd d61c f33c f5ad 9dbc 35ce 06bd
00000200: 5abb 9a3c 537e c33c c2af b4bc fcc9 a7bb
00000210: 3518 083d 0851 d1bb bd5c 793b f0ec 3a3c
00000220: 0ae6 94bc 2656 403b 52cd 673b 5466 8ebc
00000230: 448f a0bc d68a 9ebc 1cd8 f7bc 2ab1 f6bc
00000240: 75b6 1fbc 1d87 753b f0ac 483c a6d3 a1bc
00000250: d3c9 1a3d 66bd 6abc a322 ccbc 978e 743c
00000260: a312 1fbc 0658 91bc c400 193d 3111 35bd
00000270: dd8a df3b d084 60bc 7cd1 dcbc ff8b 173d
00000280: 2814 da3c fd2e fcbb a92e 1bbc 29c2 703c
00000290: 6604 3e3a 9880 51bb 3e75 0e3d 813c 7cbc
000002a0: cb1d 8bbb 7249 2a3d 2772 e6bb c25e 8ebc
000002b0: 048d 6fbd 129d b3bc 677c 3ebb a54b 47bc
000002c0: 2b20 acbc 8a0c 11bc b9a9 073d 5711 19bb
000002d0: 6b69 e83c 3c48 dfbc 4e53 9f3b 6af8 75ba
000002e0: e5d4 8cbc 8443 29bc 2214 d8bc 527e 843b
000002f0: d86d 43bd 1ec3 113d ca03 0b3c 5897 4d3c
00000300: e8a8 c03b b6cb 0d3c 18fa 3bbc 69d2 84bc
00000310: fcc9 a5bc 8666 222c 0adc 953c f0dc ebbc
00000320: 7083 43bb e915 27bc deea 02bd 7a1c 553b
00000330: dda3 8dbc ca6e 6b3c 1cec 51bc ee2d 53bb
00000340: e52b 48bc 4f68 203c e835 0fbc 47e5 143c
00000350: 01b0 0d3c 0e47 3bbc df40 f8bc dc49 6e3b
00000360: 125d 5fbd c608 303c efb0 003c 0649 ecbc
00000370: b342 0b3d a1a3 a03c 48db 6dbb 9b6f 25bc
00000380: 2dd3 4fbc 82db 1ebc a782 9f3c f010 2d3c
00000390: 3da6 963c 1fdb 85bc 7181 b1bc 6532 e23c
000003a0: efc7 a83c df62 f5bb dc55 413d 476d 68bc
000003b0: 3d90 5d3a 9d35 a0bc 0889 0cbd f9e4 d53c
000003c0: 1217 dfbc 8b51 80bd 0941 a8bd feb9 80bd
000003d0: b329 ea3c eba5 643d c968 0c3d 62ff b4bd
000003e0: 652b 8fbc a3b6 9abc 6cba c7bd de51 1ebd
000003f0: 6f27 cebc 1ac7 7f3c 8d5e 76bc 2288 3abd

layers.2.bias f4 [90]
0.09519135 0.038544934 0.03120334 -0.021176992 0.003367569 -0.012797676 0.07159321 -0.023628213
-0.14012796 -0.011109373 -0.018622976 0.18828963 0.017646348 -0.036172338 0.07295512 -0.007723344
0.0551634 0.20757568 -0.018626403 0.10157148 0.055134542 -0.039550554 0.055582955 0.07080556
0.10801948 0.09423309 0.08118395 -0.16608526 0.035365444 -0.054640453 -0.111213885 0.010957129
0.026570797 0.03000192 -0.13956048 -0.09343743 -0.11402488 -0.039947037 -0.036462806 0.015237322
-0.08698574 0.050651416 0.05938066 -0.107737914 -0.00069551053 0.190305 0.054935012 0.056890745
0.055601582 -0.10224437 -0.046338536 0.08329329 0.02057666 0.042105854 0.10435843 0.0580786
-0.10735369 -0.055762775 0.067814924 -0.053788994 -0.036092006 0.08281278 -0.0025811666 0.014477357
-0.034224536 0.027068144 -0.030140268 0.11521667 0.008503646 0.12918039 -0.08643046 0.019752791
0.039158337 -0.10545102 -0.009667329 0.0040591387 -0.07620749 0.015017272 0.053731292 0.043677464
-0.017295828 -0.01140643 0.13915439 -0.017890593 0.17998913 -0.011551667 0.028154207 0.11992382
-0.057624802 0.05795188
00000000: aff3 c23d 4be1 1d3d 269e ff3c 5f7b adbc
00000010: 6fb2 5c3b 58ad 51bc 769f 923d f48f c1bc
00000020: b47d 0fbe 1604 36bc 368f 98bc ffce 403e
00000030: 138f 903c 7229 14bd 7e69 953d 1b14 fdbb
00000040: 04f3 613d b88e 543e 6696 98bc b504 d03d
00000050: c2d4 613d c3ff 21bd f4aa 633d 8102 913d
00000060: 5139 dd3d 47fd c03d c543 a63d 4112 2abe
00000070: 5bdb 103d abce 5fbd 1bc4 e3bd 8885 333c
00000080: 00ab d93c 96c6 f53c f1e8 0ebe 205c bfbd
00000090: e085 e9bd 819f 23bd 065a 15bd f6a5 793c
000000a0: 9425 b2bd dc77 4f3d 2339 733d b2a5 dcbd
000000b0: ec52 36ba 50df 423e 8903 613d 4506 693d
000000c0: 7cbe 633d 7f65 d1bd 7acd 3dbd ac95 aa3d
000000d0: 6290 a83c 3077 2c3d dfb9 d53d d3e3 6d3d
000000e0: 40dc dbbd 8267 64bd 8de2 8a3d d951 5cbd
000000f0: 36d5 13bd bf99 a93d ca28 29bb 7032 6d3c
00000100: 072f 0cbd 03be dd3c b9e8 f6bc b8f6 eb3d
00000110: e052 0b3c dd47 043e 7402 b1bd 9bd0 a13c
00000120: 7e64 203d b4f6 d7bd b763 1ebc 8602 853b
00000130: ac12 9cbd 010b 763c 5815 5c3d 24e7 323d
00000140: fbaf 8dbc 09e2 3abc 7d7e 0e3e 4b8f 92bc
00000150: 124f 383e 3443 3dbc a7a3 e63c 9f9a f53d
00000160: fc07 6cbd f35e 6d3d

layers.3.weight f4 [5, 90]
0.04121713 0.0075747017 0.02244156 0.028825631 0.027982514 -0.10951424 -0.029561939 -0.00013616313
-0.005687101 -0.07092239 0.031167144 -0.069772474 -0.021004241 0.0016728332 -0.066528186 0.0003946203
-0.10227411 -0.08725807 0.0061295233 -0.098495774 0.049230155 -0.009597894 0.13706017 -0.005593397
-0.008331027 -0.016319936 -0.1328897 0.14479111 -0.036184385 -0.015011298 0.007373153 0.00442256
0.014641832 0.016320366 0.08601083 -0.0020263721 0.0252117 0.044277646 0.046127856 -0.026011828
0.03882357 0.034512937 -0.121677056 0.017827878 -0.041089483 -0.11964167 -0.007493821 0.040902093
-0.049409326 -0.017221553 -0.018800873 0.056357384 0.11030808 -0.0031315407 0.04731993 0.0052413195
-0.0543297 -0.049349338 0.019439189 0.025359722 -0.042327285 0.0064920704 -0.042365775 0.01880737
0.037422765 0.011987015 -0.04409818 0.04442918 -0.019553298 -0.010246329 0.018936114 0.020049626
-0.013260029 -0.009804089 0.034154437 -0.052067086 0.0075920983 -0.008190354 -0.007955755 -0.027373407
-0.10306648 0.0077310232 0.026604272 -0.04159032 -0.06101018 0.030577527 -0.03457416 -0.015687242
0.04793752 -0.017791754 -0.052037686 -0.0038115873 0.005240867 0.020259213 0.021659749 0.13593613
-0.028537171 0.014783031 0.025839722 -0.027362168 0.007880496 -0.0691808 -0.041522473 0.03536321
0.01732459 0.011752306 -0.15148373 -0.08825003 -0.0060120025 -0.100385584 0.029962862 -0.0014698165
-0.030355897 0.006827451 -0.011474765 -0.0057430193 -0.15715876 0.12449527 -0.0072274283 -0.039612986
0.010275913 -0.018519934 0.025273537 -0.013935387 0.0718325 -0.0037944205 0.034876246 0.03672269
-0.0011415759 -0.038204882 0.03297233 -0.04260494 0.11931851 0.0066261254 -0.035025746 -0.112654984
-0.012850197 0.008789261 -0.039672308 0.003325414 0.00031751546 0.027400838 0.05792894 0.033564307
0.03700542 -0.00073344866 -0.050770365 -0.06285112 0.036889117 0.009424623 -0.042064954 0.0071041314
-0.04106772 -0.050194427 0.020091627 0.034017086 -0.040571842 0.025666954 -0.033206698 -0.015464199
0.040334232 0.056806874 -0.0056702723 -0.006045529 0.028289733 0.0011138509 0.0023286892 -0.034300674
-0.0039564883 -0.017879048 -0.038872376 0.05202467 0.0010632772 -0.038313244 -0.08478202 0.042980198
-0.055363182 -0.031057145 0.05641913 -0.01622779 0.034468234 0.0014012839 0.011175993 0.021728577
0.0009413789 0.07479548 0.028551592 0.11173078 -0.035920087 -0.06705857 0.021050602 -0.10875764
-0.022079108 0.028392043 0.072620586 -0.024866933 -0.069303505 -0.07274613 0.054915614 -0.108994424
0.05901268 0.008790279 -0.05864432 0.019791175 0.0022330114 0.02661692 0.1130173 -0.031505052
-0.025192399 -0.010051417 -0.030219346 0.013727464 0.018283753 0.006060323 0.050655935 -0.00498713
-0.02497249 0.022937719 0.05834978 -0.027383057 0.036517303 0.12397596 0.010607045 0.021162061
-0.06110091 -0.14159453 -0.01857948 0.025894178 -0.050096687 -0.0029283385 -0.0102818 0.03403248
0.00079949223 0.041243665 -0.12081709 -0.0031886399 -0.051570002 -0.04054132 0.015874423 0.009107408
-0.031756077 0.005889714 -0.038269892 -0.06490632 0.004555424 0.012264102 -0.06633145 0.036544096
-0.010167174 -0.027771033 0.060007855 0.01256615 -0.038444944 -0.005944361 0.028880553 -0.046606187
00000000: 4bd3 283d 3435 f83b 5dd7 b73c bb23 ec3c
00000010: 963b e53c 0049 e0bd e12b f2bc 03c7 0eb9
00000020: dc5a babb c23f 91bd 3d52 ff3c dfe4 8ebd
00000030: 1611 acbc f842 db3a ee3f 88bd 0ae5 ce39
00000040: 1775 d1bd 5cb4 b2bd 2bda c83b 27b8 c9bd
00000050: 8fa5 493d 7c40 1dbc 8059 0c3e d148 b7bb
00000060: dc7e 08bc 63b1 85bc 3d14 08be 1f44 143e
00000070: 1436 14bd f2f1 75bc 7e9a f13b 1feb 903b
00000080: 4be4 6f3c 4ab2 853c 7226 b03d e2cc 04bb
00000090: c488 ce3c 7a5c 353d 90f0 3c3d c216 d5bc
000000a0: 7705 1f3d 705d 0d3d d231 f9bd c50b 923c
000000b0: 724d 28bd b106 f5bd ba8e f5bb f488 273d
000000c0: 6f61 4abd 3714 8dbc 4a04 9abc 00d7 663d
000000d0: 34e9 e13d 893a 4dbb 8bd2 413d 60bf ab3b
000000e0: d288 5ebd 8822 4abd ef3e 9f3c 31bf cf3c
000000f0: 605f 2dbd 6fbb d43b bc87 2dbd ea11 9a3c
00000100: 9d48 193d 2f65 443c 4ba0 34bd 5ffb 353d
00000110: 3d2e a0bc 38e0 27bc e91f 9b3c 1d3f a43c
00000120: 9840 59bc 54a1 20bc 86e5 0b3d 4c44 55bd
00000130: 23c7 f83b d630 06bc db58 02bc 323e e0bc
00000140: 8514 d3bd 8654 fd3b 34f1 d93c 9d5a 2abd
00000150: cfe5 79bd b97d fa3c a29d 0dbd 8882 80bc
00000160: 225a 443d 03c0 91bc 7825 55bd d3cb 79bb
00000170: 94bb ab3b a6f6 a53c c96f b13c d732 0b3e
00000180: c9c6 e9bc 8734 723c d3ad d33c a026 e0bc
00000190: 321d 013c aaae 8dbd 7813 2abd 03d9 103d
000001a0: 4cec 8d3c be8c 403c 8d1e 1bbe 6fbc b4bd
000001b0: 5500 c5bb f596 cdbd ad74 f53c dca6 c0ba
000001c0: eeac f8bc cfb8 df3b a700 3cbc f02f bcbb
000001d0: 3aee 20be 60f7 fe3d 10d4 ecbb 3a41 22bd
000001e0: 4e5c 283c 1eb7 97bc 730a cf3c 4051 64bc
000001f0: eb1c 933d d0ab 78bb 65da 0e3d 886a 163d
00000200: eea0 95ba b97c 1cbd fe0d 073d 8482 2ebd
00000210: 435d f43d f81f d93b 2877 0fbd a8b7 e6bd
00000220: a289 52bc d500 103c 6e7f 22bd 30ef 593b
00000230: 3478 a639 b977 e03c e546 6d3d ba7a 093d
00000240: ff92 173d e844 40ba 96f4 4fbd 17b8 80bd
00000250: 0b19 173d bc69 1a3c 4d4c 2cbd c6c9 e83b
00000260: a036 28bd ac98 4dbd 3297 a43c 8055 0b3d
00000270: a92e 26bd 8143 d23c bf03 08bd 8d5d 7dbc
00000280: 8235 253d 53ae 683d b1cd b9bb 9319 c6bb
00000290: dfbf e73c a2fe 913a ec9c 183b dd7e 0cbd
000002a0: 6ea5 81bb 1577 92bc a438 1fbd d217 553d
000002b0: aa5d 8b3a 59ee 1cbd 32a2 adbd 010c 303d
000002c0: 81c4 62bd 8e6b febc bf17 673d 24f0 84bc
000002d0: 902e 0d3d 49ab b73a 831b 373c 2100 b23c
000002e0: dec6 763a 5f2e 993d 07e5 e93c 1bd3 e43d
000002f0: f120 13bd 0156 89bd 5072 ac3c 53bc debd
00000300: 3fdf b4bc 6e96 e83c 1aba 943d bdb5 cbbc
00000310: ffee 8dbd ecfb 94bd 32ef 603d 7838 dfbd
00000320: 48b7 713d 1a05 103c 0735 70bd 1a21 a23c
00000330: b757 123b ba0b da3c 9d75 e73d 710b 01bd
00000340: 4a60 cebc b3ae 24bc 908e f7bc 28e9 603c
00000350: cfc7 953c ad95 c63b 997c 4f3d 146b a3bb
00000360: 1b93 ccbc e2e7 bb3c 2e00 6f3d 6f52 e0bc
00000370: 2b93 153d 1ce7 fd3d 2cc9 2d3c 0f5c ad3c
00000380: f344 7abd 28fe 10be fe33 98bc 0720 d43c
00000390: 2f32 4dbd 5ee9 3fbb ff74 28bc a465 0b3d
000003a0: 0495 513a 1eef 283d f36e f7bd 80f8 50bb
000003b0: 113b 53bd a80e 26bd 140b 823c 3d37 153c
000003c0: a912 02bd 81fe c03b e4c0 1cbd 9bed 84bd
000003d0: ab45 953b 5fef 483c c9d8 87bd 43af 153d
000003e0: 3894 26bc 1480 e3bc ccca 753d 41e2 4d3c
000003f0: 7278 1dbd eac8 c2bb e996 ec3c 21e6 3ebd

layers.3.bias f4 [5]
-0.11412987 0.03153402 -0.046833485 0.13159001 0.12269416
00000000: ecbc e9bd d129 013d 78d4 3fbd 88bf 063e
00000010: 1347 fb3d
