irony/models/model_39.pt (torch_old, 58143 bytes, 8 tensors)

layers.0.weight f4 [70, 10]
-0.27573016 0.2151862 0.39993757 0.10123727 -0.19246744 -0.12355215 0.11494218 -0.006467719
0.015065484 -0.13159476 -0.12811112 -0.13851117 0.09592245 0.51509076 0.26192284 -0.05028396
-0.21288067 0.0286545 0.03329997 0.04587876 -0.38781813 -0.31025147 -0.27366468 0.15303394
0.15928024 -0.17334267 -0.19372219 -0.19517623 -0.0289794 0.07628307 -0.23278905 -0.17949942
0.008844563 0.37933066 -0.106760286 0.041898012 -0.10292111 0.12815754 0.11869254 0.0024417914
-0.07021307 0.23462744 -0.14534354 -0.027863758 -0.37981552 0.1832666 -0.028387578 -0.04355221
0.15120015 -0.078846626 0.14437968 0.10273245 0.021707756 -0.10445452 -0.2958741 0.1016363
-0.023303783 0.11112036 -0.14222963 -0.19646709 -0.0182506 -0.14721772 -0.027541677 0.36844411
0.28975818 -0.09396065 -0.027249243 -0.08878328 0.24012315 0.20664202 -0.30483216 0.055958714
0.46053863 0.031618018 0.1306075 -0.14800917 -0.04123316 -0.024423096 -0.08161652 -0.10228139
0.08737784 0.3033252 -0.111284696 -0.44255707 0.10599999 0.14723043 0.058504164 -0.117537014
-0.045212977 0.18917587 0.17960991 0.089185044 -0.12839212 0.273391 -0.19958502 -0.100565575
-0.061241012 -0.0834946 0.046478514 -0.19988027 0.0153796375 0.38270134 -0.019952502 -0.35448644
0.10220177 -0.1471827 -0.007889213 -0.1804278 -0.08555733 -0.09875925 -0.11688528 -0.26016277
-0.051227976 0.21586378 0.27753022 0.0045530023 -0.026773538 -0.09853405 0.21439284 0.20181668
0.079918884 0.17754397 0.1287355 -0.3065417 -0.29207632 0.08752082 0.059684653 0.10206021
-0.19235614 -0.17627531 -0.34560028 0.36280984 0.061209604 0.36975694 -0.102546945 -0.009441602
0.101585135 -0.112782076 0.16800554 0.051141426 0.12820722 0.5266869 -0.04750602 0.0940246
-0.09027229 0.09147871 0.0568734 -0.15475518 0.13113283 0.010539524 -0.24663699 -0.27671757
-0.053849347 0.18725903 0.16473092 -0.094857216 -0.1024624 -0.16023721 0.12926912 0.1498838
0.03705973 -0.30328164 0.36052588 0.048572756 0.18774839 0.011462741 -0.10979516 0.14014004
-0.19229896 0.077975765 -0.1445814 -0.1454707 -0.12588523 0.23017113 0.21653229 -0.10706192
-0.19892804 -0.26863882 0.070375696 0.033066846 -0.011513733 -0.123153135 0.053493008 0.21745977
0.24849546 -0.047127176 -0.060638797 -0.017513191 -0.0019619549 0.16963965 0.37023702 0.08665022
-0.3960888 -0.055239145 0.17574978 0.05140313 0.001794965 -0.15120542 -0.1424184 0.088886015
0.24909015 -0.17565517 0.10948575 -0.4459361 0.18390198 0.22916847 -0.094146684 -0.035427537
0.043993756 0.09905507 0.19365185 0.25673023 0.31189743 -0.23316897 -0.2145887 0.17768776
0.17541909 0.21836665 0.0012568109 -0.028847294 -0.3320412 -0.09172375 0.3139806 -0.060389735
-0.28841856 -0.1181038 0.049556307 0.20434634 0.050388757 -0.07655024 0.30988893 -0.10435942
-0.32407773 0.09196141 0.25287175 0.14058782 -0.14787157 -0.05386565 -0.042052526 0.0009168916
0.29364327 0.10930372 -0.26902354 -0.27010295 0.19618136 0.004204751 0.03940165 -0.1240071
-0.1747009 0.042298503 -0.320635 -0.06221483 0.047172185 0.16961199 -0.26049268 -0.05402358
00000000: 812c 8dbe c559 5c3e 9ec4 cc3e 7c55 cf3d
00000010: 2f16 45be e908 fdbd ce66 eb3d 29ef d3bb
00000020: 38d5 763c c7c0 06be 902f 03be dfd5 0dbe
00000030: fd72 c43d fddc 033f c01a 863e 8ef6 4dbd
00000040: 64fd 59be d8bc ea3c 8d65 083d 5eeb 3b3d
00000050: 1990 c6be 48d9 9ebe c71d 8cbe eeb4 1c3e
00000060: 5c1a 233e be80 31be 1c5f 46be 47dc 47be
00000070: 3566 edbc 4c3a 9c3d 4160 6ebe b2ce 37be
00000080: c9e8 103c a137 c23e 23a5 dabd 409d 2b3d
00000090: 4ec8 d2bd bb3b 033e 1315 f33d 7606 203b
000000a0: dfcb 8fbd 2d42 703e f0d4 14be 8942 e4bc
000000b0: 2e77 c2be 3daa 3b3e 118d e8bc cd63 32bd
000000c0: 36d4 1a3e 577a a1bd 44d8 133e 6465 d23d
000000d0: 77d4 b13c 40ec d5bd cf7c 97be b126 d03d
000000e0: 93e7 bebc 1293 e33d a5a4 11be ab2e 49be
000000f0: 4882 95bc 3ec0 16be 159f e1bc b5a4 bc3e
00000100: 2f5b 943e 716e c0bd ce39 dfbc 02d4 b5bd
00000110: d8e2 753e f799 533e f612 9cbe f734 653d
00000120: b8cb eb3e e581 013d f9bd 053e b78f 17be
00000130: 1ae4 28bd f212 c8bc 9026 a7bd e878 d1bd
00000140: 27f3 b23d 714d 9b3e 3be9 e3bd d796 e2be
00000150: 8616 d93d 93c3 163e 10a2 6f3d 3fb7 f0bd
00000160: 3e31 39bd 52b7 413e a9eb 373e a6a6 b63d
00000170: 3979 03be e8f9 8b3e 0460 4cbe 53f5 cdbd
00000180: dbd7 7abd 38ff aabd 4160 3e3d 6aad 4cbe
00000190: e0fa 7b3c 6ef1 c33e 6e73 a3bc 3f7f b5be
000001a0: 294f d13d 10b7 16be c241 01bc 11c2 38be
000001b0: ae38 afbd 4a42 cabd 8d61 efbd 0e34 85be
000001c0: 6dd4 51bd 650b 5d3e 7118 8e3e 5a31 953b
000001d0: 2e54 dbbc 38cc c9bd cc89 5b3e 08a9 4e3e
000001e0: 83ac a33d 16ce 353e 3dd3 033e 09f3 9cbe
000001f0: 078b 95be 1e3e b33d e577 743d f204 d13d
00000200: 02f9 44be 8481 34be 85f2 b0be 36c2 b93e
00000210: ecb6 7a3d c850 bd3e 2204 d2bd f3b0 1abc
00000220: de0b d03d 4afa e6bd a509 2c3e ac79 513d
00000230: c148 033e f4d4 063f ac95 42bd f88f c03d
00000240: aee0 b8bd 3159 bb3d 15f4 683d 2478 1ebe
00000250: af47 063e f8ad 2c3c 688e 7cbe edad 8dbe
00000260: 2291 5cbd d5c0 3f3e 39af 283e 8044 c2bd
00000270: cfd7 d1bd 3915 24be 205f 043e 247b 193e
00000280: f2cb 173d bb47 9bbe d996 b83e 3af4 463d
00000290: 1d41 403e 38ce 3b3c 49dc e0bd df80 0f3e
000002a0: 05ea 44be c2b1 9f3d 260d 14be 45f6 14be
000002b0: 0fe8 00be fbb1 6b3e a4ba 5d3e 4843 dbbd
000002c0: cbb3 4bbe 078b 89be 2221 903d 1a71 073d
000002d0: 19a4 3cbc b637 fcbd 7c1b 5b3d c6ad 5e3e
000002e0: 9875 7e3e 6d08 41bd 6360 78bd d377 8fbc
000002f0: 2494 00bb 04b6 2d3e b58f bd3e ac75 b13d
00000300: 27cc cabe 7142 62bd c0f7 333e 178c 523d
00000310: 0845 eb3a 98d5 1abe 21d6 11be df09 b63d
00000320: 7d11 7f3e f3de 33be 113a e03d bd51 e4be
00000330: cd50 3c3e 24ab 6a3e facf c0bd 771c 11bd
00000340: cc32 343d 62dd ca3d ac4c 463e 2572 833e
00000350: 05b1 9f3e d9c3 6ebe 24bd 5bbe c8f3 353e
00000360: 10a1 333e 829b 5f3e 93bb a43a 2951 ecbc
00000370: 4e01 aabe a9d9 bbbd 11c2 a03e 3a5b 77bd
00000380: 99ab 93be 68e0 f1bd 8efb 4a3d 2b40 513e
00000390: 7164 4e3d 5fc6 9cbd c3a9 9e3e 64ba d5bd
000003a0: 84ed a5be 4456 bc3d 6878 813e 41f6 0f3e
000003b0: a56b 17be 3aa2 5cbd 453f 2cbd 8e5b 703a
000003c0: 6958 963e a1da df3d 74bd 89be ef4a 8abe
000003d0: c4e3 483e 02c8 893b a063 213d 6ff7 fdbd
000003e0: cbe4 32be 3241 2d3d 452a a4be fad4 7ebd
000003f0: 9f37 413d c4ae 2d3e 4c5f 85be d447 5dbd

layers.0.bias f4 [70]
-0.036359835 0.012208823 0.12204907 0.0033008535 0.08369 0.04798877 -0.19491504 0.042000365
0.043623425 0.07434562 0.037515692 -0.14124572 0.12862821 -0.12834159 -0.076308064 0.06531334
-0.051253002 0.07972158 -0.0965453 0.032457877 -0.12525852 -0.04663653 0.08154498 0.002713276
0.13797669 0.17662726 0.027785322 -0.045074485 -0.1794543 0.20978536 -0.10449289 -0.032297157
0.09064761 0.0157901 0.11274545 0.13793242 -0.10203097 0.13680431 0.055262946 -0.05443622
0.11945358 -0.06856108 -0.06050617 0.017833402 0.13236935 0.11555116 -0.03640021 0.16472158
0.11222339 0.13107647 -0.08252141 -0.037888125 0.045512035 0.034683958 0.06509418 0.078316845
0.1640154 0.1403535 -0.0040211733 -0.061577216 -0.113464795 -0.043026563 0.12053371 0.059222132
0.07290569 -0.0135738645 -0.07079868 0.11255395 0.018292584 0.1822171
00000000: 0dee 14bd 8407 483c ddf4 f93d 2253 583b
00000010: aa65 ab3d df8f 443d cf97 47be 9308 2c3d
00000020: 7aae 323d 8442 983d 0eaa 193d b8a2 10be
00000030: 1db7 033e fa6b 03be 6747 9cbd 00c3 853d
00000040: abee 51bd 1145 a33d 8bb9 c5bd 8df2 043d
00000050: c543 00be f205 3fbd 0e01 a73d 38d1 313b
00000060: c349 0d3e c7dd 343e 0b9e e33c 06a0 38bd
00000070: dec2 37be f9d1 563e 5e00 d6bd 064a 04bd
00000080: 74a5 b93d 3d5a 813c 16e7 e63d 283e 0d3e
00000090: 9df5 d0bd 6e16 0c3e 665b 623d 84f8 5ebd
000000a0: 14a4 f43d c069 8cbd 51d5 77bd 5b17 923c
000000b0: d58b 073e 16a6 ec3d 6318 15bd c6ac 283e
000000c0: 60d5 e53d e938 063e fc00 a9bd 9430 1bbd
000000d0: d46a 3a3d c410 0e3d 1950 853d 9564 a03d
000000e0: a7f3 273e d4b8 0f3e 0cc4 83bb 6438 7cbd
000000f0: 3b60 e8bd 9f3c 30bd 61da f63d e892 723d
00000100: 944f 953d ea64 5ebc e6fe 90bd af82 e63d
00000110: 54da 953c 1f97 3a3e

layers.1.weight f4 [80, 70]
-0.05377262 -0.10317584 -0.07742159 -0.113386415 0.014768648 0.17785443 0.09094536 -0.18823874
0.022481466 0.022919986 0.104922034 -0.09993471 0.13666996 -0.133849 0.062371105 -0.28182146
-0.053741604 -0.10708798 -0.09669685 0.07193318 -0.010594479 -0.011567153 0.047147177 -0.06760272
0.021253353 0.015964955 -0.06807651 -0.0917525 -0.044227734 0.081453204 -0.0035399573 0.011053457
0.033578455 0.02356314 0.15517014 -0.017584873 -0.08045384 -0.09476002 -0.03258922 -0.029019514
0.11598327 -0.12844247 -0.031352468 -0.14226682 0.17283927 -0.0598366 -0.07768779 -0.04516883
0.1025584 0.0223963 0.0058641843 0.18150263 0.10794252 -0.1670631 -0.038068682 -0.16217418
0.12506893 -0.008528232 -0.054280806 0.05128032 -0.05491586 0.067678176 0.06596304 0.17052732
-0.04876138 0.14581063 0.13383383 -0.0939849 0.04332834 -0.043678567 0.12674794 0.13136464
-0.039383017 -0.031556416 0.02450432 0.02757823 0.005524362 0.1560143 -0.15646724 0.061254494
-0.08976552 0.072353445 -0.075384624 0.0035517844 -0.13035779 -0.00955229 0.053812 0.20386809
0.004333333 -0.30857953 -0.03553648 0.01824541 0.067778215 -0.08421031 -0.2562425 0.17542607
0.16141962 -0.07707981 -0.047513023 -0.23488496 -0.16433986 0.13047683 -0.055241883 -0.071338914
-0.0406868 0.054479126 -0.038586363 0.034064606 -0.08822141 0.07138789 -0.038050782 0.10953019
0.14421041 -0.032534283 -0.0035941545 -0.31818756 0.15897886 -0.3250362 0.07320027 -0.09425433
0.095694795 -0.12936379 -0.05417763 0.17133944 0.05566016 0.095661364 -0.23028167 0.057577983
-0.11547745 -0.06434759 0.15996227 0.074809775 -0.03932472 -0.07534042 -0.02709661 -0.15024063
-0.022112865 -0.16126925 0.007873911 0.16308342 -0.015989635 -0.016258664 0.054274548 -0.038795583
-0.15818089 0.023612814 0.14542957 0.08119667 0.083707094 -0.15724106 -0.090916164 -0.063583255
-0.029487317 -0.08398192 -0.20369475 -0.008674305 0.15786622 -0.027348101 0.15186997 0.0255351
-0.0042917794 -0.058099803 -0.005933154 0.0011031106 0.09058736 -0.01215157 -0.059589155 0.033437476
-0.00517356 0.007112148 0.06584927 0.1815674 -0.08493348 -0.034083538 -0.14728811 -0.12538993
0.0824264 0.0919568 -0.11249856 0.01133007 0.139569 0.09918505 0.025842985 0.09783766
-0.013454276 -0.0070579187 0.091004506 0.10600541 -0.010898688 0.10190487 0.06369237 -0.14589581
-0.086781204 0.030522741 -0.06129802 -0.10197827 0.016818931 0.13568558 -0.042477958 0.0071480796
0.04647022 -0.077291645 -0.023276847 -0.089738525 -0.0024512017 0.07741921 -0.15985337 -0.0014788257
-0.06482765 -0.089464806 -0.02685617 0.14861903 0.029286101 0.17774446 -0.021686854 0.0048441943
-0.16789879 -0.07707142 -0.27799228 0.03753112 -0.16916445 -0.07854911 0.023742786 0.0890995
-0.06564442 0.026525693 0.14113078 -0.14004448 0.051161975 -0.01749456 -0.050768454 -0.068348624
0.018563125 0.030502038 -0.18987627 0.14731573 0.22079909 0.113802314 -0.009552065 -0.15766539
-0.08444437 -0.08322579 -0.112031005 -0.120697975 -0.0043122442 0.23130082 0.030184345 -0.05087512
0.0064653168 -0.10536857 -0.037225164 0.06531539 0.15735152 -0.2127047 0.025285386 -0.05501887
00000000: ae40 5cbd db4d d3bd 368f 9ebd 2337 e8bd
00000010: 33f8 713c 791f 363e 9041 ba3d a8c1 40be
00000020: 0d2b b83c b2c2 bb3c 5de1 d63d 92aa ccbd
00000030: 36f3 0b3e b60f 09be d878 7f3d e74a 90be
00000040: 2820 5cbd f150 dbbd 0009 c6bd b451 933d
00000050: 7794 2dbc 2884 3dbc 661d 413d 4b73 8abd
00000060: 831b ae3c f0c8 823c b36b 8bbd bce8 bbbd
00000070: 2428 35bd f0d0 a63d a1fe 67bb 8f19 353c
00000080: 9089 093d 7c07 c13c ece4 1e3e 270e 90bc
00000090: fcc4 a4bd 8b11 c2bd 467c 05bd 55ba edbc
000000a0: a388 ed3d 6c86 03be 726b 00bd 65ae 11be
000000b0: c7fc 303e 3917 75bd c71a 9fbd f302 39bd
000000c0: 230a d23d 7278 b73c 5828 c03b d3db 393e
000000d0: f810 dd3d 9712 2bbe e8ed 1bbd fd10 26be
000000e0: 1212 003e ffb9 0bbc 8d55 5ebd 500b 523d
000000f0: 74ef 60bd db9a 8a3d a117 873d b79e 2e3e
00000100: 03ba 47bd 624f 153e bc0b 093e 287b c0bd
00000110: 0f79 313d 4ce8 32bd 36ca 013e 7484 063e
00000120: 1650 21bd 4d41 01bd 49bd c83c bdeb e13c
00000130: b505 b53b 36c2 1f3e f338 20be fee5 7a3d
00000140: fcd6 b7bd 0b2e 943d 4163 9abd 0ec5 683b
00000150: 837c 05be 3581 1cbc f969 5c3d ccc2 503e
00000160: a2fe 8d3b 23fe 9dbe b38e 11bd 6677 953c
00000170: 4ecf 8a3d 7476 acbd 3832 83be e4a2 333e
00000180: 2f4b 253e 05dc 9dbd 049d 42bd af85 70be
00000190: b548 28be b89b 053e 5045 62bd 231a 92bd
000001a0: 34a7 26bd 8125 5f3d bc0c 1ebd 5487 0b3d
000001b0: 6dad b4bd d033 923d 23db 1bbd 5d51 e03d
000001c0: e5ab 133e ab42 05bd e88b 6bbb 7be9 a2be
000001d0: 5bcb 223e 256b a6be 06ea 953d 6a08 c1bd
000001e0: a2fb c33d f177 04be 5de9 5dbd 9b73 2f3e
000001f0: e8fb 633d 1bea c33d f5ce 6bbe e4d6 6b3d
00000200: 717f ecbd abc8 83bd 26cd 233e de35 993d
00000210: f512 21bd 144c 9abd b6f9 ddbc aed8 19be
00000220: 0a26 b5bc c423 25be 9401 013c 57ff 263e
00000230: b2fc 82bc e430 85bc fd4e 5e3d 1ee8 1ebd
00000240: 2cfa 21be a96f c13c 7deb 143e 714a a63d
00000250: a06e ab3d cd03 21be 4132 babd f037 82bd
00000260: 638f f1bc b6fe abbd 5b95 50be ac1e 0ebc
00000270: afa7 213e 2009 e0bc cd83 1b3e fc2e d13c
00000280: 0ea2 8cbb 0ffa 6dbd e76a c2bb 4096 903a
00000290: de85 b93d 6117 47bc c213 74bd bcf5 083d
000002a0: f886 a9bb 060d e93b fbdb 863d ceec 393e
000002b0: 9bf1 adbd 2e9b 0bbd b2d2 16be 3866 00be
000002c0: 2ccf a83d d953 bc3d a565 e6bd c2a1 393c
000002d0: 2deb 0e3e 8821 cb3d abb4 d33c 1c5f c83d
000002e0: 536f 5cbc 1d46 e7bb 9260 ba3d 5d19 d93d
000002f0: 6990 32bc 80b3 d03d 2571 823d b665 15be
00000300: 58ba b1bd d40a fa3c a213 7bbd fcd9 d0bd
00000310: dbc7 893c 29f1 0a3e 5efd 2dbd 703a ea3b
00000320: 8f57 3e3d 154b 9ebd 16af bebc d5c8 b7bd
00000330: 57a4 20bb f68d 9e3d 9ab0 23be 28d5 c1ba
00000340: 5cc4 84bd 5339 b7bd 7801 dcbc 962f 183e
00000350: 68e9 ef3c a502 363e a1a8 b1bc 0cbc 9e3b
00000360: a9ed 2bbe 9fd7 9dbd 0155 8ebe 3bba 193d
00000370: 7239 2dbe 5bde a0bd 3b80 c23c cc79 b63d
00000380: 9570 86bd 694c d93c 9684 103e d267 0fbe
00000390: 388f 513d c050 8fbc 95f2 4fbd 5dfa 8bbd
000003a0: b211 983c 69df f93c ed6e 42be efd9 163e
000003b0: 2819 623e 3011 e93d 4480 1cbc 0973 21be
000003c0: 2bf1 acbd 4872 aabd 8370 e5bd 8030 f7bd
000003d0: ba4d 8dbb 1fda 6c3e 2945 f73c 6e62 50bd
000003e0: 02db d33b 7acb d7bd 6a79 18bd 13c4 853d
000003f0: c220 213e 43cf 59be 4c23 cf3c 775b 61bd

layers.1.bias f4 [80]
0.05408828 0.07653707 -0.079208076 0.045761302 0.028784398 0.092150696 0.099273264 0.15758169
-0.044001777 0.06589658 -0.061603576 0.09610576 -0.05634784 -0.018908236 0.18864383 -0.23641473
0.13066001 -0.058103547 0.056025263 -0.043973904 0.05790068 0.03468339 0.10758986 0.17519887
-0.02219956 0.02932523 -0.019939488 -0.12111321 -0.0026545224 -0.042130552 -0.13472177 0.14032368
-0.1331996 0.12465098 -0.024942601 0.019651406 0.15105185 0.08658016 0.051548652 0.12591735
0.13003625 0.093867645 0.06441291 0.10119732 -0.03529807 0.019453887 0.11034202 0.0066553596
-0.04876248 -0.011269884 0.054110654 0.03426507 0.11502601 0.03254165 0.0993442 0.060654912
-0.12743914 0.026688961 0.0661217 0.07860384 0.062653296 0.03879253 -0.074816264 0.074846216
0.024975115 -0.013194813 0.0912972 0.112434134 0.06521753 0.07356186 -0.060246695 0.08049711
0.020680757 0.095879525 0.01886367 -0.07788546 0.034033038 0.033791725 0.014780657 0.056968328
00000000: ac8b 5d3d 78bf 9c3d d837 a2bd 3470 3b3d
00000010: 42cd eb3c 81b9 bc3d c84f cb3d 185d 213e
00000020: 353b 34bd c9f4 863d 0854 7cbd 19d3 c43d
00000030: fecc 66bd 72e5 9abc d92b 413e b416 72be
00000040: bdcb 053e fcfd 6dbd bf7a 653d fb1d 34bd
00000050: 4329 6d3d 2c10 0e3d 1358 dc3d 5567 333e
00000060: dadb b5bc 773b f03c 2358 a3bc 340a f8bd
00000070: 7ff7 2dbb 1691 2cbd 81f4 09be 03b1 0f3e
00000080: 7a65 08be 0349 ff3d 6d54 ccbc fcfb a03c
00000090: 56ad 1a3e f050 b13d ae24 533d 7af0 003e
000000a0: 3928 053e ae3d c03d eaea 833d 8a40 cf3d
000000b0: b694 10bd c25d 9f3c fffa e13d 3415 da3b
000000c0: 2bbb 47bd 52a5 38bc 22a3 5d3d 8859 0c3d
000000d0: c292 eb3d 654a 053d f974 cb3d 4971 783d
000000e0: 687f 02be cfa2 da3c d06a 873d 0dfb a03d
000000f0: 5f50 803d eae4 1e3d 4539 99bd f948 993d
00000100: 9d98 cc3c 0f2f 58bc 07fa ba3d de43 e63d
00000110: c590 853d 9aa7 963d 3dc5 76bd abdb a43d
00000120: b16a a93c 7c5c c43d fc87 9a3c 6982 9fbd
00000130: 3a66 0b3d 3169 0a3d 922a 723c 9f57 693d

layers.2.weight f4 [90, 80]
-0.06907981 -0.0050841393 0.00043917715 0.00096144254 0.024049543 -0.06399014 -0.01783539 -0.10892722
0.019668011 0.02493055 -0.022244995 0.0029060706 -0.06012287 0.063372865 0.0042795427 -0.05780456
-0.010303933 -0.030350385 0.089645244 0.10723699 -0.059291285 -0.06616992 -0.10547383 0.026517378
0.03628433 -0.017333169 -0.009854479 0.010957118 -2.6019616e-22 -0.010292448 -0.03954115 -0.033949897
-0.079411514 0.04816186 -0.017049983 -0.009341154 -0.040394306 -0.020217484 0.12647757 -0.0797491
-0.1276268 0.044798397 0.07434382 0.08374673 0.016380796 -0.027874293 0.045947246 0.052306216
-0.05983326 0.03691764 -0.048881657 0.05177254 -0.019643946 0.021051932 -0.011818295 -0.06425205
0.11072224 -0.101330824 0.10477504 -0.02084172 0.057761237 0.00812499 0.05511207 0.07859277
-0.039748613 0.0034128702 0.037599713 -0.015488645 0.0019142361 -0.03685348 -0.053629022 -0.07126003
-0.08445718 -0.019383598 0.055635188 0.04258022 0.027648183 -0.08643947 -0.005266862 0.027929291
-0.13751596 -0.0013926934 0.088155545 -0.048811566 -0.021193868 -0.01222978 0.025788177 -0.0035865894
-0.13229151 0.047915574 -0.025295854 -0.0060942136 0.0061984533 0.04765627 0.0060128765 0.080767244
-0.052374724 0.045071647 -0.037985582 -0.0771332 0.022857174 -0.022005558 0.072602466 0.00970762
0.0122509375 0.07164556 -0.065350264 0.101794034 2.847853e-23 0.07700907 0.005199792 0.010971219
-0.020186745 0.015763627 0.028887788 0.04641591 -0.09719872 0.022023907 0.017583797 -0.03288396
-0.07500052 -0.008447492 0.04712487 -0.0708975 -0.06961181 -0.015155645 -0.02540298 0.024019834
0.09120184 0.042122833 -0.044416133 -0.05688403 0.10507844 -0.03668897 -0.041304585 0.06822577
-0.10500724 0.011901367 0.047707144 -0.028645711 0.026128743 0.059073925 -0.013634573 0.012889649
-0.038792484 0.027351173 0.07381604 0.0019867516 0.007885318 0.008353742 0.03852528 -0.02310865
0.031778205 6.39623e-05 0.024529463 -0.005695357 0.021970248 -0.047355372 -0.022325499 0.0019707729
-0.022815619 -0.028027454 -0.013415798 -0.16868013 0.09842475 -0.015542731 0.10502474 -0.1241615
0.04265208 0.06493741 0.23126316 0.11379187 0.032383468 0.08944986 0.06364355 -0.111682154
-0.07076229 0.14529067 0.09363356 0.16521128 -0.009199096 -0.1548558 -0.03389916 -0.12824637
-0.009989741 0.16797598 0.009904811 -0.142901 -4.4103e-22 -0.12836342 0.18749768 0.0894648
-0.12524451 -0.17799583 0.24581435 0.037844606 -0.044914313 0.10827241 0.086739875 0.16113704
-0.14830728 -0.15563665 -0.09393445 0.12400127 -0.09608122 -0.053352624 0.17221071 -0.16526948
0.016203003 0.04195425 0.135662 0.045904405 0.17947546 0.062545836 -0.23242469 -0.049437918
0.05274344 0.013720857 0.20242687 0.09230856 0.08010331 -0.037328072 -0.12696369 0.09551357
-0.062101725 -0.17325291 -0.084048 -0.16697966 -0.03541592 0.07885184 -0.059791222 -0.03686492
-0.0155051 0.15544407 0.12355321 0.020915138 0.12181662 -0.103116885 0.123483755 -0.028199105
-0.055918664 -0.011354361 -0.0008421433 -0.039074395 -0.054673932 0.053345293 0.0028038954 0.04285009
-0.10186909 -0.0018598423 0.026597735 -0.033542775 0.0054983236 0.051369045 0.022023914 0.028714921
00000000: b779 8dbd da98 a6bb 5c41 e639 5109 7c3a
00000010: 8c03 c53c 430d 83bd 861b 92bc 3c15 dfbd
00000020: cf1e a13c 273b cc3c 233b b6bc c673 3e3b
00000030: 6643 76bd a2c9 813d 683b 8c3b 79c4 6cbd
00000040: d4d1 28bc 5fa1 f8bc ed97 b73d 119f db3d
00000050: 6bdb 72bd 1884 87bd aa02 d8bd f93a d93c
00000060: e19e 143d 4afe 8dbc ae74 21bc 7c85 333c
00000070: 6847 9d9b a8a1 28bc e7f5 21bd 0c0f 0bbd
00000080: 81a2 a2bd 5f45 453d 68ac 8bbc a40b 19bc
00000090: 8074 25bd 239f a5bc 5683 013e 7f53 a3bd
000000a0: 9ab0 02be 867e 373d 9341 983d 6883 ab3d
000000b0: 0531 863c a158 e4bc 2e33 3c3d 0b3f 563d
000000c0: b813 75bd f436 173d 2238 48bd 710f 543d
000000d0: 57ec a0bc 1a75 ac3c 86a1 41bc 9496 83bd
000000e0: 57c2 e23d 8986 cfbd 4c94 d63d 41bc aabc
000000f0: 0c97 6c3d ae1e 053c 32bd 613d 3ff5 a03d
00000100: 71cf 22bd 76aa 5f3b 2802 1a3d 16c4 7dbc
00000110: 1be7 fa3a adf3 16bd 1baa 5bbd c7f0 91bd
00000120: e3f7 acbd 5aca 9ebc b9e1 633d 9968 2e3d
00000130: 717e e23c 2d07 b1bd a495 acbb f8cb e43c
00000140: fcd0 0cbe 098b b6ba e58a b43d a3ee 47bd
00000150: c39e adbc 6a5f 48bc ba41 d33c fc0c 6bbb
00000160: 6d77 07be 1f43 443d 4039 cfbc f8b1 c7bb
00000170: 651c cb3b 3933 433d aa07 c53b 4c69 a53d
00000180: e186 56bd 0c9d 383d c596 1bbd 03f8 9dbd
00000190: f83e bb3c 0045 b4bc 9ab0 943d b60c 1f3c
000001a0: 28b8 483c e8ba 923d 5cd6 85bd 6479 d03d
000001b0: b6b6 091a eeb6 9d3d 0463 aa3b a1c0 333c
000001c0: ac5e a5bc b922 813c 15a6 ec3c 9c1e 3e3d
000001d0: 1f10 c7bd 7b6b b43c e50b 903c 55b1 06bd
000001e0: df99 99bd 5967 0abc 0206 413d b532 91bd
000001f0: a390 8ebd 624f 78bc e919 d0bc 3ec5 c43c
00000200: 08c8 ba3d fe88 2c3d b1ed 35bd 3bff 68bd
00000210: 5d33 d73d 2c47 16bd ff2e 29bd f4b9 8b3d
00000220: 090e d7bd f4fd 423c 9168 433d 69aa eabc
00000230: f20b d63c 80f7 713d 8b63 5fbc 1b2f 533c
00000240: dee4 1ebd 910f e03c dd2c 973d 2934 023b
00000250: 6c31 013c 22de 083c afcc 1d3d 5a4e bdbc
00000260: dd29 023d 8023 8638 03f2 c83c 1ea0 babb
00000270: f3fa b33c b5f7 41bd f7e3 b6bc 1528 013b
00000280: d2e7 babc d599 e5bc efcd 5bbc 7cba 2cbe
00000290: ea92 c93d f0a6 7ebc 3617 d73d 6248 febd
000002a0: f3b3 2e3d e8fd 843d 40d0 6c3e b60b e93d
000002b0: 87a4 043d 7d31 b73d 8d57 823d 9db9 e4bd
000002c0: d2eb 90bd 14c7 143e f4c2 bf3d 252d 293e
000002d0: ceb7 16bc 8592 1ebe d8d9 0abd 0453 03be
000002e0: 03ac 23bc e501 2c3e ca47 223c a454 12be
000002f0: 0b4b 059c b371 03be 64ff 3f3e 5239 b73d
00000300: 1940 00be 8a44 36be c2b6 7b3e f202 1b3d
00000310: 12f8 37bd edbd dd3d ada4 b13d 1c01 253e
00000320: dddd 17be 375f 1fbe b460 c0bd 61f4 fd3d
00000330: 3bc6 c4bd 4888 5abd 0158 303e 673c 29be
00000340: 29bc 843c 38d8 2b3d fbea 0a3e 4206 3c3d
00000350: 6ac8 373e 0818 803d bd00 6ebe 6a7f 4abd
00000360: 8109 583d 72cd 603c fd48 4f3e 450c bd3d
00000370: 340d a43d 52e5 18bd c502 02be 9e9c c33d
00000380: 615e 7ebd 3669 31be 5c21 acbd b7fc 2abe
00000390: 4910 11bd 137d a13d a4e7 74bd acff 16bd
000003a0: 1a09 7ebc bb2c 1f3e 7709 fd3d 3956 ab3c
000003b0: fe7a f93d f22e d3bd 0de5 fc3d cf01 e7bc
000003c0: f80a 65bd a407 3abc 48c3 5cba 790c 20bd
000003d0: c6f1 5fbd 9880 5a3d 8fc1 373b 9383 2f3d
000003e0: bea0 d0bd f4c5 f3ba 7ee3 d93c 2664 09bd
000003f0: 482b b43b 5968 523d 7f6b b43c 8e3b eb3c

layers.2.bias f4 [90]
0.19356523 -0.007606046 -0.12372139 0.060414664 -0.009065032 -0.015813997 -0.018685495 -0.04657965
0.039327916 -0.033592463 0.01104233 -0.10564637 0.07285719 -0.03562553 -0.2606872 0.028209213
0.04868361 -0.052715704 0.09716035 -0.00598687 -0.033180438 0.0072839386 -0.24873075 0.056615803
0.020132558 0.021677556 -0.07290503 -0.10953638 0.05933231 0.029399496 0.014851583 0.014137867
-0.0400147 -0.013179851 -0.039686114 -0.024767341 -0.014016375 -0.2828435 0.032051288 -0.0620511
-0.06429905 0.034103986 0.0743494 0.030544862 0.021543669 -0.033991206 -0.12915611 0.013400447
-0.09683803 -0.030726718 -0.027987536 -0.041883066 -0.04497507 -0.030013453 -0.20333306 -0.023771627
0.037684668 0.034535896 0.03879897 0.06971434 0.022639615 -0.026527477 0.03613898 0.045819134
-0.09443021 0.18573387 0.044387206 0.09530189 -0.017069675 0.028716583 0.116391115 -0.0021580933
0.0036318146 0.020975273 0.06507862 0.029144268 -0.051140778 0.29009905 0.00077258167 -0.015639065
0.051091343 0.049356014 -0.022151837 -0.00395154 0.26614642 -0.15138797 0.014095206 0.15087238
-0.20815976 0.04438251
00000000: f735 463e 233c f9bb a461 fdbd 5e75 773d
00000010: 8085 14bc 5b8c 81bc 5312 99bc 4eca 3ebd
00000020: 4f16 213d 4098 09bd e4ea 343c 205d d8bd
00000030: 2736 953d 13ec 11bd cb78 85be 0217 e73c
00000040: 7768 473d 6cec 57bd 01fc c63d 812d c4bb
00000050: 36e8 07bd 1bae ee3b 46b3 7ebe f9e5 673d
00000060: 09ed a43c 2195 b13c 3b4f 95bd 9c54 e0bd
00000070: 7006 733d 36d7 f03c 0e54 733c 83a2 673c
00000080: 74e6 23bd 4df0 57bc e88d 22bd e1e4 cabc
00000090: f0a4 65bc ddd0 90be 3648 033d 4b29 7ebd
000000a0: 38af 83bd 9fb0 0b3d 8044 983d 3839 fa3c
000000b0: 597c b03c 5d3a 0bbd 8041 04be 8c8d 5b3c
000000c0: 0453 c6bd 99b6 fbbc 1e46 e5bc 948d 2bbd
000000d0: c737 38bd c6de f5bc 8b36 50be b7bc c2bc
000000e0: 3d5b 1a3d 8375 0d3d abeb 1e3d 64c6 8e3d
000000f0: b776 b93c 2750 d9bc 7806 143d d8ac 3b3d
00000100: a064 c1bd 0531 3e3e 5ccf 353d a32d c33d
00000110: b4d5 8bbc 0a3f eb3c 775e ee3d cc6e 0dbb
00000120: bd03 6e3b 56d4 ab3c f147 853d f6bf ee3c
00000130: fe78 51bd dd87 943e 1487 4a3a 7f1d 80bc
00000140: 2845 513d 8829 4a3d c577 b5bc ec7b 81bb
00000150: 5844 883e 7305 1bbe 94ef 663c 4a7e 1a3e
00000160: d527 55be 6fca 353d

layers.3.weight f4 [5, 90]
0.009991958 0.07188332 0.012549606 0.040978376 -0.03409111 0.0039802315 -0.034189872 5.332718e-05
-0.15415421 -0.062491488 0.011336726 -0.13537858 0.074378885 -0.021829914 0.026036946 0.007835625
0.031328898 0.00567948 0.009920199 0.043081064 0.014750967 0.011213543 0.15500864 0.029546024
0.0724829 -0.02927693 0.011819291 0.013157608 -0.017090997 -0.021710742 0.024103789 -0.022141725
-0.043174908 -0.015191343 -0.01053259 -0.0038997312 -0.012171098 -0.02929014 0.013714716 -0.038376994
0.021796376 0.027207227 -0.01636227 0.0034459974 -0.0027769583 -0.014154409 0.04755609 -0.00897692
0.24272071 -0.018049782 0.03686972 0.029229796 -0.006559603 0.016547976 -0.03952237 -0.008528361
-0.028894128 -0.029935446 -0.014106626 -0.009283178 -0.022125015 -0.0082091065 0.018003855 -0.026273452
-0.0046253186 -0.06118233 0.035857983 0.053194173 -0.02959836 0.02138269 -0.07899387 0.00021780632
-0.00916939 -0.046929393 -0.0144003155 0.030259097 -0.020379785 -7.61172e-05 0.019036066 0.003683541
-0.025977397 0.03199978 0.0050324025 0.014057629 -0.061460294 0.12201309 -0.008301247 -0.13467236
0.027529133 0.009152084 -0.0025739656 0.020365568 0.10934005 0.015589058 -0.033355873 -0.013638636
-0.013802717 -0.006837269 0.14534047 0.01378363 0.005249652 0.1325401 0.059455235 -0.031814218
0.0073038093 -0.01345792 0.026765829 0.0015098162 -0.00070105214 0.037952118 -0.031191992 0.018299129
0.12274257 -0.0062987115 -0.033302188 -0.03165616 0.015090036 0.043534353 -0.0097699715 0.013230444
-0.003598392 -0.05892608 -0.010285713 0.0038744975 0.012053871 -0.008581935 0.0039777826 0.09129316
-0.0032208967 -0.015631368 0.015049822 0.052748546 -0.06726704 -0.0006460352 -0.016976567 -0.013511971
0.010354184 -0.0004977779 0.15243728 -0.016073504 0.043818194 0.024597857 0.026210237 -0.031213311
0.004014814 0.009504931 -0.023194533 -0.03553214 -0.01043013 -0.014690059 -0.027285803 0.012579181
0.03805906 -0.029395722 -0.0008361817 -0.11462158 0.021483004 -0.03482321 -0.01796068 0.020200657
-0.023504756 0.008117881 0.03941427 -0.031474307 -0.030377802 0.05182362 0.032684833 -0.009029577
0.024575474 0.0040678456 -0.029995149 0.023762885 0.027628751 0.012896446 -0.037579104 0.12042363
0.003198105 -0.07325291 -0.00033476518 0.008052112 -0.01169383 0.03837298 -0.07205029 0.014876121
-0.018717304 -0.014454474 -0.029738285 -0.0005230283 -0.020505682 -0.03200486 0.010486374 0.00968162
-0.059360404 -0.05378201 0.041077837 -0.0063747144 0.02430867 -0.0012424134 -0.012440669 0.047793996
-0.010739472 0.009240436 0.13182676 0.036997408 0.0013998249 -0.015556195 0.016255068 -0.014883245
-0.012829028 -0.016194195 0.023587067 -0.041995563 -0.051373355 -0.016236586 -0.01790589 -0.008519575
0.0052079214 0.1777655 0.039209794 -0.017752673 -0.005204297 0.025293702 -0.03878166 0.0074767745
0.0026872654 0.0009567666 0.0077510215 -0.0015486064 -0.12925357 -0.011068054 0.04061499 0.05534549
-0.009879174 -0.003000951 0.09313559 -0.013474589 -0.006826066 -0.036004763 -0.001616688 -0.0038758365
-0.010880778 0.003740313 0.0063723875 -0.014757486 0.0040441253 -0.098521374 0.028779617 -0.02883502
-0.034855112 0.020026429 -0.02010173 0.0038572487 0.041187983 -0.010383589 0.020259127 0.035609566
00000000: 4fb5 233c 9037 933d dd9c 4d3c f1d8 273d
00000010: 1fa3 0bbd 9a6c 823b ae0a 0cbd a0ab 5f38
00000020: 9ada 1dbe 13f7 7fbd adbd 393c afa0 0abe
00000030: f553 983d a6d4 b2bc 6f4b d53c fe60 003c
00000040: bb52 003d ee1a ba3b 5588 223c c575 303d
00000050: 0aae 713c 02b9 373c 96ba 1e3e 810a f23c
00000060: ea71 943d 2cd6 efbc b3a5 413c 0293 573c
00000070: 6b02 8cbc bada b1bc 4f75 c53c 9062 b5bc
00000080: 2cd8 30bd 1ce5 78bc e290 2cbc a292 7fbb
00000090: 4969 47bc e0f1 efbc b0b3 603c 3231 1dbd
000000a0: 508e b23c b1e1 de3c 2b0a 86bc 3ed6 613b
000000b0: a1fd 35bb e5e7 67bc 2dca 423d ee13 13bc
000000c0: c78b 783e 23dd 93bc b404 173d 5373 ef3c
000000d0: f0f1 d6bb 9f8f 873c 35e2 21bd 8aba 0bbc
000000e0: 61b3 ecbc 2e3b f5bc 7a1f 67bc 7818 18bc
000000f0: 853f b5bc 7d7f 06bc d27c 933c 6c3b d7bc
00000100: fc8f 97bb 539a 7abd d2df 123d 22e2 593d
00000110: 4378 f2bc c02a af3c 8ac7 a1bd f062 6439
00000120: 363b 16bc 0939 40bd 4def 6bbc ede1 f73c
00000130: 82f3 a6bc 1ca1 9fb8 86f1 9b3c 9067 713b
00000140: 8dce d4bc 3412 033d dae6 a43b f851 663c
00000150: cabd 7bbd 00e2 f93d f401 08bc 8de7 09be
00000160: c784 e13c 9ff2 153c faaf 28bb b1d5 a63c
00000170: aded df3d 4069 7f3c 2ba0 08bd 9674 5fbc
00000180: cb24 62bc 2b0b e0bb 22d4 143e bcd4 613c
00000190: 4605 ac3b 98b8 073e 5587 733d a04f 02bd
000001a0: cb54 ef3b 9c7e 5cbc 0344 db3c 06e5 c53a
000001b0: d0c6 37ba ae73 1b3d 5986 ffbc 0ee8 953c
000001c0: 7560 fb3d 6c65 cebb e067 08bd e4a9 01bd
000001d0: 333c 773c 1451 323d 3b12 20bc 81c4 583c
000001e0: 00d3 6bbb 795c 71bd 6885 28bc 48eb 7d3b
000001f0: 997d 453c 3f9b 0cbc 0f58 823b e9f7 ba3d
00000200: ae15 53bb 5b0d 80bc 8793 763c dc0e 583d
00000210: 4dc3 89bd b05a 29ba 7112 8bbc 5061 5dbc
00000220: 98a4 293c 4f7d 02ba 8518 1c3e 95ac 83bc
00000230: b57a 333d 7281 c93c dab6 d63c 0fb3 ffbc
00000240: b38e 833b 92ba 1b3c 7602 bebc 268a 11bd
00000250: 23e3 2abc 93ae 70bc 7a86 dfbc e918 4e3c
00000260: d1e3 1b3d 4ccf f0bc 3433 5bba b8be eabd
00000270: 20fd af3c c8a2 0ebd 4722 93bc d97b a53c
00000280: 0c8d c0bc dc00 053c dc70 213d 34eb 00bd
00000290: deda f8bc 0145 543d 88e0 053d caf0 13bc
000002a0: 8152 c93c 904b 853b 63b8 f5bc 62aa c23c
000002b0: b155 e23c 9d4b 533c 8cec 19bd aaa0 f63d
000002c0: 4c97 513b 9f05 96bd 6c83 afb9 01ed 033c
000002d0: 7a97 3fbc fc2c 1d3d 1a8f 93bd f9ba 733c
000002e0: 0855 99bc 75d2 6cbc b49d f3bc d61b 09ba
000002f0: 88fb a7bc 8717 03bd 0acf 2b3c a89f 1e3c
00000300: e523 73bd 864a 5cbd 3c41 283d fbe2 d0bb
00000310: fa22 c73c 7ad8 a2ba f3d3 4bbc a3c3 433d
00000320: 9cf4 2fbc 3365 173c 98fd 063e 988a 173d
00000330: 547a b73a 69df 7ebc 5929 853c dbd8 73bc
00000340: d830 52bc b0a9 84bc aa39 c13c 8a03 2cbd
00000350: de6c 52bd 9702 85bc 5faf 92bc b095 0bbc
00000360: 36a7 aa3b 2908 363e 739a 203d 0e6e 91bc
00000370: cf88 aabb bd34 cf3c 85d9 1ebd bbff f43b
00000380: d51c 303b 85cf 7a3a 48fc fd3b 9cfa caba
00000390: 0c5b 04be c856 35bc e75b 263d f4b1 623d
000003a0: 42dc 21bc 9aab 44bb dfbd be3d 86c4 5cbc
000003b0: 31ad dfbb bb79 13bd 0ce7 d3ba bf01 7ebb
000003c0: 4a45 32bc 0a20 753b 76cf d03b 62c9 71bc
000003d0: 9584 843b 93c5 c9bd 3bc3 eb3c 6b37 ecbc
000003e0: 3cc4 0ebd 770e a43c 62ac a4bc e5c9 7c3b
000003f0: bbb4 283d ee1f 2abc 78f6 a53c 56db 113d

layers.3.bias f4 [5]
-0.20882766 -0.08749606 -0.09471441 0.20227131 0.2573777
00000000: ebd6 55be 2231 b3bd a1f9 c1bd 3620 4f3e
00000010: 03c7 833e
