irony/models/model_11.pt (torch_old, 58143 bytes, 8 tensors)

layers.0.weight f4 [70, 10]
00000000: 7c39 83be de5c d23c 07c3 813e 408b 1cbe
00000010: 97dd 94be c1b5 a13e 1058 3bbe 0489 94be
00000020: dd42 81be c7c3 db3d 5742 2bbd 313a d1bd
00000030: 62e3 a23d 6ec0 443b b999 83be 2ac1 c5bd
00000040: 832c 213e e483 003d 3633 663e e57b 5e3e
00000050: 12c2 153e 7497 6fbe e4f2 ca3d 1dfa cc3d
00000060: d94b 373e b0d1 13bd 524c f1bd b074 c8ba
00000070: a014 4fbe b9d4 c0bd 888b b0be 28a4 97be
00000080: 9102 1cbd 84f9 98bd 3793 313d 3974 dc3d
00000090: 4e43 243e eac8 813e 2121 973e c34e 173e
000000a0: 90ec 13be 1821 723e 1a8d f7bd cd65 ad3d
000000b0: decc 92be 84d3 86be 8166 933e d0e3 31be
000000c0: 70e5 2bbe 930f 16be 0394 79be 7dae de3d
000000d0: 744a 45be ade7 2b3d 76ab 883e 7357 153c
000000e0: 4013 893d ba4c 833e 492c c53d 2c69 8abe
000000f0: 7deb 313e 2e2a 533d 6ed5 81be c7e0 5bbe
00000100: d837 a7be e2b9 2a3e b754 b1bd 4530 73be
00000110: 676b 913d 32f5 ddbd a6f8 80be dffb 7bbe
00000120: 05d5 793e 34ff bd3e aaac 2f3e a47f 82be
00000130: 1949 3f3e e4da 663e af8d 4fbe 342b 5bbe
00000140: f9d2 c1bc 6fe2 403c 9d5d 85bd 1f58 903c
00000150: d931 b03d 47ea 8ebe 0dc5 f13d 9598 9cbe
00000160: 5c36 8b3e 1587 e13d e3b6 9c3d ef1d 32bc
00000170: 678a bf3d b776 543e b5c6 b03d b356 0e3e
00000180: ddd5 0e3d 1875 5bbe 68db 87be 952e 91bd
00000190: ca23 50be b3f1 9e3e 05ca 89be 7086 23be
000001a0: 841f 8c3d 0a67 ee3d ecc9 9e3e 54fa 453e
000001b0: 6f49 87be 2197 5a3e 88ed 5b3e 2568 9f3e
000001c0: ca14 fbbd 3335 213e 0a71 7cbe 581b ae3b
000001d0: 8a14 513e d6d4 dd3d 5501 59be 9482 61be
000001e0: 40ee 07bc d54e cbbc 56fc 6f3d 8084 e2bd
000001f0: d9d3 af3e 8718 5fbe 7dc9 033e ee4e 60be
00000200: a7e6 92bc 76a2 393e b4b7 953c a490 6bbe
00000210: 6384 4b3e f6f4 84be 90a8 ff3d 1d34 a2bd
00000220: 66cc 573e e131 403d 0b6d 74bd bf86 1a3e
00000230: 967f 7b3e 8c7c 793d 535e a8bd 49ad 613e
00000240: 49ad ca3d 80a1 95bd 4470 ae3d 919b 48be
00000250: e873 793e bcd8 5a3e 51b8 9fbe d923 c83d
00000260: 3a9a a1be 184f 8ebe c40b 1a3e a767 203c
00000270: 7ada 733e 380e c4bc 23e9 6e3e 99ec 5f3e
00000280: d148 293e ddb8 2c3c 1cb5 7abe 035f 5cbd
00000290: 2b6d 61be a187 5abe 13a0 423e 8029 4d3e
000002a0: a74d 00be 4168 363e c050 1a3e 4976 a0ba
000002b0: c157 eb3d 5672 06bd 1352 7ebe d970 033e
000002c0: 9871 c33d 5966 75bd ee7c 893e a3cb 55be
000002d0: 3610 b53e 2dab 673e 3f06 2ebe bb61 3fbe
000002e0: 836f 73be ef18 29bc 9d44 823e d2d8 6a3e
000002f0: 0d74 42bd ed42 02bd d4e9 83be d570 a83e
00000300: aa31 903e 6cb9 233d 7da3 53be cacd 35bd
00000310: 1fcd 7c3e 4712 43be 84be 513e bfd2 87be
00000320: 5685 5fbc 07c9 533e 2b6a b83e acb8 b2bd
00000330: ef6d b8be 8781 973d 3f8e cbbd 2ded afbd
00000340: 9316 a53d 44ec a6be f3e3 a53e 954d cebd
00000350: fa0a ae3d 451e d0bb 887b 18be 757e 52bd
00000360: 314c 1bbe c720 5abe bb15 2fbe 4bf7 97bd
00000370: c844 863c 7ffe 2a3e ffa0 903d 15dc 76be
00000380: 80f6 22be e86c 7f3e c722 5abe b05f 8fbe
00000390: c809 98be 49ec 77be fafa 67be d72c a43e
000003a0: 0799 803e 7ac8 4fbe e97b 4bbd 598e 873d
000003b0: 3eb7 2d3e 22ce 3c3d 75e7 93be bb64 b9bd
000003c0: 7f76 a5be f0ad aebe c21c a83e c934 793e
000003d0: 93a0 86be 5e5c 70be 46b1 b03d 11d0 213e
000003e0: f41d 73be 22e4 1ebc e773 e5bd a5bb 54be
000003f0: 4843 80be 9396 723e a3d7 573e 4b94 083e
-0.25629795 0.025679048 0.25344107 -0.15287495 -0.2907531 0.3158398 -0.18295312 -0.29010785
-0.25246325 0.10730701 -0.041811313 -0.10216177 0.07953526 0.0030021924 -0.2570322 -0.09655984
0.15739636 0.03137578 0.22480473 0.2172695 0.14624813 -0.23397619 0.09909609 0.10008643
0.17900027 -0.036088645 -0.11782135 -0.0015293565 -0.20222712 -0.094155736 -0.34481454 -0.2961743
-0.038088385 -0.07469466 0.043353286 0.10764355 0.160413 0.25348598 0.29517463 0.14776139
-0.1444571 0.23645437 -0.1208746 0.084666826 -0.28671926 -0.2633325 0.28789142 -0.1737206
-0.16786742 -0.14654379 -0.24372868 0.10873125 -0.19266683 0.04196899 0.26693314 0.009115088
0.06693125 0.25644475 0.09627587 -0.27033365 0.17374988 0.051553898 -0.25358146 -0.21472465
-0.32659793 0.16672471 -0.08658736 -0.23748882 0.071005635 -0.10837783 -0.25189704 -0.246078
0.24397667 0.37108767 0.1715571 -0.25488007 0.18680228 0.22544438 -0.20268892 -0.214032
-0.02366017 0.011772736 -0.06511996 0.017620144 0.08603258 -0.27913114 0.118051626 -0.3058516
0.2718991 0.11012093 0.076520704 -0.010871395 0.0935257 0.20748411 0.0863165 0.1390026
0.034871925 -0.21431386 -0.2653458 -0.07088963 -0.20326152 0.31043777 -0.2691194 -0.15969253
0.06841949 0.11640747 0.3101343 0.19333774 -0.26423213 0.21346714 0.2147733 0.31134143
-0.122598246 0.1574295 -0.24652496 0.005313318 0.20417991 0.10831611 -0.21191914 -0.22022468
-0.008296549 -0.024817863 0.058590256 -0.110604286 0.34341314 -0.217867 0.1286983 -0.2190511
-0.01793225 0.1812838 0.018276073 -0.23004395 0.1987472 -0.2596814 0.124833226 -0.07920096
0.21074066 0.04692257 -0.059674304 0.15090464 0.24560389 0.060909793 -0.08221116 0.2203876
0.09896333 -0.07306194 0.08517507 -0.19590594 0.24360621 0.2137174 -0.3119531 0.097724624
-0.31562978 -0.2779472 0.1504355 0.009790338 0.23813811 -0.023932561 0.23331122 0.21867599
0.16531684 0.010542122 -0.2448315 -0.053801548 -0.220143 -0.21340801 0.19006376 0.20035362
-0.12529622 0.17813207 0.15069866 -0.0012242283 0.11491347 -0.032823883 -0.24835996 0.12836017
0.09543151 -0.05991206 0.26853126 -0.20878462 0.3536393 0.22623892 -0.1699457 -0.18689625
-0.23773007 -0.010320886 0.25442973 0.22934273 -0.047473956 -0.031802107 -0.25764334 0.32898584
0.2816289 0.039971754 -0.20667835 -0.04438571 0.24687622 -0.19049941 0.20482832 -0.26527974
-0.01364263 0.20682155 0.360185 -0.087266296 -0.36021373 0.07397752 -0.09939241 -0.085901596
0.08060946 -0.3260213 0.32400474 -0.10073391 0.08498187 -0.0063512647 -0.14890873 -0.05139013
-0.15165783 -0.21301566 -0.17098133 -0.07420214 0.01639022 0.16698645 0.070619576 -0.24107392
-0.15914345 0.24943888 -0.21302329 -0.2800269 -0.29694963 -0.2421123 -0.22654334 0.3206546
0.2511675 -0.2029132 -0.049678717 0.066189475 0.16964433 0.04609502 -0.28887525 -0.09052416
-0.32316968 -0.3411708 0.3283444 0.24336542 -0.26294383 -0.23472735 0.08627562 0.15802027
-0.23741895 -0.009697946 -0.11203747 -0.20774706 -0.25051332 0.23690252 0.21078353 0.1333782

layers.0.bias f4 [70]
00000000: b310 47be 554c 7dbe 283a 4abe 5901 9e3d
00000010: 2da5 e0bd edab a8bd fb60 873c d8ca 13be
00000020: 11c5 833e 8201 f93d 407e 96bd d626 6e3d
00000030: 52f3 cc3d e277 563d 01bf 9bbe c6cd c93c
00000040: 598b 7a3e 3b5f 603e 94da 733e ab58 75be
00000050: 2628 99bc fcf3 59be 4726 07be 47ed 8e3e
00000060: 63bb 463e 8b17 95bd d1d8 803e e5fd 723e
00000070: ddd8 603e 562f 3a3d 7629 893e 5401 763e
00000080: 0fe1 423e d416 dc3d 64f7 84be bc55 26bd
00000090: a76e 713e 85bd 4b3e b158 403e df91 92bd
000000a0: 774d ae3c ac67 f6bd 69c4 81be 8620 a63e
000000b0: 7bda 223e 36e9 ebbd ba7a f03d 604c 8e3e
000000c0: 55ff 3ebe 901c babd 2d6a 00be 2381 2a3e
000000d0: acc5 963e 1896 9f3c e3b1 743b dd80 1f3e
000000e0: a0de 9d3e 0f5d 8f3e dfb4 d3bd 2a4b 3a3e
000000f0: eec2 18be cac1 54be 013e 263e 8f19 61be
00000100: d5fe 53be 2e45 0abd 06af 82be bf8a 1bbe
00000110: cc19 97be 7e86 a8bc
-0.19439964 -0.2473615 -0.19748747 0.07715101 -0.10969005 -0.08235917 0.016525736 -0.14432847
0.25736287 0.12158491 -0.07348299 0.058142506 0.10007347 0.052360423 -0.30419162 0.024634253
0.2446722 0.21911328 0.2381385 -0.23959605 -0.018695902 -0.21284479 -0.13198195 0.27915403
0.1940742 -0.07279881 0.25165418 0.23729666 0.21957727 0.0454553 0.26789445 0.24023944
0.19031166 0.107465416 -0.25969994 -0.040609106 0.23577367 0.19896515 0.18783833 -0.07156729
0.021277172 -0.120314926 -0.25345162 0.32446688 0.15903656 -0.11519091 0.11742158 0.27792645
-0.18652089 -0.09087479 -0.12540503 0.16650824 0.29447687 0.01948075 0.0037337474 0.15576501
0.30833912 0.28000686 -0.10337233 0.18192735 -0.1491811 -0.2077705 0.1623459 -0.21982406
-0.2070268 -0.03375738 -0.25524157 -0.15189646 -0.2951187 -0.020571943

layers.1.weight f4 [80, 70]
00000000: 3cd6 5d3d f23a d33c a473 0bbd c902 ab3d
00000010: 1ba7 c8bd 3f31 2c3d b34c 343d 8a4c 21bd
00000020: 2bca a2bd efdb 6dbd de84 3cbd 10fd 133d
00000030: 64a3 bebc 1641 91bd af31 6bbd 9106 113e
00000040: b99d 00be f259 59bd d754 8d3c f17f cc3d
00000050: c9d2 533d ac40 963c 8717 6dbd 492e b1bd
00000060: ba01 2a3d 770a 893c 1cf5 9dbd dfba 90bc
00000070: d6e4 7d3d 35a6 bb3d 1fd0 3d3d d71e 763a
00000080: 577d 1a3d 468d b43c 86d7 d7bd e37f 85bd
00000090: b416 1d3e 7258 893d 478d 9ebd f08a 7e3c
000000a0: 1ef3 4dbc 08e2 163e 95bd 4c3b af5b 71bd
000000b0: d7ed 4c3d 4ae5 05be 8da4 8abd b0b3 afbd
000000c0: a077 8bbd a759 833d bde7 723d f756 d73c
000000d0: 342a 833d dc9b b3bc d5c7 d8bd 369d 10be
000000e0: b184 f03d fca5 f83d 86b3 f13a 5bb2 83bd
000000f0: ef63 25bd b4b6 f7bd f238 da3d 032e 403d
00000100: 1903 c1bd 6dfc d73d 5903 24b9 902e bcbd
00000110: 287b ddbd 1c76 583d 14b7 89bd 985f 3c3d
00000120: 6ba4 aa3b a756 ab3d f728 8d3d fd2a d0bd
00000130: 0d7e 843d 5594 ecbc 9cf5 b7bd 4b96 e33d
00000140: 9e3d b03d df1c ebbd e8cd a7bd c10d 333d
00000150: 56e9 8e3d 4b74 0e3d 2c4a 813d 3e03 3c3d
00000160: 65dc f13c 6bb3 21bc 6f42 053e 2986 90bd
00000170: 3764 f2bd c50a 9dbd 9ae6 793d 305b 0fbb
00000180: 15aa 1c3d 6212 e83d 0808 213c 6f13 f93c
00000190: fd18 c43d e462 883b 48a7 d23c 4308 6c3c
000001a0: d9af fabd 6bc7 a8bd fed5 b43d f225 9d3d
000001b0: 9d3d e8bd 4647 5ebd bf49 733d 703f 07be
000001c0: 3d8f 373c 60d6 a8bd c194 e4bc 7d96 063d
000001d0: 5ec7 093d 2d75 a03d 7937 013d e481 0dbe
000001e0: 44c6 033e 8459 d63c 89ea c6bc b52d 903c
000001f0: 7d85 ca3d 31ba e8bd b4ed cebd 01b0 5bbd
00000200: eb75 eb3b c0f9 27bd 2189 683c 5579 9b3d
00000210: 4571 99bc c7da ecbd acef d93d b3ff c23b
00000220: 1f1c 133d 8247 53bb 581c ba3d 6f54 1d3e
00000230: 5a3d 8d3d 6ac0 0a3d 099b cb3d 0221 e63d
00000240: 9fe7 a6bd e677 d83d 18b7 04bd 3220 64bd
00000250: e468 f63c e4ea 70bd 9974 c83d a477 08bd
00000260: 0352 5e3d 75fd c7bd ddbd 9dbd 09cb d93d
00000270: 345f 83bd d1dc 58bd 524f bb3d bbc4 93bc
00000280: 3402 05be 901e 69bd d403 bc3c 6e55 bf3d
00000290: 5a15 50bd b86f d63d 20fb eabd af47 11bd
000002a0: 7ca9 983d 7697 d63c 71c1 3fbd b26b 943d
000002b0: 5a1a babd ab50 153d 5c42 43bc 9e5a dc3d
000002c0: 5ca9 dcbc 0250 da3d be26 b33d 3708 91bd
000002d0: 41f1 323d a6bb d9bb 147b 34bd 32cc 9d3c
000002e0: 3a86 373d 89be 2f3d 6519 a93c f36b b93b
000002f0: e038 e83d 7942 5d3d a35d c63c 48af f53d
00000300: f710 00bd 6db3 de3c 613a c5bd cdfb 0cbd
00000310: ccea ac3d 35fc 8dbd b4d8 e23c b6e5 19bc
00000320: 02df 17bb 3660 9ebd 9f3f 42bd 0f38 a33d
00000330: 2c38 383d b02e c4bc 6cc8 8ebd ab1d debd
00000340: 78f9 c23d edb7 65bc 3d59 b33c 919c 95bd
00000350: 00cb 023c 3f30 093e dcdf 1bbd 4321 c33c
00000360: ee3a a4bd a82c 6ebc 9294 e43c 3893 cfbd
00000370: 5830 333d f3f6 9b3b 3a4a 9e3d 2854 cfbd
00000380: 4ed3 a13d 8f49 073e 56fa e4bc 2e2d 813c
00000390: 37e0 72bc 9a98 81bd 8a63 0cbd 1d66 4a3d
000003a0: d515 ea3c 2713 da3d 0ded 613d 218b 0fbd
000003b0: 60e1 b6bd 0c19 0dbd 2f6b 003e dcb5 1f3d
000003c0: 96ef 7a3d d85b 29bd b07c 3a3c a76b 52bc
000003d0: 18dd d6bc cfb6 c5bc 1f61 94bd fa0a b23d
000003e0: c53c bc3c 46e9 9f3c 29c5 f1ba 255f fd3d
000003f0: b192 9f3c bb65 d43d b898 2abd 49e8 9d3d
0.054159388 0.025784943 -0.03404583 0.083501406 -0.09797498 0.042039152 0.04401846 -0.039379634
-0.07948717 -0.058071073 -0.04602515 0.03613001 -0.02327127 -0.07092492 -0.05742043 0.14162661
-0.12560166 -0.053064294 0.017252369 0.099853404 0.051714692 0.018341385 -0.057883766 -0.08651406
0.041505553 0.016728623 -0.077127665 -0.017667232 0.061985813 0.09162561 0.046341058 0.0009388751
0.03771719 0.02204002 -0.10539155 -0.06518533 0.15340692 0.06706323 -0.0774179 0.015536055
-0.012570171 0.14734662 0.003124093 -0.058925327 0.05003151 -0.13075748 -0.06769667 -0.085791945
-0.06809926 0.06413584 0.059303034 0.026286585 0.06404534 -0.021924905 -0.1058499 -0.14122471
0.11744059 0.12141034 0.0018440343 -0.06430503 -0.040378507 -0.12095395 0.10655393 0.04691888
-0.09424419 0.10546193 -0.00015641506 -0.091885686 -0.10814506 0.052847013 -0.067243725 0.045989603
0.0052075884 0.08366137 0.06892579 -0.10164449 0.06469355 -0.028879324 -0.08982393 0.111126505
0.086055025 -0.11480116 -0.081935704 0.04371429 0.06978099 0.034778874 0.06312975 0.04590153
0.029524038 -0.009869437 0.13013624 -0.07056839 -0.11835521 -0.0766807 0.061010934 -0.002187442
0.03824814 0.11331631 0.009828575 0.030404774 0.09575079 0.0041621793 0.025714532 0.014406267
-0.122405715 -0.08241161 0.08829878 0.07673253 -0.11339877 -0.05426719 0.0593965 -0.13207793
0.011203584 -0.08244014 -0.027902963 0.03285836 0.033637397 0.078348495 0.031547043 -0.1381908
0.12868601 0.026165731 -0.024281757 0.01759992 0.09888742 -0.11363638 -0.10103932 -0.053634647
0.007185688 -0.041009665 0.01419285 0.075915016 -0.018730769 -0.11565166 0.10641417 0.005950892
0.03591549 -0.0032238667 0.090874374 0.1536424 0.068964675 0.033874907 0.0994168 0.112367645
-0.08149647 0.10569744 -0.032401174 -0.055694766 0.030079313 -0.05881776 0.09787864 -0.033317223
0.05427743 -0.0976514 -0.07702229 0.10634429 -0.06414643 -0.052944962 0.091459885 -0.018038144
-0.12989122 -0.056913912 0.022951044 0.09342466 -0.050801612 0.104705274 -0.114736795 -0.035468753
0.074542016 0.02619527 -0.04681534 0.07247104 -0.090870574 0.036453884 -0.011917677 0.10759471
-0.026936226 0.106597915 0.08747624 -0.07081645 0.04368711 -0.006644684 -0.04406269 0.019262407
0.044805743 0.042906318 0.020641992 0.0056586205 0.11338973 0.05401847 0.024214571 0.11996323
-0.03126618 0.027185166 -0.096302755 -0.034419823 0.084432214 -0.0693287 0.027691223 -0.009393146
-0.0023173694 -0.077331945 -0.047423955 0.07969677 0.044975445 -0.023948044 -0.06971821 -0.108455025
0.09520239 -0.014020902 0.021893138 -0.07305253 0.007982969 0.1339731 -0.038055286 0.023819571
-0.080190524 -0.014537014 0.027902875 -0.101355016 0.043747276 0.0047596633 0.07729001 -0.101234734
0.07901631 0.13211654 -0.0279514 0.015768614 -0.014823965 -0.063279346 -0.034274615 0.04941379
0.028574863 0.10648184 0.05515771 -0.035044793 -0.089297056 -0.034447715 0.12540887 0.038991794
0.061263643 -0.041347355 0.011382267 -0.012843049 -0.026228473 -0.024135021 -0.07245087 0.086935
0.022978196 0.019520413 -0.0018445599 0.12371663 0.019479128 0.10370966 -0.04164955 0.077103205

layers.1.bias f4 [80]
00000000: 3ec2 96bd 67ad 7bbd 7f1d 1d3d 21c6 70bd
00000010: de49 133d 4747 2a3b d344 a23b 8b5f 6cbd
00000020: 45f4 c53c 8836 16bb 3388 fc3d 3b8d bf3d
00000030: caa7 953d 4de1 883d f354 583d 9606 043d
00000040: e957 5bbd 6bff b83d 603c 543d a168 b83d
00000050: bc5a de3c 94a8 c83b c629 c3bd 5c71 ad3d
00000060: 76b4 8abb 7112 5f3d fd48 4cbd dc51 673d
00000070: 76f8 513d b3ac 9bbd db62 06bd 1bc5 4ebd
00000080: 43a3 803d 81e6 013e b828 48bc 6a22 b8bd
00000090: 2ce6 d5bb 7ec6 19bd 062e a03d 6644 c23c
000000a0: 5028 acbd 2fd4 c93d 9364 b23d 8c55 4dbc
000000b0: dfb3 cd3b 0c6e af3d e035 3c3d 6ad7 4a3d
000000c0: 1f8b 973d c673 c6bd 5741 6dbd f2fc 8a3d
000000d0: 104e be3d 71f9 1d3c 8458 c4bc 7199 9cbd
000000e0: fd59 d83c d96a d83d ed65 133e 31ac adbd
000000f0: 30b6 a9bd 577e a2bd fade 583d 1a63 703c
00000100: b04b 83bd 585c b93d ae54 823d 70d8 9f3d
00000110: 9878 c3bc cc71 45bd 29e5 363d 2976 b43d
00000120: 2064 aabb 6e62 073e 8ba6 9a3d 7670 d93d
00000130: a394 31bc 2624 483c 9924 053e 2e4e 163e
-0.073612675 -0.061444666 0.038358208 -0.0587827 0.035959117 0.0025982426 0.004952052 -0.057708304
0.024164328 -0.0022920687 0.123306654 0.093531094 0.07307394 0.06683598 0.05281539 0.032232843
-0.053550635 0.09033092 0.05181539 0.090043314 0.027142875 0.0061236117 -0.09529452 0.08468887
-0.0042329384 0.054460946 -0.049874295 0.05647455 0.05126234 -0.07601299 -0.03280912 -0.050480943
0.0628114 0.12685587 -0.012216739 -0.08990939 -0.0065276828 -0.037542813 0.07821278 0.023714256
-0.084061265 0.09854924 0.08710589 -0.012532603 0.006277546 0.08565912 0.045949817 0.04952184
0.07399582 -0.09690051 -0.05792364 0.06786527 0.09292233 0.009641991 -0.023967989 -0.07646454
0.026410097 0.105672546 0.1439435 -0.084801085 -0.08286703 -0.07934254 0.052947022 0.014672065
-0.064109206 0.09050816 0.063638076 0.07804954 -0.023861215 -0.04820423 0.044652138 0.088116
-0.005199924 0.13221142 0.07551297 0.10617153 -0.01083866 0.01221565 0.13002242 0.1467826

layers.2.weight f4 [90, 80]
00000000: f9bb 96bd dc0a a63d 9d47 47bd 4fd4 0d3c
00000010: 1539 edbc 414c 513d 14f0 8a3d 208f 973d
00000020: b76a 043e 359e 1b3d e22b 60bd 994c 99bd
00000030: 87f9 d8bd fee2 6f3b 56fd ecbd 5962 023d
00000040: f376 bdbd 65e3 913d 31a7 fdbb 0c68 b5bc
00000050: a40f 9fbd 3312 e3bd 4666 bb3c 6e78 7f3d
00000060: adcb 82bd 5d7b 16bd 068f 443d 078a b8bd
00000070: a566 94bd 4fc8 a3bd 2bf3 6c3c d108 94bd
00000080: ead8 afbd 1fb8 353d 1895 85bd 6e00 e53c
00000090: be3f 093d d5b0 cebd 4bb3 99bd 22a1 0dbc
000000a0: f0c7 a6bd 41fd d4bd 1019 f03c e1a2 f2bd
000000b0: df7a 703d a9a7 00be e7ac 06bb 0f41 de3d
000000c0: e08c 49bd 783b a63d a76e f23d 116d 7dbd
000000d0: 4235 dc3c 9baa 8b3d 2400 cabd 9446 063b
000000e0: 36a0 0ebe bac4 b23d 94f6 8bbd 0cb5 36bd
000000f0: a730 7bbd b1c5 d7bd 2080 70bd aeb6 42bd
00000100: 5638 cd3d f75a 283b bc12 873d 4546 e0bc
00000110: 8cc4 d63d 1fbb 79bb 157d 973d 6b7e 82bd
00000120: 009b 1f3d a286 0dbd dd8c 40ba 2bac cb3c
00000130: 610b 9f3c a128 b4bd ea3e 353d 018b 04bc
00000140: 9030 af3d 4cad 74bc e2eb 60bd 3ac7 c83d
00000150: 533a b13d 6668 a6bd 59f7 6dbd ab8e 83bd
00000160: 4432 153e 866d 4e3d c739 2abd d2e1 c3bd
00000170: 6dbb 1bbc e8a4 76bd 59ba a2bc 74b4 893c
00000180: 6bc4 ffbd 29a4 8ebd 8d11 ab3d 4331 b6bc
00000190: 9865 ccbc 66af 123d f177 f33c 8295 423c
000001a0: 34a5 c1bc 0f9b 79bb 9dec ddbd 9fed b63d
000001b0: bd54 42bd f7f8 13bc 83ee 8cbc b1d7 35bd
000001c0: 4db4 023c d0b9 42bd 5c06 efbd a212 dbbd
000001d0: 5203 c4bd b70e 9cbd 30c5 92bd 3cc1 733c
000001e0: ac56 713d cd98 093e 7119 87b9 be20 433d
000001f0: 38b5 4b3d 470a fe3c 3aa1 023d 1fa0 223d
00000200: 6c31 343d c2dc abbd 70d3 c8bd c31c d2bd
00000210: 64e7 fbbd af7c dbbd 97e9 453c f2d6 a8bd
00000220: 6b5e c13c b8dd 06bc 4efe 57bd 8e08 8f3d
00000230: e36c 1cbd 32a0 54bc 577d 9dbd caac 11bd
00000240: e7cc 98bd fad8 d6bd 7e7c a9bd b083 883d
00000250: b8d1 c9bc c27e 023e d807 503c 2d5a 99bc
00000260: a261 82bd 6bd7 043e e53d 64bd 3680 19bd
00000270: 25bc 9cbc 4723 c2bd 7c31 dbba 7cb1 53bd
00000280: 8e65 0cbc 3cf5 e93c 3b02 df3d 8413 a63d
00000290: 1bac 0d3d f015 e3bd caa2 6abc 0956 07bd
000002a0: 797c 5ebd 18ff ce3d 9776 fb3c 05c7 643c
000002b0: 3ed1 66bd bcca 18bd b189 c33d 4ef7 a43d
000002c0: 355c 55bd 1f5a db3d 5f10 e03d 535e 9a3d
000002d0: f198 323b 2f1c bebd b2c6 fe3c 225f d63d
000002e0: cf65 cd3d 2a99 44bd 1f5b 3a3d 4724 88bd
000002f0: 53cd 9ebd 0843 f93d 5fbf 513d 86fb 59bc
00000300: fd37 333d abce 07bc 07ee 813d 4945 a33d
00000310: 92f5 e23d b45b fd3c e9fa ca3c 7571 b13d
00000320: d72f 893c f72a 313d 5302 613d 6648 9ebd
00000330: cd62 11bc 4912 d13d a30c fe3d 0dd6 c63d
00000340: 3f64 38bd 837b 9bbd b6ff aa3d 6121 323d
00000350: 94ca d53d 9580 503b b9a0 a3bd c0f1 b3bd
00000360: b61b 46bd 4aca 85bd c099 82bd 6e21 383d
00000370: d397 85bd f9ca a8bd 7c37 883d 34de 79bc
00000380: 56a7 1d3d 8470 ca3d 8e4d 4dbd 49b8 df3d
00000390: 78b7 1cbc c8ec b4bd 8ac4 843c 0064 f1bd
000003a0: f04a 00be 48de 08be 3288 003b 2e4c b2bd
000003b0: 8cf9 bbbd 0f51 a8bc 0775 863d 4669 04bd
000003c0: d0a0 a03c bbd3 4d3c e799 efbc d350 713d
000003d0: c0e1 e8bc 667d 02be 8d9f c03a 3cde 31bc
000003e0: 7392 cdbb c00a a03b 324f 42bd 7f34 763a
000003f0: 791d aabd ff00 07be 047e f33d b9e2 a4bd
-0.07360072 0.0810754 -0.04865228 0.008656575 -0.028957883 0.051098112 0.067840725 0.07400346
0.12931333 0.037992675 -0.05472935 -0.07485313 -0.105944686 0.0036603804 -0.115717575 0.031832073
-0.092512034 0.0712345 -0.007740878 -0.02214434 -0.07766655 -0.110874556 0.022875916 0.06237071
-0.06386504 -0.036738742 0.04798796 -0.090107016 -0.072461404 -0.0799719 0.014462273 -0.07228244
-0.08586295 0.044365045 -0.06522578 0.027954306 0.033508055 -0.10092322 -0.075049005 -0.008644374
-0.08143604 -0.10399867 0.029308826 -0.11847473 0.05871093 -0.12563957 -0.0020549835 0.10852253
-0.049206614 0.081168115 0.118375115 -0.061871592 0.026880864 0.0681965 -0.09863308 0.0020488845
-0.13928303 0.08728929 -0.068341404 -0.044606254 -0.061325695 -0.105357535 -0.05871594 -0.0475375
0.10020511 0.0025688985 0.0659537 -0.027377257 0.10486707 -0.0038105918 0.073969044 -0.063717686
0.03896618 -0.034552224 -0.0007345209 0.02486237 0.019414606 -0.08796812 0.044249453 -0.008089782
0.085541844 -0.014933895 -0.054912455 0.098036245 0.086537026 -0.08125381 -0.058097217 -0.06423696
0.14569956 0.05039742 -0.041559007 -0.09564556 -0.009505135 -0.06021586 -0.019864248 0.01680968
-0.12488636 -0.06964905 0.08352957 -0.022240287 -0.024950787 0.035811804 0.029720278 0.011876466
-0.023638345 -0.0038086807 -0.10836146 0.089320414 -0.047444094 -0.009031526 -0.017203575 -0.044395152
0.007977557 -0.047540486 -0.11671135 -0.10696913 -0.09570946 -0.07619994 -0.07166517 0.014877614
0.058920547 0.13437195 -0.00025768162 0.047638647 0.04973337 0.03101076 0.03189204 0.039703485
0.043992445 -0.083917156 -0.098059535 -0.10259392 -0.12299994 -0.10717141 0.012079618 -0.082441226
0.023604592 -0.008231573 -0.05273276 0.069840536 -0.03818978 -0.012977647 -0.07689922 -0.035565175
-0.07460957 -0.10490604 -0.08275698 0.066657424 -0.024636135 0.12743667 0.012697183 -0.018719757
-0.06366278 0.129728 -0.05572309 -0.037475787 -0.019132683 -0.09479385 -0.0016723122 -0.051682934
-0.008569134 0.02855932 0.10889097 0.08109191 0.03458796 -0.110881686 -0.0143210385 -0.033041034
-0.054317925 0.10107249 0.030696196 0.013963466 -0.056351893 -0.037302718 0.09547747 0.08054982
-0.05208989 0.107105486 0.109406225 0.07537522 0.0027251805 -0.09282719 0.031100605 0.10467364
0.10029184 -0.04799763 0.045497056 -0.06647544 -0.07754006 0.12170988 0.051207896 -0.013304597
0.043754566 -0.00828902 0.06344228 0.079721995 0.11081995 0.030927517 0.024777846 0.08664218
0.016746445 0.043253865 0.054933857 -0.07728653 -0.008873654 0.10208566 0.12404754 0.09708796
-0.045017477 -0.07591917 0.08349554 0.043488864 0.10439029 0.0031814922 -0.0798964 -0.087863445
-0.04836627 -0.06532724 -0.06376982 0.044953756 -0.06523099 -0.08241839 0.06651208 -0.015250731
0.038489662 0.09884742 -0.05012279 0.109238215 -0.009565227 -0.08834225 0.016206998 -0.117866516
-0.12528586 -0.13366044 0.0019612429 -0.08705936 -0.09178457 -0.020546464 0.0656529 -0.03232696
0.019607931 0.0125626875 -0.029248191 0.05891497 -0.028427958 -0.12743148 0.0014695987 -0.010856207
-0.0062735616 0.004884094 -0.047438808 0.0009391978 -0.08306403 -0.13183974 0.1188927 -0.080510564

layers.2.bias f4 [90]
00000000: 320d 303d 1b8c 0d3e 32f8 06bd e405 8ebd
00000010: 5e19 d93d 8866 c53d 8829 0cbe 2a7b c7bd
00000020: ed02 73bd 866f a83d 9fdb de3c 4175 0fbd
00000030: 2441 0dbb 196d dd3d 5928 eabd 4bb4 113c
00000040: a690 d03d 5937 2ebd 1a67 5a3d 9003 4c3d
00000050: 7b98 0b3e 0e53 46bc 2aa8 c23b b4bb 863d
00000060: 2d83 a53d 3157 9cbd 039d 4e3c 433b f2bd
00000070: 87a8 553c a546 ef3c 004f 1ebd b069 d43c
00000080: 8767 a53c 4b75 2fbd a009 803d 7e60 9a3d
00000090: 393a fc3d 0c57 85bd 9d41 8fbc 3aeb 323d
000000a0: 8a2e e9bd 2167 243d 9080 ccbb 2ab1 b4bd
000000b0: 32e2 16bc 9a80 873d 0f51 b0bd 1216 893c
000000c0: b92a 383d d4fc 163c 67aa a5bc fe62 29bc
000000d0: 6aae 57bc c63d a7bd 49ce 9dbd deb5 84bd
000000e0: 8eb2 7ebd 8454 133c f482 9fbd 256f d2bd
000000f0: dd7e bdba 0e9f b4bd 896a dd3d 06c5 3abc
00000100: 7e8b 21bd 4653 e6bd 6f13 9fbd 4d8e 3d3c
00000110: 5056 ab3d cd52 a83c 583b 053c e67e 9cbd
00000120: 1b19 363d 057a 983d 339e ae3c a0c0 babd
00000130: fb77 7abd 6621 7f3d b527 86bd 179d 783d
00000140: 1134 30bc 2f0b ffbc 4e4b 7ebd 5903 9cbd
00000150: 6f8f 0ebd 8ae2 d93d 1cd2 5cbd 0dcc 973d
00000160: 02c5 dcbd 0ae0 22bb
0.042981334 0.13822977 -0.03295154 -0.06934717 0.106005415 0.09638697 -0.13687718 -0.097402886
-0.059328962 0.082243964 0.027204333 -0.03502393 -0.002155372 0.10811824 -0.11433477 0.008893083
0.101838395 -0.042533252 0.05332098 0.049808085 0.13632385 -0.012104763 0.005940457 0.0657877
0.080816604 -0.07633818 0.012610677 -0.118277095 0.013040668 0.02920849 -0.03864956 0.025929302
0.020190967 -0.04283647 0.06251836 0.07537936 0.123157926 -0.065107435 -0.017487342 0.04368136
-0.1138583 0.040137414 -0.006240912 -0.08822854 -0.009209203 0.06616326 -0.08609211 0.016734157
0.04496262 0.009215552 -0.020222856 -0.010338543 -0.013164142 -0.08166079 -0.077053614 -0.06480001
-0.062182 0.008992318 -0.07788649 -0.102751054 -0.0014457364 -0.088194 0.108113356 -0.011399513
-0.03943967 -0.11246352 -0.077673785 0.011569572 0.08366072 0.020547295 0.008131824 -0.076413915
0.044457536 0.074451484 0.02131567 -0.091187716 -0.06114958 0.06228771 -0.06550542 0.060696688
-0.010754601 -0.031133262 -0.062083535 -0.07617826 -0.034804758 0.10638912 -0.053911313 0.074119665
-0.10779764 -0.0024852776

layers.3.weight f4 [5, 90]
00000000: eff9 91bd 124e 7ebd 89eb a5bd ca65 fabd
00000010: 4c82 47bc 4007 53bd c612 233d 8ebc eabd
00000020: c28e 0b3d 0381 03be 1cbc 07bd 99d7 84bd
00000030: 3efe 1bbe 0369 a1bd 644b dd3d 4857 073c
00000040: e2b6 90bd 2141 afbd 0e96 523d f13a ee3d
00000050: 7415 c5bc cc7d 15be c0e8 8dbd ced9 d23d
00000060: acc8 0dbe b573 b63d 2bdc c83d 2596 90bd
00000070: dae6 ed3d 3f3f b53d 466b a8bd 3070 fabc
00000080: 9da3 1b3d 648f df3d bbc6 823d 8148 fe3d
00000090: 11e0 af3d a8ec 723d a551 7c3d 3c15 0a3d
000000a0: d001 003e 880b dabd a678 9c3d de14 c8bd
000000b0: a3a3 07be d692 e2bd 427a d53b 82d1 e53d
000000c0: bacb a2bd 46d9 cd3d 5f99 e2bd 2070 913d
000000d0: 33d9 2dbd bc74 9abc ba92 823c 21c6 62bd
000000e0: 21c5 87bd 7ec7 c0bc a196 9bbd d549 f3bc
000000f0: 09cb 14bd 28a2 053e 9033 003e 9e7a b23d
00000100: 6076 5fbd f201 a4bd 925b 5fbc 2ca9 7fbc
00000110: bf64 ef3d e0f0 09bd 92e6 393c 71fd a13d
00000120: 554a d4bd d88b c03d 0b2c 3d3c 1c02 883d
00000130: a9da 063e 4271 403d 7c44 cdbd 8f95 8c3d
00000140: 394d 63bd 29bd 193d ee46 f13b 206f 463d
00000150: 2689 f1bd 098b 86bd 7350 f43d 3bba bd3d
00000160: 1280 f6bc 9a53 13be 78b4 42bd f232 a43d
00000170: 37ea dbbd 227e 75bd dff9 683d 004c 00be
00000180: 86d7 bebc a671 5c3d 70a3 943d 2345 c4bc
00000190: 43f9 e7bd ad29 f6bd 8f1a ddbd 591c 023e
000001a0: f29c 24bd 2cd0 a33d c6ae dfbc 434e 95bd
000001b0: 21e9 983d 52c7 96bd 264a 643d 3fdf 1ebd
000001c0: 3069 fbba 8dbe cd3d 41f0 c1bd 0ab8 4ebd
000001d0: 1a9a 963d d939 c9bc f432 703d cf5e d23d
000001e0: 9dfb b63d 9aad 25bc de7c 28bd 4c1a fa3d
000001f0: a4f3 01bc bfc3 95bd d317 dc3d 28b0 53bd
00000200: 22e5 903d edfc 9dbd 2c18 843d 5d95 ebbd
00000210: de53 893d 7635 03bd 48df 05be 6b21 8ebd
00000220: 2437 133d 8111 9a3d a819 5ebd e691 b83d
00000230: 8e3f 16be 802c ff3d c7ed 013e 2543 8abd
00000240: d191 d03d b15d 553d 371c 0c3e 9e59 833d
00000250: 5507 1b3d dd91 93bd baeb 98bd 3d60 69bd
00000260: cb93 eb3d 15b0 ee3c 4317 063d 3f7c 663d
00000270: 2f64 5f3c f0b5 7c3d 6f0a fe3c 797b cdbd
00000280: 9d47 a8bd 3169 063e 0ed1 35bd 70da dabc
00000290: de4a 49bd e382 023e 0bce 023e ee94 6dbc
000002a0: 8063 d1bd 5e7e 443c f918 803d 1d0f 25bd
000002b0: 9900 4fbc f25d 193d e7b4 bbbd 5b15 d2bc
000002c0: dd07 cc3d 371e ffbd 3977 e8bd 2b7c c2bc
000002d0: d3f5 ebbd ba5c c7bc e5df febd 216d 03bd
000002e0: 02ac 4c3d 7308 eaba 0b4f 9c3d 63a3 083d
000002f0: 46f9 22bd f242 e53d 1ba2 abbd 483d 00bd
00000300: 2e2c 953d 2de2 e2bc c8a1 a1bb 7ca1 303d
00000310: 5bb0 c13c 4399 53bd 8d13 31bd 0392 b43d
00000320: 3776 53bd 1ef6 bc3d bfbc febd 1424 31bb
00000330: 5d9f 033e fa8c 7a3d a03f 193d 382e 3e3d
00000340: b415 023e 571b f23c ad39 c2bd f7a9 c03c
00000350: 7947 b0bc 961f ba3b 3df5 68bd 2f62 8abd
00000360: a9db 0d3e e7f9 02be aef4 9d3c 0faf c2bd
00000370: 985e bfbd aeb9 953d ac81 153d 7618 04bd
00000380: b8a4 f33d 0d92 80bd c9e5 333d 25c1 edbd
00000390: ab16 b9bd df29 1c3d b307 4b3d 130e b8bd
000003a0: 4709 9c3d c731 90bc c2c6 04be 2edf e23d
000003b0: aa61 0a3e 805d 86bd 5d44 b33d cb24 bcbd
000003c0: 6e08 873d 733c 8a3d 508a 263c b78f 32bd
000003d0: 180f 8c3c ddd1 703d 326d 08be fa56 813d
000003e0: 3b00 bc3d 5c8b 74bd 46a1 453d 4aab 70bd
000003f0: 641a 4cbd 4cb8 21bd 74a8 6b3c 4c20 8ebd
-0.07127749 -0.062086172 -0.081015654 -0.12226446 -0.012177061 -0.051520586 0.039812826 -0.11461745
0.03407169 -0.12842183 -0.03313838 -0.064864345 -0.15233704 -0.078813575 0.10805395 0.008260556
-0.07066132 -0.08557344 0.051412635 0.11632336 -0.024058081 -0.14598769 -0.06929159 0.10295449
-0.13846081 0.08908788 0.09807619 -0.07059888 0.11616297 0.08849954 -0.08223586 -0.030571073
0.03799783 0.109160215 0.06385561 0.12416173 0.08587659 0.059307724 0.0616013 0.033711657
0.12500691 -0.10646731 0.07640199 -0.09769605 -0.13246016 -0.11063163 0.0065148184 0.11221601
-0.07949014 0.10051207 -0.110644095 0.07101464 -0.042443465 -0.018854491 0.015939105 -0.05536473
-0.06629396 -0.023532625 -0.075970896 -0.029698292 -0.036326442 0.13050139 0.1251967 0.087147936
-0.05455625 -0.080081835 -0.013632672 -0.015604299 0.11689138 -0.033676982 0.011346476 0.07909668
-0.1036574 0.09401673 0.011546145 0.06641027 0.1316935 0.04698301 -0.10022828 0.068644635
-0.055493567 0.037533913 0.007363192 0.04844582 -0.11793737 -0.065694876 0.11929407 0.09264036
-0.030090366 -0.1438736 -0.04753539 0.080175295 -0.10738032 -0.059934743 0.05687892 -0.12528992
-0.023296129 0.05381932 0.07257736 -0.023958748 -0.1132684 -0.12019668 -0.10796081 0.12706126
-0.040188737 0.0799869 -0.027305018 -0.07290318 0.07466341 -0.07362236 0.055734776 -0.038787123
-0.0019181129 0.1004611 -0.09469653 -0.050468482 0.07353611 -0.024563717 0.058642343 0.102719896
0.0893471 -0.010112191 -0.041134708 0.12212047 -0.007931624 -0.07312726 0.107467316 -0.051681668
0.070749536 -0.077142574 0.06449923 -0.11503098 0.067054495 -0.032033406 -0.13073456 -0.06939968
0.035941258 0.0752287 -0.054223686 0.09012203 -0.14672682 0.124596596 0.12688361 -0.06751088
0.10184062 0.052091304 0.13682638 0.064135775 0.03784879 -0.072055556 -0.07466836 -0.056976546
0.11502799 0.029136697 0.032737028 0.056270834 0.0136347255 0.061696947 0.031010835 -0.10033316
-0.08216784 0.13126065 -0.044388823 -0.026715487 -0.049143665 0.12745242 0.12773912 -0.01450084
-0.10224056 0.011993019 0.06254763 -0.040297616 -0.01263442 0.03744311 -0.09165364 -0.025644949
0.09962437 -0.12456935 -0.11350865 -0.023740849 -0.115214966 -0.024336208 -0.12445048 -0.032086495
0.049968727 -0.0017855301 0.07632264 0.033358943 -0.039788507 0.111944094 -0.083805285 -0.031308442
0.07283817 -0.02769574 -0.004932616 0.043122754 0.023643663 -0.051659834 -0.043231536 0.08816912
-0.05162641 0.09226631 -0.12438344 -0.002702956 0.12853761 0.061169602 0.037414193 0.046430796
0.12703592 0.029554052 -0.09483657 0.023518546 -0.021518456 0.005680035 -0.056874502 -0.06757008
0.13853325 -0.12790643 0.019281711 -0.09506046 -0.09344214 0.07310806 0.036500618 -0.03224989
0.11896652 -0.06277857 0.043920312 -0.11609105 -0.09037527 0.03812587 0.04956789 -0.089870594
0.07618957 -0.01760186 -0.12966445 0.110777244 0.13513818 -0.065608025 0.08753274 -0.09186705
0.06593405 0.06749811 0.010164812 -0.04359409 0.017097041 0.05879389 -0.13322905 0.063154176
0.091797315 -0.059703216 0.048249505 -0.058757104 -0.049829856 -0.0394824 0.014383424 -0.06939754

layers.3.bias f4 [5]
00000000: 38f2 c8bd df4f 603d c169 bfbd 4994 5bbb
00000010: f02d bd3d
-0.098118246 0.05476367 -0.09346343 -0.0033505133 0.092372775
