irony/models/model_45.pt (torch_old, 58143 bytes, 8 tensors)

layers.0.weight f4 [70, 10]
-0.3544464 0.42496538 0.031335983 -0.17541908 -0.26146203 0.07711936 0.17498694 0.20417587
0.07698879 0.017779628 0.032382358 0.3338235 -0.08749293 0.20359823 0.0801192 -0.2510691
0.004502232 -0.24478826 0.10056357 0.078879625 -0.40593478 0.2845642 -0.21460423 -0.39317697
0.3301949 0.011300218 0.10863321 -0.020953516 -0.010678709 0.12346412 0.38605654 -0.25835627
0.14005195 -0.069088586 -0.09709716 0.1413393 -0.052520297 0.09167057 -0.16050832 0.09858059
0.2113393 0.07399606 -0.25942403 0.32295018 -0.48140696 -0.103236884 -0.110109374 -0.17353028
-0.11635794 -0.200494 0.21941766 -0.12860504 -0.14342354 0.5494859 -0.23539461 -0.06984684
-0.14170063 -0.13164175 -0.044611145 -0.13966481 -0.34502146 0.16893171 0.421884 0.0390586
-0.28728655 -0.055424165 0.06963928 0.08441907 0.012247786 -0.111160174 -0.25091022 0.21886805
-0.1896133 0.4942027 0.3695652 -0.13761836 -0.06979457 -0.12556444 0.027579285 0.03217463
0.08031126 -0.09899023 -0.15705076 -0.0019433456 -0.06847863 -0.21258941 -0.11704784 0.22493249
0.15916513 -0.20329972 0.25288182 -0.050684072 -0.32939956 -0.07610803 0.15306526 0.25873137
0.23279709 0.030274428 0.023947466 -0.0008839626 0.14877596 0.31306416 -0.4688291 -0.20663401
0.21459065 0.0134699065 0.013192615 -0.104475744 -0.108183384 0.054107837 0.18760324 -0.35445088
-0.16131651 0.12011001 0.040306933 0.08835707 -0.16809207 -0.17822382 0.024117917 0.2716508
0.3352481 -0.13415691 -0.013917165 -0.20550354 0.049140055 0.20535824 0.19820426 0.11414568
-0.13387011 -0.057871606 -0.40334278 -0.031333257 0.24727954 0.16758375 0.13781993 -0.17270927
-0.17106777 0.06513822 0.11703778 0.060659274 -0.22459593 -0.25193918 0.30017725 -0.24335574
0.22026482 -0.0014318717 -0.032680046 0.13623694 0.113303974 0.15902081 0.2816231 -0.4027495
-0.17412612 -0.4158078 0.40195748 0.042320967 -0.06266908 -0.09441843 -0.04874272 0.067394905
0.39340332 0.13399068 -0.2860855 -0.42577848 0.12889501 -0.025068866 -0.03304433 -0.08290887
-0.13888648 -0.020849122 0.28663018 -0.34151495 0.0022224258 -0.013572352 0.20020705 0.023088861
-0.10442875 0.15245302 -0.20729807 0.00028501917 -0.2536591 -0.39909217 0.47098026 -0.075520135
0.15165551 -0.03988919 -0.041452672 0.06260098 0.034752965 0.090095505 0.13916993 -0.006462648
0.21476278 -0.11931839 -0.33292902 0.0022435687 0.09122384 0.10073306 -0.09653991 -0.14047985
0.25478983 -0.44915888 -0.4319666 0.091410615 0.07994954 0.106280334 -0.048595436 -0.0799122
0.07290228 0.16497275 -0.026855562 -0.30180556 -0.032302957 0.58984506 0.028008398 -0.12688519
-0.11415218 -0.0069814944 0.035556704 0.047946226 0.37218553 -0.06476836 -0.3802545 0.29976413
-0.53244674 0.013152809 -0.035413053 -0.10235589 0.010016167 -0.109442614 -0.086693436 -0.5403307
-0.03958844 0.19703227 -0.2480689 -0.07104917 -0.058042508 0.054418206 0.072584406 -0.028883677
-0.242467 -0.0856843 -0.0036374875 0.14036712 0.049659614 0.13522163 -0.2224842 -0.102657296
0.1066566 -0.26371115 -0.11503999 0.16217111 -0.49939576 0.16004464 0.24282761 0.009266058
00000000: 007a b5be 1095 d93e 295a 003d 0fa1 33be
00000010: 5ade 85be c1f0 9d3d c72f 333e 7b13 513e
00000020: 4cac 9d3d 95a6 913c 5da3 043d eaea aa3e
00000030: 7e2f b3bd 0e7c 503e 8915 a43d 218c 80be
00000040: 7687 933b c6a9 7abe 46f4 cd3d a48b a13d
00000050: afd6 cfbe 66b2 913e 36c1 5bbe 7e4e c9be
00000060: 4e0f a93e 8d24 393c 177b de3d b5a6 abbc
00000070: c0f5 2ebc c2da fc3d 34a9 c53e 4647 84be
00000080: c769 0f3e 517e 8dbd e0da c6bd 40bb 103e
00000090: 861f 57bd c8bd bb3d 4b5c 24be 9fe4 c93d
000000a0: 5469 583e 3f8b 973d 3ad3 84be ba59 a53e
000000b0: f97a f6be dc6d d3bd 0681 e1bd ecb1 31be
000000c0: 124d eebd 4d4e 4dbe 06af 603e 0ab1 03be
000000d0: 9fdd 12be 1cab 0c3f 490b 71be dc0b 8fbd
000000e0: f819 11be 18cd 06be 2dba 36bd 4b04 0fbe
000000f0: a7a6 b0be 6ffc 2c3e 2e01 d83e e9fb 1f3d
00000100: 3917 93be 7304 63bd 0a9f 8e3d e8e3 ac3d
00000110: f0aa 483c f2a7 e3bd 4e77 80be f21e 603e
00000120: fd29 42be 2308 fd3e a637 bd3e d4eb 0cbe
00000130: 75f0 8ebd f793 00be f4ed e13c 8bc9 033d
00000140: 3b7a a43d 64bb cabd ead1 20be dcb7 feba
00000150: 863e 8cbd 0ab1 59be c7b6 efbd b454 663e
00000160: 2ffc 223e cd2d 50be ba79 813e 1a9a 4fbd
00000170: 0fa7 a8be 87de 9bbd 24bd 1c3e 7078 843e
00000180: 5c62 6e3e 1402 f83c 7a2d c43c bab9 67ba
00000190: ba58 183e f249 a03e 5e0a f0be de97 53be
000001a0: a7bd 5b3e e2b0 5c3c d625 583c 61f7 d5bd
000001b0: 408f ddbd 2ea0 5d3d 101b 403e 967a b5be
000001c0: 2830 25be 3dfc f53d e218 253d 8df4 b43d
000001d0: 5420 2cbe 4e80 36be f092 c53c d015 8b3e
000001e0: a4a5 ab3e 6e60 09be d204 64bc 856f 52be
000001f0: 1547 493d 6e49 523e 0ff6 4a3e 36c5 e93d
00000200: 3f15 09be c70a 6dbd f282 cebe 4d57 00bd
00000210: d936 7d3e 139b 2b3e ab20 0d3e b3da 30be
00000220: 642c 2fbe 3067 853d 81b1 ef3d dc75 783d
00000230: 7afc 65be 2cfe 80be d5b0 993e 3f32 79be
00000240: 1a8d 613e a4ad bbba 83db 05bd b281 0b3e
00000250: ea0b e83d 5ad6 223e e730 903e 2f35 cebe
00000260: 1e4e 32be c3e4 d4be 5fcd cd3e c058 2d3d
00000270: a658 80bd 735e c1bd 72a6 47bd 5706 8a3d
00000280: 296c c93e da34 093e cc79 92be a3ff d9be
00000290: 0efd 033e 395d cdbc 7e59 07bd 20cc a9bd
000002a0: 4238 0ebe c7cb aabc 31c1 923e 0cdb aebe
000002b0: 1ea6 113b 925e 5ebc 1403 4d3e da24 bd3c
000002c0: bede d5bd a51c 1c3e f245 54be a06e 9539
000002d0: 9bdf 81be cf55 ccbe 5324 f13e 4daa 9abd
000002e0: 954b 1b3e d962 23bd 47ca 29bd f134 803d
000002f0: 2059 0e3d fe83 b83d 9082 0e3e 9fc4 d3bb
00000300: c6ea 5b3e 335d f4bd ac75 aabe d608 133b
00000310: 91d3 ba3d 224d ce3d b7b6 c5bd f3d9 0fbe
00000320: d073 823e 27f8 e5be ba2a ddbe 7d35 bb3d
00000330: 96bc a33d 81a9 d93d 020c 47bd 02a9 a3bd
00000340: ca4d 953d 9eee 283e 3200 dcbc 4286 9abe
00000350: 1b50 04bd 1600 173f de71 e53c 31ee 01be
00000360: 9ec8 e9bd 05c5 e4bb e8a3 113d 4363 443d
00000370: 1a8f be3e 46a5 84bd b8b0 c2be af7a 993e
00000380: 6e4e 08bf e17e 573c 470d 11bd f79f d1bd
00000390: d91a 243c 7323 e0bd 548c b1bd 1d53 0abf
000003a0: 7d27 22bd d4c2 493e c605 7ebe 3a82 91bd
000003b0: fbbd 6dbd a0e5 5e3d 22a7 943d 769d ecbc
000003c0: 4549 78be 407b afbd ea62 6ebb 66bc 0f3e
000003d0: e167 4b3d 8a77 0a3e e6d2 63be fd3d d2bd
000003e0: c76e da3d 2605 87be 169a ebbd 2f10 263e
000003f0: cdb0 ffbe bee2 233e cda7 783e aad0 173c

layers.0.bias f4 [70]
-0.040359452 0.047910802 0.021656178 -0.09437741 0.17910297 0.075674 3.2512762e-05 -0.07249765
0.11816022 -0.11514909 -0.0010540097 0.11751166 -0.14146298 0.062646285 -0.054118738 0.0773742
0.07111856 -0.021097831 0.007848291 0.088161 0.078457855 -0.0080653755 0.13134316 0.15183622
0.09909024 -0.12116678 0.048214927 0.13319765 -0.03307978 0.11611596 0.071668535 0.13632321
-0.26868436 0.057454713 -0.14393012 0.09048494 0.016395785 -0.03953355 0.008848426 -0.1177612
0.2063228 -0.11849899 0.1030304 0.009540134 0.031775635 -0.006250758 -0.19298291 0.12908588
0.07481189 0.049640067 -0.05089937 -0.052334934 0.02203086 0.024415128 0.24973391 0.06574619
0.15995896 0.08683641 -0.04575724 -0.056498755 0.19843161 0.095992446 -0.06829364 -0.10412502
0.070168786 0.13198271 -0.023335112 0.044941574 -0.19280079 -0.013855717
00000000: f44f 25bd 1e3e 443d 4c68 b13c f248 c1bd
00000010: c566 373e f8fa 9a3d 505e 0838 a679 94bd
00000020: fcfd f13d 49d3 ebbd b226 8aba f4a9 f03d
00000030: acdb 10be b24c 803d 9cab 5dbd 5d76 9e3d
00000040: 9ca6 913d 5cd5 acbc 1e96 003c c18d b43d
00000050: 83ae a03d a324 04bc d27e 063e f47a 1b3e
00000060: d3ef ca3d 4a26 f8bd 047d 453d f764 083e
00000070: aa7e 07bd 34ce ed3d f4c6 923d 5098 0b3e
00000080: ff90 89be a255 6b3d 6b62 13be 2b50 b93d
00000090: 7450 863c efed 21bd fdf8 103c c92c f1bd
000000a0: 4946 533e 99af f2bd 9a01 d33d 394e 1c3c
000000b0: 2b27 023d 29d3 ccbb 509d 45be 172f 043e
000000c0: fa36 993d 6253 4b3d dc7b 50bd 285d 56bd
000000d0: 107a b43c 3c02 c83c 3fba 7f3e f0a5 863d
000000e0: 48cc 233e 4ad7 b13d f26b 3bbd 3d6b 67bd
000000f0: a831 4b3e b097 c43d 89dd 8bbd 803f d5bd
00000100: a7b4 8f3d 7a26 073e 4729 bfbc a814 383d
00000110: 926d 45be 1703 63bc

layers.1.weight f4 [80, 70]
0.03322103 0.02236166 -0.07296363 0.04498409 0.14652172 0.03320855 0.075810306 -0.035294726
-0.015135949 -0.04772355 -0.046779472 0.00040644314 0.024044607 -0.036978234 -0.08715494 -0.08529498
-0.013090745 -0.0034843313 -0.024929397 0.1049351 -0.07577428 -0.034745928 0.0043750275 0.033154458
-0.07226195 -0.016051184 0.034121886 -0.21558307 -0.009939836 -0.011217705 -0.014572332 0.0562917
0.016662994 -0.03830413 -0.06942281 -0.047006417 0.013492296 -0.0068670977 -0.13971223 0.076540805
-0.05084073 -0.005353398 0.06736878 0.13121122 -0.058011055 -0.0628808 -0.030783009 -0.1357035
0.09298448 -0.02117354 -0.13486546 -0.038107257 0.10466408 0.02887433 -0.048028957 0.05936211
0.01161388 -0.0855023 -0.10031657 -0.032161642 0.09905386 0.018096376 -0.006250294 -0.086369485
-0.045187477 -0.13710712 0.064120464 0.042246923 -0.13153194 0.016996091 0.06261555 -0.048220754
0.01853467 0.0072457097 -0.10044346 -0.05856144 0.044637818 0.06735485 -0.011661207 -0.0632623
-0.03555692 0.011888396 -0.07165169 0.071449615 0.16132353 -0.05400068 -0.09225453 0.0075598327
0.08304655 -0.04806894 0.0070566502 0.032024838 -0.09998931 -0.019062888 0.052871674 0.0070865834
-0.09297041 0.009190429 0.028067958 0.06166372 0.04749349 0.054304495 -0.036776822 0.029588403
0.060337193 -0.07378484 0.08531843 0.019841611 0.2187471 -0.0045155496 0.03002209 0.034344092
-0.0045342213 -0.06341719 0.02584618 0.020471435 -0.0064744037 0.07844147 0.0014036335 -0.012205487
0.029195378 0.021119105 -0.029394036 0.017269861 0.068116084 -0.0041020717 0.024347538 -0.031148931
0.13719101 -0.029094927 -0.10104879 -0.1333844 -0.009254259 0.13322565 0.046504606 0.0018820984
-0.19342333 0.0743649 0.009029295 -0.054380663 0.05498428 0.044949625 0.13091151 -0.017667005
-0.07466291 -0.13527803 -0.044654347 -0.010295827 -0.028789915 0.016818566 0.1248395 0.00313292
0.034281913 -0.0458572 -0.031301938 0.118306585 0.14866953 -0.035120398 -0.053528182 -0.006824871
-0.015331665 -0.072689906 -0.06563086 -0.12567398 -0.026442805 0.033409327 0.0011774399 0.035241064
-0.071461186 0.06214518 -0.03791114 -0.0030572175 0.0043767043 -0.015839696 -0.116880424 0.13629174
-0.09015922 0.022275295 0.0340543 -0.1068757 0.12580633 -0.016949713 0.06287614 0.049512636
0.15111522 -0.039450046 -0.12945907 -0.088776805 0.059091344 0.089739434 0.12286106 0.05231477
0.0606176 -0.038562167 0.08268522 0.07819388 -0.08346342 0.015154563 0.023166763 0.021453504
-0.107010335 0.06252423 -0.0427586 0.08305615 -0.0008977436 0.03600099 0.10255948 -0.061831612
0.008031071 0.03699352 0.045803025 -0.046128277 0.044699803 0.058829762 -0.15655722 -0.16750649
-0.019940294 -0.023594303 0.005147826 -0.12461815 -0.010219997 0.001280728 0.00047282485 0.045157857
0.18270059 0.024346026 0.050150834 0.07956549 0.10245395 -0.011936592 -0.04160122 0.018521033
-0.2158165 0.012067624 -0.046099667 0.03934742 0.028425353 -0.03283159 0.018753959 0.11976091
-0.010046355 0.053289644 -0.012391934 0.0152998585 -0.0068922522 0.0041757063 -0.013344227 0.05335222
0.17827414 -0.06250317 0.014814914 0.17318098 0.0030627332 -0.011938267 0.03268526 0.050762847
00000000: c612 083d cd2f b73c f56d 95bd 3d41 383d
00000010: ca09 163e b005 083d 6f42 9b3d 3491 10bd
00000020: c5fc 77bc c579 43bd d59b 3fbd e017 d539
00000030: 32f9 c43c 7d76 17bd 4a7e b2bd 22af aebd
00000040: 907a 56bc 6159 64bb bc38 ccbc 37e8 d63d
00000050: 8c2f 9bbd bf51 0ebd 645c 8f3b f8cc 073d
00000060: 13fe 93bd c67d 83bc 64c3 0b3d cfc1 5cbe
00000070: b2da 22bc 77ca 37bc cac0 6ebc 2092 663d
00000080: d580 883c cbe4 1cbd 8c2d 8ebd cd89 40bd
00000090: cb0e 5d3c 6405 e1bb b910 0fbe 6dc1 9c3d
000000a0: 5f3e 50bd 8f6b afbb a5f8 893d 3c5c 063e
000000b0: 009d 6dbd a6c7 80bd a62c fcbc dcf5 0abe
000000c0: a66e be3d 2274 adbc 2c1a 0abe 5b16 1cbd
000000d0: 1f5a d63d dc89 ec3c 03ba 44bd af25 733d
000000e0: 2548 3e3c d41b afbd c672 cdbd edbb 03bd
000000f0: c0dc ca3d da3e 943c 44cf ccbb 7ce2 b0bd
00000100: 8116 39bd cf65 0cbe 9751 833d 1c0b 2d3d
00000110: 4fb0 06be 633b 8b3c 953c 803d 2083 45bd
00000120: 05d6 973c 6b6d ed3b 4db5 cdbd 1fde 6fbd
00000130: 25d6 363d 57f1 893d a60e 3fbc aa8f 81bd
00000140: 22a4 11bd 8cc7 423c 1fbe 92bd 2d54 923d
00000150: ff31 253e d12f 5dbd f1ef bcbd 79b8 f73b
00000160: 4f14 aa3d f0e3 44bd 793b e73b 7a2c 033d
00000170: 32c7 ccbd c629 9cbc f88f 583d 9236 e83b
00000180: 4567 bebd 7493 163c c6ee e53c 1993 7c3d
00000190: 8988 423d 646e 5e3d 4ba3 16bd 6163 f23c
000001a0: 2224 773d 821c 97bd 6ebb ae3d e08a a23c
000001b0: 3dff 5f3e 2df7 93bb e3f0 f53c 64ac 0c3d
000001c0: ce93 94bb dfe0 81bd 5ebb d33c b6b3 a73c
000001d0: 3c27 d4bb eca5 a03d 20fa b73a 86f9 47bc
000001e0: 252b ef3c f901 ad3c c3cb f0bc 8679 8d3c
000001f0: 7280 8b3d ac6a 86bb 7d74 c73c 0b2c ffbc
00000200: cd7b 0c3e 7c58 eebc abf2 cebd ec95 08be
00000210: 2d9f 17bc 4e6c 083e 9d7b 3e3d beb0 f63a
00000220: c410 46be a04c 983d 9cef 133c 42be 5ebd
00000230: 3237 613d 191d 383d ab0d 063e 65ba 90bc
00000240: dee8 98bd 5386 0abe 7ae7 36bd d4af 28bc
00000250: d4d8 ebbc 17c7 893c daab ff3d ad51 4d3b
00000260: 316b 0c3d c2d4 3bbd 7636 00bd b94a f23d
00000270: d33c 183e 68da 0fbd 5e40 5bbd 2ba3 dfbb
00000280: aa31 7bbc 72de 94bd 7969 86bd aeb0 00be
00000290: 959e d8bc 38d8 083d 5454 9a3a ef58 103d
000002a0: 3e5a 92bd f28b 7e3d b648 1bbd 995b 48bb
000002b0: 756a 8f3b 40c2 81bc 015f efbd 1090 0b3e
000002c0: 66a5 b8bd ae7a b63c 867c 0b3d a6e1 dabd
000002d0: 60d3 003e 20da 8abc 35c5 803d c3cd 4a3d
000002e0: f3bd 1a3e 5f96 21bd eb90 04be 9dd0 b5bd
000002f0: c409 723d 4fc9 b73d 949e fb3d 0348 563d
00000300: 294a 783d 5df3 1dbd de56 a93d 1d24 a03d
00000310: dfee aabd d84a 783c 39c8 bd3c 42bf af3c
00000320: 3c28 dbbd b40c 803d a423 2fbd 5819 aa3d
00000330: 8e56 6bba c675 133d b40a d23d 2543 7dbd
00000340: c194 033c 8486 173d f49b 3b3d 01f1 3cbd
00000350: 2417 373d 7af7 703d 8950 20be d286 2bbe
00000360: d459 a3bc d748 c1bc 18af a83b cd37 ffbd
00000370: c671 27bc 1ade a73a 7ae5 f739 72f7 383d
00000380: dd15 3b3e 5171 c73c f66a 4d3d 3bf3 a23d
00000390: 60d3 d13d b291 43bc 0a66 2abd 6cb9 973c
000003a0: 00ff 5cbe 49b7 453c 01d3 3cbd c32a 213d
000003b0: 49dc e83c 6b7a 06bd e7a1 993c 3545 f53d
000003c0: 7899 24bc 3e46 5a3d 8a07 4bbc 42ac 7a3c
000003d0: 67d8 e1bb 5dd4 883b bfa1 5abc dc87 5a3d
000003e0: 7f8d 363e a901 80bd 41ba 723c 5b56 313e
000003f0: 23b8 483b b998 43bc fbe0 053d b4ec 4f3d

layers.1.bias f4 [80]
0.071148835 0.07716923 0.048662633 0.020044966 0.030765621 0.05404847 0.01178372 0.039106753
0.044193044 0.03671739 0.038193498 0.039488316 0.026412604 0.055183887 -0.06863736 0.022019444
0.07410592 0.04007305 -0.09211239 0.06332988 0.02553419 0.08052446 0.03264238 0.06527135
0.04996116 0.046085898 0.005869827 0.010684168 0.03637611 0.05396636 0.050333317 0.062398523
0.027015926 0.032219768 0.047829032 0.06192892 -0.007232042 0.029956555 0.052455634 0.071955435
0.041137576 0.03571325 0.026440103 -0.06782587 0.010613791 0.07886522 -0.07342929 0.04286111
0.03912136 -0.00057956524 0.04665586 0.014096008 -0.061070725 0.03646672 0.052511584 0.03778804
0.02383726 0.03071944 0.06940651 0.053544827 0.046462815 0.04504679 0.015987273 0.081846416
-0.07851294 0.045620043 0.027773885 -0.017930679 0.05599057 0.045106918 0.0073398873 0.05626042
0.05166438 0.039024517 -0.008093749 0.065859705 -0.054442212 -0.008001865 0.057421327 0.04311633
00000000: 7bb6 913d e70a 9e3d 7852 473d 5735 a43c
00000010: 2f08 fc3c ee61 5d3d 8110 413c 672e 203d
00000020: c403 353d f964 163d c970 1c3d 80be 213d
00000030: 3f5f d83c 8008 623d bf91 8cbd 1f62 b43c
00000040: d8c4 973d a323 243d 6ca5 bcbd 19b3 813d
00000050: 142d d13c 02ea a43d 04b4 053d fcac 853d
00000060: 13a4 4c3d 91c4 3c3d ad57 c03b a60c 2f3c
00000070: 1eff 143d d40b 5d3d 4f2a 4e3d 9895 7f3d
00000080: 8150 dd3c e0f8 033d 60e8 433d 2ea9 7d3d
00000090: c4fa ecbb 7367 f53c b8db 563d 5f5d 933d
000000a0: e07f 283d 0f48 123d ea98 d83c 4ae8 8abd
000000b0: 77e5 2d3c 1784 a13d 1862 96bd 228f 2f3d
000000c0: b83d 203d f7ed 17ba 371a 3f3d f1f2 663c
000000d0: 4c25 7abd 215e 153d 6316 573d a2c7 1a3d
000000e0: 5c46 c33c 56a7 fb3c 0025 8e3d d251 5b3d
000000f0: cb4f 3e3d fc82 383d bef7 823c 189f a73d
00000100: 64cb a0bd 15dc 3a3d 0f86 e33c 5ce3 92bc
00000110: 5e56 653d 08c2 383d 7083 f03b 5371 663d
00000120: 079e 533d 2cd8 1f3d a59b 04bc 74e1 863d
00000130: ccfe 5ebd 411a 03bc a032 6b3d c09a 303d

layers.2.weight f4 [90, 80]
-0.04801949 0.06672127 0.030432759 0.08673449 -0.07337725 -0.025286218 0.07192033 0.050875712
-0.055039324 -0.02794344 0.005027718 -0.082908615 -0.01299644 0.06995505 -0.031316444 0.10734675
0.03883599 -0.016101297 0.0012528684 0.030500572 0.02635043 -0.05045056 0.006850746 0.008599964
-0.08296945 0.06514921 0.032363076 -0.048281338 -0.03103573 0.025618717 -0.09009513 -0.074773856
0.024277437 -0.02823785 -0.106295146 0.005253242 -0.04803708 -0.06971593 0.07857093 0.017186418
-0.009555575 -0.0008529888 0.076042764 0.05231002 0.062592626 0.03727715 -0.040187154 -0.06301661
-0.041386846 0.016055686 -0.0017984078 -0.037781958 0.0013252607 0.1310714 -0.076643646 0.094894744
0.023829155 -0.046793807 -0.11694566 0.017906832 -0.039115265 -0.03913415 0.061912797 0.08264435
-0.07962367 0.049570117 -0.07529271 -0.028177872 -0.051981114 -0.045086518 0.001346526 0.02475028
-0.08339655 -0.06853743 0.085759036 -0.08574005 -0.05106684 -0.0046955375 0.018192228 -0.034938503
0.05721916 -0.058470618 0.0401257 -0.036382526 0.049329158 -0.08120073 -0.006616142 -0.13647883
0.002402568 0.01837474 -0.060588602 0.018618787 0.036918912 0.01961098 -0.07351538 -0.026904253
0.010927765 -0.061515894 0.0419977 0.048204876 0.019010784 0.08078653 -0.08233028 -0.05190418
0.06164465 -0.06846072 0.026255315 0.02484801 0.01764641 -0.020654464 -0.11046399 -0.04821261
0.06481918 0.06369715 0.02239325 -0.020134624 -0.0697392 0.053402513 0.02629922 -0.08856902
0.08136673 0.065113105 0.04340686 -0.05746556 0.04287549 0.1146228 0.00599941 0.020073252
-0.04539577 0.030529108 0.19430009 0.020526608 0.025230573 -0.15742946 -0.0493936 0.0065534376
0.028253773 0.068495676 -0.07978757 -0.03735662 -0.026639542 0.056814726 -0.06538732 -0.028649567
0.0859269 -0.11793846 -0.0054923547 0.05971539 0.20213939 -0.013635394 -0.06668468 0.02971534
0.087366454 -0.016163424 -0.10124056 0.054571014 -0.022437187 0.19377474 0.040393077 0.015840696
-0.08625641 0.0907642 -0.03424957 0.098993324 -0.12192965 -0.11573216 0.030498596 0.05259062
-0.01719644 0.07099977 -0.11287835 -0.019431287 0.00039680593 -0.07129329 -0.046265796 -0.008755862
0.09020487 0.018943721 0.03551245 -0.037278038 -0.020614611 0.015328726 -0.0051390612 -0.074461825
-0.027353736 -0.052694842 -0.06713844 0.03603728 0.0703264 -0.0005616088 -0.052666675 -0.0516163
0.054133765 -0.024425413 0.10514247 0.08851338 -0.06413847 -0.04389299 -0.037224267 -0.055453707
0.03933884 0.049789958 -0.042357545 -0.12840246 -0.023067195 0.0489186 -0.07288371 -0.038430024
-0.019109638 0.05375121 0.07824202 -0.11944756 0.1361174 -0.060198795 -0.012054093 0.1287724
-0.03779104 -0.0155797815 -0.10436945 -0.04136219 -0.030405829 0.036692522 -0.011843335 0.109195456
-0.016375862 -0.11387222 0.012700982 -0.06458869 0.13622706 0.054614265 0.03057504 -0.04662449
-0.024874404 0.03601737 -0.028504074 -0.007958661 -0.05943635 0.12630144 0.09445282 -0.033935405
-0.007064182 0.06286123 -0.049721986 -0.012767919 0.08529574 -0.07583853 0.07285878 0.085818395
0.061244894 -0.060118034 0.04450804 -0.03511081 -0.028473562 0.037517633 0.018494304 0.103538714
00000000: 16b0 44bd 29a5 883d 1f4e f93c daa1 b13d
00000010: d046 96bd 0b25 cfbc f74a 933d 0d63 503d
00000020: ea70 61bd a4e9 e4bc 8ebf a43b fecb a9bd
00000030: 05ef 54bc 9844 8f3d ac45 00bd 9dd8 db3d
00000040: 7d12 1f3d dee6 83bc 4a37 a43a 56dc f93c
00000050: dbdc d73c 3fa5 4ebd 397c e03b dde6 0c3c
00000060: e3eb a9bd f36c 853d 258f 043d a7c2 45bd
00000070: a53e febc 58de d13c cc83 b8bd 0923 99bd
00000080: 7ae1 c63c 1053 e7bc 45b1 d9bd 6323 ac3b
00000090: 87c2 44bd 3ac7 8ebd cce9 a03d 88ca 8c3c
000000a0: fd8e 1cbc 1c9b 5fba 4fbc 9b3d 0843 563d
000000b0: 9030 803d edaf 183d 499b 24bd da0e 81bd
000000c0: 4185 29bd 3787 833c 8db8 ebba 41c1 1abd
000000d0: 5fb4 ad3a 9537 063e 58f7 9cbd 2d58 c23d
000000e0: 5c35 c33c ddaa 3fbd 3581 efbd 59b1 923c
000000f0: 5437 20bd 214b 20bd 4698 7d3d 7141 a93d
00000100: bc11 a3bd 090a 4b3d 1033 9abd 48d5 e6bc
00000110: 26ea 54bd a4ac 38bd ea7d b03a 19c1 ca3c
00000120: cfcb aabd 5a5d 8cbd 6fa2 af3d 7b98 afbd
00000130: 762b 51bd 06dd 99bb de07 953c ad1b 0fbd
00000140: a35e 6a3d e37e 6fbd d95a 243d d805 15bd
00000150: 5f0d 4a3d 914c a6bd 39cc d8bb 1bc1 0bbe
00000160: 6774 1d3b 9f86 963c c12b 78bd 6d86 983c
00000170: 4938 173d 35a7 a03c 3b8f 96bd 4f66 dcbc
00000180: 5e0a 333c 17f8 7bbd c805 2c3d 7a72 453d
00000190: 81bc 9b3c 6973 a53d c79c a8bd 7a99 54bd
000001a0: 1a7f 7c3d 2235 8cbd 6315 d73c 0e8e cb3c
000001b0: 348f 903c 8d33 a9bc f23a e2bd 967a 45bd
000001c0: ebbf 843d a773 823d 0d72 b73c 5ef1 a4bc
000001d0: 6dd3 8ebd 98bc 5a3d 7671 d73c ad63 b5bd
000001e0: 9aa3 a63d 055a 853d 64cb 313d 0261 6bbd
000001f0: 369e 2f3d 5cbf ea3d b396 c43b a970 a43c
00000200: eaf0 39bd 2e18 fa3c 9af6 463e 6b27 a83c
00000210: 59b0 ce3c 3035 21be f250 4abd 38be d63b
00000220: 7574 e73c 7647 8c3d aa67 a3bd 4103 19bd
00000230: 2b3b dabc 8fb6 683d cae9 85bd 7fb2 eabc
00000240: 71fa af3d b889 f1bd 36f9 b3bb 2098 743d
00000250: a1fd 4e3e fd66 5fbc fa91 88bd 966d f33c
00000260: 2fed b23d 2869 84bc 3657 cfbd db85 5f3d
00000270: 31ce b7bc e36c 463e 3673 253d 59c4 813c
00000280: 33a7 b0bd 95e2 b93d 4749 0cbd 03bd ca3d
00000290: 41b6 f9bd fc04 edbd 31d8 f93c 4369 573d
000002a0: 8cdf 8cbc 5468 913d c42c e7bd 5d2e 9fbc
000002b0: 640a d039 3702 92bd 3481 3dbd bf74 0fbc
000002c0: 55bd b83d dd2f 9b3c 8175 113d dbb0 18bd
000002d0: f9df a8bc 5625 7b3c 9265 a8bb 717f 98bd
000002e0: f114 e0bc 8cd6 57bd e17f 89bd d49b 133d
000002f0: 4a07 903d ee38 13ba 03b9 57bd 9d6b 53bd
00000300: 5ebb 5d3d ce17 c8bc ef54 d73d 8146 b53d
00000310: 085b 83bd 23c9 33bd 7978 18bd 6d23 63bd
00000320: c321 213d 8ef0 4b3d 1b7f 2dbd ef7b 03be
00000330: 6af7 bcbc df5e 483d 0e44 95bd cd68 1dbd
00000340: d18b 9cbc 3b2a 5c3d 5a3d a03d eca0 f4bd
00000350: 5c62 0b3e 0393 76bd 887e 45bc e9dc 033e
00000360: c7ca 1abd 5742 7fbc a6bf d5bd 666b 29bd
00000370: a515 f9bc e64a 163d 8c0a 42bc dea1 df3d
00000380: ac26 86bc d735 e9bd c817 503c 1347 84bd
00000390: 1b7f 0b3e 35b3 5f3d 8278 fa3c 52f9 3ebd
000003a0: 68c5 cbbc f386 133d 6081 e9bc 0b65 02bc
000003b0: 8873 73bd 2a55 013e 7b70 c13d daff 0abd
000003c0: a77a e7bb 63bd 803d 48a9 4bbd 8930 51bc
000003d0: 88af ae3d 3b51 9bbd fc36 953d 8ec1 af3d
000003e0: eddb 7a3d 543e 76bd 104e 363d 5ad0 0fbd
000003f0: 6341 e9bc 17ac 193d 5e81 973c 1b0c d43d

layers.2.bias f4 [90]
-0.0884239 -0.092469804 0.08282387 0.059098497 0.058783427 -0.031030575 -0.06048084 0.04620612
0.06947377 -0.034301817 -0.0008943088 0.09351375 0.028222358 0.064735346 0.06411558 -0.01215592
-0.0781325 -0.059917793 0.06701582 -0.041067004 -0.07293821 -0.027468013 -0.015145401 -0.08757074
-0.047798842 0.02117888 0.08194913 -0.0012548404 0.07912632 0.005988811 0.003949559 0.032697923
0.06807721 -0.00980646 -0.008526487 -0.093034156 0.002751663 -0.059638046 -0.06902615 -0.076441295
0.051607348 0.054461736 0.06723427 -0.054687165 0.022595478 0.043741535 -0.052824948 0.093339756
-0.04246363 -0.0579807 0.021226756 -0.08035523 -0.08969363 0.039330255 0.10562767 -0.040069915
0.0027661445 -0.09668414 -0.041365158 -0.0039372044 0.0717058 -0.05451766 -0.051937036 -0.058038805
0.02031645 -0.007747205 0.055678517 -0.062383458 0.036690958 -0.013447338 0.010172945 -0.05244646
0.040633034 0.031906266 0.062090278 -0.027776012 0.078521825 -0.028885998 -0.058944907 -0.057913512
-0.07349085 -0.047437575 -0.06329118 -0.04489505 0.056252822 -0.05377354 -0.08423343 0.03477043
0.012070469 0.012865094
00000000: 9717 b5bd cf60 bdbd 909f a93d 4411 723d
00000010: e4c6 703d d533 febc c2ba 77bd a142 3d3d
00000020: 4448 8e3d 1080 0cbd 0c70 6aba 2384 bf3d
00000030: 9332 e73c f793 843d 074f 833d a029 47bc
00000040: ef03 a0bd 5c6c 75bd 973f 893d e035 28bd
00000050: a160 95bd 9904 e1bc 6a24 78bc 4a58 b3bd
00000060: b8c8 43bd 557f ad3c f2d4 a73d 7579 a4ba
00000070: fb0c a23d ca3d c43b 4d6b 813b 42ee 053d
00000080: 106c 8b3d 46ab 20bc aeb2 0bbc b188 bebd
00000090: 3f55 343b 0647 74bd 955d 8dbd 418d 9cbd
000000a0: 3a62 533d 4513 5f3d 1fb2 893d a6ff 5fbd
000000b0: 271a b93c 532a 333d f95e 58bd ea28 bf3d
000000c0: 58ee 2dbd 2c7d 6dbd bce3 ad3c 4891 a4bd
000000d0: 4bb1 b7bd c318 213d 5253 d83d 5a20 24bd
000000e0: 3448 353b 5602 c6bd 836e 29bd aa03 81bb
000000f0: 7eda 923d e94d 5fbd eebb 54bd 19ba 6dbd
00000100: af6e a63c 44dc fdbb 280f 643d cc85 7fbd
00000110: 4249 163d 3952 5cbc 6dac 263c 19d2 56bd
00000120: d36e 263d 25b0 023d 6052 7e3d 858a e3bc
00000130: 0dd0 a03d 54a2 ecbc 3770 71bd b836 6dbd
00000140: 5f82 96bd e74d 42bd ce9e 81bd dfe3 37bd
00000150: 5c69 663d a541 5cbd 9482 acbd 706b 0e3d
00000160: 37c3 453c 1dc8 523c

layers.3.weight f4 [5, 90]
0.0009311981 -0.024890544 -0.11638364 0.0040917275 0.07362759 0.014047108 0.04561042 -0.12345074
0.11376117 -0.11124827 -0.055246755 0.13092035 -0.1565291 -0.017501777 0.07780554 0.05471799
-0.050739657 -0.10418039 0.122794226 0.08386938 -0.118508 0.113020435 -0.040749513 0.03923746
-0.06345937 0.14251982 -0.18560056 0.04136243 0.057033297 0.05972254 -0.13033907 -0.061905213
-0.15917268 -0.17261755 -0.021250516 0.09984743 -0.1013121 -0.056933064 0.13851278 -0.0076603033
-0.15720037 -0.023324993 0.06704696 0.006214547 0.07903081 0.007287041 0.0028902912 -0.14353642
-0.036958765 0.14325763 -0.084168606 -0.10672016 0.07572386 -0.12799175 -0.092158854 -0.08968693
0.07191248 0.16212521 -0.106535256 -0.025863612 0.031456314 -0.16507114 -0.16534767 -0.1260997
0.14542933 0.028438827 -0.12416923 0.0202095 0.035735745 -0.112462975 0.13015896 0.10243687
-0.17443639 0.0627311 0.14431734 -0.08219068 -0.019818345 -0.15978952 -0.16697365 -0.0051170653
-0.07960331 0.0829403 -0.040992685 0.031643357 0.07896338 0.11101709 0.06873648 -0.15838927
0.045563605 -0.07937343 -0.13394901 0.13515243 -0.040958058 -0.12038759 -0.12325284 -0.13836229
-0.012239089 0.078406096 0.08883837 -0.112186246 0.07120935 0.11895391 -0.020817842 -0.06493412
0.034674857 -0.17504662 0.0076471698 -0.008669375 0.037113197 0.06206678 0.050711706 0.0877672
0.19028234 -0.16157946 0.0709284 0.1304956 0.14719148 -0.11261099 -0.0433865 -0.041456245
-0.034004457 -0.10049804 -0.09444582 -0.005748264 -0.15452075 -0.13182573 0.036696713 0.049624205
-0.028840106 0.046816625 -0.040173747 0.013756601 0.105285786 -0.042172287 -0.040024586 -0.08618443
0.11512513 0.113893636 -0.0896579 -0.0589074 0.16995887 0.14917783 0.090206355 -0.053999886
0.12850355 0.004240591 -0.003945086 -0.07359907 0.16175164 -0.11142611 -0.18075244 0.028680956
0.12231553 0.06335211 0.0023660301 -0.08060797 -0.013507494 0.053176288 0.07995974 -0.14132932
-0.11460771 0.08502519 0.16880506 0.070409596 -0.15070902 -0.17006326 -0.049820263 0.09959386
0.07864139 0.14727151 0.1977168 0.08346576 0.13983777 -0.011027792 0.09045881 0.09885358
-0.13900672 0.048061498 0.07393929 -0.073899694 0.035498332 -0.1896558 -0.18359178 0.14377229
-0.16478714 -0.16046622 -0.096881725 -0.10043927 0.006525986 0.14917094 0.06647212 0.03246068
0.03820627 0.18004078 0.005733973 0.05749161 0.034673512 -0.00986119 -0.029949859 -0.12247704
-0.030011453 -0.033014655 -0.09550511 0.12605718 0.07541659 -0.07739855 0.03369211 -0.11879658
-0.07248323 -0.06567563 -0.12757587 0.21113276 -0.007765323 0.11433086 0.022091543 -0.022485534
0.008901486 0.07068758 0.00958667 0.04598194 0.11746287 0.08843691 0.02308523 0.059921574
0.13289236 -0.052817203 -0.026777927 -0.021887314 0.17045942 -0.080879375 -0.15439807 -0.057286493
0.12012433 0.100332886 0.117828205 -0.16548447 0.0009376451 -0.10591858 -0.00072852673 -0.12178977
0.050464507 0.05780455 -0.040782645 0.028383473 -0.17491277 0.16074927 0.037392937 0.037893083
-0.08834697 0.032286037 -0.16925973 0.097329766 0.105442874 0.13536637 0.07977286 0.018663185
00000000: a61b 743a 41e7 cbbc 8c5a eebd e613 863b
00000010: 10ca 963d d725 663c fed1 3a3d bed3 fcbd
00000020: 9efb e83d 22d6 e3bd 6c4a 62bd fc0f 063e
00000030: 2a49 20be e35f 8fbc 8358 9f3d f91f 603d
00000040: 63d4 4fbd 875c d5bd 8a7b fb3d b6c3 ab3d
00000050: 53b4 f2bd 4277 e73d f6e8 26bd 75b7 203d
00000060: fcf6 81bd b7f0 113e 130e 3ebe a76b 293d
00000070: bf9b 693d 9f9f 743d 9b77 05be 5290 7dbd
00000080: 2afe 22be a8c2 30be 9015 aebc cf7c cc3d
00000090: b87c cfbd a532 69bd 4bd6 0d3e 4803 fbbb
000000a0: 22f9 20be 0e14 bfbc eb4f 893d 66a3 cb3b
000000b0: e8da a13d 21c8 ee3b 0a6b 3d3b 36fb 12be
000000c0: 1362 17bd 21b2 123e 9760 acbd 1990 dabd
000000d0: 1c15 9b3d 4510 03be c8bd bcbd c8ad b7bd
000000e0: da46 933d 2704 263e 282f dabd eddf d3bc
000000f0: 56d8 003d 6908 29be e650 29be 4820 01be
00000100: 6deb 143e 8bf8 e83c 704c febd 658e a53c
00000110: a55f 123d fd52 e6bd 6448 053e 6cca d13d
00000120: 749f 32be 2a79 803d edc7 133e 9653 a8bd
00000130: 155a a2bc dd9f 23be 24fb 2abe 0ead a7bb
00000140: 0f07 a3bd 9bdc a93d f2e7 27bd 779c 013d
00000150: 8db7 a13d ee5c e33d b6c5 8c3d cc30 22be
00000160: e7a0 3a3d 898e a2bd ee29 09be 6665 0a3e
00000170: a3c3 27bd c58d f6bd fc6b fcbd d8ae 0dbe
00000180: 7686 48bc 6093 a03d e4f0 b53d e7c1 e5bd
00000190: 35d6 913d 1c9e f33d 2e8a aabc 2efc 84bd
000001a0: 3907 0e3d 6c3f 33be 1c95 fa3b ff09 0ebc
000001b0: 0204 183d bc39 7e3d 14b7 4f3d 4abf b33d
000001c0: 60d9 423e 1675 25be e942 913d a3a0 053e
000001d0: 5db9 163e 97a0 e6bd 0bb6 31bd 06ce 29bd
000001e0: 4248 0bbd ebd1 cdbd cf6c c1bd ef5b bcbb
000001f0: b03a 1ebe 53fd 06be 4b4f 163d c042 4b3d
00000200: 1642 ecbc cac2 3f3d 3a8d 24bd 5e63 613c
00000210: 13a0 d73d d9bc 2cbd d2f0 23bd 7681 b0bd
00000220: b9c6 eb3d 1141 e93d 909e b7bd e348 71bd
00000230: b309 2e3e 13c2 183e 1cbe b83d fc2e 5dbd
00000240: 6f96 033e a8f4 8a3b c845 81bb 1cbb 96bd
00000250: 39a2 253e 5f33 e4bd 2b17 39be 53f4 ea3c
00000260: 9180 fa3d c0be 813d 660f 1b3b cb15 a5bd
00000270: 894e 5dbc 61cf 593d efc1 a33d a2b8 10be
00000280: 72b7 eabd b021 ae3d 3cdb 2c3e e832 903d
00000290: 7753 1abe 1025 2ebe 5510 4cbd def7 cb3d
000002a0: bd0e a13d 58ce 163e 4676 4a3e 19f0 aa3d
000002b0: a231 0f3e e9ad 34bc 7842 b93d bf73 ca3d
000002c0: c757 0ebe 22dc 443d 7c6d 973d b958 97bd
000002d0: b366 113d 2135 42be 7cff 3bbe 0b39 133e
000002e0: f6bd 28be 4251 24be ed69 c6bd 1bb3 cdbd
000002f0: f0d7 d53b 44c0 183e 8922 883d 7df5 043d
00000300: 2e7e 1c3d 9c5c 383e 0de4 bb3b 537c 6b3d
00000310: d005 0e3d d490 21bc 6859 f5bc 3ed5 fabd
00000320: 94da f5bc 603a 07bd 2f98 c3bd 2215 013e
00000330: 0374 9a3d 2283 9ebd bd00 0a3d 9f4b f3bd
00000340: 1672 94bd f280 86bd 40a3 02be 3033 583e
00000350: 4074 febb 4c26 ea3d 53f9 b43c 9533 b8bc
00000360: 8ad7 113c a6c4 903d 6911 1d3c 8f57 3c3d
00000370: 6090 f03d 691e b53d 3c1d bd3c 5370 753d
00000380: ef14 083e da56 58bd 625d dbbc 064d b3bc
00000390: ea8c 2e3e 16a4 a5bd 871a 1ebe 3ea5 6abd
000003a0: bf03 f63d 547b cd3d ea4f f13d c374 29be
000003b0: 4ccc 753a d7eb d8bd 9afa 3eba ea6c f9bd
000003c0: dfb3 4e3d 77c4 6c3d b40b 27bd 7584 e83c
000003d0: 551c 33be 759b 243e 5629 193d c735 1b3d
000003e0: 42ef b4bd 5d3e 043d 6c52 2dbe d454 c73d
000003f0: 6ff2 d73d 7b9d 0a3e f45f a33d 89e3 983c

layers.3.bias f4 [5]
0.0415861 0.04408293 0.057725552 0.010609421 0.0363945
00000000: 3056 2a3d 4d90 343d a171 6c3d 23d3 2d3c
00000010: 6612 153d
