irony/models/model_29.pt (torch_old, 58143 bytes, 8 tensors)

layers.0.weight f4 [70, 10]
000000 db dd df 3b 3c f3 fd 3c 38 cc ba 3c 1c 01 24 bf
       0.006831867 0.030999772 0.022802457 -0.6406419
000010 4c 45 2a 3d 98 25 2f 3d 87 70 c5 3d f9 52 c7 bc
       0.041569993 0.04276046 0.096406035 -0.024331557
000020 11 b6 8d 3c 4f 5e 8f 3d 81 59 01 3e 1c 03 71 3d
       0.01729873 0.0700041 0.126318 0.058840856
000030 f2 f2 db be b3 52 cb 3e b7 fa db bd 54 a8 8b 3d
       -0.4295879 0.39711532 -0.107411794 0.068192154
000040 53 a4 f5 bd 93 55 be bc 96 a4 88 3d fc 8c bc bc
       -0.11994233 -0.023234164 0.06672017 -0.023016445
000050 cb b7 9c be ab e2 28 3e e0 d2 27 3e 28 b0 2f 3e
       -0.30608973 0.16492717 0.16389036 0.17157042
000060 33 4c 74 be 6c 22 aa bd 96 85 da bc e8 15 2e 3d
       -0.23857193 -0.08307347 -0.026675027 0.04250136
000070 86 bf c6 3c 4b 76 aa bd c2 29 85 be c9 50 11 bd
       0.024261247 -0.08323344 -0.2600842 -0.035477433
000080 8e c5 8a 3e 9b b8 68 3e b1 26 7a be 14 c1 81 bb
       0.27103847 0.22726671 -0.24428822 -0.0039597843
000090 94 cc 01 bc 56 21 f7 3d 54 c1 90 3d 44 3c 0a bd
       -0.00792231 0.12066905 0.070681244 -0.03374888
0000a0 c2 58 ae bd a0 9e d5 be 9c fb 32 3e f5 c1 50 be
       -0.08513023 -0.41722584 0.17478794 -0.20386489
0000b0 70 d5 fc 3d de ef 8b 3b 89 1e 47 bc 30 85 49 3e
       0.123453975 0.0042705378 -0.012153276 0.19679713
0000c0 ca c5 d1 bd ec 51 3f 3d 9b fa e9 bd 74 47 43 be
       -0.102428034 0.046708986 -0.11424752 -0.19070226
0000d0 55 59 02 be 70 37 93 3e c8 7d 43 3e 5f a7 c4 bd
       -0.1272939 0.28753233 0.1909095 -0.09602236
0000e0 f1 fa ad bd 32 1d e4 bd 27 14 ab 3d ed 1c ba 3d
       -0.08495129 -0.11138381 0.08353453 0.090875484
0000f0 52 13 76 3e 06 be a6 3c 47 54 83 be c1 4a 2b be
       0.24030808 0.020354282 -0.25650236 -0.16727735
000100 64 5f 97 3e 46 1e af 3d 45 0c 9c 3d ef 19 c3 bc
       0.29564965 0.08550696 0.07619528 -0.023816077
000110 71 60 dc 3b 04 9c d6 3d fd a0 97 3e 6b 52 a2 3e
       0.006725364 0.10478976 0.29615012 0.31703505
000120 ef 42 0a 3d 3a 9e dd 3c 2b 5e 02 be c3 a2 d9 3d
       0.03375524 0.027052987 -0.12731235 0.106267475
000130 76 c8 c4 3d f5 0d 35 3e e3 00 87 bd b1 23 f3 bd
       0.096085474 0.17681105 -0.06591966 -0.11872042
000140 56 b7 9d 3d 2a ad 41 3e 96 70 2f bd 0b 04 ad bc
       0.07700984 0.18913713 -0.04283198 -0.021120092
000150 21 45 a7 be b0 67 de 3c 52 18 0e 3c 81 05 84 3c
       -0.3266993 0.027149051 0.008672791 0.016115906
000160 f3 b0 fd 3c bf e5 31 be 8f d6 58 3e e6 c2 93 3e
       0.030968165 -0.17372797 0.21175598 0.28859633
000170 4c d6 69 3e 37 1a 3d be 48 7d bb bd f5 15 55 3d
       0.22835654 -0.18467031 -0.09154755 0.052022893
000180 4e 88 17 3d 69 d5 6d 3d e3 a4 03 be 8a 2c f8 bd
       0.036995225 0.058064852 -0.12855868 -0.1211787
000190 9b 08 90 be 10 a6 7e bd 57 8c 36 3e 60 2f 47 3e
       -0.28131565 -0.06217009 0.17826973 0.19451666
0001a0 25 ea 9b be 34 43 0b be 8b 8d 06 be af 68 4a bd
       -0.30452076 -0.13599855 -0.13139932 -0.04941624
0001b0 19 8b 8e bd f4 c2 1f be 1e cc 70 3e 3f 0b b0 3e
       -0.069601245 -0.15601712 0.23515365 0.3438358
0001c0 fd 58 9e 3b 98 13 07 be 7a f0 d1 bd e0 d3 1b 3d
       0.0048323856 -0.13191068 -0.102509454 0.038043857
0001d0 08 8e 1d 3e 37 3e 4b bd 33 bc db bd 74 11 d9 bd
       0.15386212 -0.04961988 -0.107292555 -0.10599032
0001e0 82 f3 b3 3e 8b 45 3e be b4 17 46 be 9d 1c 06 3e
       0.3514672 -0.18581216 -0.1934498 0.13096853
0001f0 c2 e1 60 3e da 44 34 3e 52 68 c4 bd 90 58 51 bd
       0.2196112 0.1760439 -0.0959021 -0.05110985
000200 e6 8b 12 bd 48 42 e3 3d ac 94 04 3e 1c 20 57 3e
       -0.03577795 0.110966265 0.12947339 0.21008343
000210 5e 57 c4 bd fe 7f ff bd 5d dc 95 be fc 28 9a 3b
       -0.095869765 -0.124755844 -0.29269686 0.0047045927
000220 d3 65 75 bd 7e dc 3f 3d 73 24 5b be 05 42 5a be
       -0.05991156 0.046841137 -0.21400623 -0.21314247
000230 4e f5 84 3e be 95 ed 3d 83 f5 90 3e 23 71 69 be
       0.25968403 0.11600827 0.2831231 -0.22797064
000240 ba bf f0 bd c0 06 18 3e ad ca 1b 3e 95 7d 2e 3e
       -0.11755319 0.14846325 0.15214033 0.17040093
000250 d0 a6 50 bd cd e7 f7 bc 2b b1 8f be b4 32 3b 3e
       -0.050940335 -0.030261898 -0.28064856 0.1828106
000260 4f 9e 19 3e c0 12 11 bd c5 8d 6f be 33 9d ea bd
       0.15001796 -0.035418272 -0.23393925 -0.114557646
000270 a3 6c e7 3d e9 42 2f 3d 7e d1 a5 3d 4a d9 2c bd
       0.11300018 0.04278842 0.08096598 -0.04219941
000280 ac 18 65 be 45 d6 be bd 1c 36 73 3e 65 32 3b 3e
       -0.22372693 -0.093182124 0.2375111 0.18280943
000290 82 d4 84 be a6 eb 26 bd 8e 2d 6e bd 49 31 94 3d
       -0.2594338 -0.040752076 -0.058148913 0.07235963
0002a0 2a 30 2f 3d e1 13 8b bd df 8b 79 3e 92 ce a3 3d
       0.042770542 -0.06790901 0.24369763 0.079983845
0002b0 37 0b 05 be 6d 90 a2 bd b0 0f 97 be 35 98 4c bc
       -0.1299256 -0.07937703 -0.29504156 -0.012487461
0002c0 0e 70 83 39 ef 49 3f 3d 11 ef 44 be 43 70 7d be
       0.00025069754 0.046701368 -0.19231822 -0.24749856
0002d0 a3 58 53 be fa dd 25 be 50 3b 17 3e 76 5b 75 3e
       -0.20639281 -0.16197959 0.1476872 0.23960671
0002e0 14 56 10 3e 21 73 b2 bc c7 af 9b bd 6b 25 cf 3d
       0.14095336 -0.021783413 -0.07601886 0.10114559
0002f0 b0 d7 93 3d 31 a6 54 bd 9e 97 38 be 21 48 7f be
       0.072188735 -0.051916305 -0.18026587 -0.24929859
000300 5f 88 43 be 88 29 73 3e 9a f7 15 3e 7e 89 5e bc
       -0.1909499 0.23746312 0.14645234 -0.013582585
000310 e9 88 c9 ba 12 d2 dc bc fc 03 2a 3e 03 fa 30 3e
       -0.0015375885 -0.026955638 0.16603082 0.17282872
000320 fe e9 59 be a4 e9 a7 be da 4d e6 3a 7d 82 82 be
       -0.21280667 -0.3279544 0.0017570809 -0.2549018
000330 91 bd 12 3e ba 1b e4 bd 07 5e 05 be 0b bd 03 be
       0.14330126 -0.11138101 -0.1302415 -0.12865083
000340 75 a9 15 be cf d6 31 3d c2 4e e6 3d 28 f5 2f 3e
       -0.14615424 0.043417748 0.112454906 0.17183363
000350 fc d6 0e 3e 3f a6 11 bf 09 64 20 3e 42 43 20 3d
       0.13949198 -0.56894296 0.1566316 0.039126642
000360 4c f9 b0 3d 52 1d 49 bd 02 34 c1 bb 5e 4c 8c 3d
       0.086412996 -0.049100228 -0.0058960924 0.068505034
000370 f0 60 97 3e e7 f8 bd be 11 3b 0f be 3a 08 8f be
       0.29566145 -0.3710396 -0.13987376 -0.27935964
000380 2b b8 ae 3d c1 df cc 3d 1b 82 89 bd d3 d8 57 bd
       0.08531221 0.10003615 -0.06714269 -0.052697014
000390 f4 4c 0a bd 52 f7 24 3d 11 f1 2f 3e 7b f7 63 3e
       -0.033764794 0.040274926 0.17181803 0.22262375
0003a0 38 ff 0c 3e 7f 7d 89 be 8d 35 30 be db 89 45 3c
       0.13769233 -0.26853558 -0.17207928 0.012056793
0003b0 88 36 cd ba 76 4d d2 3c 63 a7 27 be f0 d8 2d be
       -0.001565651 0.025671702 -0.16372447 -0.16977286
0003c0 5d b4 82 3e fd 58 c2 bd cd 6e 06 3e 30 43 4b be
       0.2552823 -0.094896294 0.13128205 -0.19849849
0003d0 e8 6d 7d be fb c8 39 3e f3 f6 b0 3d 56 34 62 3e
       -0.24748957 0.18143074 0.08640852 0.22090277
0003e0 b4 e2 fc 3b 9c 74 ad bc 5d 93 4a 3d 33 f8 9d 3b
       0.007717455 -0.021173768 0.049456943 0.0048208474
0003f0 2c b9 36 3d 51 c9 ca 3d 5c 92 61 be 08 4c 04 3e
       0.044610187 0.09901679 -0.22028488 0.12919629

layers.0.bias f4 [70]
000000 07 15 13 3c 42 38 ca 3c 1b 87 3c bd 07 86 12 be
       0.008977181 0.024685029 -0.046027284 -0.1430894
000010 fd 44 57 3d d2 b9 8f bd c9 51 c8 3c 46 8d 30 be
       0.052556027 -0.07017864 0.02445306 -0.17241392
000020 b6 2e 59 3e 0a e2 ba 3c 4f 47 01 3d cf c0 0c be
       0.21209225 0.022812862 0.031562146 -0.13745426
000030 08 f6 a2 bd fd a5 c2 3d 7c a4 48 bd 01 51 4b 3c
       -0.07957083 0.09504316 -0.04898499 0.01240945
000040 a3 e6 97 bd 55 d8 b7 3d 56 19 e7 bd f0 cc e0 bd
       -0.07417037 0.08976809 -0.11284129 -0.10976589
000050 a3 6b 30 3d 1c 78 c1 bd 26 96 12 bc 79 11 15 3e
       0.0430714 -0.09446737 -0.008946931 0.14557447
000060 65 fb 95 bd 8a 56 8c bc 5d b4 39 be 00 e6 eb 3d
       -0.0732334 -0.017131109 -0.1813521 0.115184784
000070 e5 24 25 3e 7d da 1f bd ca 2f 12 3e ea 17 2f bd
       0.16127355 -0.039026726 0.14276043 -0.042747416
000080 55 97 92 bd 99 a0 f0 bc 14 2e 9f bc 42 e3 34 3e
       -0.071577705 -0.029373454 -0.019431151 0.17664817
000090 1c 18 b3 3d a2 db a6 3d 21 81 f4 bd 6a 9e 8e bd
       0.08744833 0.081473604 -0.11938692 -0.06963809
0000a0 41 99 34 3d 05 26 f0 bd 37 79 f5 3b 9c 46 d0 bc
       0.044091467 -0.11726002 0.0074912566 -0.025424294
0000b0 1c fc 06 bd 92 ee 93 bd 56 82 a2 bd 16 1d 72 3c
       -0.032955274 -0.07223238 -0.07935016 0.014777442
0000c0 98 21 8a bd d8 09 2c 3d e7 52 0a bd ed 42 cc bd
       -0.06744689 0.042001575 -0.033770468 -0.099737026
0000d0 fd 92 cd 3d 8a 29 47 bd ca de 10 3e 95 f6 25 3d
       0.100378014 -0.0486236 0.14147487 0.040518362
0000e0 bd 4a 1e bd 46 2f c0 3c 25 41 32 bd 3c 7a 86 3d
       -0.038645495 0.023460042 -0.043519158 0.06566283
0000f0 c7 32 25 3d 60 01 eb 3d 12 56 c1 3d 0f 3e cc bc
       0.04033163 0.11474872 0.09440245 -0.024931936
000100 6f 42 8a 3d 4e 5b 8e b9 6b 8b 3f 3d c9 14 ac 3d
       0.067509525 -0.00027152378 0.04676382 0.08402402
000110 fb 6a 38 bd 38 31 b4 3d
       -0.0450239 0.0879845

layers.1.weight f4 [80, 70]
000000 4f f4 b8 3d 67 81 47 3d 4a 57 d9 3a 38 3e 8e bc
       0.09030973 0.048707392 0.00165818 -0.017363653
000010 6d 5f 32 3c 31 0b 44 bb f4 96 c7 3c be 83 43 bc
       0.010887009 -0.0029913897 0.024363972 -0.011933265
000020 1a f0 06 bd 8c 3e db 3b 61 b0 cb 3b 6d 8e c9 bc
       -0.032943822 0.006690806 0.0062160944 -0.024604047
000030 ff ab a1 3d ca 66 de 3a 4d 25 91 bb e8 23 d7 bd
       0.07894134 0.0016967889 -0.0044294954 -0.105048954
000040 27 7c 51 bc 9a 6d a2 bc 74 4c fd bb 43 31 c3 bc
       -0.012785948 -0.019827653 -0.007730061 -0.0238272
000050 bb 96 ef 3c 11 08 90 3d c7 43 22 3e 34 f7 02 3d
       0.029246679 0.070327885 0.15846168 0.031974033
000060 4e f5 95 3b 30 8f 44 3d 6c de 2f 3c b0 70 27 3b
       0.0045763617 0.047988117 0.010734182 0.0025549345
000070 7a cf 6a bb ce 8f 50 3c c1 00 ab bd d6 24 a7 3b
       -0.0035829232 0.012729598 -0.08349753 0.0051008267
000080 4b c9 f2 bd 9a 02 27 3e e5 cf 02 bd 34 c6 4c be
       -0.118548 0.16309586 -0.031936545 -0.19997483
000090 c6 23 34 3c bb 2f 13 3c c1 52 94 bb 20 78 7b 3c
       0.010994857 0.008983548 -0.0045264666 0.015348464
0000a0 bf 4a bb 3c d4 0a 77 3e e0 1c a7 3d eb ae 3e bd
       0.02286279 0.24125224 0.08159804 -0.046553534
0000b0 76 f7 63 3b 7d f9 3d 3c b2 99 14 be dc 53 78 bc
       0.003478495 0.011595127 -0.14511755 -0.015156712
0000c0 00 51 ef bb 27 ce 4e 3d c0 f5 22 3e ae 41 35 3b
       -0.007303357 0.05048957 0.15914059 0.0027657556
0000d0 93 68 42 be 10 2b 44 bd e9 43 bd bc 21 78 33 bc
       -0.18985204 -0.04789263 -0.023103671 -0.010953934
0000e0 58 0a 3d bc e3 44 7c bc aa 4b de bb 3c d6 38 bc
       -0.011538111 -0.015397283 -0.006783922 -0.011281546
0000f0 d6 6f bf bd ca 4d c9 bb fa 6b 4b 3d 36 9b 81 bd
       -0.09347503 -0.0061433064 0.04966352 -0.06328432
000100 8a 7d 46 3d 25 cb 82 bc 34 41 ce 3c ac e6 49 bc
       0.048459567 -0.015966007 0.025177576 -0.012323063
000110 7d 26 86 3e 8e db c8 ba 89 e0 cd bb ba 9f 80 bd
       0.2620124 -0.0015324221 -0.00628287 -0.062804654
000120 ea 50 a2 3d 14 b3 d6 bb 7c 2a 9c bd da 22 5b 3b
       0.079255894 -0.0065521095 -0.07625291 0.0033437521
000130 1e ec 81 bc 39 20 cf 3a 2f d8 68 3c d0 3e 81 3c
       -0.01585966 0.001580245 0.014211698 0.015777022
000140 05 49 d0 3c df e3 d1 3c f0 03 3e be 1f 7d 97 bc
       0.025425443 0.025621353 -0.1855619 -0.01849228
000150 2b c3 a2 3c 98 1c 54 3e 8c 5c 34 3d f2 ef d6 bc
       0.019868454 0.20714033 0.044033572 -0.026237462
000160 7d a9 73 bc d9 eb 01 bc 72 51 07 3b bf 4a 47 bc
       -0.014871952 -0.007929766 0.002064791 -0.012163817
000170 36 7a aa bd ec ec 40 3b 33 bf a9 bc 7d 14 96 bb
       -0.08324091 0.0029438091 -0.020721054 -0.004580079
000180 4c ff 27 bc c9 2f 1e 3c d1 f9 26 3c ce 61 7e bb
       -0.010253739 0.009654948 0.010191397 -0.003881562
000190 76 23 f9 3b be 79 9a bb ad 04 c4 3c 03 83 2c bd
       0.007603104 -0.00471422 0.02392801 -0.04211713
0001a0 f5 cd ee 3b e1 de 37 3d 3a 42 88 bc f6 5d 80 3d
       0.0072877356 0.04489029 -0.016633142 0.062679216
0001b0 af d5 09 bb 38 0a 88 3b af 3f cb 3c c7 13 22 3d
       -0.0021031906 0.004151609 0.02481064 0.039569642
0001c0 ac 6d fc 3b 8e 93 36 3e de 25 9c bc 90 59 6a bc
       0.0077035036 0.17829725 -0.019061025 -0.01430358
0001d0 c5 65 cc 3d 2c 50 ac bd 5f 57 13 3d cc 0e 05 bd
       0.099803485 -0.08413729 0.035971995 -0.032484815
0001e0 f4 4f 99 bd 53 d6 d7 39 47 8b 81 3d 99 64 5a 3b
       -0.07485953 0.0004116768 0.06325393 0.003332412
0001f0 3d 59 c6 bc 0f 66 15 3c 8e d9 79 3c 2b 6b f8 3c
       -0.024212474 0.009118571 0.015249623 0.03032454
000200 82 5d 51 3c 8f 8b ed bc b4 8c 33 3e 32 00 09 bc
       0.012778642 -0.02899721 0.17534143 -0.008361863
000210 0d ff 2e be dd 48 3d 3e 69 92 3c be 31 7d 82 bc
       -0.17089482 0.18484826 -0.18415226 -0.015928837
000220 5b 92 e8 bc 35 d2 25 3c 0b b3 a0 bc aa 57 3e bd
       -0.0283901 0.010120918 -0.019616624 -0.04647032
000230 d4 92 a3 3b 73 fd b5 3d 0e 93 0c 3c aa 83 e7 3b
       0.0049918685 0.08886232 0.008579982 0.007065256
000240 15 29 8d be da fc 84 3b 76 87 5b 3c e5 bb 20 3c
       -0.27570406 0.0040584626 0.013398996 0.009810423
000250 4d 91 62 3d cd 26 84 bc cb 34 3c 3c 9a b6 a1 3c
       0.05531435 -0.016131783 0.011487196 0.019740392
000260 40 32 40 3c e5 25 ae 3b a0 7a 00 bd c4 44 8c 3c
       0.0117307305 0.005314576 -0.031366944 0.017122634
000270 eb 00 5b bb ab 76 16 bc bc 31 4d bd 22 cb a5 3c
       -0.0033417295 -0.009183566 -0.05009626 0.020238463
000280 79 8b 32 bd 48 b8 45 3c 72 b1 09 3b 3e 6c e6 3b
       -0.043590043 0.012067862 0.0021010307 0.0070319464
000290 c2 84 65 bc a0 d8 a5 3d 63 dc 8b bd 8c e8 34 3d
       -0.014008703 0.080979586 -0.06829145 0.044167086
0002a0 43 b1 a6 3c f5 6e 33 bb d3 db 5d 3c 40 e3 91 3c
       0.020348197 -0.0027379368 0.01354118 0.017808557
0002b0 ae b0 13 3b 49 b0 04 3c c6 ab b9 3c 50 85 ab bc
       0.002253573 0.00809867 0.022664916 -0.020937592
0002c0 a4 12 48 3b fb 68 8c 3e c1 cf c7 bb 4e ac 0c 3d
       0.0030528689 0.27423844 -0.0060977642 0.03434401
0002d0 a4 e0 72 3d 9f cc 15 bd 1e 4d 51 3b 72 f0 af 3c
       0.059296265 -0.036572095 0.0031936835 0.021476958
0002e0 b4 56 e8 bb 98 65 8a bd 43 ed 39 3e 5f b0 95 3d
       -0.007090414 -0.06757659 0.18156914 0.07309031
0002f0 59 66 d5 3b b2 39 8a 3d 11 3e 8a 3c 96 51 28 3d
       0.006512445 0.06749286 0.016875299 0.04109343
000300 75 78 4e bc 1e af 68 3e a2 a0 9a bc 91 f3 99 bc
       -0.012601961 0.22723052 -0.018875424 -0.0187929
000310 30 cc a0 bc 10 b6 7a 3d e2 0f 10 bb 90 a1 1c bc
       -0.019628614 0.061208785 -0.0021982123 -0.009560004
000320 24 76 89 3c 06 6c a7 bc 03 ba 23 bd 81 70 e7 3c
       0.016779967 -0.020437252 -0.039972316 0.028251888
000330 0a fb 88 3b 90 07 11 bb 3e 03 0f be c6 38 de 3a
       0.004180317 -0.0022129752 -0.1396608 0.0016954176
000340 8f a4 9a 3c 28 90 9b be 3f 1f 55 3e 3e 21 ba bc
       0.018877296 -0.3038342 0.208127 -0.02272093
000350 e1 1c dd bc 2e 4b 55 bc 96 13 66 3c d8 9b b7 3c
       -0.02699131 -0.0130184125 0.014042756 0.02241318
000360 96 16 7d 3c 10 ae ba bc a5 36 77 3c 47 ed 57 bc
       0.015447279 -0.022788078 0.015088712 -0.01317913
000370 fa 57 d1 bc 82 50 ca 3c 93 9d ec ba a8 4e b0 bb
       -0.025554646 0.024696592 -0.0018052332 -0.0053804703
000380 63 3b b2 3c be 28 2b 3c a9 64 7a 3c 61 8b 61 3a
       0.021756833 0.010446725 0.015282788 0.0008603838
000390 fa 33 14 bd 94 8f a0 b9 78 b8 83 bc aa 12 81 3e
       -0.03618238 -0.00030624552 -0.016079172 0.25209552
0003a0 58 5c e9 3c f7 91 76 3b 14 a0 a9 ba 69 ef 8e bd
       0.028486416 0.0037623623 -0.0012941384 -0.069792576
0003b0 b8 64 5a 3b 45 8b 04 bc 2c 0a b4 bc 42 0a e8 bc
       0.0033324193 -0.008089845 -0.021977507 -0.028325204
0003c0 fd 82 30 be 0b 50 20 3e 3b 71 6a be 18 14 ab 3d
       -0.17237468 0.15655534 -0.22894756 0.08353442
0003d0 ba 88 06 bc 45 07 41 bd c8 c5 9f 3b 74 27 8d 3c
       -0.008211309 -0.047126073 0.0048758723 0.017230727
0003e0 1f cd 30 3e 9b e4 83 3d 29 4d 40 3d 52 cd 0c bd
       0.17265747 0.064400874 0.046948586 -0.034375496
0003f0 0a a8 72 3e 37 19 bc 3b de 05 56 ba 3a 41 28 3b
       0.23696914 0.0057403105 -0.00081643264 0.0025673644

layers.1.bias f4 [80]
000000 4b 14 42 3d f2 38 b8 3d 96 bc b0 3d e9 b7 e9 3d
       0.047382634 0.089952365 0.0862972 0.11412031
000010 4e 32 fc 3d 3a e5 be 3d c6 72 db 3d 59 14 d6 3d
       0.12314282 0.09321065 0.10715251 0.104531
000020 7d 05 ab 3d 7e ff 41 3d 8d 96 03 3e b1 58 d5 3c
       0.08350656 0.047362797 0.128504 0.026043268
000030 47 7c 46 3d bf f7 c9 3d 99 e5 5d 3d e8 af da 3d
       0.048458364 0.09861707 0.05417404 0.10678083
000040 df a5 a4 3d cf b9 ce 3d 38 04 00 3e 7b 06 d1 3d
       0.0803945 0.10094034 0.1250161 0.10206314
000050 8f 6c 9f 3d 28 c8 d7 3d 62 6a c6 3d 02 05 92 3d
       0.07784378 0.10536224 0.0968826 0.071298614
000060 e1 a9 9d 3d d0 84 36 3d 10 b0 05 3e 25 b5 ac 3d
       0.076984175 0.044560254 0.13055444 0.08432988
000070 fa b7 f1 3d 32 64 bb 3d d5 aa 04 3e 9e 01 bc 3d
       0.11802669 0.0914997 0.12955792 0.09179996
000080 a9 6d 5b 3d 01 53 b7 3d c2 fd 0a 3e f3 c4 bb 3d
       0.053571377 0.089513786 0.13573363 0.091684245
000090 12 e8 ec 3d 74 8b 8f 3d 33 1d d1 3d 86 6d cb 3d
       0.115677014 0.070090204 0.102106474 0.09932999
0000a0 cc ed e0 3d 52 5a c8 3d 28 a0 fb 3d c6 89 04 3d
       0.10982856 0.09782852 0.12286407 0.032357953
0000b0 83 32 b1 3d fe c0 dd 3d a4 9b 09 3e 46 e9 af 3d
       0.086522125 0.10827826 0.13438278 0.08589415
0000c0 ba 37 f5 3d b5 37 ea 3d d2 1e c7 3d dc c7 d6 3d
       0.119735196 0.114364065 0.097226754 0.10487339
0000d0 35 be 91 3d 18 89 f0 3d ad 56 02 3e a3 ca f0 3d
       0.07116357 0.117448986 0.12728377 0.117574
0000e0 a6 42 9b 3d b2 02 30 3d 46 1b 03 3e df 9f c3 3d
       0.075810716 0.04297132 0.12803373 0.09551977
0000f0 3f f2 c0 3d 90 62 8a 3d 53 87 80 3d 60 5c e2 3d
       0.09421205 0.067570806 0.06275811 0.110527754
000100 f4 6f f8 3d 1e 6e bb 3d 5b 92 a7 3d c4 91 00 3e
       0.12130728 0.091518626 0.08182212 0.12555605
000110 6c aa d7 3d 95 a0 bb 3d 4d 77 d7 3d 3b 91 ba 3c
       0.10530552 0.09161488 0.10520802 0.02277433
000120 b7 8a 00 3e e7 5a cd 3d 0e 36 30 3d da 75 d2 3d
       0.12552916 0.10027104 0.0430203 0.10276385
000130 2b 2a 8c 3d b9 43 9e 3d a1 e2 a1 3d 03 7b c2 3d
       0.068439804 0.07727761 0.07904554 0.09496119

layers.2.weight f4 [90, 80]
000000 3d 63 70 3c 30 11 07 bc e8 3b 83 3d 6a da 2a 3d
       0.014672098 -0.008243844 0.064079106 0.041712202
000010 2d c2 a0 bc 79 b8 a2 bb 06 78 3d 3b 56 27 cf bc
       -0.01962384 -0.0049658385 0.002891065 -0.025287312
000020 c1 e9 87 3c da c5 3a 3c cf d5 48 3d 5d 07 97 3d
       0.016590955 0.011399711 0.04903203 0.07374451
000030 79 8b 9c 3c 6d cf a1 bc a9 3e 8a 3d 85 e7 b2 3d
       0.019109474 -0.019752229 0.06750233 0.08735565
000040 e0 08 37 bd f6 e0 80 bd fd 0e 82 bd d8 d7 60 3c
       -0.0446862 -0.06292908 -0.06350515 0.013723336
000050 47 44 fd bc 6f a0 32 bd bc ac 49 3d b1 fa bd bc
       -0.030916346 -0.043610033 0.049236998 -0.023190828
000060 a7 2b 43 3d 36 6b bf bc 26 25 6f bd 73 30 72 3d
       0.047649052 -0.023366552 -0.058385037 0.059128236
000070 e4 6e e9 bc a7 4c 3f 3c 98 58 de bc 59 99 4a bd
       -0.02849526 0.01167599 -0.027141854 -0.04946265
000080 d7 f3 85 3d 6f 04 7f 3d 84 b8 2b bd ee 79 24 3d
       0.065406494 0.062260088 -0.041924015 0.040155344
000090 33 4f 7b bd f0 e7 d7 bc 5d d0 6f 3d 08 3e eb bc
       -0.061354827 -0.026355714 0.05854832 -0.028716102
0000a0 0c a7 14 bd 42 df 9f 3c f7 b2 1e bd 67 76 52 39
       -0.03629212 0.019515637 -0.038744893 0.00020071269
0000b0 c5 f0 09 bd b8 4a 5e bd e7 b7 c4 3a 33 41 2c bd
       -0.03367688 -0.054270476 0.001500842 -0.042054366
0000c0 11 57 03 3d 04 c5 4c b9 dd 5e e7 3c 0c 62 20 bd
       0.032065455 -0.0001952835 0.028243477 -0.039156005
0000d0 06 9c 4b 3d f1 19 61 bd cf 08 5c bd 21 9c ac 3c
       0.049709342 -0.05495638 -0.053719338 0.021070542
0000e0 fd 65 5c bd 6e 33 eb 3c 16 0a 29 bd 86 60 07 bd
       -0.0538082 0.028711047 -0.041269384 -0.033051036
0000f0 ae 58 1e bd db fb 49 3d b2 b5 1a 3d df 17 62 bd
       -0.03865879 0.049312454 0.037770934 -0.055198546
000100 da 57 47 3d 51 e5 4d bd 99 1f 2d 3d 2d 30 8e bd
       0.048667766 -0.05026752 0.042266462 -0.069427826
000110 75 3f f2 bc b5 68 50 bd ae 7b b7 bc b8 c5 a9 3d
       -0.029571274 -0.050881106 -0.022397842 0.08289665
000120 40 eb 7a bd 30 1d 4f bd 4c 57 72 3c 19 44 88 bd
       -0.061259508 -0.050564945 0.014791321 -0.066536136
000130 eb a3 38 3d c7 1f 84 3d 4b dc fc bc 6d f6 4f 3d
       0.0450782 0.064513735 -0.030866763 0.05077212
000140 bc 67 bd bb fc 7f 00 bb e3 a3 d5 3a 15 c4 c0 3a
       -0.0057801884 -0.0019607535 0.0016299452 0.0014706874
000150 b9 ed e3 39 27 a1 80 3b 6b 2a 05 bb 0e bf 80 3a
       0.0004347393 0.003925461 -0.0020319473 0.0009822564
000160 68 8d ba bb 04 3a fa bb e4 d7 17 bb b6 aa 78 3c
       -0.0056931265 -0.0076363105 -0.0023169452 0.015177419
000170 4e 55 10 3b ea 98 11 3b 70 88 c6 39 49 85 90 ba
       0.0022023502 0.0022216388 0.00037867157 -0.001102605
000180 35 a8 14 bb 62 01 a2 bb 83 56 20 3a 10 ca d6 ba
       -0.0022683267 -0.0049440125 0.0006116407 -0.0016387124
000190 30 d3 8f ba d3 21 cd 3a 29 dc 2f ba b2 91 7c 3b
       -0.0010972973 0.0015650339 -0.00067085266 0.003853899
0001a0 b4 8d 9f 3b b0 75 c8 b8 63 b5 15 3b 06 52 60 bb
       0.0048691873 -9.558664e-05 0.002284371 -0.0034228577
0001b0 19 af da 39 57 52 9c 3b e7 f2 63 ba 63 4a b8 bb
       0.00041710658 0.004770558 -0.0008695558 -0.005624102
0001c0 fa 15 c6 ba e3 70 32 bb 62 d3 40 3b ab 63 fc ba
       -0.0015112751 -0.002722793 0.002942287 -0.0019255778
0001d0 7e 1b f0 ba 10 84 af ba 7c 59 1d bc ae 38 9d 39
       -0.001831874 -0.0013390798 -0.009603854 0.00029987603
0001e0 24 2e 23 3a 0b 04 67 bb 2d 16 87 b7 ec 90 95 b9
       0.0006224832 -0.0035250213 -1.610358e-05 -0.0002852747
0001f0 0f c8 86 39 7a f9 91 3a bc 9b 22 3b c2 ad 64 3b
       0.00025707527 0.0011136972 0.0024812063 0.0034893607
000200 20 fe 26 bb 6a 35 e7 b9 96 ca 93 bb 68 c4 1d 3b
       -0.002548106 -0.0004409955 -0.004510234 0.0024073366
000210 cc 76 75 ba 90 f9 bc ba 68 a8 0e 3b 1e 6f 11 ba
       -0.00093637104 -0.0014417637 0.0021767858 -0.0005547869
000220 62 35 6b 39 5f b5 83 bb 4f 6a 9e 3a af ec 7c bb
       0.00022431233 -0.004019424 0.0012086126 -0.0038593223
000230 00 58 dc 3a 5f 98 a0 39 a0 d3 d7 3b 38 2d 1e 3a
       0.0016810894 0.00030631103 0.006586507 0.000603396
000240 47 67 4a ba dc 7b cf 3a 36 ff 63 3c 6a db c5 ba
       -0.0007721078 0.001582976 0.0139158275 -0.0015095298
000250 a8 b9 6c 3b a1 a0 3e bb 86 d0 6c bb 4e a2 00 bb
       0.0036121402 -0.0029087442 -0.0036135032 -0.001962799
000260 83 12 e5 ba 58 b2 7c b9 eb e5 a5 bb e3 42 4f bb
       -0.001747683 -0.00024099031 -0.0050628087 -0.003162556
000270 91 cb 79 bb ce d8 e3 bb 65 a1 77 ba fe 97 ab bb
       -0.003811572 -0.0069533354 -0.0009446352 -0.0052366247
000280 96 8a aa bc 91 f1 27 3d c7 5a af 3d 3a e2 e9 ba
       -0.020818036 0.04100186 0.08562236 -0.001784391
000290 30 a2 c4 3c 11 dd f4 3c 87 ef 4b 3d c1 16 03 3d
       0.024003118 0.029890569 0.049788978 0.03200412
0002a0 78 b2 f1 bc 71 71 1a bd f3 f1 05 bd 6c 2d 30 3d
       -0.029504046 -0.037705842 -0.032701444 0.043012068
0002b0 f5 60 b0 bc 08 b6 e4 3c b2 3b 41 3d 30 19 5f 3d
       -0.021530608 0.02791883 0.04717607 0.05446738
0002c0 a6 f8 17 bd 2f d7 f5 bc a1 6b bc bc 57 bb 53 3d
       -0.037102364 -0.030009834 -0.02300054 0.051692333
0002d0 2c 76 42 bd f2 b8 86 3c da 6a 10 bd 70 d9 f8 3c
       -0.04747598 0.01644561 -0.03525815 0.03037712
0002e0 7b 73 21 3d 3b c1 ea 3c d8 5d 36 bc 40 ab c2 3d
       0.03941677 0.028656593 -0.0111307725 0.095053196
0002f0 f0 38 94 3c 0a 2c df 3c f6 a2 07 3d 87 84 30 bc
       0.018093556 0.02724268 0.033114396 -0.0107737845
000300 e5 43 30 3d 94 1e 47 3d c5 6e 2b bd 97 72 e0 bc
       0.0430335 0.048613146 -0.041853685 -0.02739839
000310 5e 0b c8 bc 63 56 b4 3c 69 d2 33 3d c2 16 a6 bd
       -0.024419483 0.022013849 0.043901835 -0.081098095
000320 d0 61 28 3d 36 04 27 3d 99 09 e4 bc 57 ac e5 bc
       0.041108906 0.0407755 -0.027836608 -0.02803628
000330 4a 00 89 3c 20 1f 9c bc 86 0a 73 3c 69 4b 6d bd
       0.01672377 -0.01905781 0.014834052 -0.057933245
000340 df 85 f1 bc d9 26 9f 3c 37 cd 0f bd d7 97 ff bb
       -0.02948278 0.019427704 -0.035107818 -0.007800083
000350 b8 60 77 bb b4 18 48 3c e0 64 74 bd d8 36 05 bd
       -0.0037746858 0.012212921 -0.059666514 -0.032523006
000360 27 d1 a0 bc 2b 14 38 bc f7 0c 64 bd 4b 1b a4 bd
       -0.019630982 -0.011235277 -0.055676427 -0.08013018
000370 d5 a2 34 bd d6 d7 cc 3c 44 73 3f 3d 79 1e a8 bd
       -0.0441006 0.025005262 0.046740785 -0.08208937
000380 23 1c df bc ed 99 07 bd 56 5d a7 3d 5b d3 ec bc
       -0.027235096 -0.03310578 0.08172099 -0.028909376
000390 a8 7a 8e bd 99 a6 18 b9 c2 b8 97 bd 73 97 3f 3d
       -0.069569886 -0.00014557912 -0.07408287 0.046775293
0003a0 10 95 0e bd 69 0d 2c bd 2b 04 ce bc 96 ab 46 bd
       -0.034810126 -0.042004976 -0.025148472 -0.04850348
0003b0 d7 ec 39 3d e4 5b 1d 3d c7 53 7f bc 82 f2 80 3d
       0.045391884 0.03841771 -0.015583939 0.06296255
0003c0 c5 05 84 3c 47 40 84 3b 4d b3 49 3d 8f 7c 09 3d
       0.016116032 0.004035983 0.04924326 0.033566054
0003d0 7b fd fb bc 48 eb 6d bc 56 38 e5 3a f7 25 37 bd
       -0.030760517 -0.014521427 0.0017488103 -0.04471394
0003e0 02 d8 01 3d bb ba 04 3d 5c f5 22 3d ae 57 84 3d
       0.03170014 0.032404643 0.039784774 0.06462036
0003f0 f1 23 e0 3c d4 83 36 bd 43 ba ef 3c a5 8b 12 bc
       0.027360888 -0.044559315 0.029263621 -0.008944427

layers.2.bias f4 [90]
000000 89 d4 cc bd 4a 87 a9 ba 0b 00 ff bc 47 91 21 3d
       -0.10001475 -0.0012933996 -0.03112795 0.039445188
000010 f4 5b a1 3d 56 6c f5 3c 93 cd d5 3d 5f fd b3 3a
       0.07878867 0.029958885 0.10439601 0.0013732127
000020 8e 23 46 3d 47 b7 ba bb 85 8a b0 bd d0 e8 49 bb
       0.04837375 -0.005698118 -0.086201705 -0.0030808933
000030 5e 24 ae 3a 17 ed af 3b 9b f7 e0 3c a9 5c 31 3d
       0.0013285985 0.0053688395 0.027461817 0.04330126
000040 89 85 a2 bd 40 38 99 3d 1d fb 82 3c 99 5e d9 3c
       -0.07935626 0.07481432 0.01598888 0.026534365
000050 d2 b6 0f 3d 09 39 28 bd 4c 77 80 3b 55 59 ab ba
       0.03508646 -0.041070018 0.0039204713 -0.0013072888
000060 30 53 48 3d f4 1e 87 bd e7 f0 61 3d 4c 91 43 3d
       0.04890746 -0.06597701 0.055161383 0.047745988
000070 99 05 4f 3d 00 e9 97 bd e0 79 c3 3a d4 42 cd bd
       0.050542448 -0.07417488 0.0014913641 -0.10022512
000080 9e 9e 88 3d fa a9 4e bb f3 84 d8 bd 87 c8 7d bd
       0.06670879 -0.003153442 -0.10572233 -0.061958816
000090 ed ea 99 3d d3 a6 23 3d 64 5b 92 3d d3 33 8e 3d
       0.07515512 0.039954018 0.07146338 0.069434784
0000a0 98 2f 80 3c 70 5e 6e 3d 15 eb 56 bb 7f e7 2e bd
       0.015647694 0.05819553 -0.0032793928 -0.04270124
0000b0 bd 43 a8 bd b3 56 a2 3d f4 5f c4 bd e6 80 9d bd
       -0.08216045 0.07926693 -0.09588614 -0.07690601
0000c0 f7 fd 0f bd 3b 95 8e 3b 3f 97 cb bc c1 e9 b4 bd
       -0.03515431 0.0043512858 -0.024852393 -0.088336475
0000d0 59 bf f0 bc 3b 17 d7 3c 39 4a 9c 3d 9b 79 c0 bc
       -0.029388117 0.026256194 0.07631344 -0.023495486
0000e0 60 55 5f 3d 72 a4 21 3c 91 30 4f 3d bc 62 80 3d
       0.05452478 0.009865867 0.050583426 0.06268832
0000f0 6b 7e 5f 3d 43 81 4c bd d2 73 aa 3d dc 70 b4 bc
       0.05456392 -0.04992796 0.08322872 -0.022026472
000100 13 38 08 bd bd 07 54 bc 90 c6 91 3d 52 0f cf 3a
       -0.0332566 -0.012941298 0.07117951 0.0015797412
000110 cc 71 19 3d 60 14 4b bd 6c 18 8d 3d e1 6e 91 3c
       0.03746204 -0.049579978 0.06889424 0.017753066
000120 f5 de 84 3b 02 9b e8 3d 5b bd 58 3d ac b0 02 3e
       0.004054899 0.113576904 0.05291496 0.12762707
000130 0d 0c 99 bc e6 9d a6 bd e3 f9 bc 3d 19 ac a6 bc
       -0.018682504 -0.081355855 0.092273496 -0.020345734
000140 ff 57 8d 3b 89 1a 4b 3c 98 3b 86 bc 69 f8 87 bd
       0.0043134685 0.012396463 -0.016385838 -0.06639177
000150 36 7f 41 3d 5d a0 6f 3c a7 e6 61 bd 9a ba 6f bd
       0.04724046 0.014625636 -0.055151608 -0.058527566
000160 a5 7c 34 bc c1 94 89 3d
       -0.011016046 0.06717826

layers.3.weight f4 [5, 90]
000000 a2 d0 db 3d ae 62 8b bc e1 26 b1 3d 39 59 b4 3d
       0.10733153 -0.017014828 0.08649994 0.0880608
000010 0c f8 5a be 1f 3e 25 be 46 38 a6 3b 13 92 3a ba
       -0.21383685 -0.16136979 0.0050726263 -0.00071171037
000020 23 51 39 3c 06 16 1a 3d 1d b0 32 3d 96 d8 ca 3c
       0.011310848 0.03761866 0.043624986 0.02476148
000030 5f e9 bb bd 0d da 87 bd a2 2d 83 3b 40 3e 42 bd
       -0.091753714 -0.06633387 0.0040032426 -0.047422647
000040 27 24 08 3e c3 84 7c bd 0f 24 40 bc 78 bd 39 3d
       0.13295041 -0.06165005 -0.011727347 0.045346707
000050 49 de 1d 3e 8e c7 39 bc 66 9b ab ba 2b 57 57 3b
       0.15416826 -0.011339081 -0.0013092577 0.0032858353
000060 d3 b8 d0 bd e3 9c 6e 3e 05 77 53 be 7c e1 0c 3e
       -0.101915024 0.23302035 -0.20650871 0.1375789
000070 4f 6f cc bc 6b d3 85 3c 3a b5 35 bd 50 d9 fe bb
       -0.02495542 0.016336164 -0.044362284 -0.0077773705
000080 e5 5e 7b bd 66 72 99 3a 16 10 c4 3d 61 85 a8 3d
       -0.061369795 0.0011707067 0.09573381 0.08228565
000090 d4 c3 ac bd af b8 04 3c 93 92 a3 bd 95 ea cd bb
       -0.08435789 0.008100673 -0.07986941 -0.006284068
0000a0 ae 17 aa 3c 5a be 04 be e1 28 ca bd da b8 84 bd
       0.020763244 -0.12963238 -0.09871078 -0.0648057
0000b0 d8 1c 05 bd 04 e0 ad bd f5 aa 58 3c bd bc 80 be
       -0.03249821 -0.08489993 0.013224353 -0.25143996
0000c0 52 02 95 bc 02 27 92 bd 7f f1 23 3d a6 1e ed 3d
       -0.018189583 -0.071363464 0.04002523 0.11578111
0000d0 29 7c 20 3e 1c d5 f2 3c 6b 22 81 bd 35 93 43 bd
       0.15672363 0.029642634 -0.06305393 -0.04774781
0000e0 4e 91 95 3d a7 59 c9 3c 3c a2 af 3d a5 7d ff bd
       0.07303105 0.024578882 0.085758656 -0.12475137
0000f0 46 60 ea 3d e7 0a ba bd 6f b1 15 be db a7 14 3e
       0.11444144 -0.09084111 -0.14618467 0.14517157
000100 9c 77 05 3d 34 e4 c2 bc 74 b0 a4 bd ff eb b8 3d
       0.03258477 -0.023790456 -0.08041468 0.09029388
000110 91 70 1f bd cc 72 b7 3e 74 81 b8 bd 59 80 a3 bd
       -0.03892571 0.3582977 -0.09009066 -0.07983465
000120 12 b0 16 3c 71 50 89 bd a6 5a 11 3e b2 56 98 3c
       0.009197252 -0.06704796 0.14194736 0.018596027
000130 7c 7a 28 bd cb af b0 bd ac 29 0e be b0 3e a9 bd
       -0.041132435 -0.0862728 -0.13883084 -0.0826391
000140 44 bd 97 3b 5d d8 a7 3a 85 21 26 3d a2 6e 5b be
       0.0046307165 0.001280557 0.04055931 -0.21428922
000150 1a e6 42 bd f3 82 87 3d d9 0e 3b 3e 5e 83 af 3d
       -0.047582723 0.066167735 0.18267383 0.08569978
000160 58 4e a6 bc bb ae f3 3d 39 aa 91 3d 2c bc a2 bc
       -0.02030103 0.118985616 0.071125455 -0.019865118
000170 f0 e8 90 3d a1 b0 e2 3c 18 9e 58 be 3a d9 02 be
       0.07075679 0.027672114 -0.21154058 -0.12778178
000180 44 72 d3 bd 4f 10 44 ba 7d c4 c2 3d ef ec 17 3d
       -0.10324529 -0.0007479237 0.095101334 0.03709119
000190 0d 5f 35 3d 6d b0 cc 3c 3d 0c f0 bd 29 2d 71 3b
       0.0442801 0.02498647 -0.11721084 0.00368006
0001a0 c9 eb 5c bc 3a 60 27 bd 68 e4 0f bc e2 0a 0d be
       -0.01348395 -0.040863253 -0.008782484 -0.13773683
0001b0 90 81 7b bb 5e f6 c9 3c 44 31 2a 3c ca dd 69 bc
       -0.0038376786 0.02465361 0.010387722 -0.01427407
0001c0 aa d7 a2 ba 65 53 dd 3b 94 90 28 bd 41 40 50 bd
       -0.0012423892 0.006754326 -0.041153505 -0.050842527
0001d0 b0 a9 7d bd 1c eb 3e be 1a ed 9e bc 03 12 dc 3d
       -0.061929405 -0.18644375 -0.019400168 0.10745623
0001e0 09 44 17 bc 94 41 e1 3d fa 54 bc bd 0f bc af 3b
       -0.009232529 0.10998836 -0.091958955 0.0053629945
0001f0 f5 90 ed 3d 77 04 da 3d 63 2d e5 bd 3c b3 9b 3e
       0.11599914 0.10645383 -0.111902975 0.30410182
000200 0a 39 7f bd 1f 0a 5f bd f7 7b 96 3c 06 bb 03 bd
       -0.062310256 -0.05445301 0.018369658 -0.03216078
000210 c7 5e 13 be f7 4f 8e bd 8c 29 21 bc 19 ac a8 bc
       -0.14391623 -0.06948846 -0.009836566 -0.020589875
000220 b4 c8 c7 3d ad 38 35 3e f0 69 be bc af 04 9b bd
       0.09755078 0.17697401 -0.023243874 -0.07569253
000230 b6 d6 82 3c 3d 2b 8b 3d 20 66 1f 3e 30 d5 d7 3c
       0.015971523 0.067953564 0.15566301 0.026346773
000240 b5 e4 85 bd 8b d1 19 3d d3 ad c9 bd 8c 00 03 3d
       -0.06537763 0.03755335 -0.098476075 0.031982943
000250 11 68 b0 3c b3 c4 96 bd d2 ac 07 3e 4c 9f 56 3e
       0.021533998 -0.07361736 0.1324952 0.20959204
000260 42 07 8b 3d ca d1 ee 3d cf 0a 19 3d 6d 51 6d 3e
       0.06788494 0.11661108 0.037363824 0.23175593
000270 ca 31 24 bd 87 30 d4 3c a9 3e 14 bd 47 86 15 be
       -0.040086545 0.025902046 -0.03619257 -0.14602004
000280 dd 15 37 be 32 33 b1 bb 82 55 d6 3b a9 dd 8a bd
       -0.17879434 -0.0054077143 0.006540955 -0.067805596
000290 aa 91 05 bb 6a bb 0d be 56 d8 cd bd 71 9c 99 bd
       -0.0020381012 -0.13841024 -0.100510284 -0.07500542
0002a0 65 fc da bd 44 6c e5 bc bb f3 87 bb 74 5b 56 3d
       -0.10692672 -0.028005727 -0.004148928 0.05233331
0002b0 47 b4 0e 3b 56 8d fd bb 20 d9 7f 3c 70 1d 1f 3d
       0.0021774934 -0.007737796 0.0156157315 0.038846433
0002c0 10 f8 a8 bc 52 6f 90 3d 14 b8 a5 bb 80 3d 29 3e
       -0.020626098 0.07052483 -0.005057344 0.16527367
0002d0 21 54 0a bd 73 df 81 bc 98 c5 76 3d ff f1 b2 bd
       -0.033771638 -0.01585362 0.060247034 -0.08737563
0002e0 70 08 6a 3d 76 44 83 bd 76 ad 4b be b8 6d a1 ba
       0.057136953 -0.06409542 -0.19890389 -0.0012316024
0002f0 8a 04 37 be d4 ab 13 3d 60 16 80 3d f1 0b d1 3c
       -0.17872825 0.03605254 0.06254268 0.02551839
000300 ca 98 e8 3b 14 36 ff 3a 3c 45 33 bd bd 34 81 3c
       0.007098292 0.0019471073 -0.0437672 0.015772218
000310 8c a7 ce bc 48 2f c9 bd 15 c6 e0 bc 75 67 dd bd
       -0.025226377 -0.09823471 -0.027438203 -0.108107485
000320 d2 75 84 bd b1 4c 30 3d 68 75 b2 ba af 47 02 3c
       -0.06467785 0.04304189 -0.0013615312 0.007951661
000330 02 7e de bc 09 c4 38 3c 9b 9f bd 3d 77 fc aa bd
       -0.027159695 0.011277207 0.09258958 -0.08348935
000340 92 ce a8 bd 41 7d 23 bc ff b2 84 bc 5e cc 7d 3d
       -0.08242525 -0.009978593 -0.016198633 0.061962478
000350 7c 62 11 be bd 6f df 3b 12 47 77 3d 8e a6 dc 3c
       -0.14197725 0.00681874 0.060370512 0.026934888
000360 a1 2d af bd 51 71 7f be 0e ae 72 bd 34 c2 93 bb
       -0.08553625 -0.2494557 -0.059248023 -0.004509235
000370 01 97 62 bd 0e 23 08 be 1d 1a fe 3d 4b 1a aa 3d
       -0.05531979 -0.13294622 0.124073245 0.08305796
000380 fb 71 4d bd a1 90 df 3c 04 20 ae 3d 95 22 94 3d
       -0.05015753 0.027290644 0.085022 0.072331585
000390 bb d4 05 3d 07 a7 87 3c cd 6d f6 3d 19 d8 bd 3d
       0.03267358 0.016559137 0.120326616 0.09269733
0003a0 ea b6 38 be dd 58 16 3b 9a 78 25 bd 4d c1 24 3d
       -0.18038526 0.002294115 -0.040398218 0.04022341
0003b0 ce cd f4 bd 82 80 89 bb 6e c3 3a be db 3b 03 be
       -0.11953317 -0.0041962275 -0.18238613 -0.12815802
0003c0 a9 42 a3 bd c8 c6 0c 3e 88 be 85 bd 69 a5 12 bd
       -0.07971699 0.13747704 -0.065304816 -0.03580228
0003d0 f1 95 51 3d 0b 35 e7 ba c9 74 cf bb ad 9a 72 bd
       0.051168386 -0.0017639709 -0.0063310605 -0.05922954
0003e0 7e 9f 13 bd d3 3f c3 3c 88 84 f4 bd c6 4f d4 bc
       -0.036040775 0.023834145 -0.11939341 -0.025916945
0003f0 23 f3 96 3b 75 3e a0 bd 1e 69 20 be 68 39 fe bd
       0.004606621 -0.07824413 -0.15665099 -0.12413293

layers.3.bias f4 [5]
000000 d5 fd 91 ba 86 c0 96 bc 4c 34 26 bc 10 36 0b 3d
       -0.001113827 -0.01840235 -0.0101443045 0.033987105
000010 b3 93 f7 bc
       -0.030221796
