irony/models/model_8.pt (torch_old, 13324 bytes, 6 tensors)

layers.0.weight f4 [70, 10]
000000 47 d9 b5 3e 11 44 88 be e9 50 d2 be 58 73 e6 be
       0.35517332 -0.2661443 -0.41077355 -0.45009875
000010 91 2b c0 3e 19 6a bb 3d ce c3 29 bc ee e5 ec 3d
       0.3753324 0.09151096 -0.010361625 0.11567293
000020 4f f4 95 be 32 b0 75 3e 9d 90 ce be 0b 83 a2 be
       -0.29287955 0.23992994 -0.40344706 -0.31740603
000030 51 86 a4 3e 44 66 b9 3d 8a 27 b1 bd 97 98 51 3c
       0.32133725 0.09052709 -0.086501196 0.012792728
000040 f7 c7 41 3d 9a 7c 37 bd 33 2e 8d 3e 04 82 0f be
       0.047309842 -0.044796564 0.2757431 -0.14014441
000050 8d 55 ef be 1e df a2 3d 43 f9 8f 3c b1 f0 a9 3e
       -0.46744958 0.079527125 0.017574912 0.33191445
000060 0b 21 ef 3b 13 55 83 bd 06 5b 9c bd 0f 61 2b 3e
       0.00729764 -0.06412711 -0.07634549 0.16736244
000070 41 ee 2b 3e b3 3d 43 be 3d 85 8d 3e 38 5d 5a be
       0.16790105 -0.19066505 0.27640715 -0.21324623
000080 f5 88 6f be 43 df 30 3d 70 05 5b 3e f7 fc c7 bc
       -0.23392089 0.04318167 0.21388793 -0.024412615
000090 56 28 3a 3e 7f fd 97 be f1 c5 0e be b3 fb 10 3d
       0.1817945 -0.2968559 -0.13942696 0.03539629
0000a0 78 08 f5 be 94 b4 a6 be c1 7c dc 3d 64 0d a7 3e
       -0.47858024 -0.32559645 0.107659824 0.32627404
0000b0 70 f1 45 3e fd 0f 8b be 10 86 28 be c9 ab a0 3d
       0.19330382 -0.27160636 -0.16457391 0.078452654
0000c0 4c ef f3 bc bd 24 b7 3b 59 b9 a6 3e 7a 63 e3 3d
       -0.029777192 0.0055890963 0.32563284 0.11102958
0000d0 18 98 91 be 16 c9 8d be bf bc a4 3e 20 8e 95 bc
       -0.2843635 -0.2769248 0.32175252 -0.018256247
0000e0 55 33 47 be d4 d8 83 be 7b 2f 89 be 50 b9 7c 3e
       -0.19453175 -0.25751364 -0.26794037 0.24680066
0000f0 00 5a 2b 3e e1 67 c1 3d ae 83 ba be e6 a3 7c be
       0.16733551 0.094436415 -0.3642859 -0.24671897
000100 53 a4 ab 3e ed f9 c6 bd ce 11 16 be 7e 28 c0 be
       0.33523807 -0.09715638 -0.1465523 -0.37530893
000110 71 c7 18 be e1 a0 5a 3d a8 eb 6c be 37 eb 57 be
       -0.14919831 0.053376082 -0.2313677 -0.21085821
000120 c3 60 24 3e 83 6c da bd fa 27 cc be 7d f4 f1 bd
       0.16052537 -0.10665228 -0.3987425 -0.118142106
000130 19 19 32 3e 1e be 07 3e 85 4e 2a 3e 20 17 30 bd
       0.17392386 0.13256118 0.16631515 -0.042990804
000140 6a a4 22 3d 60 11 41 3c 98 58 7d be 8a 77 ba be
       0.03970758 0.011783928 -0.24740827 -0.36419326
000150 e6 84 01 be d0 c7 26 bd 83 71 64 3d 7f 7a fe 3d
       -0.12648353 -0.0407179 0.055772316 0.12425708
000160 9e 3b cc bd 56 dc 09 bd ee e3 b4 be 67 fd a4 3d
       -0.099723086 -0.033657394 -0.35330147 0.08056145
000170 66 72 77 3e 0d 95 12 bd 9c b7 9e 3e df 11 01 3e
       0.24164733 -0.035786677 0.30999458 0.12604474
000180 11 31 17 3e b2 dd 87 3e e7 05 d4 bd fe 04 30 3e
       0.14764811 0.26536328 -0.10352688 0.17189404
000190 ac e8 8d 3e aa 4d 1b 3e ba e3 9a bd a9 4a a7 be
       0.27716577 0.15166345 -0.07562967 -0.3267415
0001a0 b4 97 8f be a8 c8 a9 bd a7 e3 78 3c 0a de 17 3e
       -0.28045428 -0.08290225 0.015190995 0.14830795
0001b0 cf e9 13 3e 54 6f 35 bd 9e 14 1b bd 09 00 33 be
       0.1444466 -0.044295624 -0.03786146 -0.17480482
0001c0 99 b4 7b be 4a 37 a6 3e 2a 8c ea 3d fd fc e4 bd
       -0.24580611 0.32464057 0.114525154 -0.11181066
0001d0 b8 2a 96 bd 85 9f 88 3e b4 7f 42 3c 67 9d 78 be
       -0.07332367 0.26684204 0.011871267 -0.24278794
0001e0 2a b6 2c be 9e 25 98 be 8c 18 8a be a7 0d 19 be
       -0.16866365 -0.297162 -0.26971853 -0.14946614
0001f0 f1 50 af 3e 3a 8d b0 bd 95 2e 29 be 9f 2d b9 be
       0.3424144 -0.08620687 -0.16521676 -0.3616762
000200 e9 c1 62 3e 82 30 2e 3e d8 05 0a bd 96 7c 47 be
       0.22144283 0.17010692 -0.03369698 -0.1948112
000210 9c 6e 6a be 3f f9 17 bd 71 52 b4 3e 4f 7b 9c 3b
       -0.22893757 -0.037102934 0.35219148 0.0047754417
000220 98 13 35 bd d7 6c 9d 3c a9 31 8b be bc 09 69 3d
       -0.04420814 0.019216938 -0.27186325 0.05689405
000230 1e 36 50 be dc 0b e1 be 4f 6d a7 be 58 58 2a 3e
       -0.20333144 -0.4395436 -0.32700583 0.16635263
000240 c9 0a bc 3e 0b 46 b4 3d cf bc 62 be 17 96 ae 3d
       0.36726978 0.08802422 -0.22142337 0.08524721
000250 2b d5 84 3e f5 78 06 3e 40 e3 c5 be 68 d3 8a bd
       0.25943884 0.13132079 -0.3864994 -0.06778604
000260 37 c6 7b 3d 4b 70 9c 3d 9d 5c d4 3e 1f 90 c5 3d
       0.06146833 0.07638606 0.41476908 0.096466295
000270 f5 94 15 bd eb e1 96 3c 7f fa a6 bd 9d ae 6f 3e
       -0.03651901 0.018418273 -0.08153247 0.23406453
000280 4f ba d8 be ff cf ce be d7 19 3a 3e d5 2e b7 3e
       -0.42329642 -0.40393063 0.1817392 0.35777918
000290 8a 55 98 3d cd 15 99 be fe e3 41 be 5f 39 41 be
       0.0743819 -0.29899445 -0.18934628 -0.18869542
0002a0 af 86 0b 3d 65 d2 b2 bd 28 9a 90 3d 81 b1 6a 3d
       0.03406399 -0.08731536 0.07060653 0.057298187
0002b0 6a bc 17 be 3e 2f a0 be 9c 0b b7 bd c4 65 b1 3e
       -0.14817968 -0.31286043 -0.08937761 0.34647954
0002c0 ef b2 02 be 4c d8 38 3e 9b 48 fb bd a3 83 80 be
       -0.1276357 0.1805126 -0.12269708 -0.2510043
0002d0 aa 0f c6 bd 90 af 22 be 08 f0 59 3e 2a ac cc 3e
       -0.096709564 -0.15887284 0.21282971 0.399751
0002e0 8a f9 d4 3d 07 01 47 be f6 eb 9c be 7f 87 cc bd
       0.10399158 -0.19433986 -0.30648774 -0.09986781
0002f0 f9 e3 b4 bd 88 fd 8b bd c6 6c a9 be 1c b6 8f 3e
       -0.08832545 -0.068354666 -0.330908 0.28068626
000300 80 c2 0f 3f ed 6e 45 3e d1 8c 20 be ee ed 91 be
       0.5615616 0.19280596 -0.15678717 -0.28501838
000310 91 38 09 bd 4b a7 f9 3d 0f 1c 7e bd 93 15 56 be
       -0.03350121 0.12190112 -0.062038478 -0.20906667
000320 c5 6d 45 be d4 45 54 be 4b 7f a0 bd fc 4b 8b 3e
       -0.19280155 -0.20729762 -0.07836779 0.2720641
000330 5a 10 81 3e 5f 86 09 3e 5e 64 4e be fa cd 5f 3e
       0.25207788 0.13430165 -0.20155475 0.21855918
000340 17 fa 29 be 35 41 51 3e 06 03 1b 3e 74 da a4 3e
       -0.16599308 0.20435031 0.15137872 0.32197917
000350 11 7d 4b 3b da 4b 0e bf 71 ce 47 3e ec dd 81 bd
       0.0031049887 -0.5558449 0.19512345 -0.06341156
000360 84 54 90 3e 67 8d a7 3d 8e 3d 8c be d7 24 d9 bc
       0.2818948 0.08181267 -0.27390712 -0.026506824
000370 9b 12 d9 be 7f 69 e5 be 77 03 18 3d f9 6c 92 3e
       -0.42397007 -0.4480705 0.03711268 0.28598765
000380 5f 00 75 3e 81 95 3e 3d 4a 00 48 be 11 a3 87 bd
       0.23925923 0.046529297 -0.1953136 -0.06622899
000390 31 6f b2 3d b9 5f 58 bd c9 c0 7f 3d 71 79 bc be
       0.08712614 -0.052825663 0.062439714 -0.36811402
0003a0 c6 a6 57 be 86 e5 50 3e 1a 17 cc 3e c5 55 8a 3d
       -0.21059713 0.20400056 0.39861375 0.067546405
0003b0 e7 4a 13 3c ad 1d 7b bd 46 36 0b 3e 53 dc 8b 3e
       0.008990026 -0.061307598 0.13594922 0.27316532
0003c0 3d 56 87 be f4 79 80 be 70 15 58 3d 8a be c9 3e
       -0.26432982 -0.25093043 0.05275482 0.39403182
0003d0 79 8a a3 be 0d 44 6c be 5b a6 b8 3d 62 5c 7c bd
       -0.31941584 -0.23072834 0.09016105 -0.06161154
0003e0 eb 51 52 3e 26 ec 3c 3e a5 4b df be c5 88 71 be
       0.20539062 0.18449458 -0.436124 -0.2358733
0003f0 f6 81 8b be 3c 15 9f 3e 67 5b 3b 3e aa db 30 3e
       -0.2724759 0.31070888 0.18296586 0.17271295

layers.0.bias f4 [70]
000000 49 3a 8b 3d ba bd 51 3e 05 e1 32 3d ea 61 08 3e
       0.067982264 0.20482531 0.043671627 0.13318601
000010 a3 a8 fa 3d ae 00 c1 bd fa ca 0a 3e 46 f3 f3 3d
       0.12239196 -0.09423958 0.13553992 0.11911635
000020 63 c6 4c 3e ed be 58 be 62 65 09 3e 96 f2 88 3d
       0.19997554 -0.21166582 0.1341758 0.066868946
000030 9e b6 0f 3e 28 6a 3c bd 77 48 7c bd 94 b5 27 be
       0.14034507 -0.045999676 -0.061592545 -0.1637786
000040 77 41 17 3e 2b 52 29 be f6 01 0b bd 3e 4c 44 bc
       0.14771067 -0.16535251 -0.033937417 -0.011981068
000050 4f 2c d2 bd c7 45 fb 3c 04 8d ff 3d ab dd 4c be
       -0.102623574 0.03067292 0.124780685 -0.20006435
000060 80 b4 88 3c 34 43 35 be 68 dc 66 3e 8d d4 0f 3e
       0.016687632 -0.17701417 0.22545016 0.14045925
000070 db 5f 6c bd 42 fe cc bd d8 93 2b 3d 7a e8 15 3e
       -0.057708602 -0.10009433 0.04188904 0.14639464
000080 65 2e 0b 3e 40 4e 73 3e 38 df c2 bc 6a ac fb 3d
       0.13591917 0.23760319 -0.02378808 0.12288745
000090 57 48 ab 3d 27 7c a4 bc a9 b5 0c be e7 80 40 3d
       0.08363407 -0.020078732 -0.13741173 0.04699793
0000a0 c5 18 fa bd 47 6a 99 bd 09 ef 3e bd 1a 9d 2a bd
       -0.12211756 -0.07490974 -0.04661468 -0.04165373
0000b0 72 ed e7 3d e4 01 bc bc 0f dc e2 bd ab b5 e1 3c
       0.11324586 -0.02295012 -0.11077129 0.027552446
0000c0 ec e7 92 3d 18 f5 be bd 4d 68 6b 3c ab a4 eb 3d
       0.07173142 -0.09324092 0.014368129 0.11506017
0000d0 dd 09 a4 bd fd e5 28 be 94 f2 02 3c 4d ed 53 3e
       -0.08009694 -0.16493984 0.007992405 0.20695992
0000e0 ba a2 53 be ad c7 49 3d c9 ff 46 3e 56 0c 07 be
       -0.20667544 0.04926269 0.19433512 -0.131883
0000f0 7b 59 e0 bd 49 55 d9 bc 58 e8 26 be 32 bd d6 3d
       -0.10954567 -0.026529925 -0.1629957 0.10485305
000100 3f 82 92 3a fe 1e de 3d 36 ba 81 3e 4d 9f c6 bc
       0.0011177732 0.10845755 0.2533738 -0.024245882
000110 4a dd 87 3d 3f a4 a3 bd
       0.066340044 -0.07990312

layers.1.weight f4 [30, 70]
000000 36 f1 78 3d 9d 19 f2 bc da ae 0b bd 7e a7 1c bd
       0.06077691 -0.029553229 -0.0341023 -0.03824567
000010 bf e1 cd bd 74 90 14 ba 4b 9d 52 3c bd 97 04 3d
       -0.10052823 -0.0005667277 0.012854884 0.03237127
000020 40 f7 11 3e 0a b4 9e bb eb 7b 0f 3e 73 c8 46 3d
       0.14254475 -0.0048432397 0.14012115 0.048531007
000030 3b e7 fe bd 78 3e d9 bc 75 94 51 be e5 96 47 be
       -0.124464475 -0.026519045 -0.20466788 -0.19491155
000040 bd 05 46 be d1 2c 10 bd 56 61 bd bd 81 e8 bd bd
       -0.19338126 -0.03519899 -0.09247081 -0.09272862
000050 57 b9 d6 bd 09 ba e7 3d 92 fc 5d be b3 2d 7b be
       -0.104845695 0.1131478 -0.21678379 -0.24529152
000060 c4 ad 19 be af f9 1c be a4 d2 16 be 56 99 56 3b
       -0.15007693 -0.15329622 -0.1472879 0.0032745204
000070 c3 5f 3c be b6 cc e4 bc 09 e8 55 be d5 49 91 bc
       -0.18395905 -0.027929645 -0.20889296 -0.017735401
000080 58 e3 06 3e 3b cf c8 bd c4 5b 60 be 28 5b 88 bd
       0.13172662 -0.09805151 -0.21910006 -0.06658012
000090 f3 93 3c be 86 1f 38 be f5 fb 18 bd b1 74 3b 3d
       -0.18415813 -0.17980775 -0.03734966 0.045765582
0000a0 e6 3f 2f 3c 68 9c a2 bd 56 91 3a 3e 6e 74 a6 bd
       0.010696387 -0.079399884 0.18219504 -0.08127676
0000b0 31 a4 05 3e 5b 87 b6 bd 13 cf a4 3d ea 9d d7 bd
       0.13050915 -0.08912536 0.08047309 -0.105281666
0000c0 cb 26 83 3d 52 0a 60 bd f4 7b fd bd 34 80 57 bd
       0.064038835 -0.054697342 -0.12377158 -0.0526125
0000d0 80 86 97 bd b1 82 4a bd 06 0f 42 3e de 24 39 bd
       -0.07398701 -0.049441043 0.18951043 -0.045201175
0000e0 4e a8 07 bd 84 d9 c6 bc 76 d8 91 3d 7f 25 a7 3d
       -0.033119492 -0.024273641 0.07121365 0.08161449
0000f0 fa 83 9e 3d 46 a7 1a be 3f 57 13 be 36 d3 69 3d
       0.07740016 -0.15102872 -0.1438875 0.057086192
000100 bb 79 72 bd 39 fd 49 be 65 bc 62 bd 06 e0 6b 3d
       -0.059198122 -0.19725503 -0.05535545 0.057586692
000110 bc eb 22 3e 73 20 af bd 40 65 22 ba 6e 41 87 bd
       0.15910238 -0.08551111 -0.0006194897 -0.066042766
000120 b5 1f 65 bc e3 cb 28 bd 2b 2d 4d be 8a 58 7c 3d
       -0.01398461 -0.041210067 -0.20036761 0.061607875
000130 b5 7b d4 bd 10 5d 2a 3d a4 c7 56 3d 11 29 13 be
       -0.10375158 0.041592658 0.052436486 -0.14371134
000140 a8 78 de 3d 9d b7 d9 3c 39 db 33 be 04 09 c9 bc
       0.10862857 0.026576811 -0.17564096 -0.024540432
000150 01 d8 42 3b f2 b4 01 be 15 41 2c bd da 05 f5 3b
       0.00297308 -0.12666681 -0.042054255 0.007477504
000160 8e b6 b7 3b 08 c4 19 bd 96 de 16 3d 57 df 31 3d
       0.005606479 -0.037540466 0.03683337 0.043425884
000170 6a 99 38 bd 9a 0e 1e be e1 19 27 be b7 48 a4 bd
       -0.045068182 -0.15435258 -0.16318466 -0.08021682
000180 01 ad a8 bd df ef a2 3d 3e e0 1e 3d cc 91 7a 3e
       -0.08236123 0.07955908 0.038788073 0.2446968
000190 3d 21 da bd 96 fc 25 3e 22 ae 56 3e 01 91 0a bd
       -0.10650871 0.16209635 0.20964864 -0.033829693
0001a0 da ab 06 be cc 18 24 be 0d 1e 7d bd 38 7a 93 bd
       -0.13151494 -0.16025084 -0.061796237 -0.07201046
0001b0 18 51 69 bd a6 ca a3 3d 69 67 4d bd af 38 72 3b
       -0.056962103 0.079976365 -0.050147448 0.0036960056
0001c0 fa 5a 4b 3e 7a da 7a bd 3c 27 65 3e 24 14 7e 3c
       0.19858924 -0.06124351 0.22378248 0.015507732
0001d0 1c d1 02 3e 8c 6e 47 be b4 cb 0a bd ec 35 7f bc
       0.12775081 -0.19475764 -0.033885673 -0.015576821
0001e0 ae 27 c3 bd 21 73 86 bd 13 4e 7c bc a4 6f a6 bd
       -0.09529053 -0.06564928 -0.015399474 -0.081267625
0001f0 e5 1b 64 3d 25 02 db 3c 16 84 0e be 38 4f 2e bd
       0.055690665 0.026734421 -0.13917574 -0.042556018
000200 bd d2 6f 3d df 4a 46 bc f7 d9 f0 bc 50 c7 b0 bd
       0.058550585 -0.012102812 -0.029400809 -0.08631766
000210 09 4f c5 bd 84 88 a3 3d 27 ae d7 bd 47 58 4f be
       -0.096342154 0.07985023 -0.10531264 -0.20248519
000220 36 dc c6 3c c4 e9 82 3d 4a f5 5e 3d 3b 0d 98 bc
       0.024274927 0.063922435 0.054433145 -0.018560996
000230 ce 82 02 3e b6 dc 4b 3d 61 37 f5 bc 82 72 c9 3c
       0.1274521 0.049771033 -0.029933633 0.024590734
000240 42 6a 24 3d 2f 50 4a 3c f4 82 bb 3d 31 8d 9f bd
       0.040140398 0.012348219 0.09155837 -0.07790602
000250 77 9f a3 bd be a3 46 3d c0 2e ae bc 61 79 53 3d
       -0.079894 0.048496 -0.021262527 0.051629428
000260 11 75 0b 3e b3 3d 02 3e de 05 2a 3e 28 51 25 3d
       0.13618876 0.12718849 0.166038 0.0403606
000270 5a 20 5b 3e 00 7a 0c be 58 fc a4 3c 8b 7d e0 bc
       0.2139906 -0.13718414 0.020139858 -0.027403614
000280 9a dd cd 3b a7 77 c0 bc 0b 4c 88 3d 05 f9 3d 3e
       0.0062825205 -0.023494555 0.06655129 0.18552025
000290 0e 26 dd bd 74 c0 0f 3e 9c 9b 2a 3d 5c 7d f9 bc
       -0.10798274 0.14038259 0.041652307 -0.030455284
0002a0 8b 81 18 3e e1 28 f5 bd a3 c8 99 3d 42 ca 61 bd
       0.14893167 -0.11970688 0.075089715 -0.05512453
0002b0 d5 11 62 be 8c 1d 1f bc 6e e6 e9 3d 41 ae 89 3d
       -0.22077115 -0.009711634 0.11420904 0.067226894
0002c0 e6 42 9f 3d ac 36 1e 3d 4c 1c 07 bd 7b 8d fa bd
       0.07776432 0.038626358 -0.03298597 -0.122340165
0002d0 1a ef 50 bc 29 22 88 3e 91 a9 28 be 7e de eb bb
       -0.012752319 0.26588562 -0.16470934 -0.007198154
0002e0 39 a6 3b be 7c 7f ca 3d 7a 12 98 bc 3f 65 07 3e
       -0.18325128 0.09887597 -0.018563498 0.13222216
0002f0 27 32 9a bd bb 3b 9b 3d c9 aa 7d bd 53 25 2c bd
       -0.07529097 0.07579752 -0.06193045 -0.042027783
000300 ec ce 95 bd 01 f8 75 bd 1a 12 fb bd 8b 7c d8 3d
       -0.07314858 -0.060050968 -0.12259312 0.1057063
000310 31 08 07 3e 16 71 14 3d 74 74 5a 3c df db 00 be
       0.13186719 0.03624066 0.013333429 -0.12583874
000320 e3 22 85 bd fc 3f 2e 3e 33 aa 8b 3d a5 fc e7 bc
       -0.06500795 0.17016596 0.06819572 -0.028318712
000330 b2 76 bb bc 86 11 3e bd 56 73 95 3d 94 74 c9 3c
       -0.022883747 -0.04640343 0.07297389 0.024591722
000340 40 8a a9 3d 11 76 58 bd 2f 63 9e bc 93 ab 77 3b
       0.08278322 -0.052846972 -0.019334404 0.0037791475
000350 f5 c9 dd 3d 78 43 11 bd cb 2d 84 3d c3 1c 7e 3c
       0.10829536 -0.035464734 0.06454047 0.015509787
000360 50 db 15 3e 97 03 c3 bd 5d 53 b1 bd 8d e9 c0 3c
       0.14634442 -0.09522169 -0.086584784 0.023548866
000370 75 99 8f bc f8 7c 03 bd a8 bd bf 3d a1 c8 ed 3d
       -0.017529229 -0.0321016 0.09362346 0.116105326
000380 4e 22 a0 3d d5 82 1c 3e c3 7e 25 3e 2e 9c 4b 3c
       0.07819043 0.15284283 0.16161637 0.012427373
000390 be 38 f0 3d 7e b8 eb bc 11 8a 09 bd 02 46 89 3d
       0.11729573 -0.028774496 -0.033578936 0.06702806
0003a0 73 d0 55 bc 89 a2 b3 3d 28 1f ac bd d7 56 29 3e
       -0.013050186 0.087712355 -0.0840438 0.16537033
0003b0 0b e6 65 3d c8 bb d6 3d 10 4b 2b 3e 1c 39 5d bd
       0.05612759 0.10485035 0.16727853 -0.054009542
0003c0 09 9d 11 3e 15 1f a3 3d 69 91 92 bc 95 9b 2d 3d
       0.1422006 0.07964913 -0.017891603 0.042384703
0003d0 24 f1 4d 3d c6 30 fc 3d 62 02 07 3e d0 d5 3b bc
       0.050278798 0.1231399 0.13184503 -0.011464551
0003e0 c7 d4 00 3d dd 9a e2 bd ce de b0 bd c4 26 24 3e
       0.03145292 -0.11064694 -0.086362466 0.16030413
0003f0 9d 3a c5 3a ee 98 ae 3c 50 38 0c be 0b 72 bb 3d
       0.0015047375 0.021313157 -0.13693357 0.09152611

layers.1.bias f4 [30]
000000 08 eb a5 3d b8 91 e0 3d 54 9f 84 3b c7 fb 76 3c
       0.08101469 0.10965294 0.0040473137 0.015074677
000010 cc 99 1c bd 40 6e 69 bc 99 fb 25 3d a6 e0 ed 3c
       -0.03823261 -0.014247477 0.040523145 0.029037785
000020 90 11 87 3d 31 31 9f 3d 71 34 b6 3d 12 ad ba 3c
       0.06595147 0.077730544 0.08896721 0.022787604
000030 7c bd ce 3d 1f 4c 82 3c 31 4a ba bc 6d 0d f8 bc
       0.10094735 0.015905438 -0.022740455 -0.03027984
000040 66 09 db 3c e7 26 77 3d 1c 71 0d 3e a7 1c 25 3e
       0.02673788 0.060339835 0.13812679 0.16124211
000050 be ce bd 3d c3 10 10 bd 1d 83 6e bc 8c 7e 43 3d
       0.092679486 -0.035172235 -0.014557627 0.047728106
000060 0f 47 18 3d 1b fd e0 3d 9a 42 74 bd ce 46 d7 3d
       0.03717714 0.10985776 -0.05963383 0.10511552
000070 1b 1b 0c 3d 84 ac e2 3c
       0.034205537 0.027670152

layers.2.weight f4 [5, 30]
000000 68 42 7a 3e 5d a8 67 3e 1b 68 0f be 76 e3 06 be
       0.24439394 0.22622819 -0.14004557 -0.13172707
000010 75 07 13 be dd 65 7b 3e 34 d4 02 be aa 1c 64 3e
       -0.14358313 0.24550577 -0.12776262 0.2227656
000020 26 43 b3 be 0e a6 31 be 5c 13 2c be 88 47 17 be
       -0.35012168 -0.17348501 -0.1680426 -0.14773381
000030 b9 fc 6d 3e a3 74 80 be 33 7e 27 be 39 fb 17 be
       0.23240937 -0.25088987 -0.16356735 -0.14841928
000040 38 54 53 3e 38 38 70 be f4 c6 2d be ef 5e 14 be
       0.20637596 -0.23458946 -0.16970426 -0.1448934
000050 3b cb 6e be 11 5b 4f 3e 88 e7 21 3b 29 a2 2f be
       -0.23319714 0.20249583 0.0024704654 -0.17151703
000060 6a 6e 66 3d 8e cb 3f 3d 0e a7 01 be aa e1 3e 3e
       0.056257643 0.046824984 -0.12661383 0.18640772
000070 94 f1 57 bd fa 69 d6 bd 84 2b 72 3e 0a 1f 15 3e
       -0.05272062 -0.10469432 0.23649412 0.14562622
000080 ba 21 22 be ba 35 35 be d3 0d 5b 3c fa c1 41 3e
       -0.15833178 -0.17696276 0.013369995 0.18921652
000090 9d cd e6 bd 49 c0 2c 3e 12 9d 8c be 4e 78 3d 3d
       -0.11269686 0.16870226 -0.27463585 0.04625731
0000a0 8d 9e 6b be 64 8d 8d be 76 76 9d 3d 1e a7 c4 bb
       -0.23009701 -0.27646935 0.0768861 -0.0060013672
0000b0 f6 68 3e be 6e ac 5e 3e 27 2a d9 3d fb 59 a7 bd
       -0.18594727 0.21745464 0.10603743 -0.08171459
0000c0 03 bd 2c be 6f d4 8f be 73 7d e9 3d 88 e4 0f 3e
       -0.16868977 -0.2809176 0.11400881 0.14052022
0000d0 ce 9c 1b be ae 0e 23 be 9d 63 9c bc 12 b4 ad 3d
       -0.15196535 -0.15923569 -0.019090468 0.08481611
0000e0 d9 a1 23 3c 37 29 f4 3b 73 ab dc 3d da ea 19 be
       0.009987318 0.0074512023 0.10774889 -0.15030995
0000f0 ed 12 18 3e 45 0c a2 3d 22 c6 1f be 52 b5 26 be
       0.1485097 0.079124965 -0.15602925 -0.16280106
000100 35 eb 5b 3e b0 a3 05 bd 69 24 d9 3b 32 f3 b3 bd
       0.21476443 -0.032626808 0.006626655 -0.0878662
000110 15 f0 a7 3d 56 8e 41 bc de b9 10 3e 62 5c ce bd
       0.08200089 -0.011813721 0.14133403 -0.100762144
000120 98 64 e9 bd 2b 90 16 3e ab 23 64 be a8 dd 6a 3e
       -0.1139614 0.14703433 -0.22279231 0.22936118
000130 23 ba a5 be 95 27 4d 3e 77 09 09 be 7a 70 a3 3d
       -0.32368574 0.2003463 -0.13382517 0.079804376
000140 f3 08 5d 3e 41 2c 05 be a1 cb 78 be ed 55 96 3d
       0.21585445 -0.13005163 -0.24296428 0.07340608
000150 9a 1b 82 3e 31 48 35 3d 05 fe 54 be 52 72 9a be
       0.25411683 0.0442583 -0.20800026 -0.30165344
000160 04 a5 d9 3d 66 38 e1 bd 28 32 eb bd d3 90 6e be
       0.10627177 -0.10997085 -0.11484176 -0.23297434
000170 e0 83 b8 3d 6e a7 d4 3d 59 c3 70 3e 34 5f cf bd
       0.09009528 0.10383497 0.23512019 -0.101255804
000180 a3 7b 41 3e 5a 66 9d be d2 9c b6 3d 5b 50 de bd
       0.1889482 -0.3074215 0.0891663 -0.1085517
000190 23 05 11 3e e4 ea 1c 3e fd d1 0b 3e ab 72 49 3e
       0.14162116 0.15323979 0.13654323 0.19672649
0001a0 c2 3e 8e 3d c4 5c 5b 3e db 1d 35 be 0a f9 63 3e
       0.06945564 0.21422106 -0.1768717 0.2226297
0001b0 c3 d2 2a 3e d7 21 19 3e 5c ab 37 3e 21 65 a7 be
       0.16681962 0.14954315 0.17936462 -0.32694343
0001c0 2f 66 c9 bd 2f 7f 6b 3e 3b e4 49 be 5e e2 ab bd
       -0.09833943 0.22997735 -0.1971597 -0.083927855
0001d0 19 19 e4 bd e8 8d 7f be ef 79 31 bd 18 c7 d2 3d
       -0.111375995 -0.24956477 -0.043329176 0.1029188
0001e0 c6 97 2c be 09 5a 6b be 60 5c 55 3e 62 a6 7f 3e
       -0.16854772 -0.22983564 0.2083602 0.24965814
0001f0 41 f2 61 be 43 92 2c 3d b3 66 63 3e 4d 89 0c 3d
       -0.22065069 0.042131674 0.22207145 0.034310628
000200 bf 85 78 bd 42 9d 8b 3e d5 65 3d 3e 3f 3b 26 3e
       -0.060674425 0.27268416 0.18495877 0.16233538
000210 a0 79 df be 00 ad 28 be 59 88 76 3e 49 4d 63 be
       -0.4364748 -0.16472244 0.2407545 -0.2219745
000220 3e f0 60 3e 82 f5 16 3e ec c9 45 3e 20 4d 16 3e
       0.21966645 0.14742091 0.19315308 0.14677858
000230 47 3e e8 bd f0 b2 44 be ea 4f 39 3e ce 0f 25 3e
       -0.113400035 -0.19208884 0.18096891 0.1611931
000240 f2 ed 6c be e1 05 c5 be 8e 75 87 3e b9 9f b4 3d
       -0.23137644 -0.38481048 0.26456875 0.08819527
000250 df 81 ac be 90 81 65 3e
       -0.33692834 0.22412705

layers.2.bias f4 [5]
000000 9e 76 af bd dc 0d 95 3d be 29 a9 bd a6 cc dd 3c
       -0.08567546 0.07278034 -0.08259915 0.027075123
000010 5d a0 0f 3d
       0.035065044
